dig-s1-q.tflite (tflite, 203232 bytes, 5 tensors)

sequential_1/dense_2/MatMul i1 [256, 512] scale=0.0028308753 zero_point=0
00000000: 10b1 03f1 d006 e014 da08 0fe8 cd2c f926
00000010: ddc8 1cc5 e5ed fbf4 eefa 2201 e6ca 1a1c
00000020: dffa e318 371d 03fa ea12 140b 00f4 14ec
00000030: 1d33 d6eb f3fb f4f3 df00 fa12 190e f104
00000040: 37fe 1f20 c6c7 20f8 06ed 0302 cb1f 100d
00000050: 0f1f f41a 251f 4be9 f808 1e11 f316 37e1
00000060: 192e e4e1 04e8 ee0b 302f fd43 312e f4f0
00000070: fcf3 dd12 1e17 1108 d7e8 f1ed f6df 212e
00000080: dadf ca1b f407 f917 1bdd f608 0ce4 0e0c
00000090: 2823 3ae4 0516 e823 d1e1 e718 18d6 e0fd
000000a0: eedb 0b6e ea48 dc10 12d9 e306 0eec 3a0b
000000b0: 1c1d 0036 2b1a 0400 6302 ead2 4121 0310
000000c0: f207 edf5 f63d 070f 2f0b f8fb 3b21 fa1f
000000d0: e802 21e0 161d 12f2 f3e5 d4da e722 2bfb
000000e0: fcc7 0011 df0b 0110 1fd6 ef18 fbb9 0de7
000000f0: 0d09 2409 2016 f3c3 11f5 e103 f80c 0dee
0.045294005 -0.22363915 0.008492626 -0.04246313 -0.13588202 0.016985252 -0.09058801 0.056617506
-0.10757326 0.022647003 0.04246313 -0.06794101 -0.14437464 0.124558516 -0.019816127 0.10757326
-0.09908064 -0.15852901 0.07926451 -0.16702165 -0.076433636 -0.05378663 -0.014154376 -0.033970505
-0.050955757 -0.016985252 0.09624976 0.0028308753 -0.07360276 -0.15286727 0.07360276 0.07926451
-0.09341889 -0.016985252 -0.082095385 0.06794101 0.15569815 0.082095385 0.008492626 -0.016985252
-0.062279258 0.050955757 0.056617506 0.031139629 0.0 -0.033970505 0.056617506 -0.056617506
0.082095385 0.14437464 -0.11889677 -0.059448384 -0.03680138 -0.014154376 -0.033970505 -0.03680138
-0.09341889 0.0 -0.016985252 0.050955757 0.07077188 0.039632253 -0.04246313 0.011323501
0.15569815 -0.0056617507 0.08775713 0.09058801 -0.16419077 -0.16135989 0.09058801 -0.022647003
0.016985252 -0.05378663 0.008492626 0.0056617507 -0.1500364 0.08775713 0.045294005 0.03680138
0.04246313 0.08775713 -0.033970505 0.07360276 0.104742385 0.08775713 0.21231565 -0.06511013
-0.022647003 0.022647003 0.08492626 0.04812488 -0.03680138 0.062279258 0.15569815 -0.08775713
0.07077188 0.13022026 -0.07926451 -0.08775713 0.011323501 -0.06794101 -0.050955757 0.031139629
0.13588202 0.13305114 -0.008492626 0.18966864 0.1387129 0.13022026 -0.033970505 -0.045294005
-0.011323501 -0.03680138 -0.09908064 0.050955757 0.08492626 0.06511013 0.04812488 0.022647003
-0.11606589 -0.06794101 -0.04246313 -0.05378663 -0.028308753 -0.09341889 0.09341889 0.13022026
-0.10757326 -0.09341889 -0.15286727 0.076433636 -0.033970505 0.019816127 -0.019816127 0.06511013
0.076433636 -0.09908064 -0.028308753 0.022647003 0.033970505 -0.07926451 0.039632253 0.033970505
0.11323501 0.09908064 0.16419077 -0.07926451 0.014154376 0.062279258 -0.06794101 0.09908064
-0.13305114 -0.08775713 -0.07077188 0.06794101 0.06794101 -0.11889677 -0.09058801 -0.008492626
-0.050955757 -0.104742385 0.031139629 0.3113963 -0.062279258 0.20382303 -0.101911515 0.045294005
0.050955757 -0.11040414 -0.082095385 0.016985252 0.039632253 -0.056617506 0.16419077 0.031139629
0.07926451 0.082095385 0.0 0.15286727 0.12172764 0.07360276 0.011323501 0.0
0.28025666 0.0056617507 -0.062279258 -0.13022026 0.1840069 0.09341889 0.008492626 0.045294005
-0.039632253 0.019816127 -0.05378663 -0.031139629 -0.028308753 0.1726834 0.019816127 0.04246313
0.13305114 0.031139629 -0.022647003 -0.014154376 0.16702165 0.09341889 -0.016985252 0.08775713
-0.06794101 0.0056617507 0.09341889 -0.09058801 0.062279258 0.082095385 0.050955757 -0.039632253
-0.03680138 -0.076433636 -0.124558516 -0.10757326 -0.07077188 0.09624976 0.12172764 -0.014154376
-0.011323501 -0.16135989 0.0 0.04812488 -0.09341889 0.031139629 0.0028308753 0.045294005
0.08775713 -0.11889677 -0.04812488 0.06794101 -0.014154376 -0.20099215 0.03680138 -0.07077188
0.03680138 0.025477879 0.101911515 0.025477879 0.09058801 0.062279258 -0.03680138 -0.1726834
0.04812488 -0.031139629 -0.08775713 0.008492626 -0.022647003 0.033970505 0.03680138 -0.050955757

sequential_1/dense_3/MatMul i1 [11, 256] scale=0.006014855 zero_point=0
00000000: 0806 ceff bbe8 f5d5 c70b cacb f4e8 ebe3
00000010: e8cd e6df c2c5 ca12 feca f7fe d7b2 dab5
00000020: f408 d201 efe7 eae9 b5ff f3d9 d801 da00
00000030: e4fe c910 d8ed 00c6 eba0 f8d1 bcd7 f1f6
00000040: d0c0 bcf8 e1f2 e6e2 acba dfe5 e3cc f2db
00000050: ed09 aff8 d0ef d5f3 b1ee d2d0 0cf8 f6db
00000060: b1c9 f2e9 d1cd 05c4 b5fe 1ec4 d2d0 f4fd
00000070: a6ef fed5 cc13 fddd e1c3 dff5 17fc e1cc
00000080: c4e1 c9ec fbfc fac9 c2e3 d103 f20e bcf1
00000090: add4 e7e9 d3bf f0fe e2d4 f4c7 00e0 0205
000000a0: e8f5 f7ef 0ae5 d6ef f00a 07d7 c0e6 b3f8
000000b0: e2d9 eb97 01e9 00ca d3eb ecf1 fffc cec1
000000c0: dcbd f7ed d4e0 08fb c0db def4 cfac e0d3
000000d0: f8c7 f0e7 e9d6 b2f7 df0a dbee ddb8 10ce
000000e0: e300 fbfb d701 e4cd f0b8 03ba e2e8 eab8
000000f0: fbe5 ffed def1 e6f8 01ea fafb e6a8 b6f8
0.04811884 0.03608913 -0.30074275 -0.006014855 -0.415025 -0.14435652 -0.066163406 -0.25863877
-0.34284675 0.066163406 -0.3248022 -0.3187873 -0.07217826 -0.14435652 -0.12631196 -0.1744308
-0.14435652 -0.3067576 -0.15638623 -0.19849022 -0.37292102 -0.35487646 -0.3248022 0.10826739
-0.01202971 -0.3248022 -0.054133695 -0.01202971 -0.24660906 -0.4691587 -0.2285645 -0.45111415
-0.07217826 0.04811884 -0.27668333 0.006014855 -0.102252536 -0.15037137 -0.13232681 -0.13834167
-0.45111415 -0.006014855 -0.07819311 -0.23457935 -0.24059421 0.006014855 -0.2285645 0.0
-0.16841595 -0.01202971 -0.33081704 0.09623768 -0.24059421 -0.11428225 0.0 -0.3488616
-0.12631196 -0.5774261 -0.04811884 -0.28269818 -0.40901014 -0.24660906 -0.09022283 -0.060148552
-0.28871304 -0.38495073 -0.40901014 -0.04811884 -0.18646051 -0.084207974 -0.15638623 -0.18044566
-0.50524783 -0.42103985 -0.19849022 -0.1624011 -0.1744308 -0.31277245 -0.084207974 -0.22254963
-0.11428225 0.054133695 -0.48720327 -0.04811884 -0.28871304 -0.102252536 -0.25863877 -0.07819311
-0.47517356 -0.10826739 -0.27668333 -0.28871304 0.07217826 -0.04811884 -0.060148552 -0.22254963
-0.47517356 -0.33081704 -0.084207974 -0.13834167 -0.28269818 -0.3067576 0.030074276 -0.3608913
-0.45111415 -0.01202971 0.18044566 -0.3608913 -0.27668333 -0.28871304 -0.07217826 -0.018044565
-0.54133695 -0.102252536 -0.01202971 -0.25863877 -0.31277245 0.11428225 -0.018044565 -0.21051992
-0.18646051 -0.36690617 -0.19849022 -0.066163406 0.13834167 -0.02405942 -0.18646051 -0.31277245
-0.3608913 -0.18646051 -0.33081704 -0.120297104 -0.030074276 -0.02405942 -0.03608913 -0.33081704
-0.37292102 -0.1744308 -0.28269818 0.018044565 -0.084207974 0.084207974 -0.40901014 -0.09022283
-0.49923298 -0.26465362 -0.15037137 -0.13834167 -0.27066848 -0.39096558 -0.09623768 -0.01202971
-0.18044566 -0.26465362 -0.07217826 -0.34284675 0.0 -0.19247536 0.01202971 0.030074276
-0.14435652 -0.066163406 -0.054133695 -0.102252536 0.060148552 -0.1624011 -0.25262392 -0.102252536
-0.09623768 0.060148552 0.042103987 -0.24660906 -0.38495073 -0.15638623 -0.46314386 -0.04811884
-0.18044566 -0.23457935 -0.12631196 -0.6315598 0.006014855 -0.13834167 0.0 -0.3248022
-0.27066848 -0.12631196 -0.120297104 -0.09022283 -0.006014855 -0.02405942 -0.30074275 -0.37893587
-0.21653478 -0.4029953 -0.054133695 -0.11428225 -0.26465362 -0.19247536 0.04811884 -0.030074276
-0.38495073 -0.22254963 -0.20450507 -0.07217826 -0.2947279 -0.50524783 -0.19247536 -0.27066848
-0.04811884 -0.34284675 -0.09623768 -0.15037137 -0.13834167 -0.25262392 -0.4691587 -0.054133695
-0.19849022 0.060148552 -0.22254963 -0.10826739 -0.21051992 -0.43306956 0.09623768 -0.30074275
-0.1744308 0.0 -0.030074276 -0.030074276 -0.24660906 0.006014855 -0.16841595 -0.3067576
-0.09623768 -0.43306956 0.018044565 -0.42103985 -0.18044566 -0.14435652 -0.13232681 -0.43306956
-0.030074276 -0.1624011 -0.006014855 -0.11428225 -0.20450507 -0.09022283 -0.15638623 -0.04811884
0.006014855 -0.13232681 -0.03608913 -0.030074276 -0.15638623 -0.52930725 -0.44509926 -0.04811884

sequential_1/conv2d_3/Conv2D i1 [32, 3, 3, 3]
00000000: 7f01 1600 13de fadb 1359 c4f4 2caf f844
00000010: f1c5 5195 b211 dcd9 36fa d823 3568 f911
00000020: dc11 597f 3bb5 599d a6e3 b500 3b0f 2315
00000030: 0316 1d87 3c2e 1dc6 06fb eb8d 2f62 2fcf
00000040: 92f3 2fdd f76b 4522 c6f7 c5d1 adfd 187f
00000050: 134a 2221 c6d8 09c9 aa5a 6f46 1bb1 b744
00000060: bcff 8153 3d5c 3037 8ff2 b1af 237e fd74
00000070: 754e 0ba0 383d 6916 c91b e392 e0d5 dc2c
00000080: ea81 c4c3 e0c6 bc63 d4ea 0c2f 62e8 81bf
00000090: 4d2d c8d8 3621 b213 af97 44c6 d72d 0852
000000a0: a739 9181 d5c2 16de d53e 2218 bfd0 5f5d
000000b0: 146a f20a 0618 1a43 57cb 24f2 bd3e c3de
000000c0: f314 e2b9 0937 4b40 0bcf ccf8 9b91 d25e
000000d0: 47fa 7f22 20da 20fe b6de 5e81 e0a4 ce0f
000000e0: 2582 adc6 2ebd d760 0813 0df3 3c52 5f28
000000f0: 747c 1bfc e49a a8b8 8105 89d1 0cf3 130b
127 1 22 0 19 -34 -6 -37
19 89 -60 -12 44 -81 -8 68
-15 -59 81 -107 -78 17 -36 -39
54 -6 -40 35 53 104 -7 17
-36 17 89 127 59 -75 89 -99
-90 -29 -75 0 59 15 35 21
3 22 29 -121 60 46 29 -58
6 -5 -21 -115 47 98 47 -49
-110 -13 47 -35 -9 107 69 34
-58 -9 -59 -47 -83 -3 24 127
19 74 34 33 -58 -40 9 -55
-86 90 111 70 27 -79 -73 68
-68 -1 -127 83 61 92 48 55
-113 -14 -79 -81 35 126 -3 116
117 78 11 -96 56 61 105 22
-55 27 -29 -110 -32 -43 -36 44
-22 -127 -60 -61 -32 -58 -68 99
-44 -22 12 47 98 -24 -127 -65
77 45 -56 -40 54 33 -78 19
-81 -105 68 -58 -41 45 8 82
-89 57 -111 -127 -43 -62 22 -34
-43 62 34 24 -65 -48 95 93
20 106 -14 10 6 24 26 67
87 -53 36 -14 -67 62 -61 -34
-13 20 -30 -71 9 55 75 64
11 -49 -52 -8 -101 -111 -46 94
71 -6 127 34 32 -38 32 -2
-74 -34 94 -127 -32 -92 -50 15
37 -126 -83 -58 46 -67 -41 96
8 19 13 -13 60 82 95 40
116 124 27 -4 -28 -102 -88 -72
-127 5 -119 -47 12 -13 19 11

sequential_1/conv2d_4/Conv2D i1 [64, 3, 3, 32]
00000000: 1bea e9e2 07ed 14b3 d901 14e2 3118 f62d
00000010: 0314 2218 e324 3310 2d18 1415 26f0 faea
00000020: 13e1 09ed 0b20 f405 0ef5 2ed5 4720 b9de
00000030: 1624 47ea aeec 3910 4022 1829 f617 e5ca
00000040: dbd8 12e9 00fe 2ee0 2511 e1ec 150d 06f7
00000050: 23e0 23fa a5f6 d308 002b 08e0 0aee 0825
00000060: e808 daf3 ee0b f018 4f39 f1c2 36ce 0603
00000070: f124 1ff7 7b05 deba 07f4 b914 03f1 35d6
00000080: 1f02 e1e7 e60c fcfa 020f 07bb 4fe2 0a2c
00000090: 37d6 0432 3924 ecc3 ed1d e804 e4cf 11ad
000000a0: fcf7 fadc f2cc f405 e5e4 2d05 2edf 1af6
000000b0: 25df ef38 e1d0 1fd2 1108 e7f1 bac6 00c4
000000c0: 9c06 f41a 1d17 0417 1933 3ff2 f7e4 0efe
000000d0: 012e 4fe9 35ea 1dec e026 0503 edfb 4a3b
000000e0: 84f9 b83b de55 0237 251b f421 bb06 1bed
000000f0: cffe 1192 4ba8 ddc3 d722 b936 e049 4133
27 -22 -23 -30 7 -19 20 -77
-39 1 20 -30 49 24 -10 45
3 20 34 24 -29 36 51 16
45 24 20 21 38 -16 -6 -22
19 -31 9 -19 11 32 -12 5
14 -11 46 -43 71 32 -71 -34
22 36 71 -22 -82 -20 57 16
64 34 24 41 -10 23 -27 -54
-37 -40 18 -23 0 -2 46 -32
37 17 -31 -20 21 13 6 -9
35 -32 35 -6 -91 -10 -45 8
0 43 8 -32 10 -18 8 37
-24 8 -38 -13 -18 11 -16 24
79 57 -15 -62 54 -50 6 3
-15 36 31 -9 123 5 -34 -70
7 -12 -71 20 3 -15 53 -42
31 2 -31 -25 -26 12 -4 -6
2 15 7 -69 79 -30 10 44
55 -42 4 50 57 36 -20 -61
-19 29 -24 4 -28 -49 17 -83
-4 -9 -6 -36 -14 -52 -12 5
-27 -28 45 5 46 -33 26 -10
37 -33 -17 56 -31 -48 31 -46
17 8 -25 -15 -70 -58 0 -60
-100 6 -12 26 29 23 4 23
25 51 63 -14 -9 -28 14 -2
1 46 79 -23 53 -22 29 -20
-32 38 5 3 -19 -5 74 59
-124 -7 -72 59 -34 85 2 55
37 27 -12 33 -69 6 27 -19
-49 -2 17 -110 75 -88 -35 -61
-41 34 -71 54 -32 73 65 51

sequential_1/conv2d_5/Conv2D i1 [64, 3, 3, 64]
00000000: 0337 f5e4 dee0 f92a e8f5 030b 120a 03dd
00000010: edea eb22 f714 2d1f 0fd2 1237 f001 0523
00000020: 1607 14fd e3f3 dad7 1af6 1ddd f612 fa06
00000030: 28ee e40d d21e f518 16e7 0727 2e02 112b
00000040: ffe5 07f2 fbfa e7fd c5f9 cf21 1312 202e
00000050: 42d0 d5fb ec0b 0737 f6de f34a 0a39 fbcd
00000060: f8e4 fdec 05d2 faf4 ebec 3609 fdde 47fc
00000070: 0cf3 e73f e924 f703 0efe f923 e907 1b3e
00000080: fbda e813 18cf e61a e5ea 001d 1e10 5222
00000090: 560d f029 e70a e961 c4e3 d42a 0230 1915
000000a0: 05d2 12fb 2801 0a04 10e3 090b eff3 4918
000000b0: 0b0c 03d3 e4ff e6cd cd1f d404 10f8 f931
000000c0: 1031 15ed e917 1902 dc00 de1f 1802 e51a
000000d0: 08fc e0fd e828 262a 08db 092e e6e9 03e8
000000e0: 1e0f 03ef e6f3 cefa 220c edea 0104 fb08
000000f0: 04f5 f7d4 d8ff 1eff d4f7 23e2 0bf4 0416
3 55 -11 -28 -34 -32 -7 42
-24 -11 3 11 18 10 3 -35
-19 -22 -21 34 -9 20 45 31
15 -46 18 55 -16 1 5 35
22 7 20 -3 -29 -13 -38 -41
26 -10 29 -35 -10 18 -6 6
40 -18 -28 13 -46 30 -11 24
22 -25 7 39 46 2 17 43
-1 -27 7 -14 -5 -6 -25 -3
-59 -7 -49 33 19 18 32 46
66 -48 -43 -5 -20 11 7 55
-10 -34 -13 74 10 57 -5 -51
-8 -28 -3 -20 5 -46 -6 -12
-21 -20 54 9 -3 -34 71 -4
12 -13 -25 63 -23 36 -9 3
14 -2 -7 35 -23 7 27 62
-5 -38 -24 19 24 -49 -26 26
-27 -22 0 29 30 16 82 34
86 13 -16 41 -25 10 -23 97
-60 -29 -44 42 2 48 25 21
5 -46 18 -5 40 1 10 4
16 -29 9 11 -17 -13 73 24
11 12 3 -45 -28 -1 -26 -51
-51 31 -44 4 16 -8 -7 49
16 49 21 -19 -23 23 25 2
-36 0 -34 31 24 2 -27 26
8 -4 -32 -3 -24 40 38 42
8 -37 9 46 -26 -23 3 -24
30 15 3 -17 -26 -13 -50 -6
34 12 -19 -22 1 4 -5 8
4 -11 -9 -44 -40 -1 30 -1
-44 -9 35 -30 11 -12 4 22
