dig-s3-q.tflite (tflite, 63872 bytes, 5 tensors)

sequential_3/dense_6/MatMul i1 [128, 256] scale=0.00420077 zero_point=0
00000000: da03 fb14 1d0a 1611 06fd 0225 fefc f112
00000010: fb20 18d3 13fb 0d21 1f0e f819 15eb f7e5
00000020: 0613 08ea 28f0 f504 1526 00fa 0506 11e5
00000030: f810 ee15 0aed 00f0 f7e3 13fd 062f 0cdb
00000040: 0cf5 da2b 100a fbe0 c9f2 f010 f51e 0efd
00000050: 22fb d2fd e1e5 eeef ca01 0104 12f6 ec0f
00000060: 310a f5fa 24ef 00df ddf1 fbff 181b 1913
00000070: 1b1e 0226 0307 1a1d fbdd 271d f9d1 1b08
00000080: d9d1 120a 3402 f7d4 2c1a c4ed ff2e f7db
00000090: d404 1506 ebe1 0e07 d1fd 03e6 f7ee 1306
000000a0: e6f2 d9c0 0de4 20ce e00a fe04 0ad6 fffa
000000b0: 0816 0503 1b1f f8e2 1e14 15f8 0df4 defd
000000c0: f4f2 0c1c 2f21 1de7 e9dc 02ec dce9 1cfe
000000d0: e02b de07 0409 fa35 d20f f9f6 f304 04df
000000e0: d01e 2bf6 1ae8 fbfd ec20 e8f1 0fe9 fcf3
000000f0: c6fe 272c 2cf6 0621 08de ea04 0af3 170e
-0.15962926 0.012602311 -0.02100385 0.0840154 0.121822335 0.0420077 0.09241694 0.07141309
0.025204621 -0.012602311 0.00840154 0.1554285 -0.00840154 -0.01680308 -0.06301155 0.075613864
-0.02100385 0.13442464 0.100818485 -0.18903466 0.07981463 -0.02100385 0.05461001 0.13862541
0.13022387 0.05881078 -0.03360616 0.10501925 0.08821617 -0.08821617 -0.037806932 -0.11342079
0.025204621 0.07981463 0.03360616 -0.09241694 0.1680308 -0.06721232 -0.04620847 0.01680308
0.08821617 0.15962926 0.0 -0.025204621 0.02100385 0.025204621 0.07141309 -0.11342079
-0.03360616 0.06721232 -0.075613864 0.08821617 0.0420077 -0.07981463 0.0 -0.06721232
-0.037806932 -0.121822335 0.07981463 -0.012602311 0.025204621 0.1974362 0.050409243 -0.1554285
0.050409243 -0.04620847 -0.15962926 0.18063311 0.06721232 0.0420077 -0.02100385 -0.13442464
-0.23104236 -0.05881078 -0.06721232 0.06721232 -0.04620847 0.1260231 0.05881078 -0.012602311
0.14282618 -0.02100385 -0.19323543 -0.012602311 -0.13022387 -0.11342079 -0.075613864 -0.07141309
-0.22684158 0.00420077 0.00420077 0.01680308 0.075613864 -0.0420077 -0.0840154 0.06301155
0.20583773 0.0420077 -0.04620847 -0.025204621 0.15122773 -0.07141309 0.0 -0.13862541
-0.14702696 -0.06301155 -0.02100385 -0.00420077 0.100818485 0.11342079 0.10501925 0.07981463
0.11342079 0.1260231 0.00840154 0.15962926 0.012602311 0.02940539 0.10922002 0.121822335
-0.02100385 -0.14702696 0.16383003 0.121822335 -0.02940539 -0.1974362 0.11342079 0.03360616
-0.16383003 -0.1974362 0.075613864 0.0420077 0.21844004 0.00840154 -0.037806932 -0.18483388
0.18483388 0.10922002 -0.2520462 -0.07981463 -0.00420077 0.19323543 -0.037806932 -0.1554285
-0.18483388 0.01680308 0.08821617 0.025204621 -0.08821617 -0.13022387 0.05881078 0.02940539
-0.1974362 -0.012602311 0.012602311 -0.10922002 -0.037806932 -0.075613864 0.07981463 0.025204621
-0.10922002 -0.05881078 -0.16383003 -0.26884928 0.05461001 -0.11762156 0.13442464 -0.2100385
-0.13442464 0.0420077 -0.00840154 0.01680308 0.0420077 -0.17643234 -0.00420077 -0.025204621
0.03360616 0.09241694 0.02100385 0.012602311 0.11342079 0.13022387 -0.03360616 -0.1260231
0.1260231 0.0840154 0.08821617 -0.03360616 0.05461001 -0.050409243 -0.14282618 -0.012602311
-0.050409243 -0.05881078 0.050409243 0.11762156 0.1974362 0.13862541 0.121822335 -0.10501925
-0.09661771 -0.15122773 0.00840154 -0.0840154 -0.15122773 -0.09661771 0.11762156 -0.00840154
-0.13442464 0.18063311 -0.14282618 0.02940539 0.01680308 0.037806932 -0.025204621 0.22264081
-0.19323543 0.06301155 -0.02940539 -0.0420077 -0.05461001 0.01680308 0.01680308 -0.13862541
-0.20163697 0.1260231 0.18063311 -0.0420077 0.10922002 -0.100818485 -0.02100385 -0.012602311
-0.0840154 0.13442464 -0.100818485 -0.06301155 0.06301155 -0.09661771 -0.01680308 -0.05461001
-0.24364467 -0.00840154 0.16383003 0.18483388 0.18483388 -0.0420077 0.025204621 0.13862541
0.03360616 -0.14282618 -0.09241694 0.01680308 0.0420077 -0.05461001 0.09661771 0.05881078

sequential_3/dense_7/MatMul i1 [11, 128] scale=0.008927896 zero_point=0
00000000: c99c 09e8 ddfa d2d6 a9b6 cf00 fdd0 ffc0
00000010: cfad fc00 ffda b4cd e4de f7e8 e5ed d6dc
00000020: dbb3 eef6 fcbb e5fc c6ca e3fa 0cbc edd9
00000030: efe0 f9b9 e8f2 f7b8 c7e3 13a0 f2ea f6f6
00000040: ecd3 f5e5 cfcb d2d3 a6c2 c6d1 c4ef eafe
00000050: f8e9 bb04 e09d ccd1 e1e2 da04 f6dd f3e5
00000060: bade 01f8 13b1 02db c4f1 c808 e6f0 bae3
00000070: bdc1 dd08 d7eb dcf2 f3d1 08fe 0dfe 0bff
00000080: de17 f3a2 dbd7 01d6 e6bc 02f5 bdaf dacb
00000090: 01f1 ecef d1b2 e9d2 ff0f d8b9 e604 e3f9
000000a0: bed2 0e0f e98f cbd9 a8e9 c1e7 f9ff dd03
000000b0: 0cd7 f5b3 f4ff b110 e2f9 fbb0 fe9e c6d3
000000c0: f6e6 c10c e5ec 0a12 d2dc e7bf fdc8 e6d4
000000d0: 010b e9f8 04d1 fcc3 e3d9 b7dd 03cc f0f3
000000e0: e4fc c3de 09fd dbce 06be c2ed fed1 c3ee
000000f0: f3ce dbfc 0eda da11 f4d9 f6e3 fbfa 04f3
-0.49103427 -0.89278954 0.08035106 -0.21426949 -0.31247634 -0.053567372 -0.4106832 -0.37497163
-0.7767269 -0.66066426 -0.4374669 0.0 -0.026783686 -0.42853898 -0.008927896 -0.5713853
-0.4374669 -0.7410153 -0.035711583 0.0 -0.008927896 -0.33926004 -0.6785201 -0.45532268
-0.24998108 -0.30354846 -0.08035106 -0.21426949 -0.24105318 -0.16963002 -0.37497163 -0.32140425
-0.33033213 -0.68744797 -0.16070212 -0.08927896 -0.035711583 -0.6160248 -0.24105318 -0.035711583
-0.517818 -0.48210636 -0.258909 -0.053567372 0.107134745 -0.6070969 -0.16963002 -0.34818792
-0.15177423 -0.28569266 -0.06249527 -0.6338806 -0.21426949 -0.12499054 -0.08035106 -0.6428085
-0.50889003 -0.258909 0.16963002 -0.85707796 -0.12499054 -0.19641371 -0.08927896 -0.08927896
-0.17855792 -0.4017553 -0.098206855 -0.24105318 -0.4374669 -0.47317848 -0.4106832 -0.4017553
-0.8035106 -0.55352956 -0.517818 -0.4196111 -0.53567374 -0.15177423 -0.19641371 -0.017855791
-0.071423166 -0.2053416 -0.6160248 0.035711583 -0.28569266 -0.88386166 -0.46425056 -0.4196111
-0.27676478 -0.26783687 -0.33926004 0.035711583 -0.08927896 -0.31247634 -0.11606264 -0.24105318
-0.6249527 -0.30354846 0.008927896 -0.071423166 0.16963002 -0.7053038 0.017855791 -0.33033213
-0.53567374 -0.13391843 -0.49996215 0.071423166 -0.23212528 -0.14284633 -0.6249527 -0.258909
-0.598169 -0.56245744 -0.31247634 0.071423166 -0.36604372 -0.18748581 -0.32140425 -0.12499054
-0.11606264 -0.4196111 0.071423166 -0.017855791 0.11606264 -0.017855791 0.098206855 -0.008927896
-0.30354846 0.2053416 -0.11606264 -0.8392222 -0.33033213 -0.36604372 0.008927896 -0.37497163
-0.23212528 -0.6070969 0.017855791 -0.098206855 -0.598169 -0.72315955 -0.33926004 -0.47317848
0.008927896 -0.13391843 -0.17855792 -0.15177423 -0.4196111 -0.69637585 -0.2053416 -0.4106832
-0.008927896 0.13391843 -0.35711583 -0.6338806 -0.23212528 0.035711583 -0.258909 -0.06249527
-0.5892411 -0.4106832 0.12499054 0.13391843 -0.2053416 -1.0088522 -0.47317848 -0.34818792
-0.78565484 -0.2053416 -0.56245744 -0.22319739 -0.06249527 -0.008927896 -0.31247634 0.026783686
0.107134745 -0.36604372 -0.098206855 -0.68744797 -0.107134745 -0.008927896 -0.7053038 0.14284633
-0.26783687 -0.06249527 -0.04463948 -0.71423167 -0.017855791 -0.8749338 -0.517818 -0.4017553
-0.08927896 -0.23212528 -0.56245744 0.107134745 -0.24105318 -0.17855792 0.08927896 0.16070212
-0.4106832 -0.32140425 -0.22319739 -0.5803132 -0.026783686 -0.49996215 -0.23212528 -0.39282742
0.008927896 0.098206855 -0.2053416 -0.071423166 0.035711583 -0.4196111 -0.035711583 -0.5446016
-0.258909 -0.34818792 -0.6517364 -0.31247634 0.026783686 -0.46425056 -0.14284633 -0.11606264
-0.24998108 -0.035711583 -0.5446016 -0.30354846 0.08035106 -0.026783686 -0.33033213 -0.44639477
0.053567372 -0.5892411 -0.55352956 -0.16963002 -0.017855791 -0.4196111 -0.5446016 -0.16070212
-0.11606264 -0.44639477 -0.33033213 -0.035711583 0.12499054 -0.33926004 -0.33926004 0.15177423
-0.107134745 -0.34818792 -0.08927896 -0.258909 -0.04463948 -0.053567372 0.035711583 -0.11606264

sequential_3/conv2d_9/Conv2D i1 [32, 3, 3, 3]
00000000: ea05 a058 464f e281 1821 3af3 3049 2f81
00000010: 8bc0 eb5d 0a3b 2058 afbe 9636 7ffb c750
00000020: 3ae9 ea06 9dbd f8a4 3916 a4a6 06a8 07f2
00000030: e2ef f2d7 fe1c fa45 d6d4 bff3 1f98 81e6
00000040: 4b0a 3ff6 0e6f f722 06e6 d9f8 b3b7 6bd8
00000050: 9881 b4fb 416c 37ff 6e5f c4d1 b065 c8ca
00000060: 373f 5fb8 8c8d c11f f23c 3efb 3025 d555
00000070: 3c16 2001 f33d 4e33 fd44 03a3 8116 1a1d
00000080: 01cf adfe 97d0 c921 2f01 563b 4122 4427
00000090: 36e2 e0f0 b915 1f7f 5dae c1e8 b4b6 bccc
000000a0: c5f1 f6ff e4de 8ce0 d881 a742 0548 3a1d
000000b0: d7b7 c3c9 0c52 e155 503f 306e 5ccb 21b7
000000c0: 0a76 42ee 2c0b 1542 281a 427f 0c0f ced3
000000d0: ab47 ac91 f8da f4a3 a3a2 bdaf decd 4c10
000000e0: dfac 90ad 1cfc f154 7f34 e6b5 3d22 591d
000000f0: 4c46 69ab 58c7 294d 2017 033c e345 323b
-22 5 -96 88 70 79 -30 -127
24 33 58 -13 48 73 47 -127
-117 -64 -21 93 10 59 32 88
-81 -66 -106 54 127 -5 -57 80
58 -23 -22 6 -99 -67 -8 -92
57 22 -92 -90 6 -88 7 -14
-30 -17 -14 -41 -2 28 -6 69
-42 -44 -65 -13 31 -104 -127 -26
75 10 63 -10 14 111 -9 34
6 -26 -39 -8 -77 -73 107 -40
-104 -127 -76 -5 65 108 55 -1
110 95 -60 -47 -80 101 -56 -54
55 63 95 -72 -116 -115 -63 31
-14 60 62 -5 48 37 -43 85
60 22 32 1 -13 61 78 51
-3 68 3 -93 -127 22 26 29
1 -49 -83 -2 -105 -48 -55 33
47 1 86 59 65 34 68 39
54 -30 -32 -16 -71 21 31 127
93 -82 -63 -24 -76 -74 -68 -52
-59 -15 -10 -1 -28 -34 -116 -32
-40 -127 -89 66 5 72 58 29
-41 -73 -61 -55 12 82 -31 85
80 63 48 110 92 -53 33 -73
10 118 66 -18 44 11 21 66
40 26 66 127 12 15 -50 -45
-85 71 -84 -111 -8 -38 -12 -93
-93 -94 -67 -81 -34 -51 76 16
-33 -84 -112 -83 28 -4 -15 84
127 52 -26 -75 61 34 89 29
76 70 105 -85 88 -57 41 77
32 23 3 60 -29 69 50 59

sequential_3/conv2d_10/Conv2D i1 [32, 3, 3, 32]
00000000: 39e7 01ec 41f9 c8db 2baf 20f4 3ac1 0e16
00000010: e2da 0403 35c1 e02f 11e9 0a2e b2e2 f519
00000020: 413b 1fa0 36bd f0f1 f0f4 f6b1 5b9c 8710
00000030: 9dd8 d3f0 f6bf 61f3 c9cb 894e 813c 5543
00000040: 120d 7cff f1b7 c0d5 38e0 f418 61fc 3642
00000050: bede 39f1 e103 4a46 3353 f15a efef e90e
00000060: 18f8 01e7 2a63 f226 db42 421a 31e0 d6f1
00000070: 1a22 eac1 0ef8 0d13 21c6 f92b f225 3d3a
00000080: 19ee 02fc 2532 50e8 0e06 28de 17f2 16cd
00000090: 485b 0122 c713 ead9 dadd 0adf fa07 f015
000000a0: 2ad7 22e6 f4f8 00e3 31e0 0601 1d15 3e06
000000b0: 2708 2e17 fec5 fff7 040e 1a05 d729 d2d6
000000c0: a7dc beef be46 321e aa32 2109 a403 eba7
000000d0: 1207 bcae f43a bd1b 2ee0 35a6 3fee dffb
000000e0: 0dd2 add6 d1eb 0d0d ba53 ffe4 b912 fdea
000000f0: 24ef a4f8 f315 c72d d4b9 f888 e706 f7fe
57 -25 1 -20 65 -7 -56 -37
43 -81 32 -12 58 -63 14 22
-30 -38 4 3 53 -63 -32 47
17 -23 10 46 -78 -30 -11 25
65 59 31 -96 54 -67 -16 -15
-16 -12 -10 -79 91 -100 -121 16
-99 -40 -45 -16 -10 -65 97 -13
-55 -53 -119 78 -127 60 85 67
18 13 124 -1 -15 -73 -64 -43
56 -32 -12 24 97 -4 54 66
-66 -34 57 -15 -31 3 74 70
51 83 -15 90 -17 -17 -23 14
24 -8 1 -25 42 99 -14 38
-37 66 66 26 49 -32 -42 -15
26 34 -22 -63 14 -8 13 19
33 -58 -7 43 -14 37 61 58
25 -18 2 -4 37 50 80 -24
14 6 40 -34 23 -14 22 -51
72 91 1 34 -57 19 -22 -39
-38 -35 10 -33 -6 7 -16 21
42 -41 34 -26 -12 -8 0 -29
49 -32 6 1 29 21 62 6
39 8 46 23 -2 -59 -1 -9
4 14 26 5 -41 41 -46 -42
-89 -36 -66 -17 -66 70 50 30
-86 50 33 9 -92 3 -21 -89
18 7 -68 -82 -12 58 -67 27
46 -32 53 -90 63 -18 -33 -5
13 -46 -83 -42 -47 -21 13 13
-70 83 -1 -28 -71 18 -3 -22
36 -17 -92 -8 -13 21 -57 45
-44 -71 -8 -120 -25 6 -9 -2

sequential_3/conv2d_11/Conv2D i1 [32, 3, 3, 32]
00000000: 3d1a f6fa 52db 12fe e411 4718 f519 135e
00000010: c7fe 0a48 bfe9 f53b 24db e5ec 3540 5eea
00000020: d408 fdec 1816 3029 d2fc 40d8 1724 e3e5
00000030: b0f9 12df d9fe d940 ca0f 0b17 bb06 124b
00000040: e4a6 2328 f104 bff4 36e0 070a ec0c edfd
00000050: d9f3 0cd1 18d9 0006 a21d e61d f897 bb7b
00000060: 5a2c 9ade 24f9 190f d728 5b39 0111 38f9
00000070: bbf3 fee7 0a15 ed2d f0fe f50f f839 3754
00000080: b481 efb1 c3cf ffef e7ae 0603 ce0f bfe4
00000090: 05be 05ef ecf3 be27 a0e8 de25 ecc4 fa42
000000a0: adf1 bd2d c7d2 89e2 ecc0 f850 01cc cf16
000000b0: 02a6 fc35 b929 0534 f7f0 0509 07c1 e108
000000c0: 310a e33a 39f6 415f aef8 6841 1a53 18d9
000000d0: e03e 34f5 e069 db0d 0b27 13f5 291b f655
000000e0: b6b6 e41f 1bba 0a2a e704 4ced 1417 ebdc
000000f0: 13de 2927 e131 0830 a4ef 2703 33df ea20
61 26 -10 -6 82 -37 18 -2
-28 17 71 24 -11 25 19 94
-57 -2 10 72 -65 -23 -11 59
36 -37 -27 -20 53 64 94 -22
-44 8 -3 -20 24 22 48 41
-46 -4 64 -40 23 36 -29 -27
-80 -7 18 -33 -39 -2 -39 64
-54 15 11 23 -69 6 18 75
-28 -90 35 40 -15 4 -65 -12
54 -32 7 10 -20 12 -19 -3
-39 -13 12 -47 24 -39 0 6
-94 29 -26 29 -8 -105 -69 123
90 44 -102 -34 36 -7 25 15
-41 40 91 57 1 17 56 -7
-69 -13 -2 -25 10 21 -19 45
-16 -2 -11 15 -8 57 55 84
-76 -127 -17 -79 -61 -49 -1 -17
-25 -82 6 3 -50 15 -65 -28
5 -66 5 -17 -20 -13 -66 39
-96 -24 -34 37 -20 -60 -6 66
-83 -15 -67 45 -57 -46 -119 -30
-20 -64 -8 80 1 -52 -49 22
2 -90 -4 53 -71 41 5 52
-9 -16 5 9 7 -63 -31 8
49 10 -29 58 57 -10 65 95
-82 -8 104 65 26 83 24 -39
-32 62 52 -11 -32 105 -37 13
11 39 19 -11 41 27 -10 85
-74 -74 -28 31 27 -70 10 42
-25 4 76 -19 20 23 -21 -36
19 -34 41 39 -31 49 8 48
-92 -17 39 3 51 -33 -22 32
