dig-s1-q.tflite (tflite, 203232 bytes, 5 tensors)

sequential_1/dense_2/MatMul i1 [256, 512] scale=0.0029858612 zero_point=0
0	0x11	0.05075964
1	0xb2	-0.23289716
2	0x05	0.014929306
3	0xef	-0.05075964
4	0xd5	-0.12839203
5	0x09	0.02687275
6	0xe0	-0.09554756
7	0x13	0.056731362
8	0xd5	-0.12839203
9	0x0b	0.032844473
10	0x19	0.07464653
11	0xed	-0.056731362
12	0xd5	-0.12839203
13	0x2b	0.12839203
14	0x0f	0.044787917
15	0x2c	0.13137789
16	0xe1	-0.09256169
17	0xc3	-0.18213753
18	0x19	0.07464653
19	0xc1	-0.18810925
20	0xea	-0.065688945
21	0xec	-0.059717223
22	0x08	0.02388689
23	0xf6	-0.029858612
24	0xf7	-0.02687275
25	0x01	0.0029858612
26	0x22	0.10151928
27	0x03	0.008957583
28	0xf1	-0.044787917
29	0xd2	-0.1373496
30	0x16	0.065688945
31	0x23	0.10450514
32	0xdd	-0.10450514
33	0xf9	-0.020901028
34	0xe8	-0.07166067
35	0x12	0.0537455
36	0x3b	0.1761658
37	0x17	0.0686748
38	0x04	0.011943445
39	0xef	-0.05075964
40	0xe9	-0.0686748
41	0x15	0.06270309
42	0x13	0.056731362
43	0x0a	0.029858612
44	0x05	0.014929306
45	0xf5	-0.032844473
46	0x12	0.0537455
47	0xf6	-0.029858612
48	0x1d	0.08658998
49	0x38	0.16720822
50	0xd8	-0.119434446
51	0xed	-0.056731362
52	0xf0	-0.04777378
53	0xf6	-0.029858612
54	0xf1	-0.044787917
55	0xf7	-0.02687275
56	0xd7	-0.12242031
57	0xfe	-0.0059717223
58	0xf9	-0.020901028
59	0x1e	0.089575835
60	0x1e	0.089575835
61	0x11	0.05075964
62	0xf2	-0.041802056
63	0x03	0.008957583
64	0x3b	0.1761658
65	0xf8	-0.02388689
66	0x1f	0.09256169
67	0x23	0.10450514
68	0xc0	-0.19109511
69	0xca	-0.1612365
70	0x23	0.10450514
71	0xf9	-0.020901028
72	0x04	0.011943445
73	0xee	-0.0537455
74	0x09	0.02687275
75	0x05	0.014929306
76	0xd2	-0.1373496
77	0x2a	0.12540618
78	0x1a	0.07763239
79	0x08	0.02388689
80	0x07	0.020901028
81	0x17	0.0686748
82	0xea	-0.065688945
83	0x16	0.065688945
84	0x22	0.10151928
85	0x19	0.07464653
86	0x53	0.24782647
87	0xe2	-0.089575835
88	0xfd	-0.008957583
89	0x0b	0.032844473
90	0x16	0.065688945
91	0x11	0.05075964
92	0xf8	-0.02388689
93	0x13	0.056731362
94	0x38	0.16720822
95	0xe8	-0.07166067
96	0x18	0.07166067
97	0x2d	0.13436376
98	0xe5	-0.08061825
99	0xe8	-0.07166067
100	0x09	0.02687275
101	0xeb	-0.06270309
102	0xe6	-0.07763239
103	0x01	0.0029858612
104	0x2d	0.13436376
105	0x30	0.14332134
106	0xfd	-0.008957583
107	0x51	0.24185476
108	0x3a	0.17317995
109	0x2a	0.12540618
110	0xfc	-0.011943445
111	0xf6	-0.029858612
112	0x00	0.0
113	0xf0	-0.04777378
114	0xdf	-0.09853342
115	0x1b	0.08061825
116	0x20	0.09554756
117	0x11	0.05075964
118	0x0b	0.032844473
119	0x09	0.02687275
120	0xde	-0.10151928
121	0xec	-0.059717223
122	0xf8	-0.02388689
123	0xf0	-0.04777378
124	0xfa	-0.017915167
125	0xe0	-0.09554756
126	0x1e	0.089575835
127	0x28	0.119434446
128	0xe2	-0.089575835
129	0xe1	-0.09256169
130	0xc1	-0.18810925
131	0x1a	0.07763239
132	0xf5	-0.032844473
133	0x0b	0.032844473
134	0xfe	-0.0059717223
135	0x16	0.065688945
136	0x18	0.07166067
137	0xe4	-0.08360411
138	0xf3	-0.038816195
139	0x09	0.02687275
140	0x16	0.065688945
141	0xe9	-0.0686748
142	0x1a	0.07763239
143	0x1c	0.08360411
144	0x2d	0.13436376
145	0x27	0.11644858
146	0x36	0.1612365
147	0xe4	-0.08360411
148	0x0e	0.041802056
149	0x17	0.0686748
150	0xf2	-0.041802056
151	0x20	0.09554756
152	0xd0	-0.14332134
153	0xe4	-0.08360411
154	0xef	-0.05075964
155	0x16	0.065688945
156	0x1d	0.08658998
157	0xde	-0.10151928
158	0xe7	-0.07464653
159	0xfe	-0.0059717223
160	0xeb	-0.06270309
161	0xdd	-0.10450514
162	0x07	0.020901028
163	0x6c	0.322473
164	0xea	-0.065688945
165	0x47	0.21199614
166	0xe1	-0.09256169
167	0x0c	0.035830334
168	0x0e	0.041802056
169	0xd1	-0.14033547
170	0xe3	-0.08658998
171	0x05	0.014929306
172	0x13	0.056731362
173	0xee	-0.0537455
174	0x39	0.17019409
175	0x13	0.056731362
176	0x15	0.06270309
177	0x1b	0.08061825
178	0x04	0.011943445
179	0x34	0.15526478
180	0x2f	0.14033547
181	0x21	0.09853342
182	0x0b	0.032844473
183	0xfe	-0.0059717223
184	0x64	0.29858613
185	0x01	0.0029858612
186	0xe7	-0.07464653
187	0xd4	-0.13137789
188	0x50	0.23886889
189	0x22	0.10151928
190	0x00	0.0
191	0x0e	0.041802056
192	0xf3	-0.038816195
193	0x04	0.011943445
194	0xf3	-0.038816195
195	0xf6	-0.029858612
196	0xf8	-0.02388689
197	0x44	0.20303856
198	0x08	0.02388689
199	0x0e	0.041802056
200	0x2e	0.1373496
201	0x0a	0.029858612
202	0xfe	-0.0059717223
203	0xfe	-0.0059717223
204	0x32	0.14929307
205	0x20	0.09554756
206	0xf6	-0.029858612
207	0x1d	0.08658998
208	0xe8	-0.07166067
209	0x01	0.0029858612
210	0x26	0.113462724
211	0xd2	-0.1373496
212	0x16	0.065688945
213	0x20	0.09554756
214	0x11	0.05075964
215	0xf5	-0.032844473
216	0xf3	-0.038816195
217	0xe2	-0.089575835
218	0xd9	-0.11644858
219	0xe4	-0.08360411
220	0xed	-0.056731362
221	0x24	0.107491
222	0x2d	0.13436376
223	0xf5	-0.032844473
224	0xfb	-0.014929306
225	0xc3	-0.18213753
226	0xfe	-0.0059717223
227	0x1c	0.08360411
228	0xdb	-0.11047687
229	0x06	0.017915167
230	0xfc	-0.011943445
231	0x0e	0.041802056
232	0x1c	0.08360411
233	0xde	-0.10151928
234	0xf0	-0.04777378
235	0x19	0.07464653
236	0xfc	-0.011943445
237	0xc2	-0.18512338
238	0x11	0.05075964
239	0xe3	-0.08658998
240	0x15	0.06270309
241	0x07	0.020901028
242	0x21	0.09853342
243	0x08	0.02388689
244	0x1f	0.09256169
245	0x11	0.05075964
246	0xfe	-0.0059717223
247	0xc5	-0.1761658
248	0x14	0.059717223
249	0xf4	-0.035830334
250	0xe0	-0.09554756
251	0x07	0.020901028
252	0xf7	-0.02687275
253	0x1a	0.07763239
254	0x18	0.07166067
255	0xfc	-0.011943445

sequential_1/dense_3/MatMul i1 [11, 256] scale=0.0062680463 zero_point=0
0	0x06	0.037608277
1	0x03	0.018804139
2	0xcb	-0.33220646
3	0xfd	-0.018804139
4	0xb8	-0.45129934
5	0xe5	-0.16923726
6	0xf1	-0.094020694
7	0xd3	-0.28206208
8	0xc8	-0.3510106
9	0x07	0.043876324
10	0xcb	-0.33220646
11	0xcd	-0.31967035
12	0xf3	-0.0814846
13	0xe7	-0.15670116
14	0xeb	-0.13162898
15	0xde	-0.21311358
16	0xe9	-0.14416507
17	0xcc	-0.3259384
18	0xe3	-0.18177335
19	0xdf	-0.20684552
20	0xc2	-0.3886189
21	0xc3	-0.38235083
22	0xc9	-0.34474254
23	0x11	0.10655679
24	0xfc	-0.025072185
25	0xc6	-0.3635467
26	0xf4	-0.075216554
27	0xfb	-0.03134023
28	0xd4	-0.27579403
29	0xb0	-0.5014437
30	0xdb	-0.23191771
31	0xb5	-0.47010347
32	0xf0	-0.10028874
33	0x05	0.03134023
34	0xd3	-0.28206208
35	0x00	0.0
36	0xec	-0.12536092
37	0xe8	-0.15043311
38	0xe9	-0.14416507
39	0xeb	-0.13162898
40	0xb2	-0.4889076
41	0xf7	-0.056412417
42	0xee	-0.112824835
43	0xd9	-0.2444538
44	0xda	-0.23818576
45	0xfe	-0.012536093
46	0xd7	-0.2569899
47	0xfb	-0.03134023
48	0xe5	-0.16923726
49	0xf9	-0.043876324
50	0xc5	-0.36981472
51	0x0f	0.094020694
52	0xd9	-0.2444538
53	0xeb	-0.13162898
54	0xfd	-0.018804139
55	0xc4	-0.37608278
56	0xe8	-0.15043311
57	0x9e	-0.61426854
58	0xf5	-0.06894851
59	0xd1	-0.2945982
60	0xbd	-0.4199591
61	0xd6	-0.26325795
62	0xed	-0.11909288
63	0xf7	-0.056412417
64	0xca	-0.3384745
65	0xc5	-0.36981472
66	0xbe	-0.41369104
67	0xf6	-0.06268046
68	0xe0	-0.20057748
69	0xf2	-0.08775265
70	0xe5	-0.16923726
71	0xdf	-0.20684552
72	0xa8	-0.55158806
73	0xb8	-0.45129934
74	0xe1	-0.19430944
75	0xe7	-0.15670116
76	0xe0	-0.20057748
77	0xcb	-0.33220646
78	0xf3	-0.0814846
79	0xd8	-0.25072184
80	0xec	-0.12536092
81	0x06	0.037608277
82	0xb0	-0.5014437
83	0xf4	-0.075216554
84	0xcc	-0.3259384
85	0xef	-0.10655679
86	0xd4	-0.27579403
87	0xf0	-0.10028874
88	0xb2	-0.4889076
89	0xeb	-0.13162898
90	0xd2	-0.28833014
91	0xcf	-0.30713427
92	0x0b	0.06894851
93	0xf4	-0.075216554
94	0xf5	-0.06894851
95	0xd7	-0.2569899
96	0xaf	-0.50771177
97	0xc7	-0.35727865
98	0xec	-0.12536092
99	0xea	-0.13789701
100	0xd4	-0.27579403
101	0xc7	-0.35727865
102	0x02	0.012536093
103	0xc6	-0.3635467
104	0xb5	-0.47010347
105	0xfb	-0.03134023
106	0x1e	0.18804139
107	0xc1	-0.3948869
108	0xd0	-0.30086622
109	0xd3	-0.28206208
110	0xf0	-0.10028874
111	0xf9	-0.043876324
112	0xa6	-0.56412417
113	0xed	-0.11909288
114	0xfc	-0.025072185
115	0xd6	-0.26325795
116	0xcd	-0.31967035
117	0x12	0.112824835
118	0xfb	-0.03134023
119	0xdc	-0.22564967
120	0xe0	-0.20057748
121	0xc2	-0.3886189
122	0xe2	-0.18804139
123	0xf4	-0.075216554
124	0x16	0.13789701
125	0xf8	-0.05014437
126	0xdb	-0.23191771
127	0xcc	-0.3259384
128	0xc1	-0.3948869
129	0xe2	-0.18804139
130	0xc9	-0.34474254
131	0xec	-0.12536092
132	0xfb	-0.03134023
133	0xfd	-0.018804139
134	0xf8	-0.05014437
135	0xc6	-0.3635467
136	0xc1	-0.3948869
137	0xe5	-0.16923726
138	0xce	-0.31340232
139	0x02	0.012536093
140	0xf2	-0.08775265
141	0x08	0.05014437
142	0xb8	-0.45129934
143	0xf1	-0.094020694
144	0xae	-0.5139798
145	0xd2	-0.28833014
146	0xe5	-0.16923726
147	0xea	-0.13789701
148	0xd2	-0.28833014
149	0xbf	-0.40742302
150	0xed	-0.11909288
151	0xfa	-0.037608277
152	0xdf	-0.20684552
153	0xd4	-0.27579403
154	0xf3	-0.0814846
155	0xc4	-0.37608278
156	0x00	0.0
157	0xe1	-0.19430944
158	0xfc	-0.025072185
159	0x03	0.018804139
160	0xe5	-0.16923726
161	0xf2	-0.08775265
162	0xf5	-0.06894851
163	0xf0	-0.10028874
164	0x09	0.056412417
165	0xe0	-0.20057748
166	0xd3	-0.28206208
167	0xea	-0.13789701
168	0xed	-0.11909288
169	0x08	0.05014437
170	0x05	0.03134023
171	0xd4	-0.27579403
172	0xbf	-0.40742302
173	0xe8	-0.15043311
174	0xb1	-0.49517566
175	0xf6	-0.06268046
176	0xdf	-0.20684552
177	0xd7	-0.2569899
178	0xe8	-0.15043311
179	0x95	-0.67068094
180	0x01	0.0062680463
181	0xe7	-0.15670116
182	0x00	0.0
183	0xc9	-0.34474254
184	0xcc	-0.3259384
185	0xe8	-0.15043311
186	0xea	-0.13789701
187	0xec	-0.12536092
188	0xff	-0.0062680463
189	0xfb	-0.03134023
190	0xcc	-0.3259384
191	0xc2	-0.3886189
192	0xde	-0.21311358
193	0xbc	-0.42622715
194	0xf4	-0.075216554
195	0xeb	-0.13162898
196	0xd4	-0.27579403
197	0xde	-0.21311358
198	0x08	0.05014437
199	0xfa	-0.037608277
200	0xbd	-0.4199591
201	0xdc	-0.22564967
202	0xdd	-0.21938162
203	0xf1	-0.094020694
204	0xcf	-0.30713427
205	0xac	-0.5265159
206	0xe1	-0.19430944
207	0xcf	-0.30713427
208	0xf3	-0.0814846
209	0xc8	-0.3510106
210	0xee	-0.112824835
211	0xe4	-0.1755053
212	0xe8	-0.15043311
213	0xd3	-0.28206208
214	0xaf	-0.50771177
215	0xf7	-0.056412417
216	0xdf	-0.20684552
217	0x0a	0.06268046
218	0xd6	-0.26325795
219	0xed	-0.11909288
220	0xe0	-0.20057748
221	0xb3	-0.48263958
222	0x0f	0.094020694
223	0xcd	-0.31967035
224	0xe2	-0.18804139
225	0xfd	-0.018804139
226	0xf7	-0.056412417
227	0xfa	-0.037608277
228	0xd8	-0.25072184
229	0xfd	-0.018804139
230	0xe0	-0.20057748
231	0xcb	-0.33220646
232	0xf0	-0.10028874
233	0xb8	-0.45129934
234	0x00	0.0
235	0xbb	-0.4324952
236	0xdf	-0.20684552
237	0xe5	-0.16923726
238	0xea	-0.13789701
239	0xb9	-0.4450313
240	0xfc	-0.025072185
241	0xe5	-0.16923726
242	0xfc	-0.025072185
243	0xec	-0.12536092
244	0xdb	-0.23191771
245	0xee	-0.112824835
246	0xe5	-0.16923726
247	0xf6	-0.06268046
248	0x00	0.0
249	0xea	-0.13789701
250	0xf8	-0.05014437
251	0xf9	-0.043876324
252	0xe3	-0.18177335
253	0xa5	-0.5703922
254	0xb6	-0.46383542
255	0xf3	-0.0814846

sequential_1/conv2d_3/Conv2D i1 [32, 3, 3, 3]
0	0x7f	127
1	0x00	0
2	0x19	25
3	0xef	-17
4	0xfc	-4
5	0xc5	-59
6	0xf9	-7
7	0xd3	-45
8	0x00	0
9	0x64	100
10	0xd3	-45
11	0xfe	-2
12	0x2a	42
13	0xb5	-75
14	0xf0	-16
15	0x44	68
16	0xed	-19
17	0xc2	-62
18	0x57	87
19	0xa9	-87
20	0xc3	-61
21	0x18	24
22	0xe7	-25
23	0xe2	-30
24	0x26	38
25	0xfc	-4
26	0xda	-38
27	0x26	38
28	0x3b	59
29	0x62	98
30	0x05	5
31	0x13	19
32	0xee	-18
33	0x16	22
34	0x52	82
35	0x7f	127
36	0x34	52
37	0xc3	-61
38	0x45	69
39	0xb6	-74
40	0xaf	-81
41	0xe0	-32
42	0xb9	-71
43	0xfb	-5
44	0x2f	47
45	0x0c	12
46	0x2a	42
47	0x1b	27
48	0x08	8
49	0x09	9
50	0x20	32
51	0x9d	-99
52	0x34	52
53	0x34	52
54	0x2c	44
55	0xc3	-61
56	0x0c	12
57	0xf6	-10
58	0xe2	-30
59	0x82	-126
60	0x2a	42
61	0x68	104
62	0x38	56
63	0xd1	-47
64	0x96	-106
65	0xfa	-6
66	0x41	65
67	0xf3	-13
68	0x06	6
69	0x70	112
70	0x43	67
71	0x24	36
72	0xc3	-61
73	0xf4	-12
74	0xb8	-72
75	0xdf	-33
76	0xa3	-93
77	0xf8	-8
78	0x15	21
79	0x7f	127
80	0x08	8
81	0x53	83
82	0x18	24
83	0x12	18
84	0xd0	-48
85	0xd9	-39
86	0x16	22
87	0xcd	-51
88	0xa9	-87
89	0x6d	109
90	0x7e	126
91	0x3f	63
92	0x16	22
93	0xc0	-64
94	0xd9	-39
95	0x59	89
96	0xaa	-86
97	0xf7	-9
98	0x81	-127
99	0x5d	93
100	0x3d	61
101	0x53	83
102	0x33	51
103	0x49	73
104	0x9d	-99
105	0xff	-1
106	0xb8	-72
107	0xbd	-67
108	0x31	49
109	0x73	115
110	0x00	0
111	0x67	103
112	0x64	100
113	0x41	65
114	0x0b	11
115	0xaa	-86
116	0x2c	44
117	0x3f	63
118	0x5c	92
119	0x1a	26
120	0xbc	-68
121	0x06	6
122	0xe8	-24
123	0x9f	-97
124	0xe0	-32
125	0xe1	-31
126	0xe3	-29
127	0x24	36
128	0xf1	-15
129	0x81	-127
130	0xca	-54
131	0xce	-50
132	0xcd	-51
133	0xc6	-58
134	0xc6	-58
135	0x65	101
136	0xe9	-23
137	0xf2	-14
138	0x1b	27
139	0x3a	58
140	0x79	121
141	0xed	-19
142	0x81	-127
143	0xc5	-59
144	0x42	66
145	0x35	53
146	0xd3	-45
147	0xe6	-26
148	0x2d	45
149	0x2f	47
150	0x9d	-99
151	0x06	6
152	0xb6	-74
153	0xa6	-90
154	0x59	89
155	0xdb	-37
156	0xe8	-24
157	0x41	65
158	0x1d	29
159	0x3a	58
160	0xa2	-94
161	0x3b	59
162	0x99	-103
163	0x81	-127
164	0xd5	-43
165	0xbc	-68
166	0x16	22
167	0xd8	-40
168	0xc8	-56
169	0x3d	61
170	0x1a	26
171	0x15	21
172	0xbe	-66
173	0xcc	-52
174	0x5b	91
175	0x64	100
176	0x12	18
177	0x6b	107
178	0xf0	-16
179	0x03	3
180	0x09	9
181	0x1a	26
182	0x19	25
183	0x3e	62
184	0x53	83
185	0xc8	-56
186	0x1c	28
187	0xef	-17
188	0xb4	-76
189	0x53	83
190	0xbb	-69
191	0xd4	-44
192	0xf5	-11
193	0x11	17
194	0xe0	-32
195	0xb8	-72
196	0x09	9
197	0x35	53
198	0x5b	91
199	0x41	65
200	0x09	9
201	0xd0	-48
202	0xc1	-63
203	0xf2	-14
204	0x99	-103
205	0x91	-111
206	0xce	-50
207	0x6e	110
208	0x48	72
209	0xfa	-6
210	0x7f	127
211	0x28	40
212	0x29	41
213	0xd0	-48
214	0x17	23
215	0x03	3
216	0xb1	-79
217	0xda	-38
218	0x52	82
219	0x81	-127
220	0xdc	-36
221	0xa8	-88
222	0xc4	-60
223	0xfe	-2
224	0x0d	13
225	0x8f	-113
226	0xb7	-73
227	0xce	-50
228	0x28	40
229	0xc2	-62
230	0xe2	-30
231	0x54	84
232	0x00	0
233	0x07	7
234	0x0d	13
235	0xf2	-14
236	0x33	51
237	0x4b	75
238	0x5e	94
239	0x2c	44
240	0x65	101
241	0x67	103
242	0x0e	14
243	0x05	5
244	0xef	-17
245	0xaa	-86
246	0xa3	-93
247	0xb1	-79
248	0x81	-127
249	0x0b	11
250	0x82	-126
251	0xcb	-53
252	0x0a	10
253	0xf6	-10
254	0x1b	27
255	0x09	9

sequential_1/conv2d_4/Conv2D i1 [64, 3, 3, 32]
0	0x22	34
1	0xd8	-40
2	0xe6	-26
3	0xe6	-26
4	0x13	19
5	0xfb	-5
6	0x11	17
7	0xb5	-75
8	0xc3	-61
9	0xfb	-5
10	0xfb	-5
11	0xe1	-31
12	0x1e	30
13	0x10	16
14	0xff	-1
15	0x19	25
16	0xe9	-23
17	0x1d	29
18	0x18	24
19	0x09	9
20	0xd4	-44
21	0x0d	13
22	0x23	35
23	0x0d	13
24	0x24	36
25	0xfe	-2
26	0x14	20
27	0x23	35
28	0x15	21
29	0xf3	-13
30	0xf5	-11
31	0xdb	-37
32	0x19	25
33	0xd0	-48
34	0xe8	-24
35	0xe6	-26
36	0x03	3
37	0x36	54
38	0xe2	-30
39	0xf5	-11
40	0xff	-1
41	0xd6	-42
42	0x29	41
43	0xcb	-53
44	0x46	70
45	0x1c	28
46	0xca	-54
47	0xd1	-47
48	0x0c	12
49	0x31	49
50	0x48	72
51	0xe2	-30
52	0xa5	-91
53	0xdd	-35
54	0x25	37
55	0xf4	-12
56	0x3a	58
57	0x10	16
58	0xfa	-6
59	0x1c	28
60	0xe0	-32
61	0x22	34
62	0xd3	-45
63	0xbf	-65
64	0xe9	-23
65	0xc3	-61
66	0x16	22
67	0xe1	-31
68	0xfe	-2
69	0xfa	-6
70	0x41	65
71	0xd4	-44
72	0x3c	60
73	0x10	16
74	0xde	-34
75	0xcc	-52
76	0x14	20
77	0x0d	13
78	0x0f	15
79	0x08	8
80	0x20	32
81	0xce	-50
82	0x2d	45
83	0xf9	-7
84	0xa5	-91
85	0x15	21
86	0xeb	-21
87	0x0a	10
88	0xfb	-5
89	0x2a	42
90	0x15	21
91	0xdf	-33
92	0x09	9
93	0xe7	-25
94	0x04	4
95	0x30	48
96	0xfa	-6
97	0x01	1
98	0xc1	-63
99	0xf1	-15
100	0xfc	-4
101	0x16	22
102	0xec	-20
103	0x22	34
104	0x4b	75
105	0x3b	59
106	0xef	-17
107	0xc3	-61
108	0x3e	62
109	0xd7	-41
110	0x14	20
111	0xf9	-7
112	0xfd	-3
113	0x34	52
114	0x27	39
115	0xee	-18
116	0x72	114
117	0xfb	-5
118	0xd2	-46
119	0xa3	-93
120	0x09	9
121	0xf5	-11
122	0xa1	-95
123	0x02	2
124	0x01	1
125	0xfc	-4
126	0x36	54
127	0xe1	-31
128	0x23	35
129	0xe6	-26
130	0xc3	-61
131	0xe5	-27
132	0xdb	-37
133	0x15	21
134	0xed	-19
135	0x0c	12
136	0x05	5
137	0x14	20
138	0xff	-1
139	0xb2	-78
140	0x46	70
141	0xcd	-51
142	0x1a	26
143	0x1a	26
144	0x2e	46
145	0xda	-38
146	0x10	16
147	0x15	21
148	0x3d	61
149	0x14	20
150	0xdf	-33
151	0xab	-85
152	0xe4	-28
153	0x20	32
154	0xcb	-53
155	0xfe	-2
156	0xdc	-36
157	0xd0	-48
158	0x13	19
159	0xb7	-73
160	0xee	-18
161	0xd2	-46
162	0x02	2
163	0xe2	-30
164	0xdd	-35
165	0xc5	-59
166	0x05	5
167	0x15	21
168	0xf6	-10
169	0xef	-17
170	0x21	33
171	0xfb	-5
172	0x1b	27
173	0xc3	-61
174	0x2d	45
175	0xfe	-2
176	0x12	18
177	0xda	-38
178	0xe4	-28
179	0x26	38
180	0xeb	-21
181	0xe3	-29
182	0x30	48
183	0xde	-34
184	0xf6	-10
185	0xff	-1
186	0xef	-17
187	0xf4	-12
188	0xc9	-55
189	0xcb	-53
190	0x0d	13
191	0xd4	-44
192	0xaa	-86
193	0xf9	-7
194	0xfa	-6
195	0x0f	15
196	0x20	32
197	0x22	34
198	0x06	6
199	0x19	25
200	0x25	37
201	0x37	55
202	0x47	71
203	0xf2	-14
204	0xf7	-9
205	0xe7	-25
206	0x19	25
207	0xfd	-3
208	0x03	3
209	0x22	34
210	0x5c	92
211	0xf8	-8
212	0x35	53
213	0xdf	-33
214	0x22	34
215	0xed	-19
216	0xd6	-42
217	0x36	54
218	0xff	-1
219	0x15	21
220	0xf1	-15
221	0xf9	-7
222	0x4d	77
223	0x53	83
224	0x81	-127
225	0xed	-19
226	0x98	-104
227	0x43	67
228	0xc7	-57
229	0x60	96
230	0xfc	-4
231	0x45	69
232	0x28	40
233	0x2b	43
234	0xd2	-46
235	0x1f	31
236	0xa8	-88
237	0xf3	-13
238	0x1d	29
239	0xc8	-56
240	0xb5	-75
241	0x0e	14
242	0x27	39
243	0x8a	-118
244	0x55	85
245	0x88	-120
246	0xc7	-57
247	0xaf	-81
248	0xc2	-62
249	0x09	9
250	0xa1	-95
251	0x53	83
252	0xdc	-36
253	0x5b	91
254	0x4e	78
255	0x25	37

sequential_1/conv2d_5/Conv2D i1 [64, 3, 3, 64]
0	0x07	7
1	0x32	50
2	0xf5	-11
3	0xe4	-28
4	0xdf	-33
5	0xdd	-35
6	0xf9	-7
7	0x1f	31
8	0xec	-20
9	0xf2	-14
10	0x03	3
11	0x0a	10
12	0x0e	14
13	0x10	16
14	0x04	4
15	0xe0	-32
16	0xf4	-12
17	0xe5	-27
18	0xfc	-4
19	0x37	55
20	0xf7	-9
21	0x13	19
22	0x2f	47
23	0x1f	31
24	0x0f	15
25	0xc9	-55
26	0x16	22
27	0x39	57
28	0xf5	-11
29	0xfe	-2
30	0x0a	10
31	0x1e	30
32	0x1c	28
33	0x06	6
34	0x09	9
35	0xef	-17
36	0xda	-38
37	0xf1	-15
38	0xeb	-21
39	0xcf	-49
40	0x26	38
41	0xf6	-10
42	0x19	25
43	0xc6	-58
44	0xf7	-9
45	0x1a	26
46	0x04	4
47	0x05	5
48	0x27	39
49	0xee	-18
50	0xe8	-24
51	0x09	9
52	0xcc	-52
53	0x25	37
54	0xfb	-5
55	0x17	23
56	0x11	17
57	0xe9	-23
58	0x06	6
59	0x26	38
60	0x34	52
61	0x02	2
62	0x11	17
63	0x2d	45
64	0x05	5
65	0xe5	-27
66	0x07	7
67	0xf2	-14
68	0xfa	-6
69	0x02	2
70	0xe7	-25
71	0xfb	-5
72	0xc8	-56
73	0xfb	-5
74	0xd1	-47
75	0x31	49
76	0x0b	11
77	0x14	20
78	0x3a	58
79	0x26	38
80	0x59	89
81	0xcb	-53
82	0xe0	-32
83	0x06	6
84	0xec	-20
85	0x04	4
86	0x0c	12
87	0x49	73
88	0xfa	-6
89	0xe0	-32
90	0x0e	14
91	0x53	83
92	0x0f	15
93	0x37	55
94	0x05	5
95	0xdd	-35
96	0xf2	-14
97	0xd9	-39
98	0xf9	-7
99	0xee	-18
100	0x02	2
101	0xe2	-30
102	0x00	0
103	0xf3	-13
104	0x00	0
105	0xec	-20
106	0x3c	60
107	0x10	16
108	0xfa	-6
109	0xe6	-26
110	0x5f	95
111	0x04	4
112	0x13	19
113	0xf3	-13
114	0xf1	-15
115	0x38	56
116	0xe5	-27
117	0x20	32
118	0xfd	-3
119	0xf9	-7
120	0x10	16
121	0x08	8
122	0x00	0
123	0x20	32
124	0xe9	-23
125	0x07	7
126	0x17	23
127	0x3d	61
128	0x04	4
129	0xda	-38
130	0xe8	-24
131	0x13	19
132	0x15	21
133	0xce	-50
134	0xe6	-26
135	0x1d	29
136	0xf3	-13
137	0xe6	-26
138	0x02	2
139	0x27	39
140	0x2a	42
141	0x12	18
142	0x64	100
143	0x1a	26
144	0x61	97
145	0x2b	43
146	0xea	-22
147	0x30	48
148	0xe7	-25
149	0x1a	26
150	0xeb	-21
151	0x6d	109
152	0xbf	-65
153	0xe0	-32
154	0xcd	-51
155	0x2a	42
156	0x01	1
157	0x34	52
158	0x2d	45
159	0x17	23
160	0xfb	-5
161	0xcd	-51
162	0x17	23
163	0xf8	-8
164	0x3a	58
165	0x00	0
166	0x24	36
167	0x12	18
168	0x23	35
169	0xe4	-28
170	0x0f	15
171	0x0a	10
172	0xee	-18
173	0xf5	-11
174	0x5f	95
175	0x1b	27
176	0x13	19
177	0x0c	12
178	0x16	22
179	0xcb	-53
180	0xe1	-31
181	0xf7	-9
182	0xf5	-11
183	0xc5	-59
184	0xd3	-45
185	0x0e	14
186	0xdc	-36
187	0x04	4
188	0x11	17
189	0xf8	-8
190	0xfd	-3
191	0x30	48
192	0x0f	15
193	0x43	67
194	0x15	21
195	0xec	-20
196	0xe6	-26
197	0x1b	27
198	0x19	25
199	0xf7	-9
200	0xd3	-45
201	0xf5	-11
202	0xe3	-29
203	0x13	19
204	0x12	18
205	0x0d	13
206	0xd4	-44
207	0x18	24
208	0xf4	-12
209	0xfe	-2
210	0xe8	-24
211	0x01	1
212	0xe9	-23
213	0x2a	42
214	0x28	40
215	0x2d	45
216	0x0a	10
217	0xec	-20
218	0x02	2
219	0x35	53
220	0xdf	-33
221	0xf0	-16
222	0x08	8
223	0xe0	-32
224	0x23	35
225	0x11	17
226	0xfe	-2
227	0xf5	-11
228	0xf0	-16
229	0xea	-22
230	0xca	-54
231	0xf8	-8
232	0x22	34
233	0x0c	12
234	0xed	-19
235	0xe3	-29
236	0x01	1
237	0xf5	-11
238	0xf3	-13
239	0x0d	13
240	0xfe	-2
241	0xf5	-11
242	0xee	-18
243	0xd0	-48
244	0xc7	-57
245	0xfa	-6
246	0x26	38
247	0x01	1
248	0xe6	-26
249	0xee	-18
250	0x23	35
251	0xee	-18
252	0x16	22
253	0xf4	-12
254	0x05	5
255	0x10	16
