dig-s3.tflite (tflite, 219428 bytes, 12 tensors)

sequential_3/conv2d_10/BiasAdd/ReadVariableOp/resource f4 [32]
-0.009133623 -0.06972741 0.08736862 0.18672876 0.05967849 -0.12295307 0.06743923 -0.08442313
-0.122368224 0.035949983 -0.069022544 -0.02929062 -0.0141929565 0.036002353 -0.002254626 -0.11319426
-0.021344552 0.11919845 -0.18678658 -0.024442533 -0.086522676 0.10488057 0.02188094 -0.01125391
0.0069458964 -0.037064422 -0.037890695 0.04473678 0.2782851 -0.063207775 -0.082455255 -0.00997674
00000000: 31a5 15bc 3fcd 8ebd 52ee b23d d335 3f3e
00000010: 6f71 743d d2ce fbbd 941d 8a3d 09e6 acbd
00000020: 319c fabd 4a40 133d b15b 8dbd e2f2 efbc
00000030: 9389 68bc 3477 133d 59c2 13bb 64d2 e7bd
00000040: c5da aebc 511e f43d fb44 3fbe b53b c8bc
00000050: cd32 b1bd a0cb d63d a83f b33c 5262 38bc
00000060: 679a e33b ddd0 17bd 4633 1bbd ea3d 373d
00000070: 627b 8e3e 1473 81bd 4dde a8bd 7b75 23bc

sequential_3/conv2d_11/BiasAdd/ReadVariableOp/resource f4 [32]
-0.022141784 0.041429393 -0.13851422 -0.074827194 0.012053147 -0.105625056 -0.027213281 0.12966248
-0.12122435 -0.10465662 0.033586342 -0.12628157 -0.18241622 -0.16624594 -0.07424895 0.0134019125
-0.048544984 -0.09860864 -0.14239317 -0.12457253 -0.010468089 -0.08440833 -0.19526121 -0.06580341
0.06843128 0.026765278 0.03577089 -0.015302808 0.004336495 -0.1768788 -0.12800148 -0.05878585
00000000: b062 b5bc deb1 293d acd6 0dbe 003f 99bd
00000010: 907a 453c f351 d8bd 63ee debc 3ec6 043e
00000020: 7944 f8bd 3656 d6bd d591 093d f54f 01be
00000030: 51cb 3abe 603c 2abe d50f 98bd b293 5b3c
00000040: 1bd7 46bd 54f3 c9bd 84cf 11be e21f ffbd
00000050: 5982 2bbc 46de acbd 8ef2 47be f0c3 86bd
00000060: b325 8c3d db42 db3c 7f84 123d a1b8 7abc
00000070: 2819 8e3b b71f 35be d212 03be 6ec9 70bd

sequential_3/conv2d_9/BiasAdd/ReadVariableOp/resource f4 [32]
-0.04573042 -0.11361959 -0.050047953 0.030025357 -0.11571525 -0.0890747 -0.027962852 -0.14848901
-0.07019653 -0.12853324 0.04587101 -0.19235608 -0.07976651 -0.16564117 -0.16315822 -0.14412427
-0.07781738 -0.055868115 -0.0029117223 -0.049205776 -0.17852762 -0.0661133 -0.03626608 -0.09260374
-0.09290625 -0.04539092 -0.11676525 -0.032546595 -0.12378665 -0.020224243 -0.08594708 -0.1453731
00000000: d24f 3bbd 63b1 e8bd 15ff 4cbd bdf7 f53c
00000010: 1efc ecbd cc6c b6bd 5a12 e5bc 810d 18be
00000020: 33c3 8fbd 389e 03be 3de3 3b3d fef8 44be
00000030: a05c a3bd d79d 29be f312 27be 5095 13be
00000040: b85e 9fbd f7d5 64bd 98d2 3ebb ff8b 49bd
00000050: f2cf 36be 6966 87bd be8b 14bd 08a7 bdbd
00000060: a245 bebd d4eb 39bd 9f22 efbd 944f 05bd
00000070: db83 fdbd 50ad a5bc 0605 b0bd b0dc 14be

sequential_3/dense_6/BiasAdd/ReadVariableOp/resource f4 [128]
-0.056395486 0.027823137 -0.021622404 0.12355899 0.049670212 0.04746744 0.013560195 0.043476123
-0.0130851045 0.022799216 -0.027562527 -0.0739662 0.038286306 0.072538756 -0.05262823 -0.10239084
0.023285406 -0.11985492 0.008071394 -0.051987 -0.046584185 -0.020609062 -0.12655574 0.120699294
-0.008456139 -0.107267246 0.013958901 0.22731812 0.005540609 -0.009177274 -0.14310911 -0.08065798
0.062265504 0.029577367 0.011447646 0.07466287 0.011175126 0.022714369 -0.099739216 -0.051450107
0.09672181 0.16757134 -0.110562965 -0.13422549 0.022342684 -0.067677 -0.17619698 -0.027762406
-0.12401065 -0.2490341 -0.039988305 -0.05517592 -0.07094658 0.06908513 0.058018718 0.0039646737
-0.012455787 -0.03125899 -0.030676149 -0.045231335 -0.011419141 0.097368695 -0.024849815 -0.042449072
-0.11109959 -0.1431726 -0.06480249 0.023830283 -0.066608086 0.030597625 -0.012892162 -0.0018509806
0.059879962 -0.1106584 -0.13215029 0.18632898 -0.011886475 0.13209732 -0.07253198 -0.09512792
-0.035526164 0.05049866 -0.009556859 0.01258662 -0.17120545 0.05966667 -0.06789263 0.11052435
-0.012056927 0.079068705 -0.032682057 -0.11636783 -0.08290537 -0.046717532 -0.042177368 -0.10590932
0.027494885 0.008960766 0.20578548 0.057897776 -0.019851902 0.07024288 0.063612014 0.028080866
-0.063488774 0.032009028 -0.06732067 -0.050042942 -0.006610035 0.011424688 -0.108644724 -0.037245553
0.013736518 0.084230274 -0.08607501 -0.016900184 -0.0517866 -0.00034366638 -0.08960246 -0.12536605
-0.06748327 0.08571603 -0.12203234 0.010162344 -0.032647014 -0.07467374 -0.049971417 -0.01392007
00000000: f4fe 66bd 59ed e33c 7821 b1bc 7f0c fd3d
00000010: fe72 4b3d 386d 423d 952b 5e3c 0514 323d
00000020: e862 56bc 6cc5 ba3c cfca e1bc 977b 97bd
00000030: 1ad2 1c3d 338f 943d b390 57bd 4ab2 d1bd
00000040: 09c1 be3c 7f76 f5bd e13d 043c 52f0 54bd
00000050: 0fcf 3ebd 56d4 a8bc d497 01be 3131 f73d
00000060: 9e8b 0abc eeae dbbd e0b3 643c 15c6 683e
00000070: ff8d b53b 475c 16bc 328b 12be 0330 a5bd
00000080: 1d0a 7f3d 3c4c f23c e88e 3b3c d9e8 983d
00000090: e017 373c 7c13 ba3c 1344 ccbd 59bd 52bd
000000a0: 1616 c63d d297 2b3e d66e e2bd 6872 09be
000000b0: 0108 b73c 3d9a 8abd fb6c 34be fc6d e3bc
000000c0: 4cf9 fdbd cc02 7fbe c7ca 23bd 2500 62bd
000000d0: 714c 91bd 817c 8d3d 09a5 6d3d 18ea 813b
000000e0: 5b13 4cbc 6d09 00bd 8c4c fbbc 7e44 39bd
000000f0: 5917 3bbc 3d69 c73d d791 cbbc 14df 2dbd
00000100: 2f88 e3bd d79b 12be 2bb7 84bd ba37 c33c
00000110: d269 88bd dfa7 fa3c a639 53bc 9a9c f2ba
00000120: b144 753d dfa0 e2bd 6852 07be 06cd 3e3e
00000130: 7dbf 42bc 8544 073e a68b 94bd 6dd2 c2bd
00000140: e283 11bd afd7 4e3d 5f94 1cbc 1c38 4e3c
00000150: 7b50 2fbe 0a65 743d 4b0b 8bbd 975a e23d
00000160: 6b8a 45bc c6ee a13d 9fdd 05bd 4252 eebd
00000170: 4aca a9bd e25a 3fbd 2dc2 2cbd fce6 d8bd
00000180: f43c e13c 2dd0 123c 6eb9 523e 3826 6d3d
00000190: 75a0 a2bc 80db 8f3d 0447 823d d809 e63c
000001a0: 6706 82bd e61b 033d 6bdf 89bd d4f9 4cbd
000001b0: fe98 d8bb 9d2e 3b3c 2081 debd cb8e 18bd
000001c0: 220f 613c ec80 ac3d 1848 b0bd 4172 8abc
000001d0: 301e 54bd 1f2e b4b9 7f81 b7bd f55f 00be
000001e0: ab34 8abd e38b af3d 17ec f9bd f67f 263c
000001f0: e0b8 05bd 8cee 98bd d4ae 4cbd 0111 64bc

sequential_3/dense_7/BiasAdd/ReadVariableOp/resource f4 [11]
-0.355411 -0.2942007 -0.25965315 -0.23425815 -0.31613934 -0.33719495 -0.38452598 -0.423065
-0.2475927 -0.2319705 -0.23555388
00000000: 6ef8 b5be 79a1 96be 42f1 84be 5ee1 6fbe
00000010: 04dd a1be d1a4 acbe 97e0 c4be fa9b d8be
00000020: f188 7dbe ad89 6dbe 0935 71be

sequential_3/batch_normalization_3/FusedBatchNormV3 f4 [3]
-1.0673709 -1.4566169 -0.6255061
00000000: 9c9f 88bf 6c72 babf 2b21 20bf

sequential_3/batch_normalization_3/FusedBatchNormV31 f4 [3]
0.007898062 0.012552048 0.005687226
00000000: df66 013c 1ba7 4d3c e95b ba3b

sequential_3/dense_6/MatMul f4 [128, 256]
-0.15746485 0.030802235 0.00705877 0.07350117 0.105661936 0.05608362 0.07977427 0.08089501
0.013032407 -0.027597016 0.02046681 0.1509891 -0.018021181 -0.040848978 -0.050711267 0.061626293
-0.06166786 0.13598527 0.099929616 -0.20433165 0.08025801 -0.0045338282 0.02076642 0.15118195
0.10454797 0.020840626 -0.023701606 0.104148276 0.08253474 -0.09004099 -0.03616039 -0.117709875
0.03536845 0.12719011 0.035597622 -0.108583584 0.114327386 -0.06090863 -0.033683244 0.040365566
0.108505145 0.16138658 0.047286887 -0.039059307 0.031513948 0.011503557 0.09404937 -0.077360906
-0.034420103 0.046713267 -0.0968534 0.07223023 0.035624616 -0.0833118 -0.016940799 -0.06394504
-0.007672298 -0.09951369 0.08298581 -0.021643482 0.016965061 0.2230779 0.030511579 -0.1720229
0.055135164 -0.076153 -0.16391535 0.12738727 0.06719726 0.05109499 -0.008232103 -0.14985675
-0.2954428 -0.056659225 -0.09600308 0.033439603 -0.084224634 0.1342505 0.070771374 -0.025420625
0.14807582 -0.043486968 -0.21128803 -0.009432271 -0.11646764 -0.1308823 -0.06920914 -0.06987031
-0.2605509 0.01830755 0.004813565 -0.0067571206 0.045203697 -0.009442203 -0.0658978 0.08503559
0.23244934 0.056303408 -0.055084374 -0.06685397 0.15221179 -0.08113627 -0.033923965 -0.21385802
-0.14521487 -0.05416794 -0.027171211 -0.00544952 0.10948826 0.13332503 0.13882011 0.08894792
0.12698244 0.13085556 0.009346697 0.20023802 0.003357299 0.040897768 0.14747514 0.0946915
-0.03605651 -0.14502062 0.18021189 0.13181867 -0.020707361 -0.15204197 0.11324691 0.044388175
-0.1751956 -0.22958122 0.09617632 0.039907902 0.22343636 0.019070866 -0.022460207 -0.17785792
0.23778243 0.116349414 -0.28239754 -0.07757336 -0.046111185 0.20170715 -0.031491943 -0.1491559
-0.21749945 0.02528873 0.11357105 0.016641652 -0.024190173 -0.1444862 0.0991542 0.030436346
-0.21896341 -0.021428406 -0.0059780143 -0.10468005 -0.03620421 -0.05508803 0.0676157 0.06465811
-0.11787184 -0.07455824 -0.13865057 -0.27433306 0.04384056 -0.12628742 0.13571051 -0.20991836
-0.12962371 0.05544318 0.03855024 0.015683826 0.064355895 -0.19164054 0.02258117 -0.0026533736
-0.00645764 0.081476815 0.038185704 0.012925302 0.136261 0.12193585 -0.0004451416 -0.11018057
0.14020273 0.05990165 0.15590604 -0.033330936 0.062216386 -0.061903603 -0.16183268 -0.044936296
-0.03110087 -0.054420426 0.054834217 0.15798838 0.1825565 0.13016471 0.14498028 -0.110777944
-0.097684875 -0.15560398 0.021558298 -0.11177768 -0.14516823 -0.0786538 0.12777306 0.0015950255
-0.16142099 0.16820015 -0.15153223 -0.0042220657 0.029420897 0.046320584 -0.018426316 0.18867408
-0.20141986 0.08348716 -0.072616845 -0.057455596 -0.08862692 0.00537268 0.027628256 -0.1291479
-0.2360057 0.12582533 0.18657216 -0.06894653 0.08874818 -0.10490987 -0.016887255 -0.030881517
-0.08161356 0.13069974 -0.09485713 -0.07661415 0.065005444 -0.105688326 0.005592971 -0.08684356
-0.26200277 -0.011122947 0.16894554 0.17829825 0.20598756 -0.07659971 -0.0015168387 0.15800476
0.06600063 -0.1305043 -0.09807813 0.020698985 0.06687383 -0.083186194 0.10327196 0.057034723
00000000: 773e 21be f854 fc3c 414d e73b c887 963d
00000010: 4965 d83d f0b7 653d b160 a33d 48ac a53d
00000020: e085 553c 2313 e2bc 03aa a73c e39c 1a3e
00000030: 28a1 93bc 4251 27bd 9eb6 4fbd da6b 7c3d
00000040: 7097 7cbd b93f 0b3e e6a7 cc3d 513c 51be
00000050: 505e a43d 8290 94bb 571e aa3c 71cf 1a3e
00000060: 3f1d d63d f6b9 aa3c df29 c2bc b14b d53d
00000070: f907 a93d 6967 b8bd eb1c 14bd e011 f1bd
00000080: 82de 103d 203e 023e d0ce 113d 1261 debd
00000090: 7a24 ea3d 547b 79bd 71f7 09bd 5d56 253d
000000a0: f237 de3d 8642 253e e5af 413d a7fc 1fbd
000000b0: c514 013d 6a79 3c3c f59c c03d 656f 9ebd
000000c0: 18fc 0cbd 6956 3f3d 135b c6bd 71ed 933d
000000d0: 1eeb 113d 619f aabd 6ec7 8abc 9ef5 82bd
000000e0: e667 fbbb d5cd cbbd 77f4 a93d ac4d b1bc
000000f0: 50fa 8a3c 886e 643e 6bf3 f93c c526 30be
00000100: 69d5 613d 1bf6 9bbd 6dd9 27be cf71 023e
00000110: b89e 893d fb48 513d f1df 06bc 0c74 19be
00000120: 4744 97be 8113 68bd 439d c4bd f7f7 083d
00000130: f77d acbd f778 093e 95f0 903d ea3e d0bc
00000140: 30a1 173e 641f 32bd e45b 58be d089 1abc
00000150: 9686 eebd 0206 06be 86bd 8dbd 2a18 8fbd
00000160: ed66 85be b7f9 953c 1cbb 9d3b d66a ddbb
00000170: 8327 393d 78b3 1abc 6df5 86bd 2427 ae3d
00000180: 3307 6e3e 679e 663d 27a0 61bd bcea 88bd
00000190: 68dd 1b3e c62a a6bd dbf3 0abd 99fd 5abe
000001a0: 35b3 14be 34df 5dbd 2996 debc e391 b2bb
000001b0: 613b e03d 5b86 083e dc26 0e3e 542a b63d
000001c0: af07 023e 00ff 053e e322 193c 320b 4d3e
000001d0: 2106 5c3b 6b84 273d b903 173e 9eed c13d
000001e0: feaf 13bd 4980 14be 7789 383e 79fb 063e
000001f0: 7ca2 a9bc e4b0 1bbe ffed e73d 60d0 353d
00000200: 7a66 33be 5717 6bbe 17f8 c43d 7876 233d
00000210: 80cc 643e 813a 9c3c 78fe b7bc 6320 36be
00000220: 3d7d 733e 9a48 ee3d 6996 90be c8de 9ebd
00000230: 15df 3cbd 528c 4e3e b2fd 00bd 53bc 18be
00000240: 2db8 5ebe 502a cf3c f097 e83d 1354 883c
00000250: 782a c6bc 31f4 13be 5b11 cb3d a555 f93c
00000260: f237 60be a08a afbc 38e3 c3bb 7e62 d6bd
00000270: de4a 14bd fca3 61bd 1a7a 8a3d 796b 843d
00000280: cb66 f1bd feb1 98bd 6afa 0dbe 6275 8cbe
00000290: 2992 333d 7d51 01be b2f7 0a3e d7f4 56be
000002a0: 14bc 04be 6318 633d dbe6 1d3d 5e7b 803c
000002b0: 06cd 833d 6b3d 44be 25fc b83c 39e4 2dbb
000002c0: 9c9a d3bb 51dd a63d 9d68 1c3d a5c4 533c
000002d0: 0188 0b3e 81b9 f93d e561 e9b9 5aa6 e1bd
000002e0: 4e91 0f3e 6f5b 753d d5a5 1f3e 0586 08bd
000002f0: 9cd6 7e3d a28e 7dbd 77b7 25be 1f0f 38bd
00000300: 40c7 febc f4e7 5ebd d899 603d b5c7 213e
00000310: 17f0 3a3e e649 053e b675 143e 8cdf e2bd
00000320: 020f c8bd a656 1fbe 079b b03c b2eb e4bd
00000330: fba6 14be 3e15 a1bd f1d6 023e 2d10 d13a
00000340: 8b4b 25be a93c 2c3e 442b 1bbe 4159 8abb
00000350: 1804 f13c a7ba 3d3d c9f2 96bc c733 413e
00000360: 0241 4ebe 51fb aa3d 24b8 94bd 8f56 6bbd
00000370: 0882 b5bd 4e0d b03b a754 e23c 593f 04be
00000380: 7aab 71be 5bd8 003e c60c 3f3e d733 8dbd
00000390: 9bc1 b53d fcda d6bd 2457 8abc 3cfb fcbc
000003a0: 0325 a7bd 27d6 053e 7444 c2bd e1e7 9cbd
000003b0: 9321 853d 1f73 d8bd 3e45 b73b 09db b1bd
000003c0: 3a25 86be 053d 36bc 0f00 2d3e d193 363e
000003d0: 67ee 523e 4fe0 9cbd a9d0 c6ba 00cc 213e
000003e0: 572b 873d eba2 05be 30dd c8bd eb90 a93c
000003f0: 26f5 883d 865d aabd 4080 d33d 3e9d 693d

sequential_3/dense_7/MatMul f4 [11, 128]
-0.5227877 -0.93253446 0.08024776 -0.21603957 -0.32174066 -0.08810808 -0.45155224 -0.41847584
-0.83288187 -0.6933351 -0.48428488 0.01342508 -0.041357603 -0.44199327 -0.02293276 -0.6034844
-0.47496614 -0.7755704 -0.037761558 0.004156626 -0.045174148 -0.37385544 -0.7309968 -0.5171747
-0.3021905 -0.33538347 -0.09985 -0.25059468 -0.25961018 -0.18331909 -0.39451453 -0.3559496
-0.3497613 -0.712033 -0.20031777 -0.12034812 -0.070113786 -0.6524118 -0.25972933 -0.061391924
-0.52097476 -0.53278893 -0.29396698 -0.060906835 0.092117265 -0.6309177 -0.18229592 -0.37321645
-0.14620122 -0.33489418 -0.086254664 -0.67638904 -0.23843566 -0.1726682 -0.15704703 -0.69905686
-0.5511817 -0.28233868 0.17370908 -0.86744475 -0.16320941 -0.2171739 -0.10539491 -0.08084564
-0.19087015 -0.4381829 -0.117240384 -0.2565807 -0.48831293 -0.52539396 -0.4527176 -0.42688712
-0.84271777 -0.61351335 -0.5457212 -0.4524149 -0.5798677 -0.19326724 -0.23093571 -0.047463335
-0.071692586 -0.23712781 -0.63254195 -0.0001471563 -0.33073193 -0.88758343 -0.51688725 -0.45204195
-0.29831877 -0.29569742 -0.36363104 0.01535831 -0.11809684 -0.33386272 -0.1497844 -0.29497427
-0.66619617 -0.33819714 -0.037078407 -0.09846201 0.16622487 -0.74281365 0.0032725234 -0.35095316
-0.5930128 -0.1209653 -0.5205603 0.037954584 -0.27434978 -0.14880157 -0.65486926 -0.25738737
-0.633914 -0.5960899 -0.35084462 0.045459237 -0.37313914 -0.1943491 -0.35280555 -0.15075605
-0.14619423 -0.46799397 0.071077354 -0.052747067 0.12040422 -0.05209358 0.06655044 -0.019076265
-0.29672575 0.19346923 -0.12019633 -0.86767954 -0.32613456 -0.37710735 -0.033545785 -0.39657584
-0.26162428 -0.6527034 -0.011854705 -0.13571371 -0.6301032 -0.7914792 -0.39693823 -0.50888085
0.00090616575 -0.14429702 -0.1892594 -0.15209176 -0.44591972 -0.72633284 -0.22744852 -0.44211152
-0.023116285 0.08837536 -0.3853792 -0.6655108 -0.24961342 0.044489976 -0.29239547 -0.07309251
-0.668038 -0.45126274 0.120676845 0.102896996 -0.23899601 -1.0180644 -0.49780267 -0.370907
-0.80942196 -0.2330026 -0.62923497 -0.26864728 -0.09028858 -0.013509817 -0.35738432 0.0099455025
0.071191594 -0.34509978 -0.12159231 -0.7178753 -0.12587385 -0.028298166 -0.7189891 0.14030966
-0.29546115 -0.08772155 -0.041423954 -0.7440943 -0.05722226 -0.9281567 -0.5327826 -0.46554083
-0.106248826 -0.24584083 -0.61486036 0.07474703 -0.26931468 -0.20040089 0.08003329 0.18104745
-0.40396526 -0.31150183 -0.2263473 -0.62584853 -0.025988026 -0.522699 -0.2572216 -0.41508994
0.010118204 0.0438054 -0.20487377 -0.10455225 0.032173827 -0.42790267 -0.04528946 -0.5966141
-0.28054518 -0.36677578 -0.6854194 -0.36452514 0.006112209 -0.46914852 -0.17249729 -0.104730144
-0.2570092 -0.026102137 -0.57998294 -0.32813767 0.08026404 -0.07244867 -0.3743973 -0.4838057
0.05295806 -0.62439585 -0.55823267 -0.22298947 -0.033961058 -0.42965406 -0.54941946 -0.16287915
-0.10927131 -0.45374203 -0.4097572 -0.061757945 0.11764188 -0.34604862 -0.35139453 0.11050436
-0.13272977 -0.37300107 -0.1396604 -0.2854249 -0.04358999 -0.1172899 0.009776725 -0.117817916
00000000: 6ad5 05bf 94ba 6ebf f058 a43d 7a39 5dbe
00000010: 31bb a4be 0272 b4bd db31 e7be 7742 d6be
00000020: bf37 55bf 697e 31bf 30f4 f7be def4 5b3c
00000030: 9766 29bd f14c e2be 7cdd bbbc f47d 1abf
00000040: c32e f3be c88b 46bf ddab 1abd 4e34 883b
00000050: 8708 39bd fb69 bfbe 9b22 3bbf 9065 04bf
00000060: b7b8 9abe 62b7 abbe 287e ccbd f24d 80be
00000070: a0eb 84be 00b8 3bbe cffd c9be 073f b6be
00000080: ea13 b3be cb47 36bf 1a20 4dbe 1379 f6bd
00000090: d197 8fbd 7604 27bf 3efb 84be 1976 7bbd
000000a0: 9a5e 05bf db64 08bf d782 96be 7279 79bd
000000b0: faa7 bc3d d383 21bf c8ab 3abe 3a16 bfbe
000000c0: c6b5 15be 4077 abbe 49a6 b0bd d527 2dbf
000000d0: 7a28 74be efcf 30be f0d0 20be 64f5 32bf
000000e0: 3e1a 0dbf b28e 90be cbe0 313e dc10 5ebf
000000f0: 5e20 27be d662 5ebe 49d9 d7bd 6692 a5bd
00000100: 7773 43be 8259 e0be ba1b f0bd 8c5e 83be
00000110: 2704 fabe 3880 06bf 9aca e7be f390 dabe
00000120: 5abc 57bf 360f 1dbf 62b4 0bbf eda2 e7be
00000130: 3672 14bf d9e7 45be 697a 6cbe ea68 42bd
00000140: 90d3 92bd a2d1 72be 45ee 21bf f84d 1ab9
00000150: b255 a9be ab38 63bf b952 04bf 0b72 e7be
00000160: 3dbd 98be a765 97be d92d babe 6ca1 7b3c
00000170: c2dc f1bd 0ef0 aabe 1561 19be de06 97be
00000180: d58b 2abf 2d28 adbe 87df 17bd 73a6 c9bd
00000190: da36 2a3e 0929 3ebf d577 563b 22b0 b3be
000001a0: b0cf 17bf a8bc f7bd 7143 05bf 4476 1b3d
000001b0: 9377 8cbe 705f 18be 83a5 27bf 47c8 83be
000001c0: 3048 22bf 5999 18bf e8a1 b3be 7733 3a3d
000001d0: 180c bfbe 7303 47be eea2 b4be cb5f 1abe
000001e0: f1b3 15be e89c efbe 0191 913d 4f0d 58bd
000001f0: 7d96 f63d 1460 55bd 994b 883d d445 9cbc
00000200: 70ec 97be cc1c 463e 7e29 f6bd 3f20 5ebf
00000210: 1cfb a6be 3714 c1be 4e67 09bd fd0b cbbe
00000220: 9ef3 85be 9217 27bf 3d3a 42bc 89f8 0abe
00000230: 714e 21bf 619e 4abf 7d3b cbbe 0446 02bf
00000240: c18b 6d3a 99c2 13be 37cd 41be f1bd 1bbe
00000250: 974f e4be f3f0 39bf 44e8 68be 715c e2be
00000260: 5d5e bdbc 24fe b43d 6c50 c5be ea5e 2abf
00000270: a99a 7fbe 1f3b 363d dcb4 95be 87b1 95bd
00000280: 8a04 2bbf e90b e7be 6c25 f73d a9bb d23d
00000290: 5fbb 74be ef4f 82bf fedf febe 86e7 bdbe
000002a0: 4736 4fbf 3c98 6ebe 8b15 21bf 238c 89be
000002b0: 38e9 b8bd 4858 5dbc 14fb b6be 76f2 223c
000002c0: e6cc 913d ebb0 b0be 6405 f9bd adc6 37bf
000002d0: 13e5 00be 8ed1 e7bc ab0f 38bf 56ad 0f3e
000002e0: af46 97be 5ba7 b3bd 2aac 29bd f77c 3ebf
000002f0: e361 6abd ad9b 6dbf 7164 08bf 5e5b eebe
00000300: fc98 d9bd b3bd 7bbe 7d67 1dbf f914 993d
00000310: 9de3 89be e435 4dbe 7ee8 a33d 8164 393e
00000320: 89d4 cebe 2b7d 9fbe 96c7 67be 9c37 20bf
00000330: d7e4 d4bc 9acf 05bf 8db2 83be ab86 d4be
00000340: d3c6 253c 4b6d 333d 6eca 51be 7d1f d6bd
00000350: b4c8 033d 0f16 dbbe 7181 39bd b4bb 18bf
00000360: 9ea3 8fbe 09ca bbbe a577 2fbf 0aa3 babe
00000370: ed48 c83b 3c34 f0be 21a3 30be c27c d6bd
00000380: b696 83be 26d4 d5bc c379 14bf a901 a8be
00000390: 7961 a43d f85f 94bd 01b1 bfbe 61b5 f7be
000003a0: 8dea 583d 68d8 1fbf 56e8 0ebf 5a57 64be
000003b0: c01a 0bbd 9efb dbbe c1a6 0cbf cbc9 26be
000003c0: a3c9 dfbd e050 e8be b2cb d1be e6f5 7cbd
000003d0: 3aee f03d 492d b1be fce9 b3be 1c50 e23d
000003e0: 50ea 07be fff9 bebe 2303 0fbe 3623 92be
000003f0: 6b8b 32bd b035 f0bd 8f2e 203c 854a f1bd

sequential_3/conv2d_9/Conv2D f4 [32, 3, 3, 3]
-0.082449265 0.0023305877 -0.19000405 0.1533782 0.13573024 0.15086626 -0.058231596 -0.23348828
0.09650888 0.070210256 0.11906588 -0.017343173 0.11036421 0.17386267 0.12269868 -0.2616846
-0.20231932 -0.064125255 -0.05740376 0.14131323 -0.023305926 0.11169414 0.058803044 0.16592404
-0.1739473 -0.13822432 -0.1924905 0.1297263 0.2800087 0.0069171484 -0.09340643 0.16820216
0.13555609 -0.026653837 -0.012339233 0.0510896 -0.19618285 -0.11992345 -0.014609629 -0.20859806
0.08864397 0.031310275 -0.18458028 -0.14953649 0.04773303 -0.16968007 0.03277641 0.0057459287
-0.06530682 -0.05559685 -0.019578805 -0.06521222 0.002839331 0.087772846 -0.023714358 0.11841533
-0.10859048 -0.1128212 -0.14346395 -0.05083079 0.06262021 -0.20715703 -0.2313584 -0.07637378
0.12048324 -0.006055706 0.10604294 -0.03726583 0.033200797 0.23862198 0.00316541 0.11875507
-0.03316665 -0.08830642 -0.12968737 -0.03796396 -0.16905381 -0.14780308 0.24627082 -0.062408708
-0.18221277 -0.22427617 -0.13467988 0.005098734 0.08594931 0.17691089 0.095457755 -0.017645359
0.18132763 0.18094164 -0.10716957 -0.094995625 -0.12411785 0.16188966 -0.12565851 -0.08546151
0.08400083 0.09305596 0.1659129 -0.110103756 -0.19762832 -0.16843967 -0.10768787 0.044613764
0.0032803619 0.10971182 0.07318076 -0.012359981 0.11161933 0.101030655 -0.09016143 0.19882907
0.15334453 0.05916998 0.06250936 0.014991596 -0.025684556 0.12684669 0.15295948 0.08229315
0.02041991 0.1401673 0.0012406883 -0.19453198 -0.2615675 0.042897414 0.037775524 0.06349565
8.9233254e-05 -0.09986342 -0.16192305 -0.019185496 -0.20243531 -0.07114361 -0.093896545 0.049705762
0.08152859 -0.013031572 0.16377825 0.12871875 0.12398956 0.050550457 0.10085442 0.0480264
0.089238994 -0.06438347 -0.05398964 -0.036626086 -0.098589875 0.03416802 0.05619115 0.21304607
0.13554302 -0.14506516 -0.09915937 -0.036460325 -0.14676465 -0.13352089 -0.15510216 -0.093436524
-0.100226454 -0.032153618 -0.034768384 0.008988485 -0.05370866 -0.10031164 -0.30957615 -0.082582906
-0.120375864 -0.337023 -0.22228613 0.17009677 0.008226273 0.17673373 0.18642277 0.09260729
-0.09732026 -0.18916717 -0.14490244 -0.1215526 0.021877436 0.19061913 -0.10261168 0.24013972
0.24402632 0.19338626 0.15214673 0.31987894 0.2704722 -0.12720488 0.06545953 -0.17568088
-0.015537545 0.20698848 0.08727795 -0.044589277 0.092679344 0.004622202 0.051781476 0.14203052
0.07583193 0.020863714 0.10537062 0.22995587 0.010793931 0.02877786 -0.11310093 -0.07261611
-0.18017228 0.13711874 -0.16276006 -0.23952739 -0.025689533 -0.10058867 -0.022376165 -0.17255278
-0.19767487 -0.18959275 -0.14162324 -0.1686907 -0.0896046 -0.11426864 0.19920097 0.052750003
-0.057095468 -0.19306806 -0.24209057 -0.18701112 0.04645228 -0.020970663 -0.036850158 0.22919586
0.29219577 0.13052738 -0.057358116 -0.14568815 0.1609032 0.061946496 0.20423141 0.07892309
0.17060177 0.16376583 0.24704373 -0.20053257 0.1613456 -0.12293376 0.07551534 0.11274155
0.031261567 0.045569714 -0.032345567 0.08065765 -0.06670923 0.12896729 0.06574065 0.1323832
00000000: 29db a8bd c6bc 183b 6c90 42be 2d0f 1d3e
00000010: defc 0a3e af7c 1a3e 4184 6ebd 8d17 6fbe
00000020: 73a6 c53d 65ca 8f3d d0d8 f33d 4513 8ebc
00000030: a206 e23d 0e09 323e 7249 fb3d 86fb 85be
00000040: cc2c 4fbe 1a54 83bd 3420 6bbd 6ab4 103e
00000050: 12ec bebc e6bf e43d 76db 703d fee7 293e
00000060: 3e1f 32be ad8a 0dbe 3b1c 45be f9d6 043e
00000070: 4d5d 8f3e 3fa9 e23b df4b bfbd 303d 2c3e
00000080: 37cf 0a3e 2659 dabc 7f2a 4abc 5443 513d
00000090: 28e4 48be 6d9a f5bd 3a5d 6fbc bb9a 55be
000000a0: f88a b53d 343f 003d 9d02 3dbe 1820 19be
000000b0: b683 433d 9dc0 2dbe 8f40 063d 5848 bc3b
000000c0: 95bf 85bd 86b9 63bd bb63 a0bc fc8d 85bd
000000d0: 1214 3a3b 40c2 b33d 9d44 c2bc bd83 f23d
000000e0: b064 debd cd0e e7bd 37e8 12be f233 50bd
000000f0: 063f 803d f920 54be 37e9 6cbe db69 9cbd
00000100: ebbf f63d f26e c6bb 0a2d d93d 0ea4 18bd
00000110: 8ffd 073d 5259 743e c472 4f3b dc35 f33d
00000120: c1d9 07bd ffd9 b4bd c4cc 04be 1980 1bbd
00000130: 711c 2dbe b159 17be 6b2e 7c3e 46a0 7fbd
00000140: fc95 3abe a7a8 65be 86e9 09be 4813 a73b
00000150: 3106 b03d 2128 353e 5b7f c33d 008d 90bc
00000160: f3ad 393e c448 393e b87b dbbd 118d c2bd
00000170: 8031 febd 67c6 253e a0ac 00be 7206 afbd
00000180: a108 ac3d 2094 be3d 12e5 293e 147e e1bd
00000190: 145f 4abe 737b 2cbe 758b dcbd ecbc 363d
000001a0: 57fb 563b 97b0 e03d cbdf 953d 8581 4abc
000001b0: ad98 e43d 29e9 ce3d 8ea6 b8bd d999 4b3e
000001c0: 5906 1d3e 395c 723d e804 803d 509f 753c
000001d0: 6b68 d2bc 19e4 013e 69a1 1c3e 5089 a83d
000001e0: a847 a73c 0488 0f3e 979e a23a 6433 47be
000001f0: 2dec 85be 33b5 2f3d 82ba 1a3d 020a 823d
00000200: bd22 bb38 3185 ccbd 28cf 25be e72a 9dbc
00000210: 344b 4fbe beb3 91bd d54c c0bd 4598 4b3d
00000220: 76f8 a63d 6082 55bc 7cb5 273e d9ce 033e
00000230: 3dee fd3d ff0d 4f3d c38c ce3d 55b7 443d
00000240: efc2 b63d 7bdb 83bd 3e24 5dbd 3c05 16bd
00000250: 7de9 c9bd c4f3 0b3d b128 663d c028 5a3e
00000260: cacb 0a3e f68b 14be 1114 cbbd 6c57 15bd
00000270: 7949 16be b3b9 08be 1ad3 1ebe a65b bfbd
00000280: 8743 cdbd 83b3 03bd 4b69 0ebd 7044 133c
00000290: 9dfd 5bbd 3070 cdbd c480 9ebe 3a21 a9bd
000002a0: 9f87 f6bd 478e acbe fa9e 63be d92d 2e3e
000002b0: 7dc7 063c b0f9 343e 9ce5 3e3e e4a8 bd3d
000002c0: d84f c7bd 0ab5 41be 4e61 14be 92f0 f8bd
000002d0: 4f38 b33c a931 433e 1326 d2bd 30e7 753e
000002e0: 09e2 793e 0c07 463e 5acc 1b3e 2cc7 a33e
000002f0: 557b 8a3e ff41 02be a50f 863d b0e5 33be
00000300: 3091 7ebc caf4 533e c8be b23d 3fa3 36bd
00000310: abce bd3d d775 973b d018 543d 7370 113e
00000320: c54d 9b3d 61ea aa3c 8dcc d73d 8d79 6b3e
00000330: 07d9 303c 8cbf eb3c 76a1 e7bd c1b7 94bd
00000340: 157f 38be db68 0c3e 93aa 26be ab46 75be
00000350: db72 d2bc 6f01 cebd 384e b7bc adb1 30be
00000360: 486b 4abe 9a24 42be af05 11be 41bd 2cbe
00000370: 9e82 b7bd ad05 eabd 57fb 4b3e 6310 583d
00000380: f0dc 69bd a2b3 45be 97e6 77be d87f 3fbe
00000390: bf44 3e3d abca abbc 31f0 16bd 52b2 6a3e
000003a0: af9a 953e f8a8 053e 58f0 6abd 462f 15be
000003b0: cfc3 243e 9cbb 7d3d 0a22 513e 6ea2 a13d
000003c0: 3bb2 2e3e 3bb2 273e 08f9 7c3e 6958 4dbe
000003d0: c837 253e b2c4 fbbd c9a7 9a3d 0be5 e63d
000003e0: 210c 003d 4fa7 3a3d c97c 04bd d72f a53d
000003f0: d99e 88bd 0010 043e 09a3 863d 768f 073e

sequential_3/conv2d_10/Conv2D f4 [32, 3, 3, 32]
0.15055487 -0.15003143 -0.0047809226 -0.03120116 0.1751149 -0.033951666 -0.1894406 -0.093316354
0.16496913 -0.2172743 0.11246689 -0.0023881306 0.14648257 -0.17581265 0.08384124 0.106132425
-0.060105134 -0.041469835 0.010792345 0.07033669 0.12902524 -0.2068642 -0.117465205 0.164858
0.076802775 -0.047385104 0.028737795 0.13147156 -0.21030283 -0.08756834 -0.05680109 0.016332908
0.2309145 0.14049105 0.06471288 -0.24500245 0.18260887 -0.1626727 -0.0376596 -0.034132864
-0.047420166 -0.029454974 0.011491042 -0.24421692 0.29150823 -0.29272905 -0.3887626 0.05929649
-0.32463464 -0.1690112 -0.11036799 -0.015294128 -0.0011054163 -0.18903911 0.2809091 -0.022819553
-0.16707611 -0.122710906 -0.29935184 0.23955917 -0.3354044 0.23111708 0.22566102 0.18672355
0.12020543 0.041987337 0.35839173 0.0047676964 -0.041484337 -0.19230445 -0.1934904 -0.14435914
0.16062008 -0.14522512 0.0025438902 -0.034595754 0.29823878 -0.018274775 0.13597499 0.18062058
-0.18078913 -0.10537805 0.18122178 -0.04353673 -0.06051817 0.015644463 0.19615361 0.19050877
0.13548079 0.214308 -0.03988277 0.25904638 -0.033026878 0.017146578 -0.08563227 0.013240025
0.08240014 -0.0127263265 0.0019457887 -0.043655973 0.14856634 0.26206937 -0.07046999 0.11377264
-0.10840121 0.1642874 0.1791494 0.08580643 0.12487077 -0.06321738 -0.14619328 0.0006765793
0.025128156 0.06637203 -0.06841671 -0.12997027 0.073931605 0.031217132 0.05259203 0.028389234
0.07849464 -0.20249893 -0.02563896 0.1277413 -0.001664698 0.087301895 0.22853296 0.19349042
0.09184224 -0.06311855 0.0012397786 -0.019556213 0.12028695 0.12260612 0.1968436 -0.12395641
-0.0046433844 -0.009771014 0.1160486 -0.11866463 0.09608154 -0.0597858 0.034838524 -0.17617561
0.18174864 0.19236979 0.014469747 0.067777745 -0.13568401 0.045732673 -0.04263157 -0.10853394
-0.17816693 -0.09725384 -0.025059264 -0.075333245 -0.008054308 0.02357815 -0.045790713 0.06153976
0.13037339 -0.075353116 0.060717724 -0.056497026 -0.018370708 -0.07651059 0.0125866635 -0.14314982
0.14618243 -0.15314522 0.03471118 -0.03498926 0.08484066 0.054652214 0.1506251 0.026938496
0.07874203 -0.014505986 0.14197439 0.029200302 -0.00735518 -0.2011337 -0.018047709 0.0011118962
-0.004066125 0.01192519 0.03560546 -0.008694095 -0.14106806 0.0919861 -0.17061585 -0.13825586
-0.23531182 -0.10439279 -0.18788752 -0.05047237 -0.1517495 0.17867856 0.15689929 0.09530835
-0.21233712 0.17118204 0.05288335 0.037633203 -0.22866093 -0.015115086 -0.0609486 -0.29287583
0.03429606 0.050298367 -0.18449861 -0.22438924 -0.011171662 0.1344112 -0.14962868 0.08656437
0.088622 -0.13131782 0.13938168 -0.23075616 0.16558395 -0.030744528 -0.09286582 -0.013207575
-0.01095785 -0.14353673 -0.2604843 -0.09318753 -0.14390557 -0.04082393 0.059055537 0.055819266
-0.22186404 0.26341397 -0.02219651 -0.038200375 -0.21000825 0.04477111 -0.058319427 -0.09216246
0.08899752 -0.014676559 -0.26842198 -0.0021411213 -0.03855546 0.07442596 -0.17437218 0.10915589
-0.18278775 -0.23187973 -0.0100733545 -0.32650262 -0.029702088 0.012107121 -0.019602127 -0.018385356
00000000: 0e2b 1a3e d7a1 19be 49a9 9cbb 9399 ffbc
00000010: 5251 333e e710 0bbd b7fc 41be a51c bfbd
00000020: abed 283e 277d 5ebe 0a55 e63d 2f82 1cbb
00000030: 87ff 153e 3b08 34be f5b4 ab3d f55b d93d
00000040: cd30 76bd 46dc 29bd 60d2 303c af0c 903d
00000050: 311f 043e 35d4 53be 9991 f0bd 89d0 283e
00000060: c64a 9d3d e216 42bd 866b eb3c 7ba0 063e
00000070: a059 57be 0857 b3bd 42a8 68bd 97cc 853c
00000080: da74 6c3e e3dc 0f3e 3088 843d ece1 7abe
00000090: d2fd 3a3e ac93 26be f440 1abd e7ce 0bbd
000000a0: a63b 42bd 8f4b f1bc ec44 3c3c 0014 7abe
000000b0: 9140 953e 95e0 95be e40b c7be e0e0 723d
000000c0: 8336 a6be 4611 2dbe 9d08 e2bd 3994 7abc
000000d0: 9ee3 90ba 7893 41be 51d3 8f3e 12f0 babc
000000e0: 0016 2bbe db4f fbbd a544 99be 004f 753e
000000f0: 20ba abbe f5a9 6c3e af13 673e 7534 3f3e
00000100: 442e f63d eafa 2b3d 1f7f b73e 563a 9c3b
00000110: 7beb 29bd 75eb 44be 5922 46be e2d2 13be
00000120: 9779 243e e5b5 14be 65b7 263b 47b4 0dbd
00000130: c1b2 983e fbb4 95bc 073d 0b3e 9af4 383e
00000140: c920 39be 72d0 d7bd 3492 393e 9253 32bd
00000150: e7e1 77bd d128 803c 7edc 483e bb14 433e
00000160: 7abb 0a3e 8e73 5b3e 1e5c 23bd baa1 843e
00000170: 3147 07bd fb76 8c3c f95f afbd b1ec 583c
00000180: 68c1 a83d 1582 50bc d609 ff3a 9bd0 32bd
00000190: c621 183e f52d 863e 9252 90bd a101 e93d
000001a0: 7401 debd f53a 283e f172 373e 48bb af3d
000001b0: 3fbc ff3d 1d78 81bd b1b3 15be 785c 313a
000001c0: 90d9 cd3c 0fee 873d 0f1e 8cbd ed16 05be
000001d0: 7469 973d 12bb ff3c be6a 573d 8a90 e83c
000001e0: ccc1 a03d e15b 4fbe cc08 d2bc 9ece 023e
000001f0: ff31 daba 56cb b23d 8b04 6a3e 5a22 463e
00000200: c917 bc3d 4c44 81bd 1180 a23a 5a34 a0bc
00000210: 0159 f63d eb18 fb3d 5e91 493e dcdc fdbd
00000220: 8827 98bb 9a16 20bc e3aa ed3d 7106 f3bd
00000230: 66c6 c43d f4e1 74bd d7b2 0e3d 6167 34be
00000240: 511c 3a3e 96fc 443e 8512 6d3c 0fcf 8a3d
00000250: c0f0 0abe 2f52 3b3d 719e 2ebd 0b47 debd
00000260: 6471 36be 052d c7bd 1649 cdbc 5148 9abd
00000270: 37f6 03bc f726 c13c 0b8f 3bbd 1e11 7c3d
00000280: 9a80 053e bc52 9abd 26b3 783d 6d69 67bd
00000290: 2b7e 96bc 96b1 9cbd 4b38 4e3c de95 12be
000002a0: d9b0 153e 1ad2 1cbe 4f2d 0e3d e650 0fbd
000002b0: f1c0 ad3d 00db 5f3d 773d 1a3e 1fae dc3c
000002c0: 8043 a13d 84aa 6dbc bc61 113e 7935 ef3c
000002d0: b903 f1bb fef5 4dbe cad8 93bc 0cbd 913a
000002e0: 213d 85bb df61 433c 08d7 113d ad71 0ebc
000002f0: 2574 10be 3563 bc3d ecb5 2ebe f292 0dbe
00000300: 95f5 70be e3cb d5bd 9665 40be 1ebc 4ebd
00000310: 3964 1bbe 83f7 363e 35aa 203e 0631 c33d
00000320: e76e 59be 584a 2f3e 369c 583d 4625 1a3d
00000330: 1726 6abe 44a5 77bc 3da5 79bd d2f3 95be
00000340: 077a 0c3d a905 4e3d 34ed 3cbe 4bc6 65be
00000350: 5909 37bc 17a3 093e 4338 19be a948 b13d
00000360: 737f b53d 2e78 06be 12ba 0e3e 584b 6cbe
00000370: d78e 293e f3db fbbc 6f30 bebd 9664 58bc
00000380: 8e88 33bc 4bfb 12be 335e 85be 1bd9 bebd
00000390: fb5b 13be fe36 27bd 38e4 713d bea2 643d
000003a0: 5430 63be 32de 863e 75d5 b5bc ff77 1cbd
000003b0: 670c 57be e961 373d 5ae0 6ebd acbf bcbd
000003c0: 5544 b63d f375 70bc 9b6e 89be 0e52 0cbb
000003d0: 54ec 1dbd a36c 983d 9f8e 32be 208d df3d
000003e0: b62c 3bbe e171 6dbe b60a 25bc 5a2b a7be
000003f0: cb51 f3bc f25c 463c a494 a0bc e39c 96bc

sequential_3/conv2d_11/Conv2D f4 [32, 3, 3, 32]
0.14032468 0.036192916 -0.010548998 -0.102023266 0.19504781 -0.0811147 0.008025679 0.015493963
-0.100068636 0.013734988 0.20464163 0.07884372 -0.026312193 0.045038644 0.010614145 0.22637337
-0.15303291 0.031965047 0.03432714 0.16012621 -0.16809984 -0.040943027 -0.05622365 0.17268692
0.13131292 -0.09150308 -0.06732622 0.0001480264 0.101900585 0.12794971 0.21941848 -0.009489121
-0.10639321 0.0066096648 -0.0057318583 -0.033448245 0.049771342 0.042462673 0.15005046 0.12931451
-0.09683661 0.0024209095 0.2493462 -0.093933046 0.110801876 0.10921255 -0.084107295 -0.12402997
-0.21818472 0.0423353 0.08290002 -0.026913855 -0.103819646 0.054965544 -0.09323036 0.17034426
-0.091104165 0.037492592 0.02643244 0.030410212 -0.19781564 -0.004185044 0.051884502 0.21210296
-0.054159846 -0.25230092 0.0922903 0.10930537 -0.042541806 0.05732737 -0.15803263 -0.0024734358
0.12262403 -0.0819908 0.049612317 -0.012758833 -0.08858264 0.02470032 -0.047962092 0.035102293
-0.097946875 -0.02734082 0.08029023 -0.09131885 0.08813983 -0.06662816 0.03796529 0.008988457
-0.2529909 0.07149643 -0.06516712 0.109815605 -0.01852072 -0.26934084 -0.23311836 0.2793511
0.21338588 0.11558632 -0.22641806 -0.15144528 0.11721746 0.01694769 0.046704073 0.036161702
-0.13097958 0.105022795 0.24490406 0.15882683 0.023093808 0.051216856 0.15174355 -0.033876598
-0.1671669 -0.022829585 0.014835698 -0.100041635 0.01947682 0.08783783 -0.092305 0.16890886
-0.03734761 -0.0060904715 -0.027613569 0.031176647 -0.010557244 0.15296133 0.14137863 0.21140042
-0.1716379 -0.3263818 -0.039094627 -0.16129333 -0.1637158 -0.10138822 0.001528956 -0.014847055
-0.077846766 -0.2054824 0.060246605 0.042408418 -0.08401577 0.05466094 -0.18997402 -0.10927664
0.015614922 -0.14690621 0.049786724 -0.027185231 -0.081318185 -0.028796036 -0.14089525 0.10468158
-0.2825876 -0.05991343 -0.08273311 0.084240526 -0.05249448 -0.17536665 -0.019903319 0.21036084
-0.15968835 0.0060093505 -0.16893265 0.1620699 -0.14009273 -0.06977097 -0.28664082 -0.065908544
-0.0395782 -0.17965466 -0.033110216 0.17556381 -0.0039489497 -0.11349006 -0.108329035 0.0794764
0.034476932 -0.22759965 -0.02014559 0.113779634 -0.1826677 0.13638464 0.008854144 0.13827953
0.012622573 -0.039623473 0.0118064275 0.03040914 0.03641872 -0.12826893 -0.11630333 0.041644253
0.10486339 0.012548543 -0.09740628 0.10899508 0.16597459 -0.008514419 0.1485239 0.20800997
-0.18315561 -0.0122952685 0.25400078 0.105279975 0.024827052 0.19385256 0.068877965 -0.115764976
-0.07392481 0.14818886 0.12787904 -0.08325113 -0.0676961 0.2695666 -0.13520795 0.049691316
-0.04163804 0.09535992 0.046205793 -0.037672263 0.09237906 0.058407817 -0.042318642 0.19523299
-0.18630105 -0.19089623 -0.098178186 0.083094396 0.037935242 -0.18366885 0.027014814 0.09158105
-0.0188813 -0.013994217 0.16096506 -0.012394408 0.040649362 0.051277716 -0.116343364 -0.11753117
0.06983106 -0.10626407 0.07986662 0.10222809 -0.10934142 0.15485726 0.041783463 0.117468536
-0.2724266 -0.041183382 0.09540526 0.0211068 0.12522137 -0.106825046 -0.042778786 0.099449135
00000000: 46b1 0f3e 063f 143d b4d5 2cbc 93f1 d0bd
00000010: 9dba 473e 771f a6bd 237e 033c 64da 7d3c
00000020: c9f0 ccbd b708 613c 938d 513e d178 a13d
00000030: ab8c d7bc 717a 383d f3e6 2d3c 6cce 673e
00000040: a9b4 1cbe c8ed 023d 9d9a 0c3d 20f8 233e
00000050: 5d22 2cbe e0b3 27bd c54a 66bd d7d4 303e
00000060: e576 063e f865 bbbd 54e2 89bd 8937 1b39
00000070: 41b1 d03d 4005 033e 3daf 603e 4278 1bbc
00000080: afe4 d9bd e395 d83b 50d2 bbbb 0701 09bd
00000090: 09dd 4b3d 57ed 2d3d d4a6 193e 066b 043e
000000a0: 4652 c6bd 1fa8 1e3b 9c54 7f3e f85f c0bd
000000b0: 18ec e23d d4aa df3d 7240 acbd 6d03 febd
000000c0: d16b 5fbe c867 2d3d 7cc7 a93d 727a dcbc
000000d0: 659f d4bd 8d23 613d 8fef bebd ba6e 2e3e
000000e0: d294 babd d591 193d d888 d83c d61e f93c
000000f0: 2f90 4abe b222 89bb d884 543d 8531 593e
00000100: b7d6 5dbd 962d 81be b202 bd3d 7edb df3d
00000110: 5140 2ebd 1bd0 6a3d 4ed3 21be 5e19 22bb
00000120: 4f22 fb3d cbea a7bd 4936 4b3d 6d0a 51bc
00000130: d16a b5bd 5358 ca3c e673 44bd 6cc7 0f3d
00000140: 5f98 c8bd dbf9 dfbc 346f a43d 6105 bbbd
00000150: a882 b43d 5874 88bd 7e81 1b3d 5244 133c
00000160: 0688 81be b86c 923d 5776 85bd 01e7 e03d
00000170: c4b8 97bc 0be7 89be 94b6 6ebe 1b07 8f3e
00000180: d481 5a3e 85b8 ec3d 23da 67be 7914 1bbe
00000190: b50f f03d e2d5 8a3c c54c 3f3d 4b1e 143d
000001a0: 831f 06be 3116 d73d 21c8 7a3e 80a3 223e
000001b0: 3a2f bd3c c4c8 513d a962 1b3e 30c2 0abd
000001c0: cd2d 2bbe 1c05 bbbc 6d11 733c a1e2 ccbd
000001d0: da8d 9f3c 52e4 b33d 670a bdbd 72f6 2c3e
000001e0: cff9 18bd 9492 c7bb da35 e2bc 2b66 ff3c
000001f0: 4af8 2cbc e5a1 1c3e 8fc5 103e 5a79 583e
00000200: d8c1 2fbe 841b a7be b021 20bd 142a 25be
00000210: 1da5 27be a1a4 cfbd 4067 c83a 1041 73bc
00000220: 206e 9fbd fa69 52be 25c5 763d 73b4 2d3d
00000230: 7610 acbd 26e4 5f3d 8d88 42be 6ecc dfbd
00000240: bbd5 7f3c 956e 16be 2aed 4b3d 90b3 debc
00000250: 268a a6bd aae5 ebbc d846 10be 4c63 d63d
00000260: 52af 90be c967 75bd fa6f a9bd 4c86 ac3d
00000270: 7404 57bd 5193 33be 490c a3bc d568 573e
00000280: 5885 23be 16ea c43b aefc 2cbe a7f5 253e
00000290: 7874 0fbe 15e4 8ebd 96c2 92be 0ffb 86bd
000002a0: c01c 22bd 64f7 37be 949e 07bd 00c7 333e
000002b0: 3166 81bb 7a6d e8bd 9ddb ddbd 86c4 a23d
000002c0: af37 0d3d e20f 69be 5d08 a5bc 4c05 e93d
000002d0: 3e0d 3bbe 6aa8 0b3e f910 113c 2699 0d3e
000002e0: e9ce 4e3c 394c 22bd bf6f 413c 971c f93c
000002f0: cc2b 153d ee58 03be 7130 eebd 2a93 2a3d
00000300: 9ec2 d63d 6798 4d3c f27c c7bd d038 df3d
00000310: 3ef5 293e 1080 0bbc a616 183e 9100 553e
00000320: 258d 3bbe 1872 49bc 640c 823e 079d d73d
00000330: 1a62 cb3c 4981 463e e40f 8d3d 3016 edbd
00000340: e465 97bd d2be 173e b9f2 023e 927f aabd
00000350: 41a4 8abd a204 8a3e f473 0abe 1f89 4b3d
00000360: a68c 2abd 104c c33d 4942 3d3d 3b4e 1abd
00000370: 3c31 bd3d 093d 6f3d 5056 2dbd 28eb 473e
00000380: b4c5 3ebe 4d7a 43be a511 c9bd 652d aa3d
00000390: fc61 1b3d b013 3cbe 2c4e dd3c d88e bb3d
000003a0: f5ac 9abc 0048 65bc 06d4 243e ea11 4bbc
000003b0: f27f 263d 9508 523d 6e45 eebd 2fb4 f0bd
000003c0: 9603 8f3d faa0 d9bd 1c91 a33d f65c d13d
000003d0: 65ee dfbd e792 1e3e 2325 2b3d 5893 f03d
000003e0: 807b 8bbe e8af 28bd d563 c33d 2be8 ac3c
000003f0: 083a 003e 17c7 dabd cf38 2fbd fdab cb3d
