dig-s1.tflite (tflite, 766460 bytes, 12 tensors)

sequential_1/conv2d_3/BiasAdd/ReadVariableOp/resource f4 [32]
00000000: f907 d1bc dd04 c03a f9b6 f2bc 92c7 833c
00000010: 1d7e f5bd 84e7 b4bd f1e3 d6bd 630b debd
00000020: 7171 c6bd 33a4 60bd 0915 bdbc abea a7bc
00000030: fa5f c0bd 9893 bfbd 9279 00be efec 17bd
00000040: 67da b0bc 62dd a2bc 081d 07bd 0560 0bbd
00000050: f98d 29be 94fd babd 37f1 87bc d83a 34bd
00000060: c1f7 acbc 63e3 31bd 76a9 653c aca9 d2bd
00000070: 3887 ebbc 5a75 ddbb 1695 02bd d97b 5ebd
-0.025516497 0.0014649887 -0.029628264 0.016086373 -0.11986945 -0.088332206 -0.10492695 -0.108420156
-0.09689606 -0.054844093 -0.02308132 -0.02049764 -0.09393306 -0.09354323 -0.12546375 -0.03709119
-0.021588517 -0.019880954 -0.03298667 -0.03402712 -0.16558065 -0.091303974 -0.016594512 -0.04400143
-0.021114232 -0.043429743 0.014017453 -0.102862686 -0.028751 -0.006758374 -0.03188046 -0.05431733

sequential_1/conv2d_4/BiasAdd/ReadVariableOp/resource f4 [64]
00000000: 8eca b8bd b13a c6bd e5f7 c3bc 4682 15bd
00000010: d5ba 683e 6def 693d beba a0bc 1fe1 de3d
00000020: 4481 babc 4305 32bd affb d03c 3035 f03d
00000030: 57b2 a43d 814a 50bd 82ef a6bc cb2a 3b3c
00000040: 519a acbc d10a 01bd 7aa7 c03d dd7f de3c
00000050: 23e7 f8bc 1809 6ebd a4e0 a2bd 8772 573b
00000060: c29c e8bd d22a 96bd b12b 09bc 29e8 9e3c
00000070: 5769 87bd 19cd ad3d 9ba6 a3bc b6b8 433d
00000080: 7c18 30bd 6a9e 1abe 13c8 cfbd 5e73 8ebb
00000090: 103e 0c3b 75cf 0abd 3e80 a0bc d774 16bd
000000a0: e233 913c c508 a0bc be2c e93d 5600 34bd
000000b0: 8dab a5bc 3b0b ecbc 8668 d83d b0a3 e9bd
000000c0: 90c0 a83d 77e1 e2bc c5a6 8abd 8256 12bc
000000d0: ee42 34bd 171e 0f3d bc84 49bc 7eff c3bd
000000e0: edb6 b53c c7e2 873d c0d9 52bd 5122 f13c
000000f0: b0d3 9bbd 82d2 02bd df2a 8fbc d62f 893e
-0.09023009 -0.09679163 -0.023921916 -0.03650119 0.22727521 0.0571131 -0.019620296 0.10882782
-0.022766717 -0.04346205 0.025510637 0.11728895 0.08041828 -0.050852302 -0.020377878 0.011423777
-0.021069678 -0.031504456 0.094069436 0.02716058 -0.030383652 -0.05811414 -0.07953003 0.003287466
-0.11358024 -0.07332386 -0.008372233 0.019397812 -0.06611889 0.08486385 -0.019976905 0.047783576
-0.0429921 -0.15099493 -0.10145583 -0.004347249 0.0021399297 -0.033889253 -0.0195924 -0.03673252
0.017724935 -0.019535432 0.11385487 -0.043945633 -0.020223403 -0.028813949 0.10566811 -0.11408174
0.082398534 -0.0276954 -0.0677009 -0.008931758 -0.04400914 0.034940805 -0.012299713 -0.09570216
0.022181952 0.06635051 -0.051477194 0.029435309 -0.076087356 -0.031939037 -0.017476497 0.26794308

sequential_1/conv2d_5/BiasAdd/ReadVariableOp/resource f4 [64]
00000000: 7d7c 49bd 686b 46bc 507c 3fbd c1a9 aebd
00000010: 1fe8 0abd 159b 8bbd 2274 1b3d 4f70 3cbd
00000020: e6fa 4cbd b1d6 e7bd 9bb9 1cbd 5d2f 4dbd
00000030: 0dca 11bd c62a 443d f2df 9b3d 5ef9 2fbb
00000040: 12f6 eabd 4536 a73d 221a 74bd 3689 133d
00000050: 0b97 c4bd 0175 9dbd 60c0 9a3b 3d05 04be
00000060: 0c1a 0abd 1ed3 4dbd aa1a 25be 2cca a1bd
00000070: 14a8 8cbd d8de 323c 3f51 f43a 532a 0abd
00000080: a7c7 d33c b689 98bd 4070 19bd 5fbc d4bb
00000090: 8a7a ffbd 19e3 4dbd c555 8dbc 12b3 f6bd
000000a0: d32b c6bc e76d cdbd 6002 52bc bec9 bf38
000000b0: 0afe 32be 6059 8dbd 15b0 4e3d 64b0 4cbd
000000c0: 709f bd3c b40e a4bc 21c4 3ebc 191e 253d
000000d0: 633d 28bd 95a9 aabd 0974 8cbd c9e0 563d
000000e0: 21b4 2ebd 1101 193d 29d8 a23d 24b8 c7bd
000000f0: 4d05 47bc feb9 c7bb a123 353c 424c 4ebd
-0.049190987 -0.012110569 -0.046749413 -0.08528472 -0.033912774 -0.06816689 0.03795255 -0.046005543
-0.050043963 -0.11320246 -0.038262945 -0.050093997 -0.03559308 0.047892354 0.076110736 -0.0026851515
-0.114727154 0.08164648 -0.059595235 0.036019526 -0.09599122 -0.07688332 0.00472264 -0.12892623
-0.033716246 -0.050250165 -0.16123453 -0.07899889 -0.06867996 0.010917388 0.0018639936 -0.03373177
0.025852038 -0.07448141 -0.037460566 -0.006492182 -0.12474544 -0.050265405 -0.017252812 -0.12045874
-0.024190819 -0.10030728 -0.012817949 9.145167e-05 -0.1747972 -0.069018126 0.050460894 -0.049972907
0.023147315 -0.020026542 -0.01164344 0.040311906 -0.041074168 -0.083331265 -0.068580694 0.052460466
-0.042652253 0.037354533 0.079513855 -0.09751919 -0.01214726 -0.00609517 0.011055858 -0.050365694

sequential_1/dense_2/BiasAdd/ReadVariableOp/resource f4 [256]
00000000: e919 00bc b662 9cbc 0cd8 b73c 40fd 33bd
00000010: 0c5e 14bd 984c 813c 0c1e 323d e2ff 6bbb
00000020: 8921 9a3d 737e 833c 93de 08bd 63a9 ccbd
00000030: c7dd b2bc 30eb 87bd 6dde 70bc 59ce d53c
00000040: e5eb aabc c9f3 133c ad1a db3a fa0e 2d3d
00000050: 6502 03bd e17c 5bbc 10af caba 2273 6dbd
00000060: ee84 0d3d 5b29 db3c 86d5 44bc 9958 dfbc
00000070: e801 a93c ac08 82bd e9c2 223d 8e80 fd3c
00000080: dce7 b8bd 3f8e 8cbd 6692 ff3c ff1c 483c
00000090: 9ecc acbd de18 5d3d e8dd 55bc 7cd2 183c
000000a0: 1180 8d3d 1bd4 d7bd 1ece 49bb d77b 0fbd
000000b0: fc15 50bc b96e c7bc e772 73bd 3c4e a5bd
000000c0: 2d6b 97bc 4713 10bc 7f76 84bd e0dc 23bc
000000d0: 1996 6d3d 1e10 8a3c 2e7b e8bc fcb3 b63c
000000e0: 9f1e 0ebd b213 6abd 24a3 d23c 0179 fabc
000000f0: aa94 033b cf7c b63d 4080 743d 79a1 f1bc
00000100: 3d2b 17bb 533b 63bc 3aac 51bd dd84 dd3b
00000110: eefa c9bd 0267 3a3d ab34 a0bd 2f26 763c
00000120: 4095 37bc e9d1 1a3c acc0 66bb 2690 70bc
00000130: 4190 a03c 1af8 cbbc 6308 0cbd 0a29 5bbd
00000140: c8db f4bb a546 1abd ba07 613b f87e a9bd
00000150: 8e59 40bd 9271 60bd 5005 bf3c f70b 633d
00000160: 5573 b63d a6ff 5d3d 1b45 21bb 59d8 533d
00000170: 589a 7dbd f9b8 24bd 6d48 093d 63cf a13d
00000180: c7da 553d 2a30 c63d 0a28 a4bc 5319 50bd
00000190: b2b0 69bd cd62 d43c 23c8 083c 15f4 6c3c
000001a0: a6b3 41bd ad0e 033c e353 92bd 4c55 823c
000001b0: 079f 80bb 5fbb dfbd 3b88 d7bd be4a b8bd
000001c0: 9e72 f1bc 0330 11bd 8502 c2bc 9cb1 efbc
000001d0: 5b15 ddbc 9b3f adbc c9f4 0fbd 0218 bebd
000001e0: 4f03 c5bc 7ff9 7fbd 4ce3 1bbd 2c0c b4bd
000001f0: 945e ccbc b75d b4bc ee2d ecbd 0b3f 3bbd
00000200: ec6b 7dbc 3fc0 4dbd 3881 c4bc 1cf5 94bd
00000210: 7d5a 153c af64 c6bc da19 d0bd 8b4a 773d
00000220: 8026 78bd 152d a0bc 87d4 c5bc 57ba bfbc
00000230: e2a5 8fbc 3eb3 e9bc 7a13 60bd fa05 b8bc
00000240: 3f3a 71bc be02 033d 978f 6d3d 9fce 09bd
00000250: b5a3 d7bc 556f 28bd 6126 8cbc 7378 7abd
00000260: 3c6a fc3b 9980 babd 9be2 103c 4d0e db3c
00000270: d2a2 10bd 56a8 613d b366 31bd e8a5 0ebd
00000280: b6b5 863c de1d 453b 3fc8 91bc fbc1 2dbd
00000290: d2b0 b3bb 910c 963d 5495 c0bc fdbd 05bd
000002a0: e9cd e5bd 52bc a1bd cbae 8bbd 0567 28bd
000002b0: 1b0a 8bbd fd9a 6fbc 17f6 0c3d 2fae febd
000002c0: 95af adbc 0078 23bd 878c 7f3d 1b18 7e3c
000002d0: 478c 3bbd d56a fe3b 9424 02bd 1a0e 433c
000002e0: c013 90bc 6e96 383b d714 84bc b736 353d
000002f0: 9174 87bc be1e d8bc e576 babd 02d4 c7bc
00000300: 7c38 ee3c 4970 ddbc dfa7 b6bc 471c 333d
00000310: 4532 143d ea4f fdbc 4ef3 23bc 4c2f 8ebc
00000320: f9d6 27bd 8fd6 26bd 4289 26bd bc79 043c
00000330: 975d 43bd f753 b13d 8a35 30bd 01b9 b93d
00000340: 424f ba3d 3ac5 7ebd 44ba 79bd 4282 8ebd
00000350: b3c1 573c 3c68 51bd 9454 4eba f20c 033c
00000360: 8c3d d1bc 1578 54bc edd7 11bd df0b 86bd
00000370: 1852 acbb 8b26 2c3d 351e 0cbd 398a 173c
00000380: a6b1 10bb 1e0e 2fbd 01f5 1bbd cdd5 073c
00000390: 4bcb cebb 4e45 0e3d 49ab 5bbd 671c 163d
000003a0: a79a 403d 069a 433d 6b7b e0bd a08c a7bc
000003b0: f00d 803d f698 793d 0222 5a3c 321c 78bb
000003c0: 97e3 1abd db07 25bd 4201 6abd 7a5d 98bb
000003d0: 96ef afbc 8555 02bd d77c 9dbd 0f95 92bd
000003e0: bd22 bcbd 1b53 9cbd 4573 16bd 7e6e 25bb
000003f0: 536e e539 7330 023c 5bb0 a83b 1f66 fc3c
-0.007818677 -0.019090038 0.022441886 -0.04394269 -0.036222503 0.015783593 0.043485686 -0.0036010672
0.075259276 0.016051507 -0.03341539 -0.099932455 -0.021834267 -0.06636655 -0.014701468 0.02609937
-0.020864436 0.009030291 0.0016716324 0.04225061 -0.031984705 -0.013396473 -0.001546355 -0.057971127
0.0345506 0.026753118 -0.012013799 -0.027263926 0.020630792 -0.0634931 0.039736662 0.030945089
-0.09028599 -0.06863069 0.031197738 0.012213944 -0.08437465 0.053978793 -0.013053395 0.009327527
0.06909192 -0.10538503 -0.0030793021 -0.035030212 -0.012700554 -0.024344789 -0.05943575 -0.08071563
-0.018483723 -0.008793659 -0.06467914 -0.010001391 0.058004472 0.016853388 -0.02837905 0.02230262
-0.03469717 -0.05714769 0.025712557 -0.030575277 0.0020077624 0.08910524 0.05969262 -0.029495941
-0.0023066544 -0.013869124 -0.05118964 0.0067602233 -0.09862314 0.045508392 -0.078225456 0.015023752
-0.011205018 0.009449461 -0.0035210056 -0.014682805 0.019600036 -0.024898577 -0.034187686 -0.053505935
-0.007472489 -0.037665028 0.003433688 -0.082761705 -0.046960406 -0.05479581 0.023317963 0.055431332
0.089087166 0.054198883 -0.002460784 0.051719997 -0.06191477 -0.040215466 0.033516336 0.07900884
0.052210595 0.09677155 -0.020038623 -0.0508054 -0.057053275 0.025926018 0.008348498 0.014462491
-0.047290467 0.007999104 -0.07144906 0.015909813 -0.0039252075 -0.1092441 -0.10524031 -0.08998631
-0.029473599 -0.03544618 -0.023682842 -0.029259495 -0.026987722 -0.021148494 -0.035145555 -0.09281923
-0.02404943 -0.062493797 -0.038058564 -0.08791384 -0.024947442 -0.022017343 -0.11532198 -0.04571442
-0.015467625 -0.05023217 -0.023987398 -0.072733134 0.009115812 -0.024217932 -0.10161181 0.060373824
-0.06058359 -0.019552747 -0.024149192 -0.023404283 -0.017535154 -0.028527852 -0.054706074 -0.022463787
-0.01472336 0.031985037 0.057998266 -0.033644315 -0.026323179 -0.0411218 -0.017108144 -0.061150026
0.007703094 -0.09106559 0.008843089 0.026740218 -0.035311528 0.05509218 -0.043310832 -0.03482619
0.016444068 0.0030077617 -0.01779568 -0.042421322 -0.005483725 0.073266156 -0.023508705 -0.03265189
-0.11220915 -0.078972474 -0.068204485 -0.041113872 -0.06789037 -0.014624354 0.034414377 -0.12435567
-0.021201888 -0.039909363 0.062389877 0.015508677 -0.045788076 0.0077642 -0.031773165 0.011905218
-0.017587543 0.0028165835 -0.016123218 0.044241633 -0.016535075 -0.026381847 -0.091047086 -0.024393085
0.029079668 -0.02703108 -0.022296844 0.04372814 0.036180753 -0.030921895 -0.010006739 -0.017356537
-0.0409765 -0.040731963 -0.040658243 0.008085664 -0.047696676 0.08658593 -0.04301981 0.0906849
0.090971485 -0.06219981 -0.060968652 -0.069584385 0.01316874 -0.051124796 -0.00078708795 0.007998692
-0.025542043 -0.012968083 -0.035606313 -0.06545233 -0.00525881 0.042028945 -0.034208495 0.009249263
-0.0022078543 -0.042738073 -0.03807545 0.00829072 -0.0063108555 0.034734063 -0.053630147 0.03664818
0.047022488 0.04775431 -0.1096104 -0.020452797 0.06252658 0.06093689 0.013313772 -0.0037858603
-0.037814703 -0.040290695 -0.057130106 -0.004649815 -0.021476548 -0.03181984 -0.07689827 -0.07157337
-0.09186313 -0.076330386 -0.036731023 -0.002524286 0.00043760482 0.0079461215 0.0051479763 0.030810414

sequential_1/dense_3/BiasAdd/ReadVariableOp/resource f4 [11]
00000000: cf52 80be b325 50be 9cdd 80be 2482 20be
00000010: 2310 11be d256 3bbe 8905 5bbe 552a 3abe
00000020: ac2c 1fbe 16c2 56be 956e ccbd
-0.25063178 -0.20326881 -0.25169075 -0.15674645 -0.14166312 -0.18294838 -0.2138883 -0.18180211
-0.15544385 -0.20972475 -0.09982029

sequential_1/batch_normalization_1/FusedBatchNormV3 f4 [3]
00000000: 5422 86bf 18d3 b6bf 5b82 3bbf
-1.0479226 -1.4283171 -0.7324578

sequential_1/batch_normalization_1/FusedBatchNormV31 f4 [3]
00000000: a272 0b3c 4a09 453c 5e04 da3b
0.008511217 0.0120261405 0.0066533526

sequential_1/dense_2/MatMul f4 [256, 512]
00000000: f09b 4b3d ef57 6ebe 37fd 5f3c 12b3 4fbd
00000010: cd58 03be 9aa2 d43c d278 c4bd d33c 6c3d
00000020: 756a 03be c052 093d aa23 9b3d 5abf 6cbd
00000030: e7b5 04be 14c5 043e 0a89 323d 2629 053e
00000040: f5a2 bbbd 192d 3bbe 662a 9b3d 0859 41be
00000050: b63b 89bd 5059 75bd aa27 ba3c 0fbe f4bc
00000060: 51f9 d1bc b20c 103b 7012 d13d 5f35 153c
00000070: 10a7 39bd 34c2 0bbe 284d 883d fb5b d73d
00000080: 7a6f d5bd ecb9 b3bc c61d 94bd 8090 583d
00000090: 49e9 343e 853d 8c3d 65bf 3d3c c564 53bd
000000a0: e22a 8ebd c5b8 7c3d 9602 633d d765 f03c
000000b0: 437c 5d3c 1c51 01bd f051 5d3d d06a e9bc
000000c0: 6a7e ae3d f12a 2c3e 5ca1 f7bd 1aa6 66bd
000000d0: 4bf5 44bd c769 f3bc 32b7 32bd ed16 e0bc
000000e0: 5235 f9bd 6886 c2bb 2e19 a7bc c899 b73d
000000f0: 26ae b83d 812e 4e3d e2dc 2cbd d612 063c
00000100: 4e38 353e 8190 cbbc 4200 bd3d d4c2 d33d
00000110: de32 42be 6926 24be 6a55 d73d 5029 b3bc
00000120: 6700 533c bb60 5ebd 81de e73c 73a4 6a3c
00000130: 7ef4 0cbe c3c7 003e bbb6 9d3d 2c6f c13c
00000140: 122f b63c a282 8f3d 67fd 83bd 25a4 883d
00000150: afc2 d23d 0a6a 963d 597f 7c3e 2f51 b7bd
00000160: 6f2e fdbb f878 083d 5c0a 843d aca7 523d
00000170: 65cb c6bc cb45 623d c95e 2b3e 60f6 90bd
00000180: 28eb 923d c6ac 093e 80ce a4bd 0860 90bd
00000190: aea5 e73c ae35 7fbd f799 a1bd 56c4 853b
000001a0: 89d7 083e 7717 143e 0c24 0abc 51aa 773e
000001b0: 28fe 2f3e 909f 013e 4082 59bc bd3d eebc
000001c0: 1559 afb9 f971 42bd 6713 c7bd 9dd3 a73d
000001d0: d6b5 c13d 349e 4f3d 6904 0c3d aeea d13c
000001e0: 79e4 d1bd 93c8 78bd 7eef bebc e216 40bd
000001f0: 51de 94bc 91b1 c3bd 014a b73d 5b67 f23d
00000200: eedc b5bd 13f7 bdbd 7d85 41be 85a1 9c3d
00000210: 5b23 04bd 2bb3 033d 0c9b a0bb 0f0d 853d
00000220: dfe3 943d ea23 aabd 6f19 20bd 49fa d73c
00000230: 9c86 833d bfbb 8abd 5f8c 9d3d 3e50 a93d
00000240: 76f4 083e fff1 ec3d 3135 243e d35e acbd
00000250: 5526 283d 8f24 8d3d 9752 25bd 25de c53d
00000260: f8f8 11be 8780 adbd a7f0 51bd 262f 863d
00000270: eedd b33d c26f d0bd 764e 96bd 2c51 bfbb
00000280: 1cdf 7dbd 959b d6bd caa6 ab3c 074d a53e
00000290: fe38 84bd 12df 593e 00bb bdbd c0ff 123d
000002a0: ca79 303d a835 0ebe d3f9 b0bd 14fb 6c3c
000002b0: b94e 643d 7faa 5ebd a6ae 2f3e 46de 663d
000002c0: 3917 7d3d 8394 a73d 259b 4d3c 66f5 1f3e
000002d0: 9263 0f3e 9d0a ca3d 891c 063d 3eb5 ebbb
000002e0: d1c2 983e c30a 283b 0c0e 98bd 7ec4 06be
000002f0: 2f8f 753e 0aa1 d13d 9b66 ad3a f9db 2b3d
00000300: 2149 19bd 6811 373c 09af 1ebd 7083 f9bc
00000310: 1d4c cdbc fe6c 4e3e 9187 b83c b1b3 2a3d
00000320: 6f57 0b3e 137f e83c bdc1 c2bb 1c08 f0bb
00000330: fbbd 173e e8d2 c23d b88d efbc 4f0f b43d
00000340: d8de 8fbd b341 293b b029 eb3d be65 0bbe
00000350: 4872 863d a471 c43d 61e3 4a3d 91f6 02bd
00000360: 725a 1cbd 9133 b8bd e399 edbd 279b acbd
00000370: 1c70 6dbd b70f db3d aa7e 0a3e 38d6 05bd
00000380: 2af1 85bc 3f9a 3bbe 0dfc e5bb 98a6 a93d
00000390: 0358 e1bd 6cc1 9a3c 65d8 43bc d971 2e3d
000003a0: 1554 aa3d 8e6c cdbd b300 43bd ac49 993d
000003b0: f9df 31bc c659 3dbe a252 4d3d 4e82 b2bd
000003c0: 1239 803d 9948 a73c c7c2 c73d 4d01 bc3c
000003d0: 55fd be3d 6afd 4e3d 0074 dfbb 42d7 33be
000003e0: 8396 733d 7afb 0cbd be2d c2bd f471 a93c
000003f0: f65f d3bc 4a46 9d3d e07d 933d 14d1 3bbc
0.04970926 -0.23275732 0.013671211 -0.050707884 -0.12826844 0.02595644 -0.09593357 0.057675194
-0.12833579 0.033526182 0.07575162 -0.057799675 -0.12960015 0.12965804 0.043587722 0.13003978
-0.09161941 -0.18278922 0.07576446 -0.18881619 -0.06700842 -0.05989963 0.022723991 -0.029875783
-0.025631579 0.0021980223 0.10208595 0.009106963 -0.04532534 -0.13648301 0.066553414 0.10515591
-0.10421653 -0.02193924 -0.07232241 0.05287218 0.17667116 0.068476714 0.011581277 -0.051609773
-0.06941773 0.061699647 0.055422388 0.029345436 0.013518396 -0.031571493 0.05403322 -0.028493315
0.08520205 0.16813256 -0.12091324 -0.05631075 -0.048085492 -0.029713525 -0.04363174 -0.027354682
-0.12168373 -0.0059364326 -0.020397749 0.08964878 0.09017591 0.05033732 -0.042202838 0.008183202
0.1769726 -0.024849178 0.09228565 0.10339895 -0.18964717 -0.16030277 0.10514338 -0.021870285
0.012878514 -0.054291468 0.02830434 0.014321434 -0.13765141 0.12576203 0.07700869 0.023612581
0.022239242 0.07007338 -0.06444817 0.06671933 0.10291039 0.07344444 0.24657954 -0.089510314
-0.0077264826 0.03331849 0.064472884 0.051429436 -0.024266908 0.05524234 0.16735376 -0.07078242
0.07173759 0.13444814 -0.08047199 -0.070495665 0.028277244 -0.062307052 -0.078906946 0.004082243
0.1336347 0.14462076 -0.008431446 0.24186064 0.17186797 0.12658525 -0.013275683 -0.029082173
-0.00033444972 -0.047471974 -0.097204976 0.08194659 0.094585106 0.050687984 0.034183893 0.0256246
-0.10248656 -0.060738157 -0.023307558 -0.046896823 -0.018172415 -0.095553525 0.08949662 0.1183612
-0.088800296 -0.09275641 -0.18898578 0.07647995 -0.03226028 0.03215329 -0.0049012955 0.06496631
0.072700255 -0.08307631 -0.039086755 0.026364462 0.06422159 -0.06774091 0.07692789 0.08267258
0.13374504 0.115695946 0.16035916 -0.08416524 0.04105218 0.068917386 -0.040361967 0.09661511
-0.1425513 -0.0847178 -0.051254895 0.065519616 0.08782564 -0.10177566 -0.07339184 -0.005838534
-0.06198035 -0.10478894 0.020953555 0.3228533 -0.06456183 0.21276501 -0.09264183 0.035888433
0.043084897 -0.13887656 -0.086414 0.014464159 0.05573914 -0.054361816 0.17156467 0.05636432
0.061789725 0.08182623 0.012549196 0.15620956 0.14002827 0.098653056 0.032742057 -0.0071932366
0.29836133 0.002564118 -0.07424554 -0.13160893 0.23980401 0.10235794 0.0013229431 0.04195783
-0.037423257 0.011173584 -0.038741145 -0.030458182 -0.025060708 0.20158765 0.02252558 0.041675273
0.13607572 0.028380906 -0.0059435056 -0.0073251855 0.14818566 0.095128834 -0.029242381 0.087919824
-0.07024926 0.0025826513 0.11482561 -0.1361303 0.06564766 0.09591988 0.04953325 -0.031973425
-0.038172193 -0.089942105 -0.11601617 -0.084280305 -0.057968244 0.10696357 0.13524881 -0.032674998
-0.016350348 -0.18320559 -0.007018572 0.08283728 -0.11003115 0.018891059 -0.011953448 0.042589042
0.083168186 -0.10030471 -0.04760809 0.07484755 -0.010856622 -0.18491277 0.050127633 -0.0871626
0.06260885 0.02042036 0.09753948 0.022949839 0.09325663 0.050534643 -0.006819248 -0.17562583
0.05946971 -0.034419514 -0.09481381 0.02068422 -0.025802594 0.07679422 0.07201743 -0.011463422

sequential_1/dense_3/MatMul f4 [11, 256]
00000000: 6bbf 103d dae8 9a3c 6753 aabe 19be 8dbc
00000010: 317c e7be 52aa 2dbe b5c9 bdbd 2859 91be
00000020: 02b8 b3be 0780 393d e6fb a8be c2d5 a4be
00000030: 91df a0bd 4515 1ebe 95f5 06be ac59 5bbe
00000040: 8953 11be d696 a7be 0a8d 3cbe bcd5 56be
00000050: 8dfe c5be 58e3 c4be e993 afbe 8115 d43d
00000060: ee14 cdbc 8c15 babe ee6e 95bd d7f3 f7bc
00000070: 6ea4 8ebe 0824 01bf cba4 6dbe fa23 efbe
00000080: 64d0 c7bd bf4e fa3c 77e1 91be b9d6 163b
00000090: 6913 febd 1456 1cbe e5c0 10be 7ae8 07be
000000a0: 9db0 f9be 2601 5ebd 561a e3bd 67ad 7cbe
000000b0: 12e8 72be 3f45 39bc b012 85be 802a e9bc
000000c0: d974 2dbe 7309 2abd 15c7 bcbe ce05 c23d
000000d0: ef7d 7cbe 6fc5 04be 7a9c abbc 9d97 c1be
000000e0: 4960 17be 07a7 1dbf 58c4 8dbd 973e 96be
000000f0: 9a1b d8be 67e3 86be fc40 f0bd f699 72bd
00000100: be05 adbe d51a bebe b090 d4be 3002 7cbd
00000110: 59b7 4fbe 8550 b4bd 0b82 2fbe c2cd 51be
00000120: 01ea 0cbf 71d0 e5be 6b33 48be fd41 23be
00000130: cce1 4cbe 2c4b abbe 033e a8bd 015a 7fbe
00000140: 61ac 00be 195b 103d ee74 00bf f617 9cbd
00000150: 1970 a8be 814c dabd f2a0 8cbe f5c2 cabd
00000160: 255f fabe 161e 06be d515 94be c97c 9dbe
00000170: 2ef6 923d 2f6b 9ebd cc7e 8cbd 6c20 83be
00000180: 8bbb 01bf 6451 b8be 6d81 02be efe8 0ebe
00000190: 2f36 8dbe 15ee b5be 4765 283c 5335 bbbe
000001a0: 07e3 f0be 17c6 01bd dfc0 433e 4b05 cbbe
000001b0: 7de5 98be 94e6 8ebe 1770 d0bd 1795 3dbd
000001c0: ac1d 11bf 9a2b efbd d6c4 c3bc fdd8 85be
000001d0: 2136 a3be 7de8 e03d 8f69 0cbd c156 64be
000001e0: 0732 50be 402c c7be 70d2 40be fa3d 9cbd
000001f0: bded 0c3e 29c5 44bd efca 6dbe f940 a6be
00000200: 153b cbbe d821 43be ffe5 afbe 7ba3 02be
00000210: a1fb f3bc 1f24 b3bc 312e 4dbd 6f75 babe
00000220: 7fe5 c8be 81cb 2dbe da98 9fbe 78c8 5a3c
00000230: ac02 b2bd f15a 533d cf7a e7be dc7d bbbd
00000240: 4c71 03bf 4b3a 93be 60ed 2ebe c01a 0fbe
00000250: 4929 94be 296a d0be 0702 f4bd c529 16bd
00000260: 1afa 52be 0167 8dbe 4b31 a4bd 3ff2 c0be
00000270: 25ed 113b 41d0 49be 216e debc c4f1 863c
00000280: bd6e 2bbe 3063 aebd 530a 8bbd 869b cdbd
00000290: 6d4f 5a3d 0bdf 4bbe 36b1 8fbe e7d9 0bbe
000002a0: 91c4 f3bd 49f1 4f3d bf7a f03c db93 8cbe
000002b0: cf66 d1be 0be7 19be b12e fcbe 0ab3 83bd
000002c0: b670 55be 98ca 83be 13ec 1cbe a2ec 2bbf
000002d0: 5215 893b 79f7 1fbe 9cbf a83a ec51 b0be
000002e0: 2165 a5be d35a 19be eea9 0dbe 3106 03be
000002f0: 9710 fcbb 4bd2 0abd f67e a5be 99df c7be
00000300: 32d6 57be 1e84 dabe d0e7 96bd a9d9 07be
00000310: bcd8 8cbe 6c0e 58be d437 4c3d b571 1dbd
00000320: 207f d7be 3777 68be 0167 5fbe 5385 bdbd
00000330: 6aa2 9cbe 6695 06bf 9840 49be 538d 9ebe
00000340: 16ab a6bd a516 b4be 39ca e2bd 6131 33be
00000350: 4f49 1cbe 02c2 91be 4052 02bf eb14 62bd
00000360: e723 56be 2373 743d f8c9 86be 206e efbd
00000370: 00c2 4fbe 660b f6be 83e3 c33d ecf4 a4be
00000380: f406 43be 66aa 87bc 16e9 5bbd 6422 12bd
00000390: 50ff 7ebe 5139 acbc 38eb 4cbe 94d3 a9be
000003a0: d782 cfbd e31c e8be aeb2 aa3a a780 debe
000003b0: bec9 55be 07b7 2dbe e70a 0dbe 518a e3be
000003c0: 027c d7bc 5b3c 2cbe 3a88 cfbc 7134 febd
000003d0: 8e64 6cbe 748d e6bd 0792 2fbe 689c 74bd
000003e0: be39 9cb9 c11f 0bbe 45b1 4dbd c957 2dbd
000003f0: 30c4 3bbe eca7 12bf 68ec edbe 3c27 a9bd
0.0353388 0.01890986 -0.33266756 -0.01730256 -0.45211938 -0.16959503 -0.09266988 -0.28388333
-0.35101324 0.045288112 -0.33004683 -0.32194334 -0.07855142 -0.15437801 -0.1317962 -0.21420926
-0.14192022 -0.32732266 -0.18413177 -0.2097997 -0.3867077 -0.384547 -0.34292534 0.10355664
-0.025034394 -0.36344564 -0.07296549 -0.03026764 -0.27859825 -0.50445604 -0.23207395 -0.46707135
-0.09756544 0.030555127 -0.2849233 0.0023016168 -0.12406046 -0.15267211 -0.14136083 -0.13272277
-0.48767558 -0.054200314 -0.110890076 -0.24675523 -0.2372134 -0.011308013 -0.2599082 -0.028462648
-0.16939105 -0.041512918 -0.36870638 0.094737634 -0.24657415 -0.1296594 -0.020948637 -0.37810984
-0.14782824 -0.6158299 -0.06922215 -0.29344627 -0.42208558 -0.2634537 -0.11731145 -0.05922886
-0.33793443 -0.37129846 -0.41516638 -0.061525524 -0.20284785 -0.088044204 -0.17139451 -0.20488647
-0.5504456 -0.4488559 -0.19550864 -0.15943141 -0.2000801 -0.3345579 -0.08214953 -0.24936678
-0.12565757 0.035243127 -0.5017842 -0.07621758 -0.32898024 -0.10659123 -0.27466542 -0.09900466
-0.48900715 -0.13097414 -0.28922907 -0.30759266 0.07175861 -0.077352874 -0.06860122 -0.25610673
-0.5067679 -0.35999596 -0.12744685 -0.13956045 -0.275804 -0.35533205 0.010278053 -0.3656412
-0.47048208 -0.031683054 0.19116543 -0.39652476 -0.29862586 -0.27910292 -0.101776294 -0.04628476
-0.566859 -0.11678238 -0.02389757 -0.2614211 -0.31877235 0.109818436 -0.034280356 -0.22298719
-0.20331584 -0.38900948 -0.18830276 -0.076290086 0.13762565 -0.04803959 -0.23221944 -0.32471445
-0.39693514 -0.19055879 -0.3435516 -0.12757675 -0.029783072 -0.02186781 -0.05009288 -0.3641772
-0.39237592 -0.16972162 -0.31171304 0.01335346 -0.08691916 0.0516004 -0.45210883 -0.09154865
-0.5134475 -0.28755412 -0.17082739 -0.13975048 -0.28937748 -0.40705994 -0.11914449 -0.03666093
-0.20603219 -0.27617648 -0.080172144 -0.3768482 0.0022266593 -0.19708349 -0.027152123 0.016472705
-0.16741462 -0.08515012 -0.067890786 -0.10039429 0.053298403 -0.19909303 -0.2806489 -0.13657342
-0.119027264 0.050767217 0.029355405 -0.27456555 -0.4089875 -0.15029542 -0.49254373 -0.06430633
-0.20843777 -0.25740504 -0.1532443 -0.6715795 0.00418345 -0.15621747 0.0012874487 -0.344375
-0.32303718 -0.14976053 -0.13834354 -0.1279533 -0.0076924074 -0.033891957 -0.32323426 -0.3903778
-0.21077803 -0.42678922 -0.073684335 -0.13266625 -0.27509105 -0.21099252 0.04985793 -0.038438518
-0.42089176 -0.22701727 -0.21816637 -0.09253945 -0.30592662 -0.52571714 -0.19653547 -0.30967197
-0.08138101 -0.35173526 -0.11073727 -0.17499305 -0.1526234 -0.2846833 -0.50906754 -0.05519573
-0.20912133 0.059680115 -0.26325965 -0.116909266 -0.20288849 -0.4805557 0.09564879 -0.3221811
-0.19045621 -0.016560744 -0.053689085 -0.03567733 -0.24902081 -0.021023424 -0.20011604 -0.33169234
-0.101323776 -0.4533454 0.0013023221 -0.4345753 -0.2087774 -0.1696435 -0.1377369 -0.44441465
-0.026304249 -0.16819899 -0.025333513 -0.12412346 -0.23085234 -0.11257449 -0.17145549 -0.059719473
-0.0002979766 -0.13586332 -0.050217886 -0.042320047 -0.18336558 -0.5728748 -0.46469426 -0.082594365

sequential_1/conv2d_3/Conv2D f4 [32, 3, 3, 3]
00000000: 6e28 963e 70b4 853a 1e4e 703d 7c83 1ebd
00000010: 0941 1bbc 569c 0abe cdb1 77bc 1cb1 d6bd
00000020: 1625 31b9 ea4a 6b3e 9b52 d3bd bda4 65bb
00000030: c9e7 c43d b8da 31be 394e 1abd 7ae3 203e
00000040: b8ba 2fbd 0165 13be 056b 4e3e 7b93 4dbe
00000050: 5d3f 10be e344 653d e0f7 68bd 2429 8cbd
00000060: b482 b33d eb25 18bc a439 b5bd 25a1 7d3d
00000070: eaed c43d 9ec8 213e 2426 053c 6ef1 003d
00000080: 1d05 f2bc 6082 123d 9124 083e 4d5e 523e
00000090: b472 ab3d efca c8bd 0b93 e43d 752e f4bd
000000a0: 4add 05be 50f0 55bd 77b9 ecbd 4a3d 11bc
000000b0: 5809 9c3d c727 a53c 6801 8b3d 0ec7 303d
000000c0: 7d6c 513c d801 6e3c b8a5 533d 9154 24be
000000d0: 83a9 aa3d 3912 ab3d d1f9 883d 10a2 babd
000000e0: 3a71 963c 6da3 73bc c89d 37bd ffb2 42be
000000f0: 53f4 813d f3fe 1f3e 0a22 ab3d 2218 91bd
00000100: 2011 23be 00ab 17bc 6673 c93d f4c6 a1bc
00000110: 3bbf 0b3c 71c7 2b3e 6c9a ce3d 00ba 5e3d
00000120: ab60 bcbd 4155 94bc 2727 debd 4396 4dbd
00000130: 30dd 0ebe 5571 3ebc 0d25 043d c07c 433e
00000140: 862b 4c3c 29f1 e23d 0459 023d 0de1 c43c
00000150: 5fd8 82bd e8ef 54bd 9411 f13c 5044 8bbd
00000160: e69c eebd 87c3 143e 2448 2c3e 16db ac3d
00000170: 4c08 ed3c 75d3 afbd ea05 57bd 172b f33d
00000180: 2a29 ecbd c95c 3ebc 3a81 2dbe 7354 fe3d
00000190: 9dd1 a53d 8f57 e23d 6165 8a3d f0d1 c73d
000001a0: c842 07be e0db a2ba a65a c4bd b62f b8bd
000001b0: 7f9b c13d 659e 623e 6e36 5d39 5efe 493e
000001c0: be27 453e de5c ff3d 03bf ac3c aaaa 28be
000001d0: 4281 ad3d 3251 f93d 5d31 353e b448 4a3d
000001e0: 18f7 04be e0e9 3d3c 6ae0 40bd d491 3ebe
000001f0: 4969 7abd 769d 72bd 2abc 66bd 14c3 8d3d
00000200: d181 ecbc dcfd 79be caaf d4bd e7f2 c5bd
00000210: eab2 cabd 20a8 e2bd 9e2d e5bd 5368 1b3e
00000220: 676b 0dbd 5b76 acbc a509 293d c348 b23d
00000230: 9716 3a3e 2aa5 e9bc ccf2 43be 4383 b5bd
00000240: 0c90 cc3d 684c a43d 9815 8bbd b543 20bd
00000250: 2b7e 893d 4366 903d 1b0d 18be 0edc 0f3c
00000260: dcde e5bd a642 0abe fe11 0a3e 5428 67bd
00000270: 7321 17bd 300c c93d bf4c 303d 251f b33d
00000280: f299 11be dc51 b73d 1db9 75be 962e 98be
00000290: cc1d cfbd 2281 23be 4a78 563d a9f6 c0bd
000002a0: 62b7 06be 3aae 113e 20ac 783d 1e01 463d
000002b0: 36cb 1ebe 1afb f7bd dc5e 593e 1836 6f3e
000002c0: faa6 283d daa6 7f3e 4d94 19bd 550e db3b
000002d0: 98b6 b13c 5c15 783d c17d 733d e55f 143e
000002e0: 8edf 473e 2be0 06be f95d 873d 11b2 24bd
000002f0: 0091 35be 7196 1d3e bb9d 03be 2d17 a7bd
00000300: cf10 a1bc 1202 023d b876 74bd 932d 09be
00000310: 5c6b 863c 6169 cb3d 9744 2c3e cea1 f73d
00000320: 7a8b 813c 9709 b5bd 4513 f0bd 7005 d8bc
00000330: 3edd 43be 39fd 52be 4f5e bdbd db17 513e
00000340: 92e7 093e 1ad9 31bc 1298 713e c213 993d
00000350: d1fb 9c3d 8ade b5bd 8faf 2c3d 86f9 c73b
00000360: 7adb 31be 8eb7 a8bd 247c 383e 96b6 8ebe
00000370: 6ca4 a3bd 06cd 44be 6fa9 06be 70f6 adbb
00000380: 0dc2 e53c a579 7ebe c11d 24be 9195 dfbd
00000390: 8ce2 b53d 8ffb 0bbe 5614 87bd bad8 3b3e
000003a0: ae27 bf39 4014 6d3c a46a ee3c 1ab5 febc
000003b0: 33ff e63d 6ec8 283e 3e2f 523e 6fff c43d
000003c0: f01c 623e 6ec1 673e 44b3 003d 5784 393c
000003d0: 4b67 25bd 9936 4fbe 521b 5fbe 2f97 3ebe
000003e0: de74 98be 79d0 d03c 6911 97be c3c2 fcbd
000003f0: ce80 c93c a90f c8bc be04 833d 7430 a73c
0.2932772 0.0010200869 0.05866825 -0.038699612 -0.009475955 -0.135362 -0.015118075 -0.10483
-0.00016893851 0.22977796 -0.1031849 -0.0035040819 0.09614522 -0.17368591 -0.037672255 0.15711775
-0.04290268 -0.14393999 0.20158012 -0.2007579 -0.14086671 0.0559739 -0.056877017 -0.068437845
0.08765164 -0.009286384 -0.08848885 0.061921258 0.09615691 0.15799186 0.008126769 0.031480245
-0.029543454 0.035768867 0.13295199 0.20543785 0.08371487 -0.098043315 0.11160859 -0.119229235
-0.13072696 -0.052231133 -0.11558812 -0.00886471 0.0761897 0.020160569 0.067873776 0.043158583
0.012782213 0.014526807 0.051671714 -0.16047885 0.08333113 0.08353085 0.06688274 -0.09112942
0.018364538 -0.014870507 -0.044828206 -0.19013594 0.06345429 0.15624599 0.08356102 -0.07084681
-0.15924501 -0.009257078 0.09836464 -0.019748189 0.00852948 0.167753 0.100880474 0.054376602
-0.091981255 -0.018107058 -0.108473115 -0.05019213 -0.13951564 -0.0116237 0.032261897 0.19090557
0.012461549 0.11081154 0.031823173 0.024033094 -0.06388926 -0.051986605 0.029427327 -0.06800139
-0.1165102 0.14527713 0.16824394 0.08440225 0.02893462 -0.08585254 -0.052495874 0.11873453
-0.11531289 -0.011618801 -0.16943827 0.12418451 0.08096621 0.11051857 0.06757618 0.09756839
-0.13209069 -0.0012425147 -0.09587602 -0.08993475 0.09453487 0.22130735 0.00021096479 0.1972594
0.19253442 0.12468885 0.021087175 -0.16471353 0.084719196 0.1217369 0.17694612 0.04938574
-0.12984884 0.011591405 -0.047089018 -0.18610317 -0.061135564 -0.059232198 -0.05633179 0.06921974
-0.028870495 -0.24413246 -0.103850916 -0.096654706 -0.098974064 -0.110672235 -0.111903414 0.15176515
-0.034526255 -0.02105253 0.041268963 0.087052844 0.1817268 -0.02852114 -0.19135588 -0.08862927
0.09988412 0.08022386 -0.06791228 -0.03912707 0.06713518 0.07050755 -0.1484875 0.0087804925
-0.11224148 -0.13501987 0.13483426 -0.056434944 -0.036897134 0.09816778 0.04304194 0.08746175
-0.14218882 0.0895116 -0.23996396 -0.29723042 -0.10113105 -0.15967229 0.05236081 -0.09422047
-0.13155892 0.14226618 0.060711026 0.04834091 -0.15507206 -0.12108441 0.21227592 0.23360479
0.041174866 0.24965993 -0.037494946 0.006685058 0.021693513 0.060567245 0.0594461 0.14489706
0.19518873 -0.13171451 0.06609721 -0.04020888 -0.17731094 0.1538942 -0.12853138 -0.08158717
-0.019661335 0.031740256 -0.05968353 -0.13396291 0.016408615 0.09932209 0.1682304 0.12091409
0.015813578 -0.0883972 -0.11722425 -0.02636978 -0.19127366 -0.2060441 -0.092465036 0.20419256
0.13467243 -0.010854984 0.23593166 0.07474472 0.07665218 -0.088803366 0.042159613 0.0061027436
-0.1736888 -0.08238135 0.18016106 -0.27873677 -0.07990345 -0.19218835 -0.13150571 -0.0053089187
0.028046632 -0.24851091 -0.16026975 -0.109171994 0.08881101 -0.1367018 -0.06595676 0.18344393
0.00036459923 0.01447016 0.029103585 -0.031092215 0.11279144 0.16482708 0.20525834 0.096190326
0.22081351 0.22632381 0.03142096 0.011323056 -0.04038171 -0.20235671 -0.21787766 -0.1861236
-0.29776663 0.025490033 -0.2950547 -0.12341835 0.024597552 -0.02442153 0.06397389 0.020408846

sequential_1/conv2d_4/Conv2D f4 [64, 3, 3, 32]
00000000: baca 9b3d ef36 b8bd e772 71bd 0472 73bd
00000010: 298e 333d 071b 40bc d076 1b3d 6873 2dbe
00000020: 16ee 0bbe b6e2 2ebc 3b09 44bc de14 90bd
00000030: 726a 893d 8e98 143d 7c10 bfba ead8 633d
00000040: 6284 54bd d74f 873d 8999 593d 75ae 9e3c
00000050: 98ca cbbd 8688 e73c 39ab 9f3d 6c62 f23c
00000060: eb13 a53d a4f0 63bb c314 383d 3730 a23d
00000070: 1f53 443d ddec f0bc c261 c7bc c7ec abbd
00000080: b238 693d 9895 ddbd abc2 5fbd 993a 73bd
00000090: d9fc f23b 61e4 fb3d 1e9a 8bbd 9664 c6bc
000000a0: 5c4f 48bb fe12 c1bd 1839 be3d 64e8 f3bd
000000b0: 896c 213e 469c 813d 6907 fbbd 3687 dabd
000000c0: 6b10 e03c 964b e43d 6120 273e 4484 8bbd
000000d0: ecd1 51be 0050 a1bd eda1 ac3d 06f2 ddbc
000000e0: 3820 063e ffaa 123d b0df 58bc 09d8 813d
000000f0: 1f52 93bd 7e88 9e3d 6cd3 cebd c761 15be
00000100: 1302 51bd 988c 0cbe 0a6e 4f3d 80a5 8dbd
00000110: d027 72bb d493 58bc 3842 153e 320e cbbd
00000120: 29c6 093e 52f3 123d 997e 9fbd d57a efbd
00000130: 9ec7 393d bd8a f53c ebb5 083d 0529 983c
00000140: dcc7 953d 6ede e6bd 0faf cf3d 54ff 75bc
00000150: 3bc8 51be 0aa7 453d 872c 45bd be1d b13c
00000160: edea 37bc 05dc c23d 9359 433d c0b5 9abd
00000170: 9612 aa3c 168c 66bd 6ca6 083c 831a e03d
00000180: 5caf 60bc d7f1 563b 37fb 10be f00d 0ebd
00000190: 2825 20bc ce7d 4e3d 1aff 34bd 712b 9b3d
000001a0: 6bee 2d3e 04b5 073e d90a 1abd d60b 0dbe
000001b0: af8e 0e3e be1f bcbd 943a 3c3d 654f 89bc
000001c0: c1bf 00bc 3218 ef3d ae21 b63d e28e 29bd
000001d0: b569 833e 92ec 26bc 662c d6bd 313a 57be
000001e0: 8fbd a03c a775 cabc 8172 5cbe 8ef2 ab3b
000001f0: b13b d23a 1a54 09bc e885 f73d b1cc 8fbd
00000200: e1c7 a03d 4523 6fbd 3ad3 0cbe 58e3 78bd
00000210: aa7a aabd 9a67 3f3d 83a4 2bbd a387 df3c
00000220: c5e2 343c e112 3c3d 622b 04bb ba48 33be
00000230: ca1a 223e e867 eabd 2358 733d 5fb6 6f3d
00000240: 40be d23d 51e1 b0bd 7363 143d ad52 463d
00000250: 7ab4 0c3e 0676 3d3d ec03 97bd 9ff5 43be
00000260: b508 81bd f564 923d 4e51 f6bd 5f92 9dbb
00000270: c76f a5bd 04f0 dbbd 3635 313d d31e 28be
00000280: 368c 24bd 0a62 d5bd fa1a b33b 3d02 8abd
00000290: 4053 a3bd 6deb 07be 3343 2a3c 1da6 413d
000002a0: c5d5 afbc 57bf 1ebd bc6b 963d 712c 3ebc
000002b0: f9ba 7d3d a009 0ebe 11a5 d03d 24a5 b2bb
000002c0: d4af 233d e833 afbd cba2 81bd 3262 af3d
000002d0: 0652 3fbd b0d4 83bd c029 dd3d e8b4 9cbd
000002e0: 8f9d b2bc 4d9e 40bb 0e1d 1abd ea8c e3bc
000002f0: b1af febd f89a f5bd 64e0 ed3c b978 cbbd
00000300: b7a0 46be 5d08 73bc fe78 5cbc 61da 0c3d
00000310: eaa0 953d 0db5 9c3d 79fb 5b3c 801a 653d
00000320: 5950 ac3d a4ba fe3d 7bcc 243e 5226 01bd
00000330: 2a2e a7bc 879a 66bd da36 643d aee6 d8bb
00000340: 7f69 ed3b ea43 9f3d 0ea8 533e cd1d 8ebc
00000350: c9fb f43d 59b9 97bd 1504 9b3d 6dcd 30bd
00000360: 58b5 c3bd e114 fb3d c2a6 4fbb 4d55 433d
00000370: f7a6 08bd 9b98 8abc f310 333e 46c2 3e3e
00000380: 07c9 92be 61b0 32bd 636a 70be ce4a 1b3e
00000390: 1e74 03be ee10 5f3e 23a8 21bc 49f0 1e3e
000003a0: c573 b83d a937 c73d 9c2e d4bd b625 913d
000003b0: 6082 4cbe 7204 f1bc 0221 863d 1692 01be
000003c0: f519 2ebe 5713 fd3c e7da b33d 253d 88be
000003d0: f96c 433e a429 8abe dbe9 02be 35d9 3bbe
000003e0: be56 0ebe cde9 a83c 2406 5bbe 4886 3f3e
000003f0: 34ad a5bd e162 523e c648 343e 2829 ad3d
0.076070264 -0.08994853 -0.05894747 -0.059434906 0.043836746 -0.011725194 0.037955105 -0.16938555
-0.13665041 -0.010674169 -0.011965091 -0.0703523 0.06709756 0.0362783 -0.0014577056 0.055626787
-0.051884063 0.06607025 0.05312494 0.019370297 -0.09950751 0.028263342 0.0779633 0.029587947
0.0806044 -0.0034780884 0.044941675 0.079193525 0.047930833 -0.02940982 -0.024338607 -0.08394771
0.056938834 -0.10819548 -0.05462901 -0.059382055 0.0074153957 0.12299419 -0.06816505 -0.024217885
-0.003056488 -0.094274506 0.092882335 -0.11909559 0.15764059 0.06328635 -0.12257273 -0.10670321
0.027351579 0.111472294 0.16320945 -0.06812337 -0.20490235 -0.07876587 0.084293224 -0.027092945
0.13098228 0.035807606 -0.013236925 0.063400336 -0.07193398 0.077408776 -0.10098919 -0.1458808
-0.05102737 -0.13725507 0.05064205 -0.06916332 -0.003695 -0.013218839 0.14576042 -0.09914817
0.13454498 0.03587658 -0.077878185 -0.1169335 0.045356385 0.029973382 0.033376615 0.018574247
0.07313511 -0.11272894 0.10140812 -0.015014488 -0.20486538 0.048255004 -0.048138168 0.021620627
-0.011225444 0.09514622 0.047692847 -0.07554197 0.020760816 -0.05628594 0.008340459 0.10942557
-0.013713684 0.0032797956 -0.14158331 -0.03468126 -0.009774484 0.050412945 -0.044188596 0.07576645
0.1698548 0.13252646 -0.037608 -0.13774046 0.13921617 -0.09185742 0.045954302 -0.016761491
-0.007858218 0.11674537 0.08893143 -0.04139603 0.25666586 -0.010188239 -0.10457687 -0.21018292
0.019621639 -0.024714304 -0.21528055 0.0052474206 0.0016039518 -0.008381868 0.120860875 -0.07021464
0.07850624 -0.058383245 -0.13752452 -0.060763687 -0.083241776 0.04672966 -0.041904937 0.027286356
0.011040394 0.04591644 -0.002016746 -0.17508212 0.15830532 -0.114456 0.059410226 0.058523532
0.102901936 -0.08636726 0.036227655 0.04841869 0.13740721 0.046255134 -0.07373795 -0.19136666
-0.06300489 0.07148162 -0.120272264 -0.0048087086 -0.080779605 -0.10739139 0.043263637 -0.16418009
-0.040172778 -0.1041909 0.0054658623 -0.06738708 -0.07974863 -0.13273402 0.010391998 0.04727756
-0.021464238 -0.038756695 0.073447675 -0.011607275 0.06194589 -0.13870859 0.10187734 -0.005451815
0.039962605 -0.08554822 -0.063298784 0.08563651 -0.046709083 -0.06437051 0.10798979 -0.07651693
-0.021803645 -0.002939123 -0.037625365 -0.027777154 -0.12435854 -0.119924486 0.029037662 -0.099351354
-0.19397245 -0.014833537 -0.013456581 0.03438795 0.073060825 0.0765172 0.013426655 0.055933475
0.084137626 0.124379426 0.16093628 -0.031530686 -0.020407755 -0.056299713 0.055716373 -0.006619296
0.007245242 0.077766255 0.20669577 -0.017348194 0.11962087 -0.07408399 0.07569138 -0.04316466
-0.09556073 0.12259842 -0.0031685089 0.04768877 -0.033362355 -0.016918471 0.17486934 0.18628797
-0.28668997 -0.04362524 -0.23478083 0.15165254 -0.12837264 0.21783802 -0.009866747 0.15521349
0.09006456 0.09727413 -0.103604525 0.07087271 -0.19971609 -0.029421065 0.065492645 -0.12653384
-0.1700209 0.030893011 0.08781987 -0.2660915 0.19084539 -0.26984894 -0.12784521 -0.18344577
-0.13900277 0.020619297 -0.21389061 0.18703568 -0.080896765 0.20545532 0.17605886 0.084551156

sequential_1/conv2d_5/Conv2D f4 [64, 3, 3, 64]
00000000: 158c 913c 6df9 023e 0cfa ecbc 0664 92bd
00000010: 325d acbd 5c74 b9bd e996 8dbc ab9f a43d
00000020: 5ec4 4fbd e15c 0fbd e1e4 f93b 4f11 dd3c
00000030: 901a 163d 6e5d 2b3d 6cdc 1f3c 41bb a8bd
00000040: 2859 ffbc 77fe 8fbd 1267 28bc df76 103e
00000050: 90ac c5bc e765 4c3d 2ee6 f93d d38c a53d
00000060: ec0a 1f3d aa22 12be 8c5f 6c3d 8cbf 153e
00000070: 349a efbc 7714 adbb e1fb cb3c 95d6 9f3d
00000080: 8123 933d e99d 6a3c 90eb be3c de20 33bd
00000090: a5f2 cabd 5629 1bbd f0ec 5ebd f989 01be
000000a0: a56f c73d 670e cfbc 0454 833d 05f1 19be
000000b0: a927 c2bc 9ea5 863d bbcc 293c 2a57 4c3c
000000c0: 8e8f cb3d e30a 41bd 3de7 7fbd 2f0a b53c
000000d0: a824 09be 09a3 c03d 3d89 58bc a546 763d
000000e0: cf2b 383d 4c4d 6ebd cc02 823c e4fb ca3d
000000f0: b0ce 083e 454d 9f3b 63cb 363d 41ed ed3d
00000100: 28a3 443c 61cf 8dbd c65a 9d3c 3d5a 18bd
00000110: 4b40 76bc fa96 c83b f03d 86bd 732d 67bc
00000120: 46d7 14be 915b 4abc a686 f7bd e8eb 003e
00000130: 5f07 e83c fbc0 573d c193 183e 5bf3 c63d
00000140: 9d73 6a3e 2f8f 0abe 2e20 a7bd d226 843c
00000150: a7c5 51bd 74bf 1b3c a47d f73c cad6 403e
00000160: d149 7dbc f656 a7bd f16e 0e3d 620e 5c3e
00000170: 8748 1e3d 8343 113e d5aa 613c 8af7 b8bd
00000180: 0f84 18bd 1510 cbbd ee14 92bc d81a 3abd
00000190: ca1a 943b 4e04 9dbd 5f28 8dba 40e3 0bbd
000001a0: afe1 5fba 06e6 56bd e111 1e3e 81cb 243d
000001b0: 3547 74bc d8f3 87bd d081 7b3e 8b7d 263c
000001c0: 5a1e 433d d04e 06bd 226b 1dbd fe96 123e
000001d0: d793 90bd a81b aa3d bd05 04bc 3df7 99bc
000001e0: ef95 233d 8bcb a03c 922b 17b9 8553 a63d
000001f0: 385b 74bd 8e06 913c 36e5 703d fae2 1f3e
00000200: c918 183c d88e c6bd 13a2 7abd fdac 483d
00000210: aaa9 5c3d ecca 02be f131 8abd be4f 963d
00000220: 9038 0dbd 09a3 86bd 5da2 b53b ab82 cf3d
00000230: 0025 df3d 0d6f 423d 223a 833e 1074 8b3d
00000240: 42e9 7f3e 3ada e13d baf8 66bd df53 fb3d
00000250: 1715 82bd e213 893d 7b31 5bbd 624d 903e
00000260: f818 2bbe a1e2 a7bd 0cdf 06be 5d8f dc3d
00000270: 6819 043b e7cc 073e 2d11 ec3d d09c 773d
00000280: 436e 52bc b937 06be c6a5 733d e090 a9bc
00000290: 1dfe 173e 95ca 2d39 e13e bb3d 03bb 3d3d
000002a0: 43ec ba3d c435 96bd 3174 223d b92a dc3c
000002b0: 0552 3cbd 1030 e6bc 9832 7b3e 809d 8d3d
000002c0: 73e9 453d 727b f83c 2305 6c3d 6842 0bbe
000002d0: c06b a3bd 6ac7 b7bc 3c04 efbc ac73 1abe
000002e0: 10ac efbd 5cf0 113d 18a6 bbbd 77b5 2a3c
000002f0: 87fc 363d e24b a5bc c07b 06bc a3ab fc3d
00000300: 3e86 1c3d 640e 303e 2e27 593d e1f8 4dbd
00000310: f1e3 86bd 02d0 903d d4ef 833d 5a24 b7bc
00000320: dbd3 eabd 6848 e5bc 064c 9bbd 6285 4c3d
00000330: 9302 3a3d 1059 043d 1886 e9bd 970f 813d
00000340: a047 02bd 7a09 cebb be81 79bd 9abd 343b
00000350: 16af 77bd fbde df3d f858 d53d dd6c ee3d
00000360: 35c8 da3c f930 51bd a686 853b a280 0c3e
00000370: 4c58 b0bd 01f8 25bd 0884 a93c ebe5 aabd
00000380: 5361 b63d b1e2 373d 7e68 83bb 282e eabc
00000390: 1e49 28bd 379f 66bd 7e73 0fbe 30fc 9ebc
000003a0: 5f25 b23d ad09 013d 620d 44bd 19cf 96bd
000003b0: 6640 733b 021b e2bc 4765 06bd d7fd 043d
000003c0: 3e15 93bb de38 eabc 5f19 3ebd f339 fbbd
000003d0: 8206 17be 43ff 7dbc b88b c73d b408 653b
000003e0: b0cc 89bd 46e0 3fbd fd06 bb3d 781f 3bbd
000003f0: 1ecb 633d 554e f5bc 986e 643c d8dc 2c3d
0.017766992 0.12790461 -0.028927825 -0.07147984 -0.08416213 -0.09055397 -0.017283874 0.08038267
-0.05072438 -0.035000686 0.0076261614 0.026985792 0.036646426 0.04183715 0.0097571425 -0.08238841
-0.031170443 -0.07030957 -0.01027848 0.14107846 -0.024130136 0.04990187 0.122021064 0.08083501
0.038828775 -0.14271036 0.057708308 0.1462385 -0.029248334 -0.0052819806 0.024900379 0.078046
0.07184506 0.014319875 0.023305684 -0.043732516 -0.09909562 -0.037881218 -0.05442518 -0.12650289
0.097380914 -0.025275422 0.06412509 -0.15033348 -0.023700552 0.06574558 0.010363753 0.012471953
0.0993949 -0.047129523 -0.062476385 0.022099582 -0.1339289 0.094060965 -0.013216314 0.060125966
0.044963654 -0.058179185 0.015870474 0.099113256 0.13360095 0.004861506 0.04462756 0.11617518
0.01200179 -0.0692432 0.019208323 -0.037195433 -0.015029977 0.0061215134 -0.065547824 -0.014109957
-0.14535245 -0.012350933 -0.12086229 0.12589991 0.028323827 0.052674275 0.14900114 0.09714385
0.22895665 -0.13531183 -0.08160435 0.016131792 -0.051213887 0.009506095 0.030211277 0.18831936
-0.015459494 -0.08170883 0.03477377 0.21489862 0.038643386 0.1418591 0.01377364 -0.09031589
-0.037235316 -0.09915177 -0.017832246 -0.045435756 0.004519795 -0.07666837 -0.0010769478 -0.03415227
-0.00085404044 -0.05246546 0.15436508 0.04023314 -0.014909555 -0.066383064 0.24561238 0.010161768
0.047636367 -0.032790005 -0.038432248 0.14315411 -0.07059448 0.08306056 -0.008058009 -0.01879465
0.03993791 0.019628307 -0.00014416713 0.08121399 -0.059657305 0.01770332 0.058812343 0.15613928
0.009283253 -0.09695214 -0.061189722 0.0489931 0.05387274 -0.12772721 -0.06747807 0.07339428
-0.03447777 -0.06574065 0.005543037 0.10132345 0.10895729 0.047469188 0.2563029 0.068092465
0.24991325 0.110279515 -0.056389548 0.122718565 -0.06351679 0.066932455 -0.053513985 0.28184038
-0.16708744 -0.08197523 -0.13171023 0.10769532 0.0020156745 0.13261758 0.115267135 0.060452282
-0.012843671 -0.13107194 0.059484266 -0.020698965 0.1484303 0.00016574033 0.091428526 0.046320926
0.091270946 -0.07334474 0.03966159 0.02687584 -0.045976657 -0.02809909 0.24531019 0.06914806
0.048318338 0.0303323 0.057622086 -0.1359955 -0.07979536 -0.022433955 -0.029176824 -0.15083188
-0.1170274 0.035629615 -0.09162539 0.010419241 0.044674423 -0.020177785 -0.008208215 0.123374246
0.03821396 0.1719299 0.05301588 -0.050286178 -0.06586445 0.07070924 0.06442228 -0.022356201
-0.114661895 -0.027988628 -0.0758286 0.04993189 0.04541261 0.0323115 -0.114025295 0.06301802
-0.03180659 -0.006287751 -0.060914747 0.0027578832 -0.06046971 0.10931202 0.1041736 0.11641858
0.026706794 -0.051072095 0.0040748892 0.13720945 -0.08610591 -0.040519718 0.02069284 -0.083446346
0.08905282 0.044893924 -0.004010259 -0.028586462 -0.041085355 -0.056304183 -0.140089 -0.019407362
0.08698534 0.03150337 -0.047864325 -0.073637195 0.0037117242 -0.027600769 -0.03281143 0.032468643
-0.0044886163 -0.02859157 -0.046410915 -0.12266912 -0.14748576 -0.015502754 0.09743446 0.0034947814
-0.06728494 -0.046844743 0.09132192 -0.045684308 0.05561363 -0.029944578 0.013942383 0.0422028
