dig-s0-q.tflite (tflite, 338000 bytes, 5 tensors)

sequential/dense/MatMul i1 [512, 512] scale=0.0026676008 zero_point=0
00000000: 0e1c f408 f408 03f9 f0e7 f50f 00ee f100
00000010: f617 e6fb fac1 0be5 e1d2 1a00 e029 ebfa
00000020: 15e3 4206 07f3 36df 1d20 d505 1013 2b11
00000030: 140d 0cd7 fcff e704 3522 e9e4 f906 f528
00000040: ebf9 f6c3 1014 f315 e0ea 13dd 171c e5ee
00000050: e812 e6ef f8fa 161f fdf3 04e6 100b eccf
00000060: 0502 03dd def2 3403 1e2a 120f f018 00d9
00000070: 3912 dce0 0503 1a04 dd06 e1f5 2606 2111
00000080: 0afb eb35 f6fc e5f8 2c3b 00ff 09e7 edd8
00000090: c425 380a 0be0 0ce6 2c0b fcf1 1901 12fa
000000a0: f20f 01fc c6f2 f82b f9ec fe18 12fb efe9
000000b0: fa21 f7de ec11 ea13 ec18 00e0 ab1e 00e7
000000c0: fe05 12d2 f8b8 17f2 1bee ecf7 f904 1a07
000000d0: 1e58 380b da00 fffd daf9 feed f51a 1af4
000000e0: 08ea d29f fcef 0bfe 07f8 ec03 e4d8 deee
000000f0: 17f7 de05 dd28 0feb bce6 0afa cc1a feee
0.03734641 0.07469282 -0.03201121 0.021340806 -0.03201121 0.021340806 0.008002803 -0.018673206
-0.042681612 -0.06669002 -0.029343609 0.04001401 0.0 -0.048016813 -0.04001401 0.0
-0.026676007 0.061354816 -0.06935762 -0.013338003 -0.016005605 -0.16805884 0.029343609 -0.07202522
-0.082695626 -0.12270963 0.06935762 0.0 -0.085363224 0.10937163 -0.056019615 -0.016005605
0.056019615 -0.07736042 0.17606165 0.016005605 0.018673206 -0.03467881 0.14405043 -0.08803082
0.07736042 0.085363224 -0.11470683 0.013338003 0.042681612 0.050684415 0.11470683 0.045349214
0.053352013 0.03467881 0.03201121 -0.10937163 -0.010670403 -0.0026676008 -0.06669002 0.010670403
0.14138284 0.09069843 -0.061354816 -0.07469282 -0.018673206 0.016005605 -0.029343609 0.10670403
-0.056019615 -0.018673206 -0.026676007 -0.16272365 0.042681612 0.053352013 -0.03467881 0.056019615
-0.085363224 -0.058687218 0.050684415 -0.09336603 0.061354816 0.07469282 -0.07202522 -0.048016813
-0.06402242 0.048016813 -0.06935762 -0.045349214 -0.021340806 -0.016005605 0.058687218 0.082695626
-0.008002803 -0.03467881 0.010670403 -0.06935762 0.042681612 0.029343609 -0.053352013 -0.13071243
0.013338003 0.0053352015 0.008002803 -0.09336603 -0.09069843 -0.03734641 0.13871524 0.008002803
0.08002802 0.11203923 0.048016813 0.04001401 -0.042681612 0.06402242 0.0 -0.10403643
0.15205324 0.048016813 -0.096033625 -0.085363224 0.013338003 0.008002803 0.06935762 0.010670403
-0.09336603 0.016005605 -0.082695626 -0.029343609 0.10136883 0.016005605 0.08803082 0.045349214
0.026676007 -0.013338003 -0.056019615 0.14138284 -0.026676007 -0.010670403 -0.07202522 -0.021340806
0.117374435 0.15738845 0.0 -0.0026676008 0.024008406 -0.06669002 -0.050684415 -0.10670403
-0.16005604 0.09870123 0.14938565 0.026676007 0.029343609 -0.085363224 0.03201121 -0.06935762
0.117374435 0.029343609 -0.010670403 -0.04001401 0.06669002 0.0026676008 0.048016813 -0.016005605
-0.03734641 0.04001401 0.0026676008 -0.010670403 -0.15472084 -0.03734641 -0.021340806 0.11470683
-0.018673206 -0.053352013 -0.0053352015 0.06402242 0.048016813 -0.013338003 -0.045349214 -0.061354816
-0.016005605 0.08803082 -0.024008406 -0.09069843 -0.053352013 0.045349214 -0.058687218 0.050684415
-0.053352013 0.06402242 0.0 -0.085363224 -0.22674607 0.08002802 0.0 -0.06669002
-0.0053352015 0.013338003 0.048016813 -0.12270963 -0.021340806 -0.19206725 0.061354816 -0.03734641
0.07202522 -0.048016813 -0.053352013 -0.024008406 -0.018673206 0.010670403 0.06935762 0.018673206
0.08002802 0.23474887 0.14938565 0.029343609 -0.10136883 0.0 -0.0026676008 -0.008002803
-0.10136883 -0.018673206 -0.0053352015 -0.050684415 -0.029343609 0.06935762 0.06935762 -0.03201121
0.021340806 -0.058687218 -0.12270963 -0.25875726 -0.010670403 -0.045349214 0.029343609 -0.0053352015
0.018673206 -0.021340806 -0.053352013 0.008002803 -0.07469282 -0.10670403 -0.09069843 -0.048016813
0.061354816 -0.024008406 -0.09069843 0.013338003 -0.09336603 0.10670403 0.04001401 -0.056019615
-0.18139686 -0.06935762 0.026676007 -0.016005605 -0.13871524 0.06935762 -0.0053352015 -0.048016813

sequential/dense_1/MatMul i1 [11, 512] scale=0.004714326 zero_point=0
00000000: 04a2 fa00 fbb0 ebc2 cf0e dbc1 e1cd c2a7
00000010: fae2 dae5 0bf5 cfc8 cfc1 d1a8 cdc0 cfc3
00000020: d0f3 cd98 f9ca c8ec e1b5 e7fd f9c6 a405
00000030: 04e8 f9cf 0cff 12f1 dfb7 df1e f2f7 07f7
00000040: f4af eedf cfd3 e3c5 a9b7 f202 0701 00fe
00000050: c3ea dbba e7ff 0bd8 d1e9 e0d3 1a9f d5ca
00000060: f7c6 ca0e d3ea ffdd baf2 bce7 06ec e1ae
00000070: dcd0 dbee bde3 c8f4 fed7 aefd d9d5 04cc
00000080: cfbf d5ca caf7 e9cb d2cb d6cf d30f c1c3
00000090: aee2 cfc7 aac3 c8d1 e7f4 a5f2 c4f5 fef3
000000a0: f2e6 fcce fbe4 ead7 07fb 00c0 d6f1 c209
000000b0: c8ac eaf5 e809 b4c3 aac7 e018 000d 94da
000000c0: d3f8 e9b9 ecda b4cc 0101 b6f2 d9dc e8b9
000000d0: d1b7 09b7 b2dc c1f1 cfc1 edf5 fed6 acf4
000000e0: bff3 bef0 d1da 9ecb a4f1 e1c2 e502 f606
000000f0: fbaf fcf7 fad8 d0e5 e202 e7ba aeb5 e2ea
0.018857304 -0.44314665 -0.028285956 0.0 -0.02357163 -0.37714607 -0.09900085 -0.2922882
-0.23100197 0.066000566 -0.17443006 -0.29700252 -0.1461441 -0.24043062 -0.2922882 -0.419575
-0.028285956 -0.14142978 -0.17914438 -0.1272868 0.051857587 -0.051857587 -0.23100197 -0.26400226
-0.23100197 -0.29700252 -0.22157332 -0.4148607 -0.24043062 -0.30171686 -0.23100197 -0.28757387
-0.22628765 -0.061286237 -0.24043062 -0.4902899 -0.033000283 -0.2545736 -0.26400226 -0.09428652
-0.1461441 -0.35357445 -0.11785815 -0.014142978 -0.033000283 -0.2734309 -0.433718 0.02357163
0.018857304 -0.113143824 -0.033000283 -0.23100197 0.056571912 -0.004714326 0.084857866 -0.07071489
-0.15557276 -0.3441458 -0.15557276 0.14142978 -0.066000566 -0.042428933 0.033000283 -0.042428933
-0.056571912 -0.3818604 -0.084857866 -0.15557276 -0.23100197 -0.21214467 -0.13671546 -0.27814522
-0.41014636 -0.3441458 -0.066000566 0.009428652 0.033000283 0.004714326 0.0 -0.009428652
-0.28757387 -0.103715174 -0.17443006 -0.3300028 -0.11785815 -0.004714326 0.051857587 -0.18857303
-0.22157332 -0.1084295 -0.15085843 -0.21214467 0.122572474 -0.45728964 -0.20271602 -0.2545736
-0.042428933 -0.2734309 -0.2545736 0.066000566 -0.21214467 -0.103715174 -0.004714326 -0.1650014
-0.3300028 -0.066000566 -0.32057416 -0.11785815 0.028285956 -0.09428652 -0.1461441 -0.38657475
-0.16971573 -0.22628765 -0.17443006 -0.084857866 -0.31585985 -0.13671546 -0.26400226 -0.056571912
-0.009428652 -0.19328737 -0.38657475 -0.014142978 -0.18385871 -0.20271602 0.018857304 -0.24514495
-0.23100197 -0.3064312 -0.20271602 -0.2545736 -0.2545736 -0.042428933 -0.1084295 -0.24985927
-0.216859 -0.24985927 -0.1980017 -0.23100197 -0.21214467 0.07071489 -0.29700252 -0.28757387
-0.38657475 -0.14142978 -0.23100197 -0.26871657 -0.40543205 -0.28757387 -0.26400226 -0.22157332
-0.11785815 -0.056571912 -0.42900366 -0.066000566 -0.28285956 -0.051857587 -0.009428652 -0.061286237
-0.066000566 -0.122572474 -0.018857304 -0.2357163 -0.02357163 -0.13200113 -0.103715174 -0.19328737
0.033000283 -0.02357163 0.0 -0.30171686 -0.1980017 -0.07071489 -0.2922882 0.042428933
-0.26400226 -0.3960034 -0.103715174 -0.051857587 -0.113143824 0.042428933 -0.35828876 -0.28757387
-0.40543205 -0.26871657 -0.15085843 0.113143824 0.0 0.061286237 -0.5091472 -0.17914438
-0.21214467 -0.037714608 -0.1084295 -0.33471715 -0.09428652 -0.17914438 -0.35828876 -0.24514495
0.004714326 0.004714326 -0.3488601 -0.066000566 -0.18385871 -0.16971573 -0.113143824 -0.33471715
-0.22157332 -0.3441458 0.042428933 -0.3441458 -0.36771742 -0.16971573 -0.29700252 -0.07071489
-0.23100197 -0.29700252 -0.08957219 -0.051857587 -0.009428652 -0.1980017 -0.3960034 -0.056571912
-0.3064312 -0.061286237 -0.3111455 -0.075429216 -0.22157332 -0.17914438 -0.46200395 -0.24985927
-0.433718 -0.07071489 -0.1461441 -0.2922882 -0.1272868 0.009428652 -0.04714326 0.028285956
-0.02357163 -0.3818604 -0.018857304 -0.042428933 -0.028285956 -0.18857303 -0.22628765 -0.1272868
-0.14142978 0.009428652 -0.11785815 -0.3300028 -0.38657475 -0.35357445 -0.14142978 -0.103715174

sequential/conv2d/Conv2D i1 [32, 3, 3, 3]
00000000: 29cd eb16 bef5 a4b2 1855 7f05 e3b0 d79b
00000010: c9dc 7162 2011 721d d4dc 2ab8 0481 045e
00000020: 4547 351a 6a32 e8f6 421a cb04 5005 231d
00000030: cd9f 3a8a 82bf 0f48 0e03 f7c4 20d3 3bfa
00000040: 047f c216 bc27 e3c6 1c51 1994 bcdf fcd7
00000050: fae3 81bf d7df 2136 120c 9df3 e25d 1fd4
00000060: d04f f5fd fdd8 1764 71ee f1bb cfff 6da5
00000070: 86c1 55ef 9653 eb09 131b cf6a 00f8 f67f
00000080: 190c 7f5b d29c bd06 d112 7f24 2707 13f2
00000090: f12b d345 3040 e298 f252 1d29 3409 cfa3
000000a0: a8e8 7f5b 5666 78e0 0a47 4828 c3e9 24cf
000000b0: abb4 b7b0 ce97 ece6 cd0f f9e3 221d 3460
000000c0: 9cbb d10f e4ad b3c5 c3bd f3c6 35fe dfe0
000000d0: d9fd 614a 7f3e 6f43 81a5 f8f4 e1e7 2f41
000000e0: e6e2 cac2 141a fc2f 55fd e035 0e5b 1e7a
000000f0: 17dc 0245 ee0d eaf5 42bb b681 c72a 2c5a
41 -51 -21 22 -66 -11 -92 -78
24 85 127 5 -29 -80 -41 -101
-55 -36 113 98 32 17 114 29
-44 -36 42 -72 4 -127 4 94
69 71 53 26 106 50 -24 -10
66 26 -53 4 80 5 35 29
-51 -97 58 -118 -126 -65 15 72
14 3 -9 -60 32 -45 59 -6
4 127 -62 22 -68 39 -29 -58
28 81 25 -108 -68 -33 -4 -41
-6 -29 -127 -65 -41 -33 33 54
18 12 -99 -13 -30 93 31 -44
-48 79 -11 -3 -3 -40 23 100
113 -18 -15 -69 -49 -1 109 -91
-122 -63 85 -17 -106 83 -21 9
19 27 -49 106 0 -8 -10 127
25 12 127 91 -46 -100 -67 6
-47 18 127 36 39 7 19 -14
-15 43 -45 69 48 64 -30 -104
-14 82 29 41 52 9 -49 -93
-88 -24 127 91 86 102 120 -32
10 71 72 40 -61 -23 36 -49
-85 -76 -73 -80 -50 -105 -20 -26
-51 15 -7 -29 34 29 52 96
-100 -69 -47 15 -28 -83 -77 -59
-61 -67 -13 -58 53 -2 -33 -32
-39 -3 97 74 127 62 111 67
-127 -91 -8 -12 -31 -25 47 65
-26 -30 -54 -62 20 26 -4 47
85 -3 -32 53 14 91 30 122
23 -36 2 69 -18 13 -22 -11
66 -69 -74 -127 -57 42 44 90

sequential/conv2d_1/Conv2D i1 [64, 3, 3, 32]
00000000: 2bd2 fbf4 fbcf 1ee6 0e09 f223 291a 1fcd
00000010: 3900 1e17 a5f9 12c2 04da f7e4 0b3f 0cfa
00000020: f0d3 c3e7 2334 810d dd04 e4c0 ff02 3c9c
00000030: ddef 3316 cbfd c4eb c411 ee0a d9e4 e1ed
00000040: 0ae4 13c9 59e4 8bb9 00c6 ea23 e8d2 16dc
00000050: c68e bcc7 d9ee c6e1 11a9 d336 1404 b0c7
00000060: e9db 0618 e4fd eb55 05da d006 04b4 0907
00000070: d3db e724 09e9 f835 cfef f70c cb06 1013
00000080: dc04 ea2e da2d bdfd 27e4 08ff 95a6 fd82
00000090: a2b2 d511 b0cd e9dd cdbf f00a e12c 25fa
000000a0: e2d4 1308 1724 f120 fac2 e8fc d3ad 1b3c
000000b0: d6b1 0eee d8f0 4d20 f513 d243 f611 25e8
000000c0: dc27 4827 e136 f946 58c8 08e4 ded8 fa35
000000d0: b4ec 311a 4012 153d 44ff fb1c 1449 110c
000000e0: 1444 2b04 d418 14f3 3518 cdf4 dabd c945
000000f0: dee9 f8df f218 3e2d 2e25 1c34 f929 eb21
43 -46 -5 -12 -5 -49 30 -26
14 9 -14 35 41 26 31 -51
57 0 30 23 -91 -7 18 -62
4 -38 -9 -28 11 63 12 -6
-16 -45 -61 -25 35 52 -127 13
-35 4 -28 -64 -1 2 60 -100
-35 -17 51 22 -53 -3 -60 -21
-60 17 -18 10 -39 -28 -31 -19
10 -28 19 -55 89 -28 -117 -71
0 -58 -22 35 -24 -46 22 -36
-58 -114 -68 -57 -39 -18 -58 -31
17 -87 -45 54 20 4 -80 -57
-23 -37 6 24 -28 -3 -21 85
5 -38 -48 6 4 -76 9 7
-45 -37 -25 36 9 -23 -8 53
-49 -17 -9 12 -53 6 16 19
-36 4 -22 46 -38 45 -67 -3
39 -28 8 -1 -107 -90 -3 -126
-94 -78 -43 17 -80 -51 -23 -35
-51 -65 -16 10 -31 44 37 -6
-30 -44 19 8 23 36 -15 32
-6 -62 -24 -4 -45 -83 27 60
-42 -79 14 -18 -40 -16 77 32
-11 19 -46 67 -10 17 37 -24
-36 39 72 39 -31 54 -7 70
88 -56 8 -28 -34 -40 -6 53
-76 -20 49 26 64 18 21 61
68 -1 -5 28 20 73 17 12
20 68 43 4 -44 24 20 -13
53 24 -51 -12 -38 -67 -55 69
-34 -23 -8 -33 -14 24 62 45
46 37 28 52 -7 41 -21 33

sequential/conv2d_2/Conv2D i1 [64, 3, 3, 64]
00000000: c80b 20e8 f1ef 170a cfde 0c31 ff59 e925
00000010: 24c1 e4be e807 0f38 f2f7 3911 d409 0ba2
00000020: e70f d60e edef 0ef0 dc3c f307 c2e0 3707
00000030: f708 bb14 f5df fbd3 29ce ebf8 4507 c7ee
00000040: 1ad1 9e29 f9e3 ddd9 e218 e935 1a21 fa03
00000050: 10f3 d909 0a14 0b1d cafa 0814 e57f 28fd
00000060: 1232 2b1f f7b3 1324 3600 1af0 f10d 0f07
00000070: e334 d81c c4ca 12d6 cd1c e62f 3aeb af0e
00000080: fb41 a7e3 0b0c ecc0 fef9 f913 cb4d d50f
00000090: f00a f210 fcd0 0e04 dad3 1e00 def7 f222
000000a0: 07d5 2bfa d4ea 03e4 06fa f8da ed2d e8d8
000000b0: fb23 abed 0012 e495 dec8 b10c aee0 221d
000000c0: 07f9 ffd9 0016 0ce7 ee31 d5df daeb 0df0
000000d0: ffc0 f4d6 18f8 3a0f 0221 e9d8 de2a 25d5
000000e0: fb12 0aea 1feb 1bd4 0f19 10f6 be25 1714
000000f0: d81b dc14 e4e8 07df e20c e12b 3de2 e2e3
-56 11 32 -24 -15 -17 23 10
-49 -34 12 49 -1 89 -23 37
36 -63 -28 -66 -24 7 15 56
-14 -9 57 17 -44 9 11 -94
-25 15 -42 14 -19 -17 14 -16
-36 60 -13 7 -62 -32 55 7
-9 8 -69 20 -11 -33 -5 -45
41 -50 -21 -8 69 7 -57 -18
26 -47 -98 41 -7 -29 -35 -39
-30 24 -23 53 26 33 -6 3
16 -13 -39 9 10 20 11 29
-54 -6 8 20 -27 127 40 -3
18 50 43 31 -9 -77 19 36
54 0 26 -16 -15 13 15 7
-29 52 -40 28 -60 -54 18 -42
-51 28 -26 47 58 -21 -81 14
-5 65 -89 -29 11 12 -20 -64
-2 -7 -7 19 -53 77 -43 15
-16 10 -14 16 -4 -48 14 4
-38 -45 30 0 -34 -9 -14 34
7 -43 43 -6 -44 -22 3 -28
6 -6 -8 -38 -19 45 -24 -40
-5 35 -85 -19 0 18 -28 -107
-34 -56 -79 12 -82 -32 34 29
7 -7 -1 -39 0 22 12 -25
-18 49 -43 -33 -38 -21 13 -16
-1 -64 -12 -42 24 -8 58 15
2 33 -23 -40 -34 42 37 -43
-5 18 10 -22 31 -21 27 -44
15 25 16 -10 -66 37 23 20
-40 27 -36 20 -28 -24 7 -33
-30 12 -31 43 61 -30 -30 -29
