dig-s2-q.tflite (tflite, 98560 bytes, 5 tensors)

sequential_2/dense_4/MatMul i1 [256, 256] scale=0.003907315 zero_point=0
000000 0a 15 da 26 0e 12 0a 03 23 13 06 46 20 08 c8 02
       0.03907315 0.08205362 -0.14847797 0.14847797 0.05470241 0.07033167 0.03907315 0.011721944 0.13675602 0.074238986 0.023443889 0.27351204 0.12503408 0.03125852 -0.21880963 0.00781463
000010 0e 0e 0a d5 1b eb 08 07 eb 18 17 1a 16 04 f9 24
       0.05470241 0.05470241 0.03907315 -0.16801454 0.1054975 -0.08205362 0.03125852 0.027351204 -0.08205362 0.093775555 0.08986825 0.10159019 0.08596093 0.01562926 -0.027351204 0.14066334
000020 0d 1d fb 04 24 11 1e fd 1c 1d 29 32 2f 17 10 10
       0.050795093 0.11331213 -0.019536575 0.01562926 0.14066334 0.066424355 0.11721945 -0.011721944 0.10940482 0.11331213 0.16019991 0.19536574 0.1836438 0.08986825 0.06251704 0.06251704
000030 01 1e 0d f7 1b f8 16 06 f7 f8 33 03 fa 03 ef 00
       0.003907315 0.11721945 0.050795093 -0.035165835 0.1054975 -0.03125852 0.08596093 0.023443889 -0.035165835 -0.03125852 0.19927306 0.011721944 -0.023443889 0.011721944 -0.066424355 0.0
000040 f8 17 32 2e fa 10 ff 41 51 f4 ee f9 0c eb e1 42
       -0.03125852 0.08986825 0.19536574 0.1797365 -0.023443889 0.06251704 -0.003907315 0.25397548 0.3164925 -0.046887778 -0.07033167 -0.027351204 0.046887778 -0.08205362 -0.12112676 0.25788277
000050 28 f1 21 04 05 14 11 32 04 df 30 f4 0f 02 3a 17
       0.1562926 -0.058609724 0.12894139 0.01562926 0.019536575 0.0781463 0.066424355 0.19536574 0.01562926 -0.12894139 0.18755111 -0.046887778 0.058609724 0.00781463 0.22662427 0.08986825
000060 c8 0b 12 32 f7 32 07 fe 19 10 2a dd 03 1f f3 f8
       -0.21880963 0.042980466 0.07033167 0.19536574 -0.035165835 0.19536574 0.027351204 -0.00781463 0.09768287 0.06251704 0.16410723 -0.13675602 0.011721944 0.12112676 -0.050795093 -0.03125852
000070 05 f7 03 02 d5 ee e8 12 16 e4 fe f4 df e0 f1 04
       0.019536575 -0.035165835 0.011721944 0.00781463 -0.16801454 -0.07033167 -0.093775555 0.07033167 0.08596093 -0.10940482 -0.00781463 -0.046887778 -0.12894139 -0.12503408 -0.058609724 0.01562926
000080 0f 17 fb 19 f8 ee 0f 11 ee da f4 f4 09 e5 fa e8
       0.058609724 0.08986825 -0.019536575 0.09768287 -0.03125852 -0.07033167 0.058609724 0.066424355 -0.07033167 -0.14847797 -0.046887778 -0.046887778 0.035165835 -0.1054975 -0.023443889 -0.093775555
000090 05 1c 06 e6 12 e5 09 27 ed 09 1c f2 f6 21 03 ef
       0.019536575 0.10940482 0.023443889 -0.10159019 0.07033167 -0.1054975 0.035165835 0.15238528 -0.074238986 0.035165835 0.10940482 -0.05470241 -0.03907315 0.12894139 0.011721944 -0.066424355
0000a0 da f3 02 de eb 33 d4 2f ff 1c 00 00 f3 fe 09 df
       -0.14847797 -0.050795093 0.00781463 -0.13284871 -0.08205362 0.19927306 -0.17192186 0.1836438 -0.003907315 0.10940482 0.0 0.0 -0.050795093 -0.00781463 0.035165835 -0.12894139
0000b0 1c 17 39 1e 03 f4 28 27 e8 fc 20 1b e7 03 06 21
       0.10940482 0.08986825 0.22271696 0.11721945 0.011721944 -0.046887778 0.1562926 0.15238528 -0.093775555 -0.01562926 0.12503408 0.1054975 -0.09768287 0.011721944 0.023443889 0.12894139
0000c0 fa 4e f2 0b 06 0b 06 f6 02 da f1 eb 04 07 f5 f8
       -0.023443889 0.30477056 -0.05470241 0.042980466 0.023443889 0.042980466 0.023443889 -0.03907315 0.00781463 -0.14847797 -0.058609724 -0.08205362 0.01562926 0.027351204 -0.042980466 -0.03125852
0000d0 f5 0f fc 2e 09 fa eb f7 fb 00 fa 08 e8 fd 1d e9
       -0.042980466 0.058609724 -0.01562926 0.1797365 0.035165835 -0.023443889 -0.08205362 -0.035165835 -0.019536575 0.0 -0.023443889 0.03125852 -0.093775555 -0.011721944 0.11331213 -0.08986825
0000e0 f9 19 fc 09 0f 12 d9 19 e0 f2 fc 20 2c dc 14 e5
       -0.027351204 0.09768287 -0.01562926 0.035165835 0.058609724 0.07033167 -0.15238528 0.09768287 -0.12503408 -0.05470241 -0.01562926 0.12503408 0.17192186 -0.14066334 0.0781463 -0.1054975
0000f0 0e e0 18 ec 21 15 1b 0e 02 05 f7 fc ee 04 45 e4
       0.05470241 -0.12503408 0.093775555 -0.0781463 0.12894139 0.08205362 0.1054975 0.05470241 0.00781463 0.019536575 -0.035165835 -0.01562926 -0.07033167 0.01562926 0.26960474 -0.10940482

sequential_2/dense_5/MatMul i1 [11, 256] scale=0.0067058536 zero_point=0
000000 b6 fa e4 e1 dd c2 dc cc d9 d7 c8 f0 e3 f7 e2 fc
       -0.49623317 -0.04023512 -0.1877639 -0.20788147 -0.23470488 -0.41576293 -0.24141073 -0.3487044 -0.26152828 -0.27493998 -0.3755278 -0.10729366 -0.19446975 -0.060352683 -0.20117562 -0.026823414
000010 04 e6 d2 06 bc d0 ab c4 e7 e1 d2 e9 de f5 fc fe
       0.026823414 -0.1743522 -0.30846927 0.04023512 -0.45599803 -0.32188097 -0.56999755 -0.40235123 -0.16764633 -0.20788147 -0.30846927 -0.15423463 -0.22799902 -0.07376439 -0.026823414 -0.013411707
000020 d9 ed bc b3 f2 ad fd c9 f6 d8 e0 b5 c1 ed ac 07
       -0.26152828 -0.12741122 -0.45599803 -0.51635075 -0.09388195 -0.55658585 -0.02011756 -0.36882195 -0.06705853 -0.26823413 -0.21458732 -0.50293905 -0.42246878 -0.12741122 -0.5632917 0.046940975
000030 cc d7 ea fd 0d 0d f7 fe 06 e0 f7 fa ee eb d2 db
       -0.3487044 -0.27493998 -0.14752878 -0.02011756 0.0871761 0.0871761 -0.060352683 -0.013411707 0.04023512 -0.21458732 -0.060352683 -0.04023512 -0.120705366 -0.14082293 -0.30846927 -0.24811658
000040 f2 e3 13 df be e3 f9 c1 c0 e5 10 e8 e0 f3 fe 0c
       -0.09388195 -0.19446975 0.12741122 -0.22129317 -0.44258633 -0.19446975 -0.046940975 -0.42246878 -0.42917463 -0.18105805 0.10729366 -0.16094048 -0.21458732 -0.0871761 -0.013411707 0.08047024
000050 f7 b7 dc b9 be cd de ed d2 d7 d6 d5 fb c0 bb 9a
       -0.060352683 -0.48952731 -0.24141073 -0.4761156 -0.44258633 -0.34199855 -0.22799902 -0.12741122 -0.30846927 -0.27493998 -0.28164586 -0.2883517 -0.033529267 -0.42917463 -0.4627039 -0.6839971
000060 d2 fc bc c8 e2 c8 c2 f0 e1 f2 ab d4 e9 cd ed cf
       -0.30846927 -0.026823414 -0.45599803 -0.3755278 -0.20117562 -0.3755278 -0.41576293 -0.10729366 -0.20788147 -0.09388195 -0.56999755 -0.29505756 -0.15423463 -0.34199855 -0.12741122 -0.32858682
000070 d5 06 dd ff e3 ea aa b5 d8 d0 f8 0e b6 c2 c8 1e
       -0.2883517 0.04023512 -0.23470488 -0.0067058536 -0.19446975 -0.14752878 -0.5767034 -0.50293905 -0.26823413 -0.32188097 -0.05364683 0.09388195 -0.49623317 -0.41576293 -0.3755278 0.20117562
000080 c8 d5 c4 fb e3 09 f0 ed fb eb 02 f7 cc f1 bc b7
       -0.3755278 -0.2883517 -0.40235123 -0.033529267 -0.19446975 0.060352683 -0.10729366 -0.12741122 -0.033529267 -0.14082293 0.013411707 -0.060352683 -0.3487044 -0.10058781 -0.45599803 -0.48952731
000090 03 b3 f9 0a fe e9 ea fb 15 b4 f1 ce 00 07 b5 f6
       0.02011756 -0.51635075 -0.046940975 0.06705853 -0.013411707 -0.15423463 -0.14752878 -0.033529267 0.14082293 -0.50964487 -0.10058781 -0.33529267 0.0 0.046940975 -0.50293905 -0.06705853
0000a0 c8 f2 fa bb c3 eb f3 f3 e2 c3 e0 f7 f0 e7 dc fd
       -0.3755278 -0.09388195 -0.04023512 -0.4627039 -0.40905708 -0.14082293 -0.0871761 -0.0871761 -0.20117562 -0.40905708 -0.21458732 -0.060352683 -0.10729366 -0.16764633 -0.24141073 -0.02011756
0000b0 dc e5 ce d5 c9 ce c9 fd f9 aa 9f ea d3 07 ea d2
       -0.24141073 -0.18105805 -0.33529267 -0.2883517 -0.36882195 -0.33529267 -0.36882195 -0.02011756 -0.046940975 -0.5767034 -0.6504678 -0.14752878 -0.30176342 0.046940975 -0.14752878 -0.30846927
0000c0 e7 ef 01 0e d5 ce d6 f7 f4 e6 c7 f9 f3 db ef e9
       -0.16764633 -0.11399951 0.0067058536 0.09388195 -0.2883517 -0.33529267 -0.28164586 -0.060352683 -0.08047024 -0.1743522 -0.38223365 -0.046940975 -0.0871761 -0.24811658 -0.11399951 -0.15423463
0000d0 fc de c0 c9 02 b7 c2 f7 c2 f0 ef e1 e1 e1 bb ac
       -0.026823414 -0.22799902 -0.42917463 -0.36882195 0.013411707 -0.48952731 -0.41576293 -0.060352683 -0.41576293 -0.10729366 -0.11399951 -0.20788147 -0.20788147 -0.20788147 -0.4627039 -0.5632917
0000e0 c0 a2 00 da f8 a6 c5 f1 f5 d5 01 fc f4 a5 b7 0f
       -0.42917463 -0.63035023 0.0 -0.25482243 -0.05364683 -0.60352683 -0.39564535 -0.10058781 -0.07376439 -0.2883517 0.0067058536 -0.026823414 -0.08047024 -0.61023265 -0.48952731 0.10058781
0000f0 ba 06 cc da fd d9 af e4 10 d3 e9 f8 d5 9b c0 d2
       -0.46940976 0.04023512 -0.3487044 -0.25482243 -0.02011756 -0.26152828 -0.54317415 -0.1877639 0.10729366 -0.30176342 -0.15423463 -0.05364683 -0.2883517 -0.6772912 -0.42917463 -0.30846927

sequential_2/conv2d_6/Conv2D i1 [32, 3, 3, 3]
000000 dc b7 10 83 cf bd a8 b6 8e 50 19 5b aa df 1b e7
       -36 -73 16 -125 -49 -67 -88 -74 -114 80 25 91 -86 -33 27 -25
000010 d3 a0 3e 79 d8 7f 48 00 53 4b 74 db f4 fe 34 5a
       -45 -96 62 121 -40 127 72 0 83 75 116 -37 -12 -2 52 90
000020 1a 43 14 1a f6 c8 d4 f8 07 38 f8 32 6e ef b2 81
       26 67 20 26 -10 -56 -44 -8 7 56 -8 50 110 -17 -78 -127
000030 d6 c0 10 0c 3d 17 d9 93 e5 f5 e1 2a 1d 37 0d 9c
       -42 -64 16 12 61 23 -39 -109 -27 -11 -31 42 29 55 13 -100
000040 ec 81 5c 59 3d 05 12 36 ac eb 0c fd 18 68 27 15
       -20 -127 92 89 61 5 18 54 -84 -21 12 -3 24 104 39 21
000050 d2 17 10 65 15 cf 5b b7 da 75 b3 d7 d4 54 e6 5f
       -46 23 16 101 21 -49 91 -73 -38 117 -77 -41 -44 84 -26 95
000060 e9 53 29 a4 86 37 13 d1 b7 a9 7f 59 df dd cf 47
       -23 83 41 -92 -122 55 19 -47 -73 -87 127 89 -33 -35 -49 71
000070 0e f0 f8 1f ea b4 2d 4b 13 35 24 fa c4 8e 2e 53
       14 -16 -8 31 -22 -76 45 75 19 53 36 -6 -60 -114 46 83
000080 f3 ef bb 59 ea 81 ef 09 b4 c1 f1 92 f7 39 29 f8
       -13 -17 -69 89 -22 -127 -17 9 -76 -63 -15 -110 -9 57 41 -8
000090 d5 37 1d 0c a2 d7 c8 a2 ba 25 7f 33 59 45 1b ee
       -43 55 29 12 -94 -41 -56 -94 -70 37 127 51 89 69 27 -18
0000a0 bd ea ea 04 4a d9 4c 7f d3 e9 e8 46 71 45 0f be
       -67 -22 -22 4 74 -39 76 127 -45 -23 -24 70 113 69 15 -66
0000b0 00 ba 3a cf a5 b6 bd b5 11 ef 11 39 e6 48 98 ae
       0 -70 58 -49 -91 -74 -67 -75 17 -17 17 57 -26 72 -104 -82
0000c0 ec e6 96 a6 09 11 5f 81 d3 0b e9 2d 66 ef 1c 31
       -20 -26 -106 -90 9 17 95 -127 -45 11 -23 45 102 -17 28 49
0000d0 d4 d5 37 3b 2a 2b 32 2a 17 32 c5 a9 a5 00 88 91
       -44 -43 55 59 42 43 50 42 23 50 -59 -87 -91 0 -120 -111
0000e0 3b 63 dc e9 7b 42 14 e6 48 fa 5d c1 81 0c 7e 01
       59 99 -36 -23 123 66 20 -26 72 -6 93 -63 -127 12 126 1
0000f0 a1 ca 27 38 3a 02 0b a2 bc aa 81 f8 e5 6c 22 20
       -95 -54 39 56 58 2 11 -94 -68 -86 -127 -8 -27 108 34 32

sequential_2/conv2d_7/Conv2D i1 [32, 3, 3, 32]
000000 e7 81 c9 e4 a6 c0 fb b5 0a cb df b5 b8 9d d0 bb
       -25 -127 -55 -28 -90 -64 -5 -75 10 -53 -33 -75 -72 -99 -48 -69
000010 17 07 be b0 05 ab c6 f5 e8 c5 b4 08 a7 c3 cf e2
       23 7 -66 -80 5 -85 -58 -11 -24 -59 -76 8 -89 -61 -49 -30
000020 fa f9 f1 15 f3 a4 1e eb da e7 f9 de f7 dd df de
       -6 -7 -15 21 -13 -92 30 -21 -38 -25 -7 -34 -9 -35 -33 -34
000030 b8 1e e2 d4 d5 1d 1d 10 cd 00 dd 06 ec d0 00 ee
       -72 30 -30 -44 -43 29 29 16 -51 0 -35 6 -20 -48 0 -18
000040 31 ed e8 09 ee 2a 01 eb 28 1d 0c 0e 1b 01 33 3a
       49 -19 -24 9 -18 42 1 -21 40 29 12 14 27 1 51 58
000050 f0 f2 4f 12 0b e4 e7 33 2d 0f 2e 42 11 06 22 ed
       -16 -14 79 18 11 -28 -25 51 45 15 46 66 17 6 34 -19
000060 e1 af bf ff d4 c0 df b3 dd 10 c9 a1 d1 f8 a1 ca
       -31 -81 -65 -1 -44 -64 -33 -77 -35 16 -55 -95 -47 -8 -95 -54
000070 21 f7 f1 00 f9 d6 be ac 03 a8 9d f1 af 04 1e 0c
       33 -9 -15 0 -7 -42 -66 -84 3 -88 -99 -15 -81 4 30 12
000080 ff 21 26 3f f1 c3 f8 0b f6 ea 4f ea 15 f2 15 db
       -1 33 38 63 -15 -61 -8 11 -10 -22 79 -22 21 -14 21 -37
000090 b2 11 14 d8 d7 ff d8 f5 ed dd d4 15 31 e9 ef ac
       -78 17 20 -40 -41 -1 -40 -11 -19 -35 -44 21 49 -23 -17 -84
0000a0 c1 d9 f4 21 19 ce 1f e1 b3 e5 e8 21 40 27 fa 19
       -63 -39 -12 33 25 -50 31 -31 -77 -27 -24 33 64 39 -6 25
0000b0 0e fb af 10 c8 e6 3a fa c9 de 1b 31 35 ed 40 16
       14 -5 -81 16 -56 -26 58 -6 -55 -34 27 49 53 -19 64 22
0000c0 0a f3 2b 21 ea cf c4 ec 03 f1 cb 09 1b ac ef e5
       10 -13 43 33 -22 -49 -60 -20 3 -15 -53 9 27 -84 -17 -27
0000d0 0f e4 02 18 cf fa 25 f3 d5 eb 28 0f ed e2 0e a7
       15 -28 2 24 -49 -6 37 -13 -43 -21 40 15 -19 -30 14 -89
0000e0 ee 21 2a 05 2c fc fd fc e6 0b 36 5b 3d 07 2e 51
       -18 33 42 5 44 -4 -3 -4 -26 11 54 91 61 7 46 81
0000f0 ef 4b 14 2b 27 f2 38 27 ec 19 22 ec 0f 1d 51 01
       -17 75 20 43 39 -14 56 39 -20 25 34 -20 15 29 81 1

sequential_2/conv2d_8/Conv2D i1 [32, 3, 3, 32]
000000 19 0d 59 df 43 cb 28 e4 f4 1b 1c d0 ea 11 18 0c
       25 13 89 -33 67 -53 40 -28 -12 27 28 -48 -22 17 24 12
000010 14 dd 0f c3 32 f6 27 bd e3 02 17 f9 24 05 cb 0d
       20 -35 15 -61 50 -10 39 -67 -29 2 23 -7 36 5 -53 13
000020 12 e0 f2 01 3a 48 ed e4 0c 06 e6 fa ef 0c 32 f7
       18 -32 -14 1 58 72 -19 -28 12 6 -26 -6 -17 12 50 -9
000030 fb f7 cf 0b a0 f7 06 18 d6 1b 00 fb df e7 f2 1d
       -5 -9 -49 11 -96 -9 6 24 -42 27 0 -5 -33 -25 -14 29
000040 11 e5 be 29 f0 cb e1 10 13 29 da 18 2f e7 d1 d5
       17 -27 -66 41 -16 -53 -31 16 19 41 -38 24 47 -25 -47 -43
000050 f2 0e 0a 13 ff 0d fd 07 24 f6 f0 ed f5 02 de 1c
       -14 14 10 19 -1 13 -3 7 36 -10 -16 -19 -11 2 -34 28
000060 f1 e3 42 ea fb 14 39 14 18 e1 2d f7 13 e1 2f d6
       -15 -29 66 -22 -5 20 57 20 24 -31 45 -9 19 -31 47 -42
000070 f9 ca 07 dd 13 dd 01 df f1 06 4a 21 10 e1 02 cc
       -7 -54 7 -35 19 -35 1 -33 -15 6 74 33 16 -31 2 -52
000080 ef e4 17 0b ff 22 b9 e3 f4 b6 c7 ee e2 fb f6 07
       -17 -28 23 11 -1 34 -71 -29 -12 -74 -57 -18 -30 -5 -10 7
000090 d6 10 ec 26 b8 f0 d3 04 f0 d7 10 05 e9 ca c4 3e
       -42 16 -20 38 -72 -16 -45 4 -16 -41 16 5 -23 -54 -60 62
0000a0 bc dd a4 46 d2 bb d2 db 95 01 f9 de 09 da 03 db
       -68 -35 -92 70 -46 -69 -46 -37 -107 1 -7 -34 9 -38 3 -37
0000b0 db 20 fc 27 94 01 f9 ed 38 da c5 00 81 3b c6 39
       -37 32 -4 39 -108 1 -7 -19 56 -38 -59 0 -127 59 -58 57
0000c0 f6 e4 11 18 0a 12 25 fc f1 ed e9 13 25 e0 0a e0
       -10 -28 17 24 10 18 37 -4 -15 -19 -23 19 37 -32 10 -32
0000d0 cf ba 48 d4 17 12 e4 f2 f8 23 0e 1c f4 aa 31 e5
       -49 -70 72 -44 23 18 -28 -14 -8 35 14 28 -12 -86 49 -27
0000e0 e6 e4 ef 0f e5 f3 18 d9 e9 f8 f0 08 f2 cd 07 13
       -26 -28 -17 15 -27 -13 24 -39 -23 -8 -16 8 -14 -51 7 19
0000f0 22 0e 2d fe dc f3 c8 24 e1 d7 ed 07 01 cc 2e 16
       34 14 45 -2 -36 -13 -56 36 -31 -41 -19 7 1 -52 46 22
