dig-s3-q.tflite (tflite, 63872 bytes, 5 tensors)

sequential_3/dense_6/MatMul i1 [128, 256] scale=0.0032001387 zero_point=0
0	0xde	-0.10880472
1	0xf2	-0.044801943
2	0xfe	-0.0064002774
3	0xff	-0.0032001387
4	0x1b	0.08640374
5	0xfd	-0.009600416
6	0x03	0.009600416
7	0x08	0.02560111
8	0xe1	-0.0992043
9	0xf3	-0.041601803
10	0x12	0.057602495
11	0xf5	-0.035201527
12	0xe7	-0.08000347
13	0x06	0.019200832
14	0x0b	0.035201527
15	0xe5	-0.08640374
16	0xe1	-0.0992043
17	0xf0	-0.05120222
18	0x00	0.0
19	0x0f	0.04800208
20	0x0d	0.041601803
21	0x06	0.019200832
22	0x14	0.064002775
23	0x0c	0.038401663
24	0xd8	-0.12800555
25	0x07	0.022400972
26	0xdf	-0.105604574
27	0xd5	-0.13760597
28	0x00	0.0
29	0xe4	-0.089603886
30	0x08	0.02560111
31	0x01	0.0032001387
32	0x0a	0.032001387
33	0x02	0.0064002774
34	0xe6	-0.08320361
35	0xe0	-0.10240444
36	0x09	0.028801247
37	0x13	0.060802635
38	0xd6	-0.13440582
39	0xe2	-0.09600416
40	0xfd	-0.009600416
41	0x05	0.016000694
42	0xd9	-0.124805406
43	0x17	0.07360319
44	0xef	-0.05440236
45	0xfe	-0.0064002774
46	0x1a	0.08320361
47	0xde	-0.10880472
48	0xd6	-0.13440582
49	0xe3	-0.09280402
50	0x22	0.10880472
51	0xec	-0.064002775
52	0xec	-0.064002775
53	0x1d	0.09280402
54	0x0a	0.032001387
55	0xf6	-0.032001387
56	0xf9	-0.022400972
57	0xed	-0.060802635
58	0x1f	0.0992043
59	0x06	0.019200832
60	0x15	0.06720291
61	0x08	0.02560111
62	0xe1	-0.0992043
63	0x13	0.060802635
64	0xf3	-0.041601803
65	0x10	0.05120222
66	0xec	-0.064002775
67	0xfb	-0.016000694
68	0xf4	-0.038401663
69	0x07	0.022400972
70	0xda	-0.12160527
71	0xd2	-0.14720638
72	0xe1	-0.0992043
73	0x09	0.028801247
74	0xef	-0.05440236
75	0xdd	-0.112004854
76	0xf1	-0.04800208
77	0x11	0.05440236
78	0xd3	-0.14400624
79	0xfe	-0.0064002774
80	0xf9	-0.022400972
81	0xd9	-0.124805406
82	0xf2	-0.044801943
83	0x0c	0.038401663
84	0x07	0.022400972
85	0xd6	-0.13440582
86	0x03	0.009600416
87	0xdb	-0.11840513
88	0xe1	-0.0992043
89	0x00	0.0
90	0xdc	-0.11520499
91	0x03	0.009600416
92	0xde	-0.10880472
93	0x18	0.07680333
94	0xdd	-0.112004854
95	0xf0	-0.05120222
96	0x0a	0.032001387
97	0xf4	-0.038401663
98	0xda	-0.12160527
99	0xdb	-0.11840513
100	0x0b	0.035201527
101	0x03	0.009600416
102	0xeb	-0.06720291
103	0xef	-0.05440236
104	0xfa	-0.019200832
105	0xe0	-0.10240444
106	0x0a	0.032001387
107	0xec	-0.064002775
108	0xe5	-0.08640374
109	0x1c	0.089603886
110	0xef	-0.05440236
111	0x06	0.019200832
112	0xdf	-0.105604574
113	0xf1	-0.04800208
114	0xe8	-0.07680333
115	0xdf	-0.105604574
116	0xe2	-0.09600416
117	0xd8	-0.12800555
118	0xef	-0.05440236
119	0x1c	0.089603886
120	0x13	0.060802635
121	0xee	-0.057602495
122	0xf9	-0.022400972
123	0xec	-0.064002775
124	0xfe	-0.0064002774
125	0x14	0.064002775
126	0x0f	0.04800208
127	0xf1	-0.04800208
128	0xf8	-0.02560111
129	0xf5	-0.035201527
130	0xeb	-0.06720291
131	0x0d	0.041601803
132	0x0a	0.032001387
133	0x0b	0.035201527
134	0xde	-0.10880472
135	0xdf	-0.105604574
136	0xe5	-0.08640374
137	0xeb	-0.06720291
138	0x12	0.057602495
139	0xe2	-0.09600416
140	0xed	-0.060802635
141	0xeb	-0.06720291
142	0xe4	-0.089603886
143	0xe3	-0.09280402
144	0xef	-0.05440236
145	0xfa	-0.019200832
146	0x0d	0.041601803
147	0xd9	-0.124805406
148	0x12	0.057602495
149	0xe4	-0.089603886
150	0xfb	-0.016000694
151	0xd4	-0.14080611
152	0xdf	-0.105604574
153	0x0c	0.038401663
154	0x03	0.009600416
155	0xf8	-0.02560111
156	0x0f	0.04800208
157	0x08	0.02560111
158	0x0f	0.04800208
159	0xe2	-0.09600416
160	0xe0	-0.10240444
161	0x0a	0.032001387
162	0xe4	-0.089603886
163	0x0e	0.044801943
164	0x05	0.016000694
165	0xf6	-0.032001387
166	0xda	-0.12160527
167	0x09	0.028801247
168	0x1b	0.08640374
169	0xe2	-0.09600416
170	0xef	-0.05440236
171	0xfe	-0.0064002774
172	0xf3	-0.041601803
173	0x04	0.012800555
174	0xd9	-0.124805406
175	0xf8	-0.02560111
176	0xf1	-0.04800208
177	0x17	0.07360319
178	0xdd	-0.112004854
179	0x07	0.022400972
180	0x11	0.05440236
181	0x14	0.064002775
182	0xdf	-0.105604574
183	0x1e	0.09600416
184	0x07	0.022400972
185	0xf2	-0.044801943
186	0x0f	0.04800208
187	0x19	0.08000347
188	0x1e	0.09600416
189	0xef	-0.05440236
190	0xdc	-0.11520499
191	0x18	0.07680333
192	0x1a	0.08320361
193	0x10	0.05120222
194	0x0e	0.044801943
195	0xf3	-0.041601803
196	0x0f	0.04800208
197	0xfd	-0.009600416
198	0xd8	-0.12800555
199	0xe0	-0.10240444
200	0xee	-0.057602495
201	0x07	0.022400972
202	0x1c	0.089603886
203	0xd3	-0.14400624
204	0xf0	-0.05120222
205	0x18	0.07680333
206	0x00	0.0
207	0x15	0.06720291
208	0x23	0.112004854
209	0xf2	-0.044801943
210	0xdf	-0.105604574
211	0xd8	-0.12800555
212	0xee	-0.057602495
213	0xeb	-0.06720291
214	0xde	-0.10880472
215	0xe5	-0.08640374
216	0xda	-0.12160527
217	0x0b	0.035201527
218	0x22	0.10880472
219	0x0c	0.038401663
220	0x0a	0.032001387
221	0x0f	0.04800208
222	0xe7	-0.08000347
223	0x1f	0.0992043
224	0x10	0.05120222
225	0x1e	0.09600416
226	0xed	-0.060802635
227	0xe9	-0.07360319
228	0xf6	-0.032001387
229	0x05	0.016000694
230	0x0e	0.044801943
231	0x1d	0.09280402
232	0xd5	-0.13760597
233	0xfc	-0.012800555
234	0x14	0.064002775
235	0xef	-0.05440236
236	0x15	0.06720291
237	0xfd	-0.009600416
238	0xf7	-0.028801247
239	0xff	-0.0032001387
240	0xeb	-0.06720291
241	0xfe	-0.0064002774
242	0xf0	-0.05120222
243	0x02	0.0064002774
244	0xd9	-0.124805406
245	0x07	0.022400972
246	0x0a	0.032001387
247	0xdb	-0.11840513
248	0xd7	-0.1312057
249	0xfc	-0.012800555
250	0xff	-0.0032001387
251	0xec	-0.064002775
252	0x0f	0.04800208
253	0x04	0.012800555
254	0x0e	0.044801943
255	0x07	0.022400972

sequential_3/dense_7/MatMul i1 [11, 128] scale=0.0072769956 zero_point=0
0	0x19	0.1819249
1	0x16	0.1600939
2	0xe3	-0.21103287
3	0xb9	-0.5166667
4	0xdc	-0.26197183
5	0xaf	-0.58943665
6	0x01	0.0072769956
7	0xf9	-0.050938968
8	0xb1	-0.5748826
9	0xe3	-0.21103287
10	0xbf	-0.4730047
11	0xed	-0.13826291
12	0xe4	-0.20375587
13	0xc8	-0.40751174
14	0xe4	-0.20375587
15	0xdd	-0.25469485
16	0xec	-0.14553991
17	0xf5	-0.08004695
18	0xc6	-0.42206573
19	0xe3	-0.21103287
20	0xaf	-0.58943665
21	0x02	0.014553991
22	0xa4	-0.6694836
23	0xce	-0.3638498
24	0xd5	-0.3129108
25	0x01	0.0072769956
26	0xd4	-0.3201878
27	0xcd	-0.37112677
28	0xd9	-0.28380284
29	0xd4	-0.3201878
30	0xc0	-0.46572772
31	0x10	0.11643193
32	0xe8	-0.1746479
33	0xf1	-0.10915493
34	0x04	0.029107982
35	0xce	-0.3638498
36	0x05	0.036384977
37	0xf6	-0.072769955
38	0xe6	-0.18920189
39	0xf0	-0.11643193
40	0xf2	-0.101877935
41	0xc1	-0.45845073
42	0x0b	0.08004695
43	0xfb	-0.036384977
44	0x00	0.0
45	0xd0	-0.3492958
46	0xdf	-0.24014086
47	0xde	-0.24741785
48	0xdc	-0.26197183
49	0x18	0.1746479
50	0xb4	-0.55305165
51	0x06	0.043661974
52	0xc5	-0.42934275
53	0xc7	-0.41478875
54	0xe0	-0.23286386
55	0xf7	-0.06549296
56	0xa6	-0.6549296
57	0xfc	-0.029107982
58	0x04	0.029107982
59	0x00	0.0
60	0x01	0.0072769956
61	0xf6	-0.072769955
62	0xf3	-0.094600946
63	0xfb	-0.036384977
64	0xd2	-0.3347418
65	0xe0	-0.23286386
66	0x03	0.021830987
67	0x00	0.0
68	0xb4	-0.55305165
69	0xf1	-0.10915493
70	0x10	0.11643193
71	0xed	-0.13826291
72	0xca	-0.39295775
73	0x02	0.014553991
74	0xc8	-0.40751174
75	0xca	-0.39295775
76	0xe2	-0.21830986
77	0xe2	-0.21830986
78	0x03	0.021830987
79	0xf1	-0.10915493
80	0xa2	-0.68403757
81	0xb8	-0.52394366
82	0xfe	-0.014553991
83	0xe8	-0.1746479
84	0xf3	-0.094600946
85	0xa4	-0.6694836
86	0x01	0.0072769956
87	0xd3	-0.3274648
88	0x0b	0.08004695
89	0x01	0.0072769956
90	0xfa	-0.043661974
91	0xc3	-0.44389674
92	0xd2	-0.3347418
93	0xc2	-0.45117372
94	0xf0	-0.11643193
95	0xd7	-0.29835683
96	0xfe	-0.014553991
97	0x05	0.036384977
98	0xcf	-0.35657278
99	0xb1	-0.5748826
100	0x1a	0.18920189
101	0xc6	-0.42206573
102	0xc9	-0.40023476
103	0xca	-0.39295775
104	0xf6	-0.072769955
105	0x08	0.058215965
106	0xea	-0.1600939
107	0xca	-0.39295775
108	0xc9	-0.40023476
109	0xeb	-0.1528169
110	0xce	-0.3638498
111	0xc0	-0.46572772
112	0xfc	-0.029107982
113	0x04	0.029107982
114	0xc4	-0.43661973
115	0x14	0.14553991
116	0xe0	-0.23286386
117	0xbf	-0.4730047
118	0xc3	-0.44389674
119	0xec	-0.14553991
120	0xe6	-0.18920189
121	0x03	0.021830987
122	0xdf	-0.24014086
123	0xd0	-0.3492958
124	0xe3	-0.21103287
125	0xb5	-0.54577464
126	0xd9	-0.28380284
127	0x02	0.014553991
128	0x01	0.0072769956
129	0x01	0.0072769956
130	0xd1	-0.34201878
131	0xfc	-0.029107982
132	0xcd	-0.37112677
133	0xbb	-0.5021127
134	0xe0	-0.23286386
135	0x16	0.1600939
136	0x0c	0.08732395
137	0x00	0.0
138	0x0b	0.08004695
139	0x12	0.13098592
140	0x02	0.014553991
141	0xf0	-0.11643193
142	0xec	-0.14553991
143	0xe8	-0.1746479
144	0xb1	-0.5748826
145	0x04	0.029107982
146	0xcb	-0.38568076
147	0xfd	-0.021830987
148	0x04	0.029107982
149	0xf2	-0.101877935
150	0x0e	0.101877935
151	0xbb	-0.5021127
152	0x2d	0.3274648
153	0xfd	-0.021830987
154	0xe3	-0.21103287
155	0xe4	-0.20375587
156	0xca	-0.39295775
157	0x03	0.021830987
158	0xbe	-0.4802817
159	0xe2	-0.21830986
160	0xb2	-0.5676057
161	0xcc	-0.37840378
162	0xec	-0.14553991
163	0x0a	0.072769955
164	0xf4	-0.08732395
165	0xeb	-0.1528169
166	0xff	-0.0072769956
167	0xf6	-0.072769955
168	0xd7	-0.29835683
169	0xb3	-0.56032866
170	0xd9	-0.28380284
171	0xf5	-0.08004695
172	0xe6	-0.18920189
173	0x0c	0.08732395
174	0x0b	0.08004695
175	0x03	0.021830987
176	0xf4	-0.08732395
177	0xd8	-0.29107982
178	0xb5	-0.54577464
179	0xcf	-0.35657278
180	0xb8	-0.52394366
181	0x17	0.1673709
182	0x2e	0.3347418
183	0xed	-0.13826291
184	0xcd	-0.37112677
185	0xed	-0.13826291
186	0xf7	-0.06549296
187	0xbb	-0.5021127
188	0xce	-0.3638498
189	0xc7	-0.41478875
190	0x15	0.1528169
191	0xd3	-0.3274648
192	0xf1	-0.10915493
193	0xf2	-0.101877935
194	0xe0	-0.23286386
195	0x15	0.1528169
196	0xcc	-0.37840378
197	0xff	-0.0072769956
198	0xfd	-0.021830987
199	0xf5	-0.08004695
200	0xdb	-0.26924884
201	0xf9	-0.050938968
202	0xef	-0.123708926
203	0xfa	-0.043661974
204	0xcf	-0.35657278
205	0xbd	-0.4875587
206	0x1d	0.21103287
207	0xb0	-0.58215964
208	0xd5	-0.3129108
209	0xcf	-0.35657278
210	0xe9	-0.1673709
211	0xd6	-0.3056338
212	0x04	0.029107982
213	0xb6	-0.5384977
214	0xff	-0.0072769956
215	0xe7	-0.1819249
216	0xfe	-0.014553991
217	0x04	0.029107982
218	0x00	0.0
219	0xb4	-0.55305165
220	0x03	0.021830987
221	0xed	-0.13826291
222	0xdf	-0.24014086
223	0xf3	-0.094600946
224	0x08	0.058215965
225	0xfc	-0.029107982
226	0xb7	-0.5312207
227	0xf7	-0.06549296
228	0xf0	-0.11643193
229	0xf4	-0.08732395
230	0xc8	-0.40751174
231	0xc6	-0.42206573
232	0x1e	0.21830986
233	0xde	-0.24741785
234	0xdf	-0.24014086
235	0xf4	-0.08732395
236	0x0c	0.08732395
237	0xc7	-0.41478875
238	0xd2	-0.3347418
239	0xed	-0.13826291
240	0xdd	-0.25469485
241	0xec	-0.14553991
242	0xd2	-0.3347418
243	0xe4	-0.20375587
244	0xda	-0.27652583
245	0x16	0.1600939
246	0xb2	-0.5676057
247	0xd0	-0.3492958
248	0xe6	-0.18920189
249	0xf0	-0.11643193
250	0x03	0.021830987
251	0xff	-0.0072769956
252	0xe6	-0.18920189
253	0xde	-0.24741785
254	0x0f	0.10915493
255	0xf6	-0.072769955

sequential_3/conv2d_9/Conv2D i1 [32, 3, 3, 3]
0	0x2d	45
1	0x08	8
2	0x50	80
3	0x30	48
4	0x4a	74
5	0x42	66
6	0xfc	-4
7	0x86	-122
8	0xed	-19
9	0x59	89
10	0xf3	-13
11	0x72	114
12	0xe6	-26
13	0x2b	43
14	0xf0	-16
15	0xd8	-40
16	0x82	-126
17	0x1f	31
18	0xf7	-9
19	0x59	89
20	0x41	65
21	0xc0	-64
22	0x2e	46
23	0x84	-124
24	0xa0	-96
25	0x81	-127
26	0x8b	-117
27	0x52	82
28	0x9f	-97
29	0xe5	-27
30	0xfc	-4
31	0xd1	-47
32	0xe1	-31
33	0x49	73
34	0xe4	-28
35	0x45	69
36	0x7f	127
37	0xaf	-81
38	0x2b	43
39	0x18	24
40	0x96	-106
41	0xc3	-61
42	0x49	73
43	0x3a	58
44	0x17	23
45	0x7f	127
46	0xbe	-66
47	0xcd	-51
48	0xf0	-16
49	0xa6	-90
50	0x03	3
51	0xbc	-68
52	0xc9	-55
53	0xc3	-61
54	0x3a	58
55	0x4a	74
56	0x47	71
57	0xc6	-58
58	0xf4	-12
59	0xd5	-43
60	0xca	-54
61	0xcb	-53
62	0xe3	-29
63	0x47	71
64	0x2f	47
65	0xf0	-16
66	0x23	35
67	0xac	-84
68	0x3c	60
69	0xdc	-36
70	0xbb	-69
71	0xb1	-79
72	0x1b	27
73	0x7f	127
74	0xe9	-23
75	0xd9	-39
76	0xf5	-11
77	0x3d	61
78	0xe1	-31
79	0xd7	-41
80	0x9a	-102
81	0x7f	127
82	0x49	73
83	0x18	24
84	0x1e	30
85	0xd6	-42
86	0x26	38
87	0xee	-18
88	0x0e	14
89	0xb9	-71
90	0x5d	93
91	0xe2	-30
92	0x40	64
93	0x2f	47
94	0xf9	-7
95	0x10	16
96	0xee	-18
97	0xeb	-21
98	0xc3	-61
99	0x16	22
100	0xc0	-64
101	0xe8	-24
102	0x2c	44
103	0xc0	-64
104	0xa4	-92
105	0x02	2
106	0x98	-104
107	0x90	-112
108	0x51	81
109	0x29	41
110	0x5a	90
111	0x15	21
112	0x0d	13
113	0x65	101
114	0xfd	-3
115	0xd6	-42
116	0x28	40
117	0x19	25
118	0x56	86
119	0x64	100
120	0xd2	-46
121	0xb9	-71
122	0x1e	30
123	0xf0	-16
124	0xc0	-64
125	0xc2	-62
126	0xea	-22
127	0xe1	-31
128	0x03	3
129	0xa9	-87
130	0x81	-127
131	0xc7	-57
132	0x29	41
133	0x06	6
134	0x25	37
135	0xff	-1
136	0xbd	-67
137	0x15	21
138	0x97	-105
139	0xc6	-58
140	0x81	-127
141	0x9f	-97
142	0x87	-121
143	0x9c	-100
144	0x19	25
145	0x07	7
146	0x5b	91
147	0xdf	-33
148	0xfe	-2
149	0x01	1
150	0xce	-50
151	0x38	56
152	0xd4	-44
153	0x75	117
154	0x17	23
155	0x19	25
156	0x4e	78
157	0x6f	111
158	0x26	38
159	0x25	37
160	0x3d	61
161	0x44	68
162	0xae	-82
163	0xcd	-51
164	0xb3	-77
165	0xe5	-27
166	0xd7	-41
167	0xb2	-78
168	0xd1	-47
169	0x5c	92
170	0xd1	-47
171	0xe7	-25
172	0x2e	46
173	0x3e	62
174	0x12	18
175	0xa4	-92
176	0xa0	-96
177	0x6d	109
178	0x7e	126
179	0x7f	127
180	0x36	54
181	0xac	-84
182	0x3f	63
183	0xa6	-90
184	0x9a	-102
185	0x24	36
186	0x23	35
187	0x5c	92
188	0x0e	14
189	0xcc	-52
190	0xeb	-21
191	0xfb	-5
192	0xf2	-14
193	0x54	84
194	0x38	56
195	0x3a	58
196	0x6c	108
197	0x1b	27
198	0xff	-1
199	0xd5	-43
200	0x3e	62
201	0xd8	-40
202	0xbb	-69
203	0xbb	-69
204	0x33	51
205	0x69	105
206	0xe0	-32
207	0x16	22
208	0xe0	-32
209	0x0b	11
210	0x21	33
211	0xfa	-6
212	0x81	-127
213	0xb8	-72
214	0xfa	-6
215	0xda	-38
216	0x0c	12
217	0xfa	-6
218	0xd3	-45
219	0xf7	-9
220	0xb3	-77
221	0xa8	-88
222	0x27	39
223	0x51	81
224	0x3a	58
225	0x96	-106
226	0xde	-34
227	0xf8	-8
228	0x03	3
229	0xd1	-47
230	0xc3	-61
231	0x16	22
232	0x70	112
233	0x37	55
234	0x0e	14
235	0x81	-127
236	0x14	20
237	0xf0	-16
238	0xe5	-27
239	0xc3	-61
240	0x4e	78
241	0x41	65
242	0x79	121
243	0xb0	-80
244	0x11	17
245	0xc1	-63
246	0xff	-1
247	0xde	-34
248	0xe8	-24
249	0x1b	27
250	0x41	65
251	0xf9	-7
252	0xac	-84
253	0x92	-110
254	0xb3	-77
255	0xe7	-25

sequential_3/conv2d_10/Conv2D i1 [32, 3, 3, 32]
0	0xf8	-8
1	0xca	-54
2	0xe8	-24
3	0x0d	13
4	0x09	9
5	0x40	64
6	0xf2	-14
7	0x04	4
8	0xfe	-2
9	0xde	-34
10	0x3e	62
11	0x01	1
12	0xbb	-69
13	0x0d	13
14	0x06	6
15	0xe8	-24
16	0x15	21
17	0xdb	-37
18	0x10	16
19	0x1e	30
20	0x07	7
21	0xd8	-40
22	0xfd	-3
23	0x05	5
24	0x36	54
25	0x1f	31
26	0x0b	11
27	0x2f	47
28	0x0b	11
29	0x1a	26
30	0xff	-1
31	0xef	-17
32	0xe8	-24
33	0xb0	-80
34	0x15	21
35	0xf6	-10
36	0xbc	-68
37	0x24	36
38	0xda	-38
39	0xf7	-9
40	0xc0	-64
41	0xcb	-53
42	0x20	32
43	0x05	5
44	0xb5	-75
45	0x27	39
46	0x19	25
47	0x11	17
48	0x05	5
49	0x16	22
50	0x19	25
51	0x03	3
52	0x0b	11
53	0xcf	-49
54	0xf4	-12
55	0x17	23
56	0xe8	-24
57	0xfc	-4
58	0xd5	-43
59	0xf1	-15
60	0xe8	-24
61	0xfa	-6
62	0x2c	44
63	0xee	-18
64	0xe1	-31
65	0x14	20
66	0x13	19
67	0xe8	-24
68	0xa6	-90
69	0x39	57
70	0xc8	-56
71	0xf9	-7
72	0xdf	-33
73	0xb7	-73
74	0xec	-20
75	0x22	34
76	0xed	-19
77	0xe3	-29
78	0x5a	90
79	0xfc	-4
80	0xb4	-76
81	0x2a	42
82	0xf6	-10
83	0x27	39
84	0x29	41
85	0xe1	-31
86	0x28	40
87	0x5e	94
88	0x2e	46
89	0xe9	-23
90	0xbb	-69
91	0xd8	-40
92	0xef	-17
93	0xea	-22
94	0x36	54
95	0x04	4
96	0xf7	-9
97	0xe5	-27
98	0xee	-18
99	0x1b	27
100	0x00	0
101	0xf9	-7
102	0xda	-38
103	0x02	2
104	0x15	21
105	0x05	5
106	0x21	33
107	0xea	-22
108	0xa7	-89
109	0xdd	-35
110	0xee	-18
111	0x0c	12
112	0x2a	42
113	0xc8	-56
114	0x16	22
115	0x28	40
116	0x04	4
117	0xf0	-16
118	0xdd	-35
119	0xe7	-25
120	0x1d	29
121	0xe6	-26
122	0xc3	-61
123	0x1f	31
124	0x27	39
125	0xee	-18
126	0x08	8
127	0xdb	-37
128	0x9d	-99
129	0xe1	-31
130	0xc5	-59
131	0xc7	-57
132	0xdc	-36
133	0xff	-1
134	0x0a	10
135	0xf1	-15
136	0xf7	-9
137	0xf9	-7
138	0x39	57
139	0xf0	-16
140	0xa8	-88
141	0x00	0
142	0xd8	-40
143	0xf1	-15
144	0xe6	-26
145	0x36	54
146	0x06	6
147	0x19	25
148	0x0b	11
149	0xef	-17
150	0xf4	-12
151	0xe9	-23
152	0xdd	-35
153	0xd9	-39
154	0x19	25
155	0x0f	15
156	0x10	16
157	0xca	-54
158	0xd5	-43
159	0xf4	-12
160	0x04	4
161	0x05	5
162	0x36	54
163	0xd1	-47
164	0xcf	-49
165	0xfc	-4
166	0xe5	-27
167	0x22	34
168	0xf3	-13
169	0x12	18
170	0xd9	-39
171	0x06	6
172	0xf1	-15
173	0x15	21
174	0x0a	10
175	0x18	24
176	0xb6	-74
177	0x5c	92
178	0xd9	-39
179	0x2c	44
180	0x43	67
181	0xec	-20
182	0x21	33
183	0x0f	15
184	0x07	7
185	0xfa	-6
186	0xf2	-14
187	0xe0	-32
188	0xef	-17
189	0xe2	-30
190	0x39	57
191	0xff	-1
192	0x1c	28
193	0x10	16
194	0x00	0
195	0x17	23
196	0x0f	15
197	0xcd	-51
198	0xf9	-7
199	0xe9	-23
200	0x2c	44
201	0xfc	-4
202	0xd2	-46
203	0x16	22
204	0xfc	-4
205	0xe3	-29
206	0xf4	-12
207	0xea	-22
208	0x02	2
209	0x0d	13
210	0x20	32
211	0x16	22
212	0x25	37
213	0x13	19
214	0xe9	-23
215	0xc5	-59
216	0xed	-19
217	0x17	23
218	0xe3	-29
219	0x2b	43
220	0x1c	28
221	0x01	1
222	0x13	19
223	0x33	51
224	0x14	20
225	0xf8	-8
226	0x1d	29
227	0xd0	-48
228	0xe0	-32
229	0x86	-122
230	0x0e	14
231	0x2d	45
232	0x35	53
233	0x33	51
234	0x02	2
235	0xd1	-47
236	0x15	21
237	0x04	4
238	0xe1	-31
239	0xf6	-10
240	0xbc	-68
241	0xcc	-52
242	0xcb	-53
243	0x14	20
244	0x23	35
245	0x35	53
246	0xa0	-96
247	0xc2	-62
248	0xc1	-63
249	0x1d	29
250	0x1e	30
251	0xd1	-47
252	0xf4	-12
253	0x0a	10
254	0x95	-107
255	0x19	25

sequential_3/conv2d_11/Conv2D i1 [32, 3, 3, 32]
0	0xcc	-52
1	0x0f	15
2	0x00	0
3	0x2d	45
4	0xd6	-42
5	0xe5	-27
6	0xa6	-90
7	0xef	-17
8	0xa8	-88
9	0xa7	-89
10	0x49	73
11	0xdd	-35
12	0xce	-50
13	0xf4	-12
14	0xe2	-30
15	0x2b	43
16	0x36	54
17	0xf5	-11
18	0x16	22
19	0x28	40
20	0xa6	-90
21	0x39	57
22	0x1f	31
23	0x02	2
24	0x1d	29
25	0x0f	15
26	0x06	6
27	0x11	17
28	0x24	36
29	0x0d	13
30	0x02	2
31	0x02	2
32	0xd1	-47
33	0xf5	-11
34	0xbf	-65
35	0xdb	-37
36	0xe2	-30
37	0x1f	31
38	0x25	37
39	0xfa	-6
40	0x24	36
41	0xca	-54
42	0x08	8
43	0x81	-127
44	0xe7	-25
45	0xb8	-72
46	0xf8	-8
47	0xf7	-9
48	0x63	99
49	0x16	22
50	0xb0	-80
51	0xd7	-41
52	0xee	-18
53	0x24	36
54	0x22	34
55	0xda	-38
56	0xfe	-2
57	0x1a	26
58	0xed	-19
59	0xea	-22
60	0xcf	-49
61	0xe0	-32
62	0x01	1
63	0x29	41
64	0xf5	-11
65	0xfd	-3
66	0x26	38
67	0x13	19
68	0x08	8
69	0x1d	29
70	0x0d	13
71	0xe4	-28
72	0x26	38
73	0x5c	92
74	0xb4	-76
75	0x1e	30
76	0x45	69
77	0x14	20
78	0x32	50
79	0x1a	26
80	0x1a	26
81	0x2c	44
82	0x37	55
83	0xef	-17
84	0xbb	-69
85	0xf8	-8
86	0x29	41
87	0x20	32
88	0xdb	-37
89	0xf4	-12
90	0xe5	-27
91	0xf5	-11
92	0xe9	-23
93	0xff	-1
94	0xd4	-44
95	0x06	6
96	0xff	-1
97	0xeb	-21
98	0x0f	15
99	0x00	0
100	0xd7	-41
101	0x04	4
102	0x08	8
103	0x06	6
104	0xcc	-52
105	0x11	17
106	0x28	40
107	0x3e	62
108	0x0a	10
109	0xe1	-31
110	0x89	-119
111	0x17	23
112	0x59	89
113	0xc0	-64
114	0xee	-18
115	0xe6	-26
116	0x00	0
117	0x22	34
118	0x07	7
119	0xc7	-57
120	0x03	3
121	0x09	9
122	0xd2	-46
123	0x32	50
124	0xfb	-5
125	0x27	39
126	0xc8	-56
127	0xe1	-31
128	0x18	24
129	0xc2	-62
130	0xfd	-3
131	0xec	-20
132	0xf3	-13
133	0x01	1
134	0x25	37
135	0xa9	-87
136	0xe3	-29
137	0xcb	-53
138	0x47	71
139	0xe3	-29
140	0x15	21
141	0x2a	42
142	0xa8	-88
143	0xd3	-45
144	0x04	4
145	0xd6	-42
146	0xee	-18
147	0x0d	13
148	0xcf	-49
149	0x21	33
150	0x1d	29
151	0x1a	26
152	0x19	25
153	0xe2	-30
154	0x13	19
155	0xd0	-48
156	0x0f	15
157	0x32	50
158	0xc6	-58
159	0xc5	-59
160	0xba	-70
161	0xd7	-41
162	0x99	-103
163	0x24	36
164	0x03	3
165	0x30	48
166	0x34	52
167	0x0d	13
168	0x12	18
169	0xca	-54
170	0x23	35
171	0xc2	-62
172	0x1c	28
173	0x05	5
174	0x05	5
175	0x21	33
176	0x35	53
177	0xd9	-39
178	0xd8	-40
179	0x17	23
180	0xe7	-25
181	0xcd	-51
182	0xe3	-29
183	0x25	37
184	0x9f	-97
185	0xe0	-32
186	0x2b	43
187	0x4f	79
188	0xf7	-9
189	0x31	49
190	0xec	-20
191	0x02	2
192	0x05	5
193	0xf6	-10
194	0xf4	-12
195	0x3c	60
196	0xd0	-48
197	0x11	17
198	0x02	2
199	0x00	0
200	0xd6	-42
201	0xf2	-14
202	0x1c	28
203	0xde	-34
204	0x21	33
205	0x55	85
206	0x1d	29
207	0x07	7
208	0x4a	74
209	0x2f	47
210	0x19	25
211	0x23	35
212	0x07	7
213	0x3e	62
214	0xc6	-58
215	0x55	85
216	0x39	57
217	0x48	72
218	0x3a	58
219	0xe5	-27
220	0xd8	-40
221	0xeb	-21
222	0x0a	10
223	0xfa	-6
224	0xf1	-15
225	0xbd	-67
226	0xed	-19
227	0x33	51
228	0x1e	30
229	0xb6	-74
230	0x03	3
231	0xf3	-13
232	0x05	5
233	0x92	-110
234	0x27	39
235	0xcc	-52
236	0xfe	-2
237	0xf2	-14
238	0x2c	44
239	0xd2	-46
240	0x5f	95
241	0xb6	-74
242	0x09	9
243	0x16	22
244	0xa2	-94
245	0xf4	-12
246	0x36	54
247	0x2f	47
248	0x1f	31
249	0x69	105
250	0x30	48
251	0xf2	-14
252	0xf5	-11
253	0x19	25
254	0x03	3
255	0xb6	-74
