a_output_actual/dig-s2-q.tflite (tflite, 98560 bytes, 5 tensors)

sequential_2/dense_4/MatMul i1 [256, 256] scale=0.0030991547 zero_point=0
000000 14 fd e4 ff 18 18 f2 f0 de 05 f1 09 f1 f0 1d f4
       0.061983094 -0.009297464 -0.08677633 -0.0030991547 0.07437971 0.07437971 -0.043388166 -0.049586475 -0.10537126 0.015495773 -0.04648732 0.027892392 -0.04648732 -0.049586475 0.08987549 -0.037189856
000010 fd fb f8 db 1c 0a fc 1d 14 06 df 09 df ea 14 fd
       -0.009297464 -0.015495773 -0.024793237 -0.11466873 0.08677633 0.030991547 -0.012396619 0.08987549 0.061983094 0.018594928 -0.10227211 0.027892392 -0.10227211 -0.0681814 0.061983094 -0.009297464
000020 19 ff 08 05 e5 fd e9 dd df fc 0e 0f f0 03 ed 00
       0.07747887 -0.0030991547 0.024793237 0.015495773 -0.08367717 -0.009297464 -0.071280554 -0.10847041 -0.10227211 -0.012396619 0.043388166 0.04648732 -0.049586475 0.009297464 -0.05888394 0.0
000030 0e 1f f5 00 dd e3 07 e4 18 11 f7 fb e4 15 f2 17
       0.043388166 0.09607379 -0.0340907 0.0 -0.10847041 -0.08987549 0.021694083 -0.08677633 0.07437971 0.05268563 -0.027892392 -0.015495773 -0.08677633 0.06508225 -0.043388166 0.071280554
000040 0a f9 e8 f1 fe e5 18 db 04 10 15 18 e1 ea 03 ed
       0.030991547 -0.021694083 -0.07437971 -0.04648732 -0.0061983094 -0.08367717 0.07437971 -0.11466873 0.012396619 0.049586475 0.06508225 0.07437971 -0.09607379 -0.0681814 0.009297464 -0.05888394
000050 00 f8 dd 1c 16 f5 f9 e2 1a f8 f0 f7 dc 20 e0 05
       0.0 -0.024793237 -0.10847041 0.08677633 0.0681814 -0.0340907 -0.021694083 -0.09297464 0.08057802 -0.024793237 -0.049586475 -0.027892392 -0.11156957 0.09917295 -0.09917295 0.015495773
000060 de 1c f5 12 fa eb 06 0c fb 07 15 f8 0e e4 e1 18
       -0.10537126 0.08677633 -0.0340907 0.055784784 -0.018594928 -0.06508225 0.018594928 0.037189856 -0.015495773 0.021694083 0.06508225 -0.024793237 0.043388166 -0.08677633 -0.09607379 0.07437971
000070 17 e3 17 20 11 01 e5 d9 ee e3 f5 f9 00 04 de 0c
       0.071280554 -0.08987549 0.071280554 0.09917295 0.05268563 0.0030991547 -0.08367717 -0.12086703 -0.055784784 -0.08987549 -0.0340907 -0.021694083 0.0 0.012396619 -0.10537126 0.037189856
000080 09 06 15 e2 f7 02 ed fe ec 0a 13 ec e3 dd 0a 11
       0.027892392 0.018594928 0.06508225 -0.09297464 -0.027892392 0.0061983094 -0.05888394 -0.0061983094 -0.061983094 0.030991547 0.05888394 -0.061983094 -0.08987549 -0.10847041 0.030991547 0.05268563
000090 fb fc de 13 03 fa 0f 16 e9 01 f5 f2 12 0d fe f2
       -0.015495773 -0.012396619 -0.10537126 0.05888394 0.009297464 -0.018594928 0.04648732 0.0681814 -0.071280554 0.0030991547 -0.0340907 -0.043388166 0.055784784 0.04028901 -0.0061983094 -0.043388166
0000a0 15 11 fd 1d e9 ee 0c 12 e3 08 e8 10 fe e0 e5 08
       0.06508225 0.05268563 -0.009297464 0.08987549 -0.071280554 -0.055784784 0.037189856 0.055784784 -0.08987549 0.024793237 -0.07437971 0.049586475 -0.0061983094 -0.09917295 -0.08367717 0.024793237
0000b0 dd e9 13 02 08 df fb 1f 1b 0e fb 04 db ec e7 f2
       -0.10847041 -0.071280554 0.05888394 0.0061983094 0.024793237 -0.10227211 -0.015495773 0.09607379 0.08367717 0.043388166 -0.015495773 0.012396619 -0.11466873 -0.061983094 -0.07747887 -0.043388166
0000c0 f3 df 09 00 dd dc 14 f9 fd 05 fa 1e 0f ef 0e f0
       -0.04028901 -0.10227211 0.027892392 0.0 -0.10847041 -0.11156957 0.061983094 -0.021694083 -0.009297464 0.015495773 -0.018594928 0.09297464 0.04648732 -0.05268563 0.043388166 -0.049586475
0000d0 ea 0f f5 f4 e6 e3 fb fc f1 fe eb 06 e1 e7 05 e0
       -0.0681814 0.04648732 -0.0340907 -0.037189856 -0.08057802 -0.08987549 -0.015495773 -0.012396619 -0.04648732 -0.0061983094 -0.06508225 0.018594928 -0.09607379 -0.07747887 0.015495773 -0.09917295
0000e0 f0 e6 13 dd f0 1d 05 fd 13 de da e7 0d 18 11 f7
       -0.049586475 -0.08057802 0.05888394 -0.10847041 -0.049586475 0.08987549 0.015495773 -0.009297464 0.05888394 -0.10537126 -0.11776788 -0.07747887 0.04028901 0.07437971 0.05268563 -0.027892392
0000f0 00 f0 e2 17 00 0b fb e9 f8 01 10 12 e4 ea e1 e0
       0.0 -0.049586475 -0.09297464 0.071280554 0.0 0.0340907 -0.015495773 -0.071280554 -0.024793237 0.0030991547 0.049586475 0.055784784 -0.08677633 -0.0681814 -0.09607379 -0.09917295

sequential_2/dense_5/MatMul i1 [11, 256] scale=0.004615684 zero_point=0
000000 f8 e9 df c3 ec f0 c4 f7 f1 d3 d7 d2 d3 ec fa 05
       -0.036925472 -0.10616073 -0.15231757 -0.28155673 -0.09231368 -0.073850945 -0.27694103 -0.041541155 -0.06923526 -0.20770578 -0.18924305 -0.21232146 -0.20770578 -0.09231368 -0.027694104 0.02307842
000010 f5 c4 e7 fb d7 fc 1f cc aa 01 c1 e8 e4 e5 c2 fc
       -0.050772525 -0.27694103 -0.115392104 -0.02307842 -0.18924305 -0.018462736 0.14308621 -0.24001557 -0.3969488 0.004615684 -0.29078808 -0.11077642 -0.12923916 -0.12462347 -0.28617242 -0.018462736
000020 d0 e8 b2 0e 0f 06 ea da 15 c2 03 ee 1b e0 ea f9
       -0.22155283 -0.11077642 -0.36002335 0.06461958 0.06923526 0.027694104 -0.10154505 -0.175396 0.096929364 -0.28617242 0.013847052 -0.08308231 0.12462347 -0.14770189 -0.10154505 -0.03230979
000030 f1 e5 bf 11 d7 00 dd 0f cb 0e f4 d3 cf f3 fc da
       -0.06923526 -0.12462347 -0.30001947 0.07846663 -0.18924305 0.0 -0.16154894 0.06923526 -0.24463126 0.06461958 -0.05538821 -0.20770578 -0.22616851 -0.06000389 -0.018462736 -0.175396
000040 c6 1c bb 03 e5 ac fb 0a fe 0d 10 d4 fe f9 1f b8
       -0.26770967 0.12923916 -0.3184822 0.013847052 -0.12462347 -0.38771746 -0.02307842 0.04615684 -0.009231368 0.06000389 0.073850945 -0.2030901 -0.009231368 -0.03230979 0.14308621 -0.33232924
000050 f8 e5 ec fa bb 16 29 04 e9 ed e7 ef d5 fa 09 e0
       -0.036925472 -0.12462347 -0.09231368 -0.027694104 -0.3184822 0.10154505 0.18924305 0.018462736 -0.10616073 -0.087698 -0.115392104 -0.07846663 -0.1984744 -0.027694104 0.041541155 -0.14770189
000060 03 de 02 d5 ec 04 c0 bd fe be fb dd e5 0b cb c4
       0.013847052 -0.15693326 0.009231368 -0.1984744 -0.09231368 0.018462736 -0.29540378 -0.30925083 -0.009231368 -0.30463514 -0.02307842 -0.16154894 -0.12462347 0.050772525 -0.24463126 -0.27694103
000070 cd e9 e9 fe 01 1b e4 cf e5 e6 fb 04 da d2 de 35
       -0.23539989 -0.10616073 -0.10616073 -0.009231368 0.004615684 0.12462347 -0.12923916 -0.22616851 -0.12462347 -0.12000778 -0.02307842 0.018462736 -0.175396 -0.21232146 -0.15693326 0.24463126
000080 f8 e1 0e f1 07 12 f0 ae 00 02 03 10 0e f3 cc ed
       -0.036925472 -0.14308621 0.06461958 -0.06923526 0.03230979 0.08308231 -0.073850945 -0.3784861 0.0 0.009231368 0.013847052 0.073850945 0.06461958 -0.06000389 -0.24001557 -0.087698
000090 db 07 05 d1 04 15 f0 ea 03 fa ec d5 08 d6 15 0b
       -0.17078032 0.03230979 0.02307842 -0.21693715 0.018462736 0.096929364 -0.073850945 -0.10154505 0.013847052 -0.027694104 -0.09231368 -0.1984744 0.036925472 -0.19385873 0.096929364 0.050772525
0000a0 de f6 ea 9d b9 bd d4 f8 11 ca ce d6 07 f5 b5 dd
       -0.15693326 -0.04615684 -0.10154505 -0.45695272 -0.32771358 -0.30925083 -0.2030901 -0.036925472 0.07846663 -0.24924694 -0.23078421 -0.19385873 0.03230979 -0.050772525 -0.3461763 -0.16154894
0000b0 15 07 d8 b8 c7 e6 e7 01 03 d4 fa d7 d0 bf c9 d9
       0.096929364 0.03230979 -0.18462735 -0.33232924 -0.26309398 -0.12000778 -0.115392104 0.004615684 0.013847052 -0.2030901 -0.027694104 -0.18924305 -0.22155283 -0.30001947 -0.25386262 -0.18001167
0000c0 04 ef ef e6 eb e9 09 c3 fc d9 e6 00 fb f2 de ef
       0.018462736 -0.07846663 -0.07846663 -0.12000778 -0.096929364 -0.10616073 0.041541155 -0.28155673 -0.018462736 -0.18001167 -0.12000778 0.0 -0.02307842 -0.06461958 -0.15693326 -0.07846663
0000d0 e1 eb 09 e0 b5 c1 e5 d1 cf e7 05 e6 de c0 b3 c4
       -0.14308621 -0.096929364 0.041541155 -0.14770189 -0.3461763 -0.29078808 -0.12462347 -0.21693715 -0.22616851 -0.115392104 0.02307842 -0.12000778 -0.15693326 -0.29540378 -0.35540769 -0.27694103
0000e0 e4 0a ce 0e dd 0e 04 ee e6 e0 08 cd eb f0 12 d1
       -0.12923916 0.04615684 -0.23078421 0.06461958 -0.16154894 0.06461958 0.018462736 -0.08308231 -0.12000778 -0.14770189 0.036925472 -0.23539989 -0.096929364 -0.073850945 0.08308231 -0.21693715
0000f0 fe fe 18 04 ed d4 04 f0 f5 e9 b9 fc 0a 12 f6 c2
       -0.009231368 -0.009231368 0.11077642 0.018462736 -0.087698 -0.2030901 0.018462736 -0.073850945 -0.050772525 -0.10616073 -0.32771358 -0.018462736 0.04615684 0.08308231 -0.04615684 -0.28617242

sequential_2/conv2d_6/Conv2D i1 [32, 3, 3, 3]
000000 cf 04 31 0f ef bb fd 7f 50 f8 d2 0b c1 6d 10 09
       -49 4 49 15 -17 -69 -3 127 80 -8 -46 11 -63 109 16 9
000010 0c bd 21 f4 9e 0b bc a1 9a f0 44 2a cd 1d 10 37
       12 -67 33 -12 -98 11 -68 -95 -102 -16 68 42 -51 29 16 55
000020 5d 0d 35 0c c5 01 ba 04 53 e9 59 6b 46 c5 e4 81
       93 13 53 12 -59 1 -70 4 83 -23 89 107 70 -59 -28 -127
000030 a6 e4 ac 8e 1e e7 9d 81 ce 0e 8a ad 1e d7 c1 01
       -90 -28 -84 -114 30 -25 -99 -127 -50 14 -118 -83 30 -41 -63 1
000040 e3 0b ec 1c 11 34 2b e6 72 2b 52 2a 56 2a 16 fb
       -29 11 -20 28 17 52 43 -26 114 43 82 42 86 42 22 -5
000050 42 81 b0 0f 04 ff c1 f9 50 e7 ec ac b0 12 47 2b
       66 -127 -80 15 4 -1 -63 -7 80 -25 -20 -84 -80 18 71 43
000060 42 de 4b 16 dd db 46 1b 6b 16 e2 29 a3 0d ed cc
       66 -34 75 22 -35 -37 70 27 107 22 -30 41 -93 13 -19 -52
000070 ee cf 81 84 bc e7 b3 0c aa 04 c1 44 f7 54 40 1e
       -18 -49 -127 -124 -68 -25 -77 12 -86 4 -63 68 -9 84 64 30
000080 0d 57 78 f4 76 79 6d 0b 42 a3 db 25 01 14 7f d0
       13 87 120 -12 118 121 109 11 66 -93 -37 37 1 20 127 -48
000090 eb b1 da 0d 58 bf 49 eb 19 9e 16 a5 f8 0f c6 17
       -21 -79 -38 13 88 -65 73 -21 25 -98 22 -91 -8 15 -58 23
0000a0 24 ab 48 4c 3f c8 0b 42 8d bc 81 38 f7 1f 59 22
       36 -85 72 76 63 -56 11 66 -115 -68 -127 56 -9 31 89 34
0000b0 2c 9c a1 be 02 03 5c 4c 46 02 c5 01 e3 37 7f f9
       44 -100 -95 -66 2 3 92 76 70 2 -59 1 -29 55 127 -7
0000c0 1c 4f 58 5b 0a ee ae 3d 40 07 2e e9 13 e7 4c c9
       28 79 88 91 10 -18 -82 61 64 7 46 -23 19 -25 76 -55
0000d0 98 a6 15 84 92 eb c7 a8 d8 24 e6 9c da d0 14 3e
       -104 -90 21 -124 -110 -21 -57 -88 -40 36 -26 -100 -38 -48 20 62
0000e0 21 a3 a5 03 27 d3 5d 81 0c 44 ce da f6 c3 ed f0
       33 -93 -91 3 39 -45 93 -127 12 68 -50 -38 -10 -61 -19 -16
0000f0 d0 d3 11 de 13 f3 b2 d0 cd d9 f0 26 06 4b 0e 02
       -48 -45 17 -34 19 -13 -78 -48 -51 -39 -16 38 6 75 14 2

sequential_2/conv2d_7/Conv2D i1 [32, 3, 3, 32]
000000 0e 0c 35 2f 43 8b d4 ef 27 c9 1e 81 d1 44 4d 2c
       14 12 53 47 67 -117 -44 -17 39 -55 30 -127 -47 68 77 44
000010 14 8d 55 ab a0 f4 43 e2 52 00 bb 1d d0 2d 8a ce
       20 -115 85 -85 -96 -12 67 -30 82 0 -69 29 -48 45 -118 -50
000020 cc d4 c1 95 f5 ea bc 31 86 e2 af 3b fa 4e ed e9
       -52 -44 -63 -107 -11 -22 -68 49 -122 -30 -81 59 -6 78 -19 -23
000030 a1 fc 9b d0 dd e8 07 e7 1e fe 40 bd a3 9f a7 a4
       -95 -4 -101 -48 -35 -24 7 -25 30 -2 64 -67 -93 -97 -89 -92
000040 fa 08 b1 85 3e f8 41 f3 d9 19 1e 56 2a 15 13 d3
       -6 8 -79 -123 62 -8 65 -13 -39 25 30 86 42 21 19 -45
000050 ac 01 a0 30 34 d2 c5 c1 8a c7 d4 9b e3 2e a1 0e
       -84 1 -96 48 52 -46 -59 -63 -118 -57 -44 -101 -29 46 -95 14
000060 57 36 f9 8e 0b a2 dd be 9c ee 1f 1e 03 27 a7 e0
       87 54 -7 -114 11 -94 -35 -66 -100 -18 31 30 3 39 -89 -32
000070 3d 1b 95 08 fc f0 f1 88 14 52 ee d4 a1 df 84 c0
       61 27 -107 8 -4 -16 -15 -120 20 82 -18 -44 -95 -33 -124 -64
000080 d8 ab 01 8f 4a 31 e4 b1 fa 09 8b f9 d2 ad 0f 33
       -40 -85 1 -113 74 49 -28 -79 -6 9 -117 -7 -46 -83 15 51
000090 32 e5 dd e2 f8 29 a6 25 4a 1a ce ce d5 c9 f4 f6
       50 -27 -35 -30 -8 41 -90 37 74 26 -50 -50 -43 -55 -12 -10
0000a0 9d a7 21 b7 91 8b 3f d0 e3 e6 c1 24 e2 49 fc a0
       -99 -89 33 -73 -111 -117 63 -48 -29 -26 -63 36 -30 73 -4 -96
0000b0 01 9e d9 eb c0 16 a8 3b 99 e2 e9 de 05 13 ac e1
       1 -98 -39 -21 -64 22 -88 59 -103 -30 -23 -34 5 19 -84 -31
0000c0 c8 df 37 d4 97 33 ee e2 39 39 28 09 e6 a2 3d 28
       -56 -33 55 -44 -105 51 -18 -30 57 57 40 9 -26 -94 61 40
0000d0 e2 08 b1 46 d1 73 b3 1c fd 3a b3 11 09 db 97 4b
       -30 8 -79 70 -47 115 -77 28 -3 58 -77 17 9 -37 -105 75
0000e0 e1 e6 ae 40 9b a1 b8 cf 11 bf d1 86 95 03 3d 92
       -31 -26 -82 64 -101 -95 -72 -49 17 -65 -47 -122 -107 3 61 -110
0000f0 25 8d ea 14 be db dd 84 54 19 fc 06 51 13 8f dd
       37 -115 -22 20 -66 -37 -35 -124 84 25 -4 6 81 19 -113 -35

sequential_2/conv2d_8/Conv2D i1 [32, 3, 3, 32]
000000 20 0d f8 1e 27 03 d9 1c ba eb 1b 35 e5 19 1a f0
       32 13 -8 30 39 3 -39 28 -70 -21 27 53 -27 25 26 -16
000010 e0 e8 12 b1 4d ed 1a e0 23 f5 ce f0 e2 ed d3 38
       -32 -24 18 -79 77 -19 26 -32 35 -11 -50 -16 -30 -19 -45 56
000020 f4 db 0d 21 d9 19 f7 04 e0 18 fc 4c fc 08 ca e8
       -12 -37 13 33 -39 25 -9 4 -32 24 -4 76 -4 8 -54 -24
000030 3b f6 17 40 e9 ca 08 21 fd e2 c9 ea 42 f9 bc 2d
       59 -10 23 64 -23 -54 8 33 -3 -30 -55 -22 66 -7 -68 45
000040 e0 00 f4 45 bf ad 21 ca c6 ee 9e 2c f0 3e 10 fd
       -32 0 -12 69 -65 -83 33 -54 -58 -18 -98 44 -16 62 16 -3
000050 79 7e b6 eb cc 1e 02 b2 df ae f7 b1 20 30 05 bf
       121 126 -74 -21 -52 30 2 -78 -33 -82 -9 -79 32 48 5 -65
000060 e5 03 01 22 1e d4 22 e3 e5 42 39 4b 3a 11 ff de
       -27 3 1 34 30 -44 34 -29 -27 66 57 75 58 17 -1 -34
000070 9b f8 13 c2 31 3a 27 d4 2d 2b b8 cd 12 f4 b1 fd
       -101 -8 19 -62 49 58 39 -44 45 43 -72 -51 18 -12 -79 -3
000080 e0 19 cf e8 41 22 e6 ed c7 bf b2 b2 e3 e8 f5 f5
       -32 25 -49 -24 65 34 -26 -19 -57 -65 -78 -78 -29 -24 -11 -11
000090 dc f1 0b de 54 ca b9 e1 b1 d0 de ea 2d e2 2d 3e
       -36 -15 11 -34 84 -54 -71 -31 -79 -48 -34 -22 45 -30 45 62
0000a0 0e f6 c1 df 1d cb b9 c3 24 87 cd 1b 23 f3 4e 29
       14 -10 -63 -33 29 -53 -71 -61 36 -121 -51 27 35 -13 78 41
0000b0 0a 02 0d dc 02 3d 06 f3 8c f3 d2 1a c8 3a 5b f7
       10 2 13 -36 2 61 6 -13 -116 -13 -46 26 -56 58 91 -9
0000c0 2b e5 fb 19 d9 13 08 e5 1a 02 d4 1c b8 20 f0 ec
       43 -27 -5 25 -39 19 8 -27 26 2 -44 28 -72 32 -16 -20
0000d0 ed 10 02 af b0 e1 c6 09 ec 2e fc 17 d8 db f4 49
       -19 16 2 -81 -80 -31 -58 9 -20 46 -4 23 -40 -37 -12 73
0000e0 e1 fb 81 e6 f2 52 df cf fa d9 a4 bf b3 4d 4d eb
       -31 -5 -127 -26 -14 82 -33 -49 -6 -39 -92 -65 -77 77 77 -21
0000f0 d6 ce 1c 42 07 1b c6 fa f2 40 12 c2 de f1 c8 fb
       -42 -50 28 66 7 27 -58 -6 -14 64 18 -62 -34 -15 -56 -5
