a_output_actual/dig-s2.tflite (tflite, 356636 bytes, 12 tensors)

sequential_2/conv2d_6/BiasAdd/ReadVariableOp/resource f4 [32]
00000000: ca15 bebd 1709 543d 2c2f f4bd 3c9f 19bd
00000010: fa13 b2bd 9a76 febd 16d7 94bd 6fab a6bd
00000020: c58a 97bd c9ca afbd 2c9a ffbd 7393 0ebe
00000030: b0fb b7bd eb0e 60bd 67bf 81bd 3c4d a5bd
00000040: 7952 3e3b bfac b1bd 865c 3bbd b88d 94bd
00000050: 5472 22be 0a1b 9ebd 0903 26bd 086d edbd
00000060: 2f3f f9bd 228f 93bd ddcb d83c e4a6 0dbe
00000070: c9b3 aaba ef69 25be fb8c 23bd 569d c7bd
-0.092815 0.05176648 -0.1192306 -0.037505373 -0.086952165 -0.12424965 -0.07267587 -0.08138167
-0.07399515 -0.085836 -0.12480578 -0.13923435 -0.089835525 -0.054701727 -0.06335335 -0.08071372
0.0029040857 -0.08675527 -0.045742534 -0.07253593 -0.15863925 -0.07720001 -0.04053024 -0.11593062
-0.121702544 -0.07205035 0.026464397 -0.13833195 -0.0013023551 -0.16153692 -0.03992937 -0.09746806

sequential_2/conv2d_7/BiasAdd/ReadVariableOp/resource f4 [32]
00000000: 5615 aabc 2c49 193d b9f6 4c3d c60a a33b
00000010: 7871 b73a 4ee6 38bd 3529 523d 048c 8fbd
00000020: c14a 97bd 4519 053e a171 cdbb 6d48 96bc
00000030: ad5f 35bd 0a75 863d e1f7 1abd a841 c1bb
00000040: 8b46 19bd 18a1 2fbd d6da 39bd f08b a5bd
00000050: 91f9 8ebc 43b4 bdbc 667e cfbd a875 26bd
00000060: f0e2 a63d fae6 c7bb a1cf 0f3e 3351 0c3d
00000070: 9af7 913c f7d3 c73d b2bf 793c b6c5 9b3d
-0.020762127 0.037423298 0.05003998 0.0049756495 0.0013995608 -0.04514151 0.05130883 -0.07009128
-0.07387305 0.12997921 -0.006269649 -0.018345082 -0.044280697 0.06565292 -0.037834052 -0.0058977194
-0.03742079 -0.04287824 -0.045374714 -0.080833316 -0.017452987 -0.023157245 -0.101315305 -0.04063955
0.08148754 -0.0061005326 0.14044048 0.034257125 0.017818261 0.09757226 0.015243458 0.0760607

sequential_2/conv2d_8/BiasAdd/ReadVariableOp/resource f4 [32]
00000000: 0d54 debd b93d 82bd 538c 81bd 5674 3abc
00000010: 70ad 9fbd 661b 7cbe ce75 4dbd 14f7 77bd
00000020: 5b69 51bc a539 68bc f5aa 31bd b812 94bd
00000030: 932f a6bd ffdb 1f3b 8999 babd 7195 d9bc
00000040: 14df 14bc abe8 87bd ff0a 0dbd 3d4e 143d
00000050: 8f0c 4e3d 0f8b e9bd 4f1a eabc 84b1 ce3b
00000060: 0f67 c0bd 460a 623c b924 d9bc eb1a 41bd
00000070: 1e2d 87bc 0364 79bc 54f4 c2bd 81fd 06bc
-0.10855875 -0.06359429 -0.06325593 -0.011380276 -0.077967525 -0.24619827 -0.050161175 -0.060538366
-0.012781466 -0.0141739 -0.043375928 -0.07230133 -0.08114543 0.0024392602 -0.09111316 -0.026560517
-0.009086389 -0.06636175 -0.034434315 0.036207426 0.050304946 -0.114034764 -0.028576998 0.0063077826
-0.09394657 0.013796395 -0.026506769 -0.04714481 -0.016501006 -0.015221599 -0.09519258 -0.008239151

sequential_2/dense_4/BiasAdd/ReadVariableOp/resource f4 [256]
00000000: b9b2 debc 5b7b 573d 2667 15bd 48c3 00bc
00000010: 411f 273d 333d f43c 4ae8 a7bb bfe7 57bc
00000020: a38f 6cbd 7329 4b3d e971 f0b8 e012 d1bc
00000030: 895a d6bc 387c fdba 34e1 2abc 67d7 213d
00000040: c4c2 913b 0499 c63c 7a89 d63c c661 d9bb
00000050: 4df9 143d 10e3 553d 9f48 adbc f094 db3c
00000060: 562a 8b3d 0a1d 50bd c4dd ba3d f355 1dbd
00000070: b834 cc3c 9101 adbc e263 df3c 0cd4 fabc
00000080: d5c3 1b3d 2e46 38bb 0488 eb3d d180 383c
00000090: b2a4 f3bb 9fd1 3b3b 2cf5 6d3a bd14 d93c
000000a0: ef60 e53b b869 a93c 7598 013d e787 b43c
000000b0: 5f55 64bc d84e d437 1944 ec3c a2e3 aebc
000000c0: 0575 17bd eb14 5cbc c3e9 51bc 26ac ccbc
000000d0: 394e 703d 0000 65bd f313 aa3d fe32 713a
000000e0: 6ea6 a13c 19ff a2bc 6c58 c3bc fdd0 9fbc
000000f0: 5baa 2b3c 93c8 c2bc f307 7f3b 630d 11bd
00000100: 1280 9c3c 7bee dcbd 8023 b3bc e58d d93b
00000110: 264d d8bc 6d1b 9a38 0fd0 ecbb 9cf8 aabd
00000120: 2def 94bc a46c 663b 852e 53bd cc87 a43d
00000130: c842 0bbd aee0 183d 6b21 05bd 3912 45bc
00000140: 31c3 4fbc ff7c a93b a683 00bd b37e f6bc
00000150: 958f 9f38 20a7 9fbc 365c 9ebd f44e 39bb
00000160: 5d38 35bd 172e babc df95 b03d c877 69bd
00000170: b78d 58bd add2 e3ba a07b ccbc b35f 943c
00000180: c8bb 5b3b 47f7 2d3d 68f5 233b 02e8 0c3c
00000190: 508e 3dbc a973 80bc 5d40 5e3d 8ab8 6ebc
000001a0: 7151 c8bb ae50 eabc 214c 8fbb 013a 653d
000001b0: 7490 8c3b e9eb 5d3d 4ac4 a83c 6f20 313d
000001c0: 08e3 04bc 5245 7f3d f300 673c b854 8c3b
000001d0: 3108 bb39 6544 77bc 8e64 963d 4246 773d
000001e0: e96f babc ea4a 27bc 3c6d c03b 8846 34bd
000001f0: cdaf a73c 704c 7f3d c0db 5a3c 7971 82bd
00000200: e3ab 883d 420e f1bc b753 1abc 4bd3 c23b
00000210: 831f 8abd 33fd d2bc d98a 12bd 40bb 973d
00000220: 25fe 52bc 4da0 f33a 5f03 4f3b a170 d2bb
00000230: f5f4 f3bc 3428 d13c a21b 8abc 261a 393d
00000240: f883 2d3d bb80 93bc e191 06bb 3989 633d
00000250: 735b 1a3c 8136 28bd 3b9f 77bb 7556 b33c
00000260: a008 86bc 6e03 9cbd 1d9a 94bb 81f0 bbbb
00000270: e0e4 7ebd 9225 363d 00aa 8dbd 6cff fabc
00000280: 1c2d fc3c 1fdb 75bd fbae 3fbc 6df8 cd3d
00000290: c5d4 553d a0fc 933d ed0c 99bc 4bb0 1cbc
000002a0: c6a8 afbd d13d 4fbc 3dd0 1a3d b069 4f3d
000002b0: 0db0 31bd 8a11 223c 01ed 873d 0277 d03c
000002c0: 3e7c 9abc 0d5f 1bbc 98c8 65bb facf 233d
000002d0: 38bf f53c 967c fc3c a760 cabc 15b8 83bc
000002e0: b870 b1bc d5f6 9fbc d829 ffbc bef0 c53d
000002f0: fc0d 923c 65d7 aabc 3d08 953d f789 f83c
00000300: e328 ebbc 177e 8c3c 8ca2 20bd af05 fe3c
00000310: 3789 ccbc 7a6b af3c ddfd 6dbd 6265 3b3d
00000320: 7a0e c13b 2a85 1fbd 75d9 b03d cdc5 41bc
00000330: 0388 f2bc f2fc 82bc c78c cf3b fcd4 84bb
00000340: b542 85bc 82e2 d439 1f44 08bc b401 8fbc
00000350: d4cc fd3c 1108 0c3d c0e7 433d 723a d73c
00000360: d16b 5c3d 95f5 633c 48db 7bbd 3675 8cbc
00000370: eb67 d4bb caf3 c93c 7b09 ef3c ee6e c93c
00000380: 887e 50bc 6088 a2bb a56e 153d 5eaf 9bbc
00000390: fd5b eebb 077b bebd 1cba ce3c 504e feb8
000003a0: 2743 793d 4857 b93d 9861 80bc b19c bdbc
000003b0: d229 7f3c 55e2 24bd 95fc c0bd 6fb5 333d
000003c0: 9366 26bb d905 b7bd 97c6 643d 3b10 0bbc
000003d0: ae85 dd3d 4a7d a03d 4bad 533d 5ade 7c3d
000003e0: d75d 593c e57e 6ebd 4e21 073c dc94 8bbc
000003f0: d09a b2bc 8d9a 93bd e75c d93c 7996 593c
-0.027184831 0.052607875 -0.036475323 -0.007859059 0.04080129 0.029814338 -0.0051241266 -0.013177811
-0.05775417 0.049600076 -0.00011465309 -0.025521696 -0.026166217 -0.0019339388 -0.010429669 0.039512064
0.0044482667 0.024242885 0.0261886 -0.00663397 0.036370564 0.052218497 -0.021152792 0.026804417
0.06795184 -0.050808944 0.0912433 -0.038412046 0.024927482 -0.021118911 0.027269308 -0.03061869
0.038028557 -0.0028118002 0.11500552 0.011261181 -0.0074354047 0.002865888 0.0009077366 0.026499147
0.007000081 0.020680293 0.031639535 0.02203746 -0.01393637 2.5309084e-05 0.028841065 -0.021348778
-0.036976833 -0.013432722 -0.012812081 -0.02498443 0.05866835 -0.055908203 0.08304586 0.0009201019
0.01973268 -0.01989703 -0.023845874 -0.019508833 0.010477628 -0.023777282 0.003891465 -0.035413157
0.019104037 -0.10787674 -0.021867514 0.0066392296 -0.026403975 7.348401e-05 -0.007226951 -0.083482
-0.018180454 0.003515997 -0.051558036 0.08033714 -0.033999234 0.037323646 -0.032502573 -0.01202827
-0.012680815 0.0051723714 -0.03137555 -0.030089712 7.608455e-05 -0.019488871 -0.077324316 -0.002827582
-0.044243205 -0.022727055 0.08622336 -0.056998998 -0.052869525 -0.0017381512 -0.024961293 0.01811204
0.0033528674 0.04247215 0.00250181 0.008600237 -0.0115695745 -0.015680151 0.0542606 -0.014570365
-0.006113224 -0.028602924 -0.004373089 0.05596352 0.004289681 0.05418006 0.02060141 0.04324382
-0.008110769 0.06232197 0.014099347 0.00428256 0.00035673523 -0.01509199 0.07343398 0.060369737
-0.022758441 -0.010210732 0.0058723968 -0.044012576 0.02046957 0.062328756 0.013358057 -0.063692994
0.0667341 -0.029425744 -0.009419373 0.0059455982 -0.06744292 -0.0257555 -0.035776947 0.07408762
-0.012877976 0.0018587202 0.0031587703 -0.006422118 -0.02977989 0.025531866 -0.01685888 0.045190953
0.042362183 -0.01800572 -0.0020533728 0.055550788 0.009421217 -0.041067604 -0.0037784118 0.021891812
-0.016361535 -0.07617842 -0.0045349733 -0.0057354574 -0.06222999 0.044469424 -0.069171906 -0.030639373
0.030783229 -0.060023423 -0.011699433 0.10057149 0.052204866 0.07225919 -0.018682921 -0.009563516
-0.08577113 -0.0126490155 0.037796248 0.0506379 -0.043380786 0.009891877 0.06637002 0.025447372
-0.018858071 -0.009483111 -0.003506219 0.039993264 0.029998407 0.030821126 -0.02470429 -0.016078988
-0.021660194 -0.019526878 -0.031147882 0.096650586 0.017828934 -0.020854661 0.07276962 0.030339224
-0.02870602 0.017149968 -0.039217517 0.03100857 -0.024967773 0.021413554 -0.05810343 0.045750983
0.0058916183 -0.038945355 0.08635227 -0.011826945 -0.029605871 -0.015989754 0.0063339206 -0.00405371
-0.01626716 0.00040604552 -0.008317023 -0.017456867 0.030981459 0.03418738 0.047828436 0.026272986
0.05381376 0.013913532 -0.06148842 -0.017145734 -0.0064821145 0.02465238 0.029179325 0.024589028
-0.01272548 -0.004960105 0.036482472 -0.01900452 -0.0072741495 -0.09300809 0.025235228 -0.00012126251
0.060855057 0.09049851 -0.015671536 -0.023146005 0.015573936 -0.04025491 -0.09423176 0.0438742
-0.002539073 -0.08936662 0.055853453 -0.008487756 0.10816513 0.07836397 0.051678937 0.06173549
0.013267002 -0.058226485 0.008247687 -0.017038755 -0.021802336 -0.072072126 0.026533557 0.013280504

sequential_2/dense_5/BiasAdd/ReadVariableOp/resource f4 [11]
00000000: a21a 36be 83e7 06be 601c 09be b737 bebd
00000010: b690 05be 90f0 f1bd 46fc 27be 00db 1abe
00000020: 7af4 08be 0211 e4bd 9d53 ccbd
-0.17783597 -0.13174252 -0.1338973 -0.092879705 -0.13043484 -0.11813462 -0.16404828 -0.15122604
-0.1337451 -0.111360565 -0.099768855

sequential_2/batch_normalization_2/FusedBatchNormV3 f4 [3]
00000000: 880e f2bf 7ad6 0cc0 431a e2bf
-1.8910685 -2.2005906 -1.7664264

sequential_2/batch_normalization_2/FusedBatchNormV31 f4 [3]
00000000: 8f21 763c 5301 8c3c 5a55 623c
0.015022649 0.017090475 0.013814295

sequential_2/dense_4/MatMul f4 [256, 256]
00000000: 83ed 7b3d 1cea 27bc 77fc b0bd 7b35 7fbb
00000010: 4720 993d 7d17 9b3d c04b 35bd eabd 43bd
00000020: 0cf1 d4bd 2bc9 843c 27ef 37bd dcc1 dd3c
00000030: 2115 41bd 9222 4bbd 9b97 b63d aabb 11bd
00000040: 2bd3 07bc d1ba 7abc b6b1 d6bc 393c eabd
00000050: e46e af3d 4f99 033d e562 4abc bbf5 ba3d
00000060: 6fad 7f3d d4b1 923c 0cdd d1bd b51b db3c
00000070: 3710 cfbd b6e4 89bd e478 7e3d 57a5 31bc
00000080: 69fa a13d 01db 3dbb ba10 ca3c 0edb 803c
00000090: a528 a8bd 941e e5bb 68e2 91bd ce41 dbbd
000000a0: 85ed cfbd 10c2 60bc 6a11 323d 03da 433d
000000b0: 8094 4dbd b847 183c 4488 75bd d240 72ba
000000c0: 0746 313d 1662 c33d db4c 11bd ec70 483a
000000d0: 7adf dcbd 2489 b9bd 6f29 a93c 3e14 b0bd
000000e0: f5e4 973d a6b1 5b3d 71c4 dabc 5578 82bc
000000f0: d131 b1bd b3ca 863d e355 2dbd 37ac 973d
00000100: ba58 073d 7180 a6bc a71e 99bd 448c 41bd
00000110: 58b0 cdbb 822f a9bd d212 9c3d 644d eabd
00000120: 60fd 4b3c 0d6f 4d3d a5ba 883d 28d9 983d
00000130: 45c4 c1bd 8cde 8ebd 3815 1e3c 780f 6dbd
00000140: 6600 a63a d12e c3bc 2dda dfbd 660d b43d
00000150: f3b4 8a3d dc93 0abd 1b1e a7bc 2765 bdbd
00000160: e6f1 a13d 50d9 c3bc 501a 46bd deb8 ebbc
00000170: fbd2 e0bd 8570 cd3d 0352 cdbd 7471 673c
00000180: 224c d8bd 339e b23d 8c12 07bd 2885 633d
00000190: eea4 9abc d838 82bd 9831 973c a68f 113d
000001a0: c82d 81bc 27ac af3c 3503 893d 99c3 c3bc
000001b0: 66ea 2a3d e9cc adbd 9f09 c7bd 8d37 953d
000001c0: 0d3d 943d 1e09 b8bd a05c 913d 8e25 cc3d
000001d0: 8921 573d ce96 243b a409 aabd 32e5 f6bd
000001e0: 24e0 67bd 7315 b5bd 933d 09bd 4776 aebc
000001f0: 6249 9f3a 18fb 443c 37bc d8bd bc7a 1a3d
00000200: a0d5 d83c 8929 a53c 054c 823d 12c9 bfbd
00000210: e00f e8bc 0301 d93b fcf5 70bd db35 d3bb
00000220: d008 79bd bd33 fc3c c0e3 6d3d b7f3 81bd
00000230: 64fe b9bd 20d9 dbbd 4018 033d 421d 5a3d
00000240: b44f 86bc 47c1 5ebc ddeb d9bd 2a08 6c3d
00000250: aede 2a3c 1bcf 96bc a176 413d ffd5 8b3d
00000260: 6807 94bd af5f 0a3b 8f2c 0cbd 5703 2ebd
00000270: e0aa 663d 9ecd 283d d445 dabb 1b74 33bd
00000280: 1032 873d e9fc 583d a510 0ebc c169 b93d
00000290: 9d6a 8ebd 5a4e 65bd afcc 183d a556 653d
000002a0: 6db3 b9bd 3d9a d63c 4c8e 98bd 0963 4a3d
000002b0: 1aa0 e2bb 2108 cabd 3526 afbd 34c6 c53c
000002c0: cf96 e0bd e2ce 91bd 4f60 783d e633 be3b
000002d0: b546 cb3c 1e0e d0bd 74aa 84bc 42a5 c23d
000002e0: c11e ad3d 5bb7 333d b80b 66bc ff49 583c
000002f0: 53a3 ebbd 11be 7bbd 0e10 a1bd 5748 30bd
00000300: a2b5 22bd 261f d3bd 9636 e03c dfb1 07ba
00000310: 7466 dfbd a6da e4bd 8981 7b3d cb42 babc
00000320: 03d0 04bc 2e73 8e3c 94cd 9fbc 7c23 bf3d
00000330: 8108 3e3d 1398 54bd 0c73 333d 565c 4dbd
00000340: c75d 8cbd 7fe5 453d a84c 0fbd 2bff 13bd
00000350: 4ada a4bd aab0 b4bd 4c0d 71bc 0fb6 50bc
00000360: df7c 44bd d8fe bfbb d5b5 85bd c7f6 9d3c
00000370: d07c c1bd 86d6 9bbd 09c7 773c 1333 cbbd
00000380: 5faf 47bd 2c67 a5bd f277 743d aae8 ddbd
00000390: 8205 48bd 2e3e b93d a451 8a3c 9548 13bc
000003a0: d962 753d 794e d4bd 67c0 eebd 6338 9bbd
000003b0: 3c26 283d b855 9a3d 5f51 533d b06a d8bc
000003c0: 1494 103a 2daf 46bd 3cf4 bbbd 68a1 923d
000003d0: e376 afba 2e70 0c3d e1bf 81bc c0eb 91bd
000003e0: e67d d7bc 7df9 e93a 8947 543d 1c6c 603d
000003f0: a9fc afbd a482 8cbd 1644 c2bd b30e cbbd
0.061505806 -0.010248687 -0.08641904 -0.003894179 0.074768595 0.075728394 -0.044261694 -0.047788538
-0.103975385 0.016209206 -0.044905808 0.027069978 -0.04713929 -0.049593516 0.08915635 -0.03557936
-0.008290092 -0.01530333 -0.026207786 -0.11437268 0.085660726 0.03212863 -0.01235268 0.091289006
0.06242126 0.01790706 -0.102472395 0.02674661 -0.101105146 -0.06733076 0.06212701 -0.010842643
0.0790909 -0.0028969648 0.024666179 0.015729453 -0.08210877 -0.0069921706 -0.07123262 -0.107059106
-0.10152725 -0.013718143 0.04347364 0.047815334 -0.05019045 0.009294443 -0.059944406 -0.00092412264
0.043279674 0.09540193 -0.035473686 0.0007646221 -0.10784812 -0.090593606 0.02064964 -0.08597611
0.07416717 0.053636216 -0.026704999 -0.01592652 -0.0865208 0.065816306 -0.042318236 0.07405894
0.0330436 -0.020324918 -0.074765496 -0.04725291 -0.0062771253 -0.082610145 0.07620777 -0.11440542
0.012450546 0.050154734 0.066762246 0.07463294 -0.094612636 -0.06976041 0.009648614 -0.05787608
0.0012664914 -0.023826035 -0.109302856 0.08791618 0.067727946 -0.033832416 -0.020400098 -0.09247809
0.079074666 -0.023907334 -0.048364937 -0.028774675 -0.10977741 0.10031227 -0.10025408 0.01412617
-0.10561396 0.0872158 -0.032976672 0.05554691 -0.018877473 -0.06358498 0.018456265 0.035537384
-0.0157689 0.021444393 0.06690065 -0.02389698 0.041727446 -0.08486349 -0.09718632 0.07285986
0.07238207 -0.08986114 0.07097745 0.099681005 0.052522216 0.00251143 -0.0830262 -0.12055434
-0.05661024 -0.08841982 -0.033505987 -0.021296633 0.0012152607 0.012022756 -0.10582774 0.037714705
0.026469052 0.020161407 0.06362156 -0.09364523 -0.028327882 0.006622435 -0.05882834 -0.006445629
-0.06079942 0.03078639 0.058078527 -0.06345313 -0.09081724 -0.10734773 0.03200555 0.05325056
-0.016395427 -0.013595886 -0.106406905 0.057624973 0.010429068 -0.018409302 0.047232274 0.06827926
-0.07227975 0.002111416 -0.034222182 -0.042483654 0.056315303 0.041211717 -0.006661156 -0.0438119
0.066013455 0.05297557 -0.008670961 0.09053374 -0.069539286 -0.055982925 0.037304576 0.055990834
-0.09067426 0.026196593 -0.07449016 0.049410854 -0.0069160582 -0.09864832 -0.08552209 0.024142362
-0.109662645 -0.07119538 0.060638722 0.0058045266 0.02481399 -0.10158943 -0.01619456 0.09504177
0.084531315 0.043876033 -0.01404088 0.013201236 -0.11505761 -0.06146056 -0.0786439 -0.04303774
-0.039724 -0.103086755 0.027369779 -0.0005176346 -0.10908213 -0.111745164 0.06140283 -0.022736927
-0.0081062345 0.017388906 -0.019507207 0.0933294 0.04639483 -0.05190284 0.04381089 -0.050136887
-0.06853824 0.048314568 -0.034985214 -0.03613202 -0.08049448 -0.088227585 -0.014712643 -0.012738719
-0.04797065 -0.005859237 -0.06528822 0.019282712 -0.09447634 -0.076092765 0.015123137 -0.09921851
-0.04875123 -0.08076319 0.0596847 -0.10835393 -0.048833378 0.09045063 0.016884632 -0.008989473
0.05990872 -0.1036653 -0.116577916 -0.07579114 0.04105209 0.07535881 0.051591273 -0.02641806
0.00055152294 -0.048506904 -0.091774434 0.07159692 -0.0013386871 0.03428667 -0.015838565 -0.07125044
-0.02630515 0.0017850843 0.051826034 0.0547906 -0.08593113 -0.06860855 -0.094856426 -0.09914913

sequential_2/dense_5/MatMul f4 [11, 256]
00000000: b7f5 10bd ac48 1bbe f121 38be c18f 9ebe
00000010: 37df 31be 21ec dcbd 4176 8ebe eeeb 32bd
00000020: f867 c4bd 0583 75be 43fe 5abe 6e0e 74be
00000030: 1a2a 74be 04f8 e3bd e915 89bd b9a5 703c
00000040: f05f babd 1249 a1be 5566 26be 17b0 2dbd
00000050: 129a 5ebe 308b 56bd 4896 213e 2edb 95be
00000060: 58b6 f3be a43e 0bbd 87c0 b0be de85 1fbe
00000070: 57ee 40be 5458 38be b7e3 acbe 2594 30bd
00000080: 6c43 81be 321f f2bd 2d43 e0be c1ea 8f3d
00000090: 2e1b 893d e518 ceba 82aa d7bd d60e 5fbe
000000a0: ba4f c43d 69df a5be 6e4a d03c 27e3 10be
000000b0: b3bb fc3d bc54 24be d282 fcbd 46a7 7abd
000000c0: 21ce 80bd 1e88 eebd 87b4 a0be b44f 9e3d
000000d0: 866b 83be f68f b6bc a448 6dbe 931d 163d
000000e0: bd7e 99be b47c 7d3d 25e4 5abd 5b19 6ebe
000000f0: 3efc 80be 72be 71bd 6cec a03b 3526 59be
00000100: 88d3 91be c3c4 f03d b1d4 b3be 1414 b0bc
00000110: 4030 33be f858 e5be 17af 7abd 12cf 47bc
00000120: a742 11bc ef84 5e3d 09c7 843d 5f9d 70be
00000130: f1b6 3dbd 49cb 83bd 9430 1a3e fbaa bcbe
00000140: 2127 1dbd 5935 1dbe 2915 bfbd a5e1 82bd
00000150: 0a8a c4be d05e 7a3d 55c1 5c3e 5b61 973c
00000160: b2f9 f0bd a44f b7bd 179a 0dbe d45e e5bd
00000170: a7f0 66be 1ed7 3abd 4012 313c 74b4 2fbe
00000180: 2a4f 5bbc a79a 42be 8766 7abc da9a 3ebe
00000190: 549d c0bd 596e 973c cc5a a7be addd b2be
000001a0: 6aa3 c13b ff45 a9be 6655 7bbd bb23 5cbe
000001b0: 4a20 06be ec56 293d 453a 9ebe dbec a4be
000001c0: 1f29 8ebe 6851 f6bd 5f8d 01be f280 87bc
000001d0: 3970 15bc b16d fa3d 3942 fcbd ba95 95be
000001e0: 80f2 00be 8d11 19be 7938 23bd e296 1dbb
000001f0: ad15 62be 9727 83be 9cd9 3abe 485d 883e
00000200: e075 81bd 1a9b 10be 89c0 073d 2fc5 bbbd
00000210: 7e63 503c 675a ac3d a3d2 96bd adf7 c8be
00000220: 1c82 d5bc 6cab b0b9 e6ca 4b3b 2ceb 943d
00000230: 0eff 883d 6a42 a7bd f418 93be d8e4 00be
00000240: 8f29 61be e2e1 913c 6836 be3b 4ea3 7dbe
00000250: 88b6 7fbb 0859 c63d 7253 a8bd 1624 1ebe
00000260: 112a 8eba f95b 5cbd 7fba 23be aebe 69be
00000270: d6b4 383a 15a2 88be 269f a43d b7a7 9e3c
00000280: df4e 2ebe c699 48bd 3d4e fbbd d365 10bf
00000290: ef70 c0be cb0c aebe 75e3 70be 261c 8bbd
000002a0: 5c1d 783d 0683 87be 67c8 97be 644b 4ebe
000002b0: cbb0 193d f23d afbd 912f cdbe 2660 2abe
000002c0: 37fb c83d 908a f53b a51a 42be 2d26 c5be
000002d0: e4df 92be 2301 f2bd 1198 18be b76d 05bd
000002e0: 3992 733c d695 69be 924d e8bc d35e 69be
000002f0: effb 81be 8571 a2be 178e 95be f024 6ebe
00000300: 2fb8 2b3c e572 d8bd d9a1 8ebd c458 1bbe
00000310: 6c3c 19be 737d 28be afb4 d63c 00ca 9abe
00000320: 06e1 acbd d3f7 83be 81ba 21be f978 13bb
00000330: 5861 ddbc 9656 85bd b0ad 46be 1fe8 d0bd
00000340: a63d 31be 96f6 b0bd e0ea 033d d899 27be
00000350: a547 c9be b08c b9be 99c7 2dbe 52c0 80be
00000360: 5cbe 81be 9f4f 02be e11f a4bc 4652 04be
00000370: 99fd 50be 4021 b7be 867c eebe 05f9 96be
00000380: 80a8 06be aaba 063d f9d1 80be 0e46 7d3d
00000390: 08f5 24be be0b 923d e611 33bc 2efc eabd
000003a0: c510 21be 6d56 3abe 376d e03c 463b 92be
000003b0: 92d1 e7bd 166c c0bd a3a4 7b3d 18ad 90be
000003c0: b115 bcbc b0ee 28bd 95fc 9b3d 22b1 b7ba
000003d0: ebda 06be 8b25 8fbe 6902 a93c ff7f c9bd
000003e0: dc18 91bd 21fb 13be e582 c6be 4e29 45bd
000003f0: 0207 e43c 470e 8c3d b941 dfbd a7f9 a2be
-0.035390582 -0.15164441 -0.17981698 -0.3096905 -0.17370306 -0.107872255 -0.27824596 -0.04368203
-0.09590143 -0.23975761 -0.21386056 -0.2383363 -0.23844185 -0.111312896 -0.06693632 0.014687949
-0.0910033 -0.3150106 -0.16249974 -0.04240426 -0.2173846 -0.052378833 0.15779984 -0.29268783
-0.47600055 -0.033995286 -0.34521887 -0.1557841 -0.1884092 -0.18002445 -0.33767483 -0.04311003
-0.2524675 -0.11822356 -0.4380125 0.07027198 0.06694637 -0.0015723972 -0.10530569 -0.21783003
0.09585519 -0.3239701 0.025426116 -0.14149152 0.12340488 -0.16047949 -0.123296395 -0.06119468
-0.06289316 -0.11647056 -0.3138773 0.07730046 -0.2566797 -0.022285443 -0.23172241 0.036649298
-0.29979506 0.061886504 -0.05344023 -0.2325186 -0.25192446 -0.059019513 0.004910996 -0.21205981
-0.28481698 0.11756279 -0.35123208 -0.021493949 -0.17498875 -0.4479444 -0.061202135 -0.0121953655
-0.008865989 0.054325994 0.064832754 -0.23497532 -0.046317045 -0.06435258 0.15057594 -0.36849198
-0.038367394 -0.15352382 -0.09330208 -0.063906945 -0.38386565 0.061125576 0.21558125 0.01847904
-0.117663756 -0.08950737 -0.13828312 -0.11199728 -0.22552739 -0.045615308 0.010807574 -0.17158681
-0.013385573 -0.19004308 -0.0152832335 -0.18613759 -0.09405008 0.018485235 -0.3268646 -0.3493475
0.005909373 -0.33061215 -0.06136074 -0.21498005 -0.13098255 0.04134266 -0.3090383 -0.32211956
-0.27765748 -0.12027246 -0.12651585 -0.016540978 -0.009120994 0.12227953 -0.123173185 -0.29215795
-0.12592506 -0.14948101 -0.03984878 -0.0024046232 -0.22078581 -0.25616142 -0.18247074 0.26633668
-0.06321311 -0.14121667 0.0331426 -0.09168469 0.012719033 0.084156804 -0.073643945 -0.39251462
-0.026063018 -0.00033697055 0.0031096279 0.07271418 0.06689273 -0.08166964 -0.28729975 -0.12587297
-0.2198851 0.017807905 0.0058048256 -0.24769327 -0.003901871 0.0968495 -0.08219041 -0.15443453
-0.0010846277 -0.05379865 -0.15989111 -0.22826645 0.00070459896 -0.2668616 0.08038168 0.019367082
-0.17022274 -0.048974775 -0.12270782 -0.5640537 -0.37586161 -0.33994135 -0.23524268 -0.06792478
0.060574874 -0.2646715 -0.29645082 -0.20145947 0.03752212 -0.08556737 -0.40075353 -0.1663824
0.098135404 0.0074933246 -0.18955477 -0.38505688 -0.2868644 -0.11816623 -0.14901759 -0.032575335
0.014866405 -0.22811064 -0.0283573 -0.22790079 -0.25387523 -0.31727234 -0.29209968 -0.23256278
0.0104809245 -0.105687894 -0.06964464 -0.1517058 -0.14964455 -0.16454105 0.026209204 -0.3023224
-0.08441357 -0.25775012 -0.15793802 -0.0022502525 -0.027023956 -0.065106556 -0.19402194 -0.102005236
-0.17308673 -0.086407825 0.032206416 -0.1636728 -0.39312473 -0.3624015 -0.16970672 -0.2514673
-0.25340545 -0.12725686 -0.020034732 -0.1292201 -0.2040924 -0.35767555 -0.4657938 -0.29486862
-0.13150215 0.03289286 -0.25160196 0.061834387 -0.16109097 0.07131146 -0.01092956 -0.11473881
-0.15729053 -0.18197031 0.027395828 -0.28560847 -0.11319269 -0.09395616 0.061436307 -0.2825706
-0.022959562 -0.041243255 0.076165356 -0.0014014582 -0.13169448 -0.2795833 0.020631032 -0.098388664
-0.0708482 -0.14451267 -0.3877174 -0.048135094 0.027835373 0.06838661 -0.109012075 -0.31831095

sequential_2/conv2d_6/Conv2D f4 [32, 3, 3, 3]
00000000: 4bd1 6cbd 05bd b9ba 1d73 5c3d a971 1e3d
00000010: 35a4 7ebc d7b8 9dbd ed2a ed3a 43ca 243e
00000020: 10e6 db3d ad52 e0bc 1fc1 d2bd 2a51 5ebc
00000030: b42b 98bd 9bfa e53d b213 253c 5894 743c
00000040: 7bc5 cf38 6872 bdbd 9138 b73d 3f56 883b
00000050: 5324 b6bd 294a 883c 146c debd aa49 f6bd
00000060: 8452 f0bd 19c6 34bd 0724 933d ee9f 803d
00000070: bf8d c5bd 7313 263d 1a2e d13c 9ce5 df3d
00000080: f1db 3b3e dbe0 c93c 435f dd3d 18f5 493c
00000090: 4c60 c7bd fa3c 7f3c fc43 d7bd 69f2 73bc
000000a0: 6c0f 2a3e e6d8 23bd d7fa 323e 5ebe 7a3e
000000b0: d509 113e bc87 c6bd 27e2 ddbc acaf 57be
000000c0: 01f0 3ebe 266d 3ebd f44e 0cbe e366 3ebe
000000d0: 2c6e 9a3d a28c 41bd 5176 31be 0cb2 55be
000000e0: cc02 d1bd 393c 433a 09e2 78be 0af9 38be
000000f0: a5d9 863d 597a 9ebd b54d f8bd ef05 b23c
00000100: 35f8 11bc 7e14 0f3d 4a7a 54bd 3c59 843d
00000110: 2c1a 953c 06ee aa3d 7807 913d ed30 9cbd
00000120: a914 663e 6117 e33d 2a6f 2e3e 0c58 a63d
00000130: f8b0 2d3e cd9c af3d 21e4 c7bc 6f47 3dbd
00000140: bbbf a33d 3f90 74be f6bf 0fbe a76b d83c
00000150: 9edc 21bc 70a3 103c 6377 d3bd dd8b 99bc
00000160: e4eb 053e b6c5 0bbd 37e4 53bd a47e 1dbe
00000170: 74d2 1bbe 9e38 173d ef50 ff3d 8097 b73d
00000180: 4949 d93d a053 95bd 2b1a 0a3e 1a63 473d
00000190: 62b0 0bbd 4f1d 86bb 632b 033e e694 983c
000001a0: dfd0 393e ebce 383d 67c1 a0bd 8f67 393d
000001b0: 236c 2ebe ea28 473d 6683 89bc a5c7 cbbd
000001c0: 0f3b 8abc b9d4 9fbd ccc7 90be c4a4 65be
000001d0: 322a 14be dcf6 74bd 4112 18be d5fd b03c
000001e0: 7f59 28be 2768 f63c 1416 dabd 7386 d03d
000001f0: c6f1 983b 9aa0 323e 4457 d03d c340 453d
00000200: d79d 2e3d 3be1 483e 1fe7 8e3e 10d6 073d
00000210: ab43 763e 90fa 863e 2d5a 813e 7cf3 403d
00000220: 2fc7 e83d 32f1 23be 4517 23bd 3587 8b3d
00000230: e827 9ab9 056d 313c 67f0 433e f17e 9abd
00000240: 8e75 aebb ae00 e7bd 399b 8cbd 85b2 453c
00000250: 37c6 e93d 58f4 fbbd 40cd 123e c99a 1bbc
00000260: 3e43 7b3d 10bd edbd 6584 8f3d 01a1 c5bd
00000270: 3edf 9d3c 69c3 bf3c 2389 cbbd 1bfb 693d
00000280: 46fb 9c3d 8007 e6bd 57f3 0c3e db37 0c3e
00000290: b2c2 ce3d f8ac cabd 1ff8 923c 0704 cb3d
000002a0: 4299 61be 3ca9 e9bd f469 63be f93d d13d
000002b0: 74ee 22bd 4bfe cd3c 17fe 2f3e 8d89 a33d
000002c0: 5533 7c3d 8347 53be 7967 2cbe f750 fabd
000002d0: 7df0 d1bb f9d6 aebc 92b1 fb3d 6121 1c3e
000002e0: e24a 023e 1327 b6bc 54eb dfbd e068 d93b
000002f0: 1d0a 7fbd 6138 af3d 4bae 613e 48f1 12bd
00000300: b4ca 773d c055 273e 0b59 2e3e d515 073e
00000310: a054 f13c dcd6 87bc d7d7 13be ebdf cf3d
00000320: c687 e23d 34dc b43c 69cc e73d 152a 33ba
00000330: 8dfd 153d ae4d a8b9 ba7e 3f3e a99c f8bd
00000340: 8463 70be 7594 2fbe 5926 b73c ccb6 5cbe
00000350: e978 2dbe 58df 46bd d905 6cbd 701f c4bd
00000360: bb27 86bd 777a 4c3d 4fe8 89bd 98e5 f1bd
00000370: e340 90bc 6c7b 74bd 7448 b63b 7612 b43d
00000380: 452a 0f3d 99e9 b5bd 5f12 9dbd 737e 8f3c
00000390: 66be 943d 6a81 97bc 0380 0a3e cc70 2cbe
000003a0: 118e 223d 4354 d43d 949d c7bd cdbe 58bd
000003b0: da07 aabc b2d3 96bd d3fc 373c 1b2e 0c3c
000003c0: 3a4a a5bd bcf0 65bd 36f2 083d 489e 51bd
000003d0: f82a d33c 79cf 4cbd 68c1 f6bd 4632 71bd
000003e0: 3df1 87bd 41c2 97bd 4a01 5fbc 7a4a a63d
000003f0: 1676 da3c 793d 073e a639 d73b e6e9 f93b
-0.057816785 -0.0014170712 0.053820718 0.038682614 -0.01554208 -0.07701271 0.0018094458 0.16092782
0.1073724 -0.027383173 -0.10290741 -0.013569156 -0.07430211 0.1122944 0.0100754965 0.014927946
9.907313e-05 -0.09250337 0.08946336 0.004160672 -0.08893647 0.016636925 -0.10860458 -0.12025769
-0.117344886 -0.044134233 0.07184606 0.06280504 -0.096461765 0.040545892 0.025534678 0.109324664
0.1834562 0.024643352 0.10809185 0.012326501 -0.09735164 0.015578503 -0.10511014 -0.014889338
0.16607445 -0.040001772 0.174785 0.24486682 0.14163907 -0.09693858 -0.027085377 -0.21063107
-0.18646242 -0.04649081 -0.13701993 -0.18593936 0.07540545 -0.04725326 -0.1733029 -0.208687
-0.102056116 0.00074476335 -0.24304976 -0.18063751 0.06584481 -0.0773818 -0.121241964 0.021731345
-0.008909275 0.034931652 -0.051874436 0.064623326 0.018200956 0.083461806 0.07081503 -0.07626519
0.22468819 0.110884435 0.17034593 0.08122262 0.1696204 0.08574829 -0.024400773 -0.046210703
0.07995554 -0.2388315 -0.14038071 0.02641852 -0.009879259 0.008828029 -0.103255056 -0.01874345
0.13078266 -0.0341241 -0.051731315 -0.15380341 -0.15217 0.03691923 0.12466609 0.08964443
0.10609681 -0.07291341 0.13486545 0.048678495 -0.03410376 -0.0040928493 0.1280952 0.018625688
0.18146084 0.045119207 -0.078493886 0.045264777 -0.17033438 0.048623003 -0.016786288 -0.099501885
-0.016873864 -0.078042455 -0.28277433 -0.22426134 -0.14469221 -0.059805736 -0.14850713 0.021605412
-0.1644039 0.03007896 -0.10648742 0.10181894 0.0046674935 0.17444077 0.101728946 0.048157465
0.042630997 0.19617169 0.27910706 0.03316313 0.24049251 0.2636304 0.2526411 0.047107205
0.11366116 -0.16009977 -0.039817113 0.06812898 -0.000294029 0.010829215 0.19134675 -0.075437434
-0.005324072 -0.112794265 -0.06865544 0.012066488 0.114147596 -0.12302464 0.14336109 -0.009497353
0.061343424 -0.116083264 0.07007674 -0.0964985 0.01927149 0.023408609 -0.09938266 0.05712424
0.07665114 -0.11231899 0.13764702 0.13693182 0.10095729 -0.098962724 0.017940579 0.099128775
-0.2203112 -0.11409232 -0.22208387 0.102168985 -0.039778188 0.02514567 0.17186771 0.0798522
0.06157239 -0.20632748 -0.16836347 -0.12222474 -0.0064068423 -0.021342741 0.12289728 0.15247108
0.12723878 -0.022235429 -0.10933557 0.0066348165 -0.062265504 0.08555675 0.22039144 -0.035874635
0.060496047 0.16341305 0.17026155 0.13191922 0.029459298 -0.016581945 -0.14437805 0.10150131
0.11061053 0.022077657 0.11318285 -0.0006834579 0.036618758 -0.00032101333 0.18700686 -0.121392556
-0.23475462 -0.17146476 0.022357153 -0.21554106 -0.16940655 -0.04855284 -0.057622764 -0.09576309
-0.06550547 0.04992148 -0.067337625 -0.1181137 -0.017609065 -0.059688017 0.0055628363 0.08792584
0.03495242 -0.08882446 -0.0766952 0.01751635 0.07262878 -0.018494327 0.13525395 -0.16839904
0.039686266 0.10367634 -0.097468525 -0.052916337 -0.020755697 -0.073645964 0.011229712 0.008555914
-0.08070798 -0.056137785 0.033434115 -0.05117634 0.025777325 -0.05000255 -0.12048608 -0.058885835
-0.066378094 -0.07410098 -0.013611147 0.08119674 0.026667636 0.13207044 0.0065681515 0.00762676

sequential_2/conv2d_7/Conv2D f4 [32, 3, 3, 32]
00000000: 4758 6b3c c356 7f3c 3678 503d 676e 3e3d
00000010: 0d1b 863d 5fa9 e4bd ea70 25bd c7b4 4fbc
00000020: a9e0 0e3d 36a8 58bd ac08 023d 2ea3 fbbd
00000030: 7288 41bd 31e9 883d 0eef 973d bba1 2d3d
00000040: d071 b53c 13e6 debd ac4c aa3d 2dcb a7bd
00000050: 9243 b8bd e360 49bc a890 793d 9722 c8bc
00000060: 3cac 9b3d 19f4 343b 0058 86bd d4b5 fa3c
00000070: d45b 35bd a63d 313d 75c6 e2bd 8ca5 41bd
00000080: 656a 4bbd 4dc8 27bd 1212 76bd 5ea7 d5bd
00000090: c714 58bc 81a5 b5bc a219 6cbd 75c1 563d
000000a0: ae2c f2bd caf0 dcbc 3f85 94bd 1609 5a3d
000000b0: eaa8 06bc 979e a53d 44c7 33bc 00cc babc
000000c0: 544d b9bd 4df9 fbbb 3091 ccbd 3573 40bd
000000d0: 122f ecbc c6cb 96bc 76f8 ea3a 5322 aabc
000000e0: 6543 ca3c c791 27bb 16ad 833d 6e4e 77bd
000000f0: 7a7a b3bd 8fd8 bbbd dce4 aebd 9ff9 abbd
00000100: ab6f c1bb fe8e 0e3c 4268 97bd ae93 eebd
00000110: 1296 7e3d d0e1 03bc 6a4f 893d 4745 30bc
00000120: cc57 19bd 5016 e43c 1cad fa3c a116 a93d
00000130: 8864 203d a5dd b63c a2ac c23c 86a8 2cbd
00000140: 3b83 a0bd d516 76ba a8bb babd d698 513d
00000150: 3c44 503d 5939 1ebd 6324 68bd 00d9 75bd
00000160: 446c edbd 4afc 5bbd 93b3 1cbd 5388 c4bd
00000170: ba21 debc e7d6 393d 4f62 b9bd 7fd8 6c3c
00000180: 640b ad3d c6c5 593d 0911 34bb d7a2 d8bd
00000190: 509a 493c 63fe b6bd 061a d8bc dd2d 72bd
000001a0: 4780 c7bd 445a 33bc 6a73 063d f9d4 ed3c
000001b0: 9243 71b9 4dee 2f3d adbd 9ebd 9202 eebc
000001c0: b454 723d 4564 c53c b4cd cdbd 1962 623c
000001d0: 8089 40bb 637d e3bb 94bf 89bc 6625 e2bd
000001e0: b2ee 843c d0bc a53d c4da 84bc 61bb 1fbd
000001f0: 037d adbd 57a4 f9bc fcbb f1bd e27a 6bbd
00000200: 7ac7 1dbd 5898 a4bd eb4b 2fb8 7d49 e2bd
00000210: a689 883d 13f1 3e3d 1f14 b1bc b8d7 92bd
00000220: 93fe fbbb 6016 053c 5717 e1bd 4e40 0ebc
00000230: 2ca1 3ebd 04e1 93bd 138b a03c 632f 3c3d
00000240: 44a4 3e3d 97da f5bc 52df 19bd edb2 dfbc
00000250: dd02 89bb b888 373d 378d b4bd 3c25 143d
00000260: 1f35 883d f460 b13c d250 2cbd 6556 3abd
00000270: 1010 25bd b69e 53bd 14c6 33bc 6c0c d8bb
00000280: 7092 bebd ddf8 aabd f14c f83c bf14 8fbd
00000290: d4c5 d4bd 38c7 e4bd ced7 7a3d 36fc 33bd
000002a0: 33bd ddbc 92d4 cbbc 01fb 6fbd d161 0e3d
000002b0: 00fe e7bc b501 923d ab96 7abb 6eff bbbd
000002c0: deef 513b e4d9 bcbd 7ae8 10bd 9670 89bc
000002d0: 7f7d 6dbd 61f2 b63c 4663 a9bd 93c1 673d
000002e0: f809 c9bd 3b53 e8bc 899b 94bc e22b 07bd
000002f0: c503 a53b 50cf 963c ddf3 9fbd ea40 edbc
00000300: aaf6 58bd 45b9 01bd 97da 553d 808f 30bd
00000310: f20f d4bd 3813 473d 46e0 2fbc e58e d7bc
00000320: 2d91 553d e857 693d 1f55 2d3d fd90 c73b
00000330: 474a ddbc e2e0 adbd 6692 843d 1d69 1d3d
00000340: db15 efbc 148c 0b3c 4727 9cbd 8983 903d
00000350: 6fdd 37bd f0b8 f13d e970 9abd b755 f33c
00000360: 750a 8fbb 4c34 603d f691 98bd 880c 923c
00000370: f451 193c fea0 03bd 4fe7 cbbd 6274 953d
00000380: 94d7 f7bc ef03 e4bc a581 9cbd 81bd 6f3d
00000390: aae0 c5bd 7b8e bbbd 1863 84bd 3b7e 36bd
000003a0: 82c2 6a3c ba5e 7abd 5602 37bd 1a5f f2bd
000003b0: f0b1 d6bd 30e6 d93b b993 7f3d 635e dcbd
000003c0: bf44 013d ca9b e9bd 748f c7bc 2ba8 af3c
000003d0: 46f4 86bd 1361 0dbd 81e5 11bd b302 f0bd
000003e0: 0f00 9c3d df87 bf3c 5975 a7ba 6255 013c
000003f0: 8e7f a33d 900f 8e3c d14e e3bd a60e 0fbd
0.014364309 0.01558465 0.050895892 0.046492007 0.06548128 -0.111651175 -0.040390886 -0.012677378
0.03488222 -0.052894793 0.03174655 -0.122869834 -0.047249265 0.06685103 0.07418643 0.042390566
0.022148997 -0.10883727 0.08315405 -0.081930496 -0.08997263 -0.012291166 0.06092897 -0.024430556
0.076012105 0.0027611314 -0.065597534 0.03060428 -0.044277027 0.043271683 -0.11073009 -0.04727702
-0.049662013 -0.040962506 -0.060075827 -0.104323134 -0.013188547 -0.022173645 -0.057641633 0.05243059
-0.11824928 -0.026970286 -0.07251977 0.05323132 -0.008218983 0.08086889 -0.010972802 -0.022802353
-0.09047952 -0.007689631 -0.0998863 -0.04698487 -0.028831039 -0.018407714 0.001792683 -0.02076832
0.02469034 -0.0025569068 0.06429498 -0.06037753 -0.08763595 -0.09172165 -0.08539745 -0.08397221
-0.0059032044 0.008701084 -0.073929325 -0.116492614 0.062154837 -0.008049443 0.067046 -0.0107587045
-0.037437245 0.02784267 0.030600123 0.08256269 0.039158374 0.022322485 0.023763958 -0.042152904
-0.0783753 -0.00093875575 -0.09117824 0.051171146 0.050846323 -0.03862891 -0.056675326 -0.0600214
-0.11592916 -0.0537074 -0.038257193 -0.09596314 -0.027115691 0.045370962 -0.09051954 0.014455914
0.08449438 0.053167127 -0.0027475974 -0.10577934 0.012304857 -0.08935239 -0.026379596 -0.05912577
-0.09741264 -0.010946814 0.03282491 0.029032217 -0.00023008723 0.04295187 -0.077510215 -0.02905396
0.05916281 0.024095664 -0.100490004 0.013817334 -0.0029378831 -0.0069424375 -0.016814984 -0.110422894
0.0162271 0.08092654 -0.016217597 -0.038997058 -0.0847111 -0.030473871 -0.11803433 -0.057490237
-0.038520314 -0.0803687 -4.1793955e-05 -0.11049173 0.06666879 0.046616625 -0.02161604 -0.07170051
-0.0076902597 0.00812301 -0.1099078 -0.008682324 -0.046540424 -0.07220653 0.019597566 0.04594363
0.046543375 -0.030011458 -0.03756649 -0.027306998 -0.0041812495 0.04480812 -0.08815997 0.036168322
0.06650757 0.021652676 -0.042069264 -0.04549255 -0.04029852 -0.05166503 -0.0109725185 -0.0065932777
-0.093052745 -0.08348248 0.030310126 -0.06986379 -0.10389295 -0.111708105 0.061240964 -0.0439417
-0.027067756 -0.024881635 -0.058588985 0.034761254 -0.028319359 0.07129232 -0.0038236778 -0.09179579
0.003203384 -0.09221247 -0.035377957 -0.016777318 -0.05798101 0.022332372 -0.08270888 0.05658109
-0.098163545 -0.02836 -0.018140571 -0.033000834 0.0050358498 0.018409401 -0.07810185 -0.028961617
-0.052969612 -0.031670827 0.052210417 -0.043105602 -0.10354604 0.048602313 -0.010734623 -0.026313255
0.052140404 0.0569686 0.042317506 0.006090282 -0.027012957 -0.084901586 0.06473236 0.038430322
-0.029185226 0.008517284 -0.07624679 0.07056338 -0.04488891 0.11802852 -0.07541067 0.029703958
-0.0043652602 0.054737374 -0.07449715 0.017828241 0.009357918 -0.032135956 -0.09956228 0.07297589
-0.030254163 -0.027833907 -0.07641915 0.058530334 -0.09661992 -0.09158035 -0.06464213 -0.044553977
0.014328601 -0.061125495 -0.044679962 -0.118345454 -0.10483158 0.006649755 0.06239674 -0.1076019
0.031559702 -0.114066675 -0.024360396 0.021442493 -0.0658956 -0.034516405 -0.035619263 -0.11719265
0.07617199 0.023380218 -0.0012776061 0.007893892 0.079833135 0.017341405 -0.110990174 -0.03492608

sequential_2/conv2d_8/Conv2D f4 [32, 3, 3, 32]
00000000: 8d82 593d 3b09 c23d 95a3 d7bc 7eb0 993d
00000010: baf2 8e3d 754f 013d 2cf7 9ebc a638 8e3c
00000020: 5386 23be b9db 61bd 413c 8abb ac60 a43d
00000030: 5da7 69bd 71b0 9d3d 05ae 6c3d 21c3 c53d
00000040: 1d5d eebd 4065 acbd fbe5 d53c 1265 f7bd
00000050: 88e2 043e b286 92bc dd7d 683c e0c6 15bd
00000060: 2b4b 623b 4ed6 21bd acc9 dabd cb20 943c
00000070: 6d62 b7bd 9f8e c23b 2a42 90bd 7650 1c3e
00000080: fc29 9ebc 472b a4bd 3efa eabc db7e 813d
00000090: 1dff acbd eb68 943d 1fa4 a5bc cde3 a5bb
000000a0: ab13 98bd 9893 8e3c 6605 b33c adf2 2f3e
000000b0: 1091 e1ba a81d 043d 1540 4dbd 07ef ad3c
000000c0: 2eb5 c53d 371b 913b d883 753d 4439 f83d
000000d0: 7807 72bc 2c2d d0bd 3b24 28bd 5b8f 0a3d
000000e0: 37a8 aebb 3386 84bd 55bb 9dbd 93b4 dabc
000000f0: 67d1 ef3d 5a85 0d3d 72ab d3bd 6786 093e
00000100: 629a 59bd 1b70 6c3b 1295 31bd 1f77 043e
00000110: 6ebe 01be 2cb7 1abe af3f 113d 8271 66bd
00000120: 9238 d5bd 5052 36bc c6c9 14be bb6f 883d
00000130: bf93 8bbd 9844 103e 0612 7e3d 18b0 fe3c
00000140: ea71 753e 98c2 8e3e 14fe cbbd bfae 8d3c
00000150: 0694 cbbd d412 a83b 2ac5 22bd 0fbc eabd
00000160: de08 cfbc 3c95 cdbd 8c84 433a 7485 6cbe
00000170: a6eb 903d 88cb 153d bd41 c43c 9cd3 f2bd
00000180: ddb8 39bd 7167 5d3d cb73 9c3d 39eb d63c
00000190: 5d36 5f3d 981f 1cbe 47bf c23c 7d04 e3bc
000001a0: 2814 b8bd 55fa 3f3e 726a 8d3d 005f 173e
000001b0: 9dd8 d33d 8c84 123d 97cc 3eba ad3d 8cbd
000001c0: 8f89 42be d345 ef3b 6d2a a639 5ea0 20be
000001d0: fd5b e73d 665a 853d 2aed 9a3d 56d3 7dbd
000001e0: e771 a73d 8eed 803d 728e 12be 83ba 1abd
000001f0: a3ec ea3c b00e 363d 08e3 f4bd 7e69 68bc
00000200: 0aa9 5dbd fe72 293d 8aa5 74bd 98e3 f5bd
00000210: a260 c83d 3693 7b3d 384d 97bd f92d 953b
00000220: 4ecb b2bd 1699 06be c3ff 72bd 8498 14be
00000230: d9c0 69bc 73a3 293c 7b0c f13c 1b9c 2b3b
00000240: 1857 dcbd b442 3ebc a051 08bb a967 063c
00000250: ebaf 573e 18b0 c2bd 0e6d 15be 0c32 90bd
00000260: 01e5 fbbd 5428 c7bd 3eb1 cbbd be52 c3bc
00000270: b302 673d c3a1 abbd 9c12 e43d a9ce 0a3e
00000280: 3713 be3c c670 19bd 4a16 c9bd f213 8dbd
00000290: 19b9 b93d e890 85bd fe30 e2bd 98e8 bebd
000002a0: 96d4 f73d 5612 5bbe 30a7 2dbd dce8 4d3d
000002b0: c214 013e 5ddf 16bd 55d7 033e 618c 0d3d
000002c0: 2326 093d be1c 763d 5cda f83b 2d62 49bd
000002d0: 1cd3 ca3c 95b4 163e 47c7 77bb ab30 1cbd
000002e0: 706f 39be f38f 39bc e00d 53be 0cc3 2e3d
000002f0: 2865 f3bd 4949 cc3d f45b 4d3e d142 86bd
00000300: cd7a 943d 54bb 32bd 6167 713a a704 373d
00000310: 3519 9abd faeb 993c 04a8 773d df5d a8bd
00000320: 37dc a43b 5607 643d 029a 88bd 5d93 623d
00000330: 51a1 07be 89e9 5b3d c2a0 96bc 9e3f 5ebd
00000340: b822 eabc 0d48 6d3d 2d18 1e3c 2399 01be
00000350: 5520 2ebe 0b8e 7dbd cecf 10be 1edd 903c
00000360: 0dc1 d5bc 55fd 923d 077d eb3b bbc1 803c
00000370: 3cd9 7ebd d22b d0bc a87b 9ebc e536 f93d
00000380: 04b7 5abd 5f17 463b 0679 84be 8d37 37bd
00000390: 3544 86bd 8c53 173e a5c6 3abd 765d 0dbe
000003a0: 105f 53bd 2f73 bdbd 64a5 12be 7aba d0bd
000003b0: 950a 19be c2cb 3b3e b21f 133e 712b 99b8
000003c0: bdd9 b4bd 2883 f4bd 130a 5b3d 6ec8 dc3d
000003d0: 5bdf 45bc 825d d83c 566a e2bd cfbb 90bd
000003e0: 0fef 12bd 4659 e83d 6239 903c e74d 90bd
000003f0: 17bc 54bd 90ee 1abd 37bd 0fbc 91ca 64ba
0.05310302 0.09474417 -0.02632312 0.07504366 0.0697989 0.031569917 -0.01940497 0.017360996
-0.1596921 -0.055141184 -0.0042186086 0.08026251 -0.057044376 0.07699669 0.057783145 0.096563585
-0.11638854 -0.084177494 0.02611064 -0.120798245 0.1297704 -0.017886493 0.014190164 -0.036566615
0.0034529667 -0.039511018 -0.10682997 0.018082043 -0.0895432 0.005937412 -0.0704387 0.15265068
-0.01930713 -0.08016067 -0.028683778 0.06323024 -0.084470965 0.07246574 -0.02021986 -0.0050625564
-0.07425626 0.017404363 0.02185316 0.17182417 -0.001720937 0.032254845 -0.05010994 0.021232141
0.09653698 0.004428293 0.05994019 0.121202976 -0.0147722885 -0.10164866 -0.041050177 0.03382812
-0.0053301114 -0.06470909 -0.077017464 -0.026697433 0.11709862 0.034551002 -0.10335435 0.13430177
-0.053125747 0.0036077562 -0.043355055 0.12936066 -0.126703 -0.15108937 0.035461124 -0.056260593
-0.104111806 -0.011128023 -0.14530095 0.06661936 -0.0681529 0.14088666 0.062028907 0.031089827
0.23969236 0.27882838 -0.09960571 0.01729524 -0.099403426 0.0051291976 -0.03973881 -0.114616506
-0.025272783 -0.1003823 0.00074584107 -0.23097783 0.07076196 0.036571056 0.023957128 -0.118567675
-0.045342315 0.054053728 0.07639273 0.02623521 0.054495204 -0.15246427 0.023772849 -0.027712101
-0.089882195 0.18747838 0.069050685 0.14782333 0.1034405 0.035770938 -0.0007278411 -0.06847701
-0.18997787 0.007302025 0.00031693597 -0.15686175 0.11296842 0.06511383 0.07564767 -0.061969124
0.08176022 0.0629531 -0.14312151 -0.037775528 0.02867729 0.0444476 -0.11957365 -0.014185308
-0.054116286 0.04136943 -0.059728183 -0.12006301 0.09784056 0.06141969 -0.07387775 0.0045525995
-0.087301835 -0.13144335 -0.059325945 -0.14511305 -0.01426717 0.010353911 0.029424896 0.0026185575
-0.10758799 -0.011612583 -0.0020800605 0.008203425 0.21063201 -0.095062435 -0.14592382 -0.07040796
-0.122995384 -0.09724489 -0.09945916 -0.023843165 0.05639906 -0.08380463 0.11136362 0.13555397
0.023202522 -0.037461065 -0.098187044 -0.0688857 0.09068508 -0.06521779 -0.11044501 -0.093217075
0.121010944 -0.21393713 -0.04239577 0.0502709 0.12605575 -0.03683411 0.12875111 0.034557704
0.033483636 0.060086004 0.00759439 -0.049165893 0.024758868 0.14717324 -0.0037807988 -0.03813235
-0.18108916 -0.011325824 -0.20610762 0.04266648 -0.118845284 0.099749155 0.20054609 -0.06555713
0.07249985 -0.04363568 0.0009208825 0.04468217 -0.07524339 0.01878928 0.060462967 -0.082210295
0.0050311345 0.05567106 -0.0667 0.055316318 -0.13245131 0.053689513 -0.018387202 -0.05425989
-0.028581008 0.05793004 0.009649319 -0.12656073 -0.17004521 -0.06190304 -0.14141771 0.017683562
-0.02609303 0.071772255 0.0071865353 0.015717378 -0.06221889 -0.02541152 -0.019346073 0.121686734
-0.053397194 0.0030226333 -0.25873584 -0.04473071 -0.06555978 0.14777964 -0.0455996 -0.13805184
-0.05160433 -0.09250485 -0.14320904 -0.101918176 -0.14945443 0.18339446 0.1436756 -7.3037e-05
-0.08830593 -0.119390786 0.053476404 0.107804164 -0.012077178 0.026411775 -0.11055438 -0.07067072
-0.035872515 0.113451526 0.017605487 -0.07046109 -0.05193719 -0.037825167 -0.00877314 -0.00087276945
