a_output_actual/dig-s0-q.tflite (tflite, 338000 bytes, 5 tensors)

sequential/dense/MatMul i1 [512, 512] scale=0.0025139921 zero_point=0
00000000: 24fd 140a 06dd f9eb 140c ddf8 1bf5 020f
00000010: 1413 1f0b 1ded 181a f61d f3e8 f9f0 170c
00000020: 03fe effd 2afd 23f5 16f6 001d f0e8 f915
00000030: 1bee fc1e 0417 eefa 26fa 3612 0c25 0029
00000040: e1f8 f214 ef04 14fb 2ceb fdf6 09f2 12ef
00000050: 16f0 f111 f505 e527 ff18 f812 15f4 08f8
00000060: f80f faf1 3d08 fefa f316 3912 fd20 0104
00000070: 07e9 0810 0f0f fb20 ee03 f613 f70f f21b
00000080: ff1d 5000 4a13 e81b e314 21ef 2ef5 080e
00000090: 01d3 0afb 0b07 1ce3 1bf6 1e0f 07f1 c726
000000a0: c305 220c fef5 f51d 0c0c 0c09 2f33 0a25
000000b0: f4ff 2130 0506 1a2b 11eb e014 1c27 ea00
000000c0: fc03 f4d8 f51e 0dfb 2d00 f822 0f03 fdfd
000000d0: 1608 c504 1526 0112 1fd8 2016 0903 faf2
000000e0: e510 0006 f311 cbde f00a eb24 0919 0d08
000000f0: d910 1fe0 010c f6c0 fe1a 11c4 e904 0dea
0.090503715 -0.0075419764 0.05027984 0.02513992 0.015083953 -0.087989725 -0.017597945 -0.052793834
0.05027984 0.030167906 -0.087989725 -0.020111937 0.067877784 -0.027653914 0.0050279843 0.03770988
0.05027984 0.04776585 0.07793376 0.027653914 0.07290577 -0.04776585 0.06033581 0.065363795
-0.02513992 0.07290577 -0.032681897 -0.06033581 -0.017597945 -0.040223874 0.057821818 0.030167906
0.0075419764 -0.0050279843 -0.042737868 -0.0075419764 0.10558767 -0.0075419764 0.087989725 -0.027653914
0.055307828 -0.02513992 0.0 0.07290577 -0.040223874 -0.06033581 -0.017597945 0.052793834
0.067877784 -0.045251857 -0.010055969 0.07541976 0.010055969 0.057821818 -0.045251857 -0.015083953
0.0955317 -0.015083953 0.13575557 0.045251857 0.030167906 0.09301771 0.0 0.10307368
-0.07793376 -0.020111937 -0.03519589 0.05027984 -0.042737868 0.010055969 0.05027984 -0.01256996
0.110615656 -0.052793834 -0.0075419764 -0.02513992 0.022625929 -0.03519589 0.045251857 -0.042737868
0.055307828 -0.040223874 -0.03770988 0.042737868 -0.027653914 0.01256996 -0.067877784 0.09804569
-0.0025139921 0.06033581 -0.020111937 0.045251857 0.052793834 -0.030167906 0.020111937 -0.020111937
-0.020111937 0.03770988 -0.015083953 -0.03770988 0.15335353 0.020111937 -0.0050279843 -0.015083953
-0.032681897 0.055307828 0.14329755 0.045251857 -0.0075419764 0.08044775 0.0025139921 0.010055969
0.017597945 -0.057821818 0.020111937 0.040223874 0.03770988 0.03770988 -0.01256996 0.08044775
-0.045251857 0.0075419764 -0.02513992 0.04776585 -0.022625929 0.03770988 -0.03519589 0.067877784
-0.0025139921 0.07290577 0.20111936 0.0 0.18603542 0.04776585 -0.06033581 0.067877784
-0.07290577 0.05027984 0.08296174 -0.042737868 0.115643635 -0.027653914 0.020111937 0.03519589
0.0025139921 -0.113129646 0.02513992 -0.01256996 0.027653914 0.017597945 0.07039178 -0.07290577
0.067877784 -0.02513992 0.07541976 0.03770988 0.017597945 -0.03770988 -0.14329755 0.0955317
-0.15335353 0.01256996 0.085475735 0.030167906 -0.0050279843 -0.027653914 -0.027653914 0.07290577
0.030167906 0.030167906 0.030167906 0.022625929 0.11815763 0.1282136 0.02513992 0.09301771
-0.030167906 -0.0025139921 0.08296174 0.12067162 0.01256996 0.015083953 0.065363795 0.10810166
0.042737868 -0.052793834 -0.08044775 0.05027984 0.07039178 0.09804569 -0.055307828 0.0
-0.010055969 0.0075419764 -0.030167906 -0.10055968 -0.027653914 0.07541976 0.032681897 -0.01256996
0.113129646 0.0 -0.020111937 0.085475735 0.03770988 0.0075419764 -0.0075419764 -0.0075419764
0.055307828 0.020111937 -0.14832553 0.010055969 0.052793834 0.0955317 0.0025139921 0.045251857
0.07793376 -0.10055968 0.08044775 0.055307828 0.022625929 0.0075419764 -0.015083953 -0.03519589
-0.067877784 0.040223874 0.0 0.015083953 -0.032681897 0.042737868 -0.13324158 -0.085475735
-0.040223874 0.02513992 -0.052793834 0.090503715 0.022625929 0.062849805 0.032681897 0.020111937
-0.09804569 0.040223874 0.07793376 -0.08044775 0.0025139921 0.030167906 -0.02513992 -0.1608955
-0.0050279843 0.065363795 0.042737868 -0.15083952 -0.057821818 0.010055969 0.032681897 -0.055307828

sequential/dense_1/MatMul i1 [11, 512] scale=0.003745426 zero_point=0
00000000: ece0 f503 d0e1 fcb2 0fb7 f7ba e4d0 bafb
00000010: ccf1 efe8 f5e2 d3ed e418 d5eb f6cf 1506
00000020: e0af e7e7 e3ee ced1 df19 f1cf bbfb c5d9
00000030: f3ee f8f5 d9fa cdf7 f809 e4e9 0fd8 eb0e
00000040: e206 f1fe c9c5 bdca fa05 fdd9 d604 d806
00000050: 05e4 f6ed f1fa ffd4 d1eb f1c5 cbd3 f112
00000060: d2e2 f6ec ccde 0cd5 ebd9 faf9 bdfa dade
00000070: d205 ddb9 14fe f8e2 fbda ef0c bcc2 e3f7
00000080: c406 f6d5 e1e2 e2e8 b8e9 e7f3 def8 fab9
00000090: fbb7 f5d9 c6d9 09bc 02ea d9fe e1ef e6dd
000000a0: ced6 f7f2 c3ee ec11 0115 0c0e fb06 f30d
000000b0: adfc eeba cddb 0bda e5c7 beef ffef 07fd
000000c0: c6ee eab8 ebd7 04c2 f709 e407 d4bf cfce
000000d0: d9fc 07eb e2f5 b2e3 10f4 0d04 0ff4 e8cb
000000e0: 07f6 ea0d 0813 f20d cfce d10c efb4 fef5
000000f0: e5c5 fbd7 b8d6 c4dd 0413 e0c0 f6f2 e3d6
-0.07490852 -0.11985363 -0.041199684 0.011236278 -0.17978045 -0.1161082 -0.014981704 -0.29214323
0.05618139 -0.2734161 -0.033708833 -0.26217982 -0.10487193 -0.17978045 -0.26217982 -0.01872713
-0.19476216 -0.05618139 -0.063672245 -0.08989023 -0.041199684 -0.11236278 -0.16854417 -0.071163096
-0.10487193 0.08989023 -0.16105331 -0.07865395 -0.03745426 -0.18352588 0.07865395 0.022472557
-0.11985363 -0.3033795 -0.09363565 -0.09363565 -0.10861735 -0.06741767 -0.1872713 -0.17603502
-0.12359906 0.09363565 -0.05618139 -0.18352588 -0.25843439 -0.01872713 -0.22098014 -0.14607161
-0.04869054 -0.06741767 -0.029963408 -0.041199684 -0.14607161 -0.022472557 -0.19101672 -0.033708833
-0.029963408 0.033708833 -0.10487193 -0.0861448 0.05618139 -0.14981703 -0.07865395 0.052435964
-0.11236278 0.022472557 -0.05618139 -0.007490852 -0.20599842 -0.22098014 -0.25094354 -0.202253
-0.022472557 0.01872713 -0.011236278 -0.14607161 -0.1573079 0.014981704 -0.14981703 0.022472557
0.01872713 -0.10487193 -0.03745426 -0.071163096 -0.05618139 -0.022472557 -0.003745426 -0.16479874
-0.17603502 -0.07865395 -0.05618139 -0.22098014 -0.19850758 -0.16854417 -0.05618139 0.06741767
-0.1722896 -0.11236278 -0.03745426 -0.07490852 -0.19476216 -0.12734449 0.044945113 -0.16105331
-0.07865395 -0.14607161 -0.022472557 -0.026217982 -0.25094354 -0.022472557 -0.14232619 -0.12734449
-0.1722896 0.01872713 -0.13108991 -0.26592523 0.07490852 -0.007490852 -0.029963408 -0.11236278
-0.01872713 -0.14232619 -0.063672245 0.044945113 -0.25468898 -0.2322164 -0.10861735 -0.033708833
-0.22472556 0.022472557 -0.03745426 -0.16105331 -0.1161082 -0.11236278 -0.11236278 -0.08989023
-0.26967067 -0.0861448 -0.09363565 -0.04869054 -0.12734449 -0.029963408 -0.022472557 -0.26592523
-0.01872713 -0.2734161 -0.041199684 -0.14607161 -0.2172347 -0.14607161 0.033708833 -0.25468898
0.007490852 -0.08239937 -0.14607161 -0.007490852 -0.1161082 -0.063672245 -0.09738108 -0.13108991
-0.1872713 -0.1573079 -0.033708833 -0.052435964 -0.22847098 -0.06741767 -0.07490852 0.063672245
0.003745426 0.07865395 0.044945113 0.052435964 -0.01872713 0.022472557 -0.04869054 0.04869054
-0.31087035 -0.014981704 -0.06741767 -0.26217982 -0.19101672 -0.13858075 0.041199684 -0.14232619
-0.1011265 -0.21348928 -0.24719812 -0.063672245 -0.003745426 -0.063672245 0.026217982 -0.011236278
-0.2172347 -0.06741767 -0.08239937 -0.26967067 -0.07865395 -0.15356247 0.014981704 -0.2322164
-0.033708833 0.033708833 -0.10487193 0.026217982 -0.16479874 -0.24345268 -0.18352588 -0.1872713
-0.14607161 -0.014981704 0.026217982 -0.07865395 -0.11236278 -0.041199684 -0.29214323 -0.10861735
0.059926815 -0.044945113 0.04869054 0.014981704 0.05618139 -0.044945113 -0.08989023 -0.19850758
0.026217982 -0.03745426 -0.08239937 0.04869054 0.029963408 0.071163096 -0.052435964 0.04869054
-0.18352588 -0.1872713 -0.17603502 0.044945113 -0.063672245 -0.28465238 -0.007490852 -0.041199684
-0.1011265 -0.22098014 -0.01872713 -0.15356247 -0.26967067 -0.1573079 -0.22472556 -0.13108991
0.014981704 0.071163096 -0.11985363 -0.23970726 -0.03745426 -0.052435964 -0.10861735 -0.1573079

sequential/conv2d/Conv2D i1 [32, 3, 3, 3]
00000000: 8199 0905 3fcb ee46 4626 1806 3243 2046
00000010: ca0c d2ca 474a 2d4e eaf4 91cb ec8e ccc4
00000020: 9564 d3f8 0b85 f465 2aac 787f f0de a83f
00000030: dda9 beec c133 e907 8e5b 227f 193a 112b
00000040: 58d7 2e7b 0aa9 a4c3 5441 f091 0ba1 c8eb
00000050: f613 20eb fe7f 4251 2a4f f859 f720 faf2
00000060: b1a6 cccf e2fb bd9b 8faa 2825 a29b d20c
00000070: cb24 6a29 5207 10be 2433 3e6f d0d6 7f55
00000080: 6ee1 ca0d b988 eeb4 0cbf ff3b 1d2e f115
00000090: 9aa9 c42d e84e 4509 5981 83d2 4f4d 0742
000000a0: 3f1d d2b4 fa03 41b3 2f6b fb94 978a 37f3
000000b0: bc6a 6f1a 8bb8 1a3c dcf0 047f 636b 62ee
000000c0: 1842 0d08 aeae 1437 d918 d330 ab28 c3ff
000000d0: 3f53 c219 b7fc 81c1 afe6 1a18 faea 1f71
000000e0: d9b3 a7d1 8bbe bf6d 7b63 0ac6 0afb fd81
000000f0: 4804 7a37 bb05 4908 fe62 d3be f8b5 dc31
-127 -103 9 5 63 -53 -18 70
70 38 24 6 50 67 32 70
-54 12 -46 -54 71 74 45 78
-22 -12 -111 -53 -20 -114 -52 -60
-107 100 -45 -8 11 -123 -12 101
42 -84 120 127 -16 -34 -88 63
-35 -87 -66 -20 -63 51 -23 7
-114 91 34 127 25 58 17 43
88 -41 46 123 10 -87 -92 -61
84 65 -16 -111 11 -95 -56 -21
-10 19 32 -21 -2 127 66 81
42 79 -8 89 -9 32 -6 -14
-79 -90 -52 -49 -30 -5 -67 -101
-113 -86 40 37 -94 -101 -46 12
-53 36 106 41 82 7 16 -66
36 51 62 111 -48 -42 127 85
110 -31 -54 13 -71 -120 -18 -76
12 -65 -1 59 29 46 -15 21
-102 -87 -60 45 -24 78 69 9
89 -127 -125 -46 79 77 7 66
63 29 -46 -76 -6 3 65 -77
47 107 -5 -108 -105 -118 55 -13
-68 106 111 26 -117 -72 26 60
-36 -16 4 127 99 107 98 -18
24 66 13 8 -82 -82 20 55
-39 24 -45 48 -85 40 -61 -1
63 83 -62 25 -73 -4 -127 -63
-81 -26 26 24 -6 -22 31 113
-39 -77 -89 -47 -117 -66 -65 109
123 99 10 -58 10 -5 -3 -127
72 4 122 55 -69 5 73 8
-2 98 -45 -66 -8 -75 -36 49

sequential/conv2d_1/Conv2D i1 [64, 3, 3, 32]
00000000: f42f 06c1 dbaa ecdf 9d05 3c55 a5e4 03d5
00000010: c4d8 bfd1 9eda f918 fde1 b72c 60f1 c9cc
00000020: e4e4 2c9d 1105 4347 2422 daf3 35ff 9de5
00000030: 1112 1ac9 3692 1d8e 95f8 a6c0 ba3e c30b
00000040: f72c aaae e7af 95b9 47ea 1cf8 2524 58dd
00000050: b944 53d1 474d ea1b 340d 9dba 41b1 02e7
00000060: 0943 8d1b 3fdf dce7 ee81 4003 dcc7 dc50
00000070: b7c7 e123 06b8 174c 3f57 463e 12af 24af
00000080: e4cc 9ed1 c439 e4e1 0ebd 2399 c5e6 edcd
00000090: a3d4 fbe1 3ea8 a98c 0050 1022 464f 09ea
000000a0: 1bce cbdf 4fa5 504a d1ab bda4 889f d99c
000000b0: e2b0 33e7 cd09 31c9 d8f4 e619 e9e0 2e00
000000c0: c1c1 0047 a19f 5a8c d53f b6b9 374a ceb9
000000d0: febc cd9e f6a4 e952 20f9 ef4c 59e3 3d0f
000000e0: 40e0 dce2 14cf 2f99 e500 98a5 d6cc ccea
000000f0: a1e6 490d be84 f3a9 b78c bac4 eebd 03f7
-12 47 6 -63 -37 -86 -20 -33
-99 5 60 85 -91 -28 3 -43
-60 -40 -65 -47 -98 -38 -7 24
-3 -31 -73 44 96 -15 -55 -52
-28 -28 44 -99 17 5 67 71
36 34 -38 -13 53 -1 -99 -27
17 18 26 -55 54 -110 29 -114
-107 -8 -90 -64 -70 62 -61 11
-9 44 -86 -82 -25 -81 -107 -71
71 -22 28 -8 37 36 88 -35
-71 68 83 -47 71 77 -22 27
52 13 -99 -70 65 -79 2 -25
9 67 -115 27 63 -33 -36 -25
-18 -127 64 3 -36 -57 -36 80
-73 -57 -31 35 6 -72 23 76
63 87 70 62 18 -81 36 -81
-28 -52 -98 -47 -60 57 -28 -31
14 -67 35 -103 -59 -26 -19 -51
-93 -44 -5 -31 62 -88 -87 -116
0 80 16 34 70 79 9 -22
27 -50 -53 -33 79 -91 80 74
-47 -85 -67 -92 -120 -97 -39 -100
-30 -80 51 -25 -51 9 49 -55
-40 -12 -26 25 -23 -32 46 0
-63 -63 0 71 -95 -97 90 -116
-43 63 -74 -71 55 74 -50 -71
-2 -68 -51 -98 -10 -92 -23 82
32 -7 -17 76 89 -29 61 15
64 -32 -36 -30 20 -49 47 -103
-27 0 -104 -91 -42 -52 -52 -22
-95 -26 73 13 -66 -124 -13 -87
-73 -116 -70 -60 -18 -67 3 -9

sequential/conv2d_2/Conv2D i1 [64, 3, 3, 64]
00000000: d865 e72f fe07 c6c8 f8e8 e3e1 f010 f106
00000010: 531b 04fd 1bd6 2feb dd4b 3ffe 1611 19ed
00000020: ba2c 3a23 b5d6 03ec b5fe 55f3 81ea 0de7
00000030: f919 0419 2eea e8c4 f90a db5a f3fb 14f4
00000040: 1fe9 2e1d ba0a e2f6 d3ff 20f5 0924 c9d4
00000050: 07f2 cf18 eec2 f2e1 f8b5 3702 ebe3 2106
00000060: 18da 0de4 1a28 b808 dfd5 420e cf0c ff23
00000070: 1f0c ebf0 3d23 efbc 102b 2511 4ca1 ea3c
00000080: 0afc 0703 34ea 49e5 9efe 0130 2d3c 11d1
00000090: 2419 1205 f3e7 201f d79e 39c7 b6e9 1813
000000a0: 320c f6b9 440f e7f0 eb1e f007 e0fa b932
000000b0: e305 bb22 1314 f91d 1ff9 03e2 fad5 bef3
000000c0: 1be0 ebf5 121c f7f4 fecc f71c 19cf 35ef
000000d0: 0f08 0918 16eb e700 dee1 56f2 fc07 c9f9
000000e0: 0011 e8cd f30c f9e8 0d07 e0d1 fabc 283c
000000f0: c7e7 25fa f2e6 f407 1602 c541 0307 c814
-40 101 -25 47 -2 7 -58 -56
-8 -24 -29 -31 -16 16 -15 6
83 27 4 -3 27 -42 47 -21
-35 75 63 -2 22 17 25 -19
-70 44 58 35 -75 -42 3 -20
-75 -2 85 -13 -127 -22 13 -25
-7 25 4 25 46 -22 -24 -60
-7 10 -37 90 -13 -5 20 -12
31 -23 46 29 -70 10 -30 -10
-45 -1 32 -11 9 36 -55 -44
7 -14 -49 24 -18 -62 -14 -31
-8 -75 55 2 -21 -29 33 6
24 -38 13 -28 26 40 -72 8
-33 -43 66 14 -49 12 -1 35
31 12 -21 -16 61 35 -17 -68
16 43 37 17 76 -95 -22 60
10 -4 7 3 52 -22 73 -27
-98 -2 1 48 45 60 17 -47
36 25 18 5 -13 -25 32 31
-41 -98 57 -57 -74 -23 24 19
50 12 -10 -71 68 15 -25 -16
-21 30 -16 7 -32 -6 -71 50
-29 5 -69 34 19 20 -7 29
31 -7 3 -30 -6 -43 -66 -13
27 -32 -21 -11 18 28 -9 -12
-2 -52 -9 28 25 -49 53 -17
15 8 9 24 22 -21 -25 0
-34 -31 86 -14 -4 7 -55 -7
0 17 -24 -51 -13 12 -7 -24
13 7 -32 -47 -6 -68 40 60
-57 -25 37 -6 -14 -26 -12 7
22 2 -59 65 3 7 -56 20
