a_output_actual/dig-s2.tflite (tflite, 356636 bytes, 12 tensors)

sequential_2/conv2d_6/BiasAdd/ReadVariableOp/resource f4 [32]
000000 96 e0 b5 bd fe 28 7d bc ef 97 8a bd 08 04 36 bd
       -0.08880727 -0.015451668 -0.0676726 -0.04443744
000010 f6 73 c9 bc b6 28 e5 bd 5a af 68 3c 63 5c 11 be
       -0.024591427 -0.111894056 0.014201963 -0.14195399
000020 1f 58 d1 bd 7c cb cf bd 26 74 14 be b8 f9 9c bd
       -0.10221886 -0.101462334 -0.14497432 -0.076648176
000030 15 f6 ce bd ce 04 52 bd b0 ba eb bd a9 1d 26 bd
       -0.1010553 -0.051274113 -0.11510217 -0.04055563
000040 b6 fc 3a 3d 4e e0 11 3d 14 27 94 bd 8f 6c ef bd
       0.04565116 0.035614304 -0.07234016 -0.11690628
000050 f3 92 96 bd 11 3c c4 3c e9 4d 77 ba a0 13 00 be
       -0.07352247 0.023954423 -0.0009433912 -0.12507486
000060 56 e4 ae bc 56 ae 21 be 7a 5d da bd 5a 03 c0 bd
       -0.021349113 -0.1578916 -0.106623605 -0.09375639
000070 30 37 42 bd 45 a1 06 bd 83 b5 ef bc a6 95 b0 bd
       -0.047415912 -0.032868642 -0.029261356 -0.08622293

sequential_2/conv2d_7/BiasAdd/ReadVariableOp/resource f4 [32]
000000 05 33 f5 bb 39 fa 24 3d 26 4c 0f bc 93 8f 28 3e
       -0.0074828886 0.040277693 -0.008746183 0.16461019
000010 e1 32 bc bc 72 1a d0 3c f0 f3 97 3d ec 5d 8b 3d
       -0.02297348 0.025403235 0.07419574 0.068050236
000020 0f 6b b2 3b 85 76 d8 3c 4f 00 27 be 14 61 12 3d
       0.0054448913 0.026423702 -0.16308711 0.035737112
000030 22 9f 24 bd 1f cf b3 bc 15 bb af bc 7d 3e 17 3e
       -0.040190823 -0.021949349 -0.021451512 0.14769931
000040 84 40 b5 bc ae 67 9e bc 43 13 9d 3c 69 9b a4 bd
       -0.02212549 -0.019336548 0.019174224 -0.08037455
000050 a2 bc 1e bd c9 58 ab bd 4b 26 37 bd e2 a2 b2 bd
       -0.038754113 -0.08366544 -0.044714253 -0.08722474
000060 c8 42 db 3c 38 84 c5 3c 87 cd db bc 01 67 0c 3e
       0.026765242 0.024110898 -0.026831402 0.13711168
000070 4c 1a 96 bd 2d f5 03 3d 91 c4 4c bc 24 63 09 bd
       -0.073292345 0.03221624 -0.012498037 -0.033541813

sequential_2/conv2d_8/BiasAdd/ReadVariableOp/resource f4 [32]
000000 e0 9a ab bd 21 48 10 bc 25 ca 00 bc 9c 13 22 bd
       -0.083791494 -0.008806259 -0.007860695 -0.039569482
000010 18 30 af bc 45 60 93 bd 18 60 fd bd 55 12 85 bd
       -0.021385238 -0.07196096 -0.12371844 -0.06497637
000020 65 1e c9 bd 0a 38 d2 bc 63 3f f1 3c 8e 27 20 3d
       -0.098202504 -0.025661487 0.02944917 0.039100222
000030 41 1b 3d bd 7e 0e 94 bd 1d 81 9d bb c3 75 c0 bc
       -0.04616857 -0.07229327 -0.0048066513 -0.023493653
000040 c2 a2 8f 3c 92 30 84 3d 10 fc 50 bd f9 d3 86 bd
       0.017533664 0.064545766 -0.051021636 -0.06583399
000050 4b b6 13 be 3c c2 23 3d fa 4e a3 bc c4 2a 2a bd
       -0.14425008 0.03998016 -0.01993512 -0.04154469
000060 04 69 be bd 3d a9 70 3c 87 6a 56 bd e6 82 b5 3c
       -0.09297374 0.014688787 -0.052347686 0.022157144
000070 42 86 0c bd 1f 20 3c be eb 0c 0f bd 6f 3c 32 be
       -0.034307726 -0.18371628 -0.03492443 -0.17405866

sequential_2/dense_4/BiasAdd/ReadVariableOp/resource f4 [256]
000000 fc 0d b5 bd ce 33 81 bc f0 28 06 3c 7f ed 24 bc
       -0.08840558 -0.015771773 0.008188471 -0.010066389
000010 4f c2 81 bd 75 13 fd 3c 38 d5 c0 3d 07 ae 5b 3d
       -0.063358895 0.030893067 0.09415668 0.053632762
000020 47 df 5e 3d ce 0a 74 3d 17 39 f2 3c d6 c4 89 3c
       0.054412153 0.059580617 0.029568238 0.016817492
000030 ab ac de 3a ca 7a cc bc 06 03 a4 bc 99 af d4 bb
       0.0016988715 -0.024960894 -0.020020973 -0.0064906594
000040 ab fa 00 3e 2a 78 87 bc 49 0d 7e bc 5b 77 97 bc
       0.12595622 -0.01653679 -0.015506097 -0.01848953
000050 e2 15 0e 3d bd fa 33 bc cf a8 93 3c 3b 4a b5 bc
       0.034688838 -0.010985074 0.01802483 -0.022130122
000060 b8 11 c8 3d b9 80 71 3c 8f 5a b0 bc e1 cc 5a bb
       0.097690046 0.0147401625 -0.021527557 -0.0033386278
000070 60 61 20 3c 3b 4d fc 3c b7 b1 bc bd 12 0b 2a 3d
       0.009788841 0.030798545 -0.09213584 0.041514464
000080 32 e9 7a 3d e4 8c 88 3d b4 9a 63 bb d4 6c 0e bd
       0.06125755 0.06667498 -0.0034729661 -0.034771755
000090 0e fb eb 3d 42 d4 04 bd bd 0c 92 bc e7 20 34 3d
       0.11522494 -0.032428987 -0.01782834 0.04397669
0000a0 40 86 c5 bd 1f c1 7a bc ab 40 97 bb 9d 8b 27 3d
       -0.09644747 -0.015304833 -0.0046158633 0.04090463
0000b0 fa 78 a5 3d 81 48 48 3d c8 02 49 bd 5e c6 ca bb
       0.08079715 0.04889727 -0.049074918 -0.006188198
0000c0 31 c5 7d bd d4 6e ad bb 5e 62 f6 3a 7b 90 64 3c
       -0.061955635 -0.0052927528 0.0018797626 0.013950462
0000d0 b0 98 99 3d a8 0c 0b bd 6f ee 83 bc 47 4c 95 3c
       0.07499826 -0.033947617 -0.016104905 0.018224848
0000e0 c9 8e b8 3b 17 88 8e 3d d6 6b 01 3d 14 81 12 3d
       0.0056322557 0.06959551 0.03159698 0.03576763
0000f0 31 b4 f0 bc ab 6d 9b bd 4f 66 89 3c 09 7d 8e 3d
       -0.029382797 -0.07589277 0.016772417 0.06957442
000100 21 f8 3c bc 9b f8 b5 bb 3a 7f b8 bc dd 7f 04 bd
       -0.011533768 -0.0055533177 -0.022521604 -0.032348502
000110 35 dd 87 3d 36 c2 b2 3d fa 88 ef bc c6 0c 1d 3b
       0.06633989 0.08728449 -0.02924012 0.0023963912
000120 af 00 8e 3b 4a c0 7c bc 5f 5e 07 bc ca 19 99 bd
       0.0043335776 -0.015426705 -0.008262246 -0.07475622
000130 6d aa 83 bc 01 b3 26 3d 4f fc f6 b9 2f 8a 12 3c
       -0.016072476 0.040698055 -0.0004710876 0.008944078
000140 39 a5 20 bd 01 a4 c4 3c b3 9c c7 3d 2a 82 07 3d
       -0.03922007 0.024003984 0.09746685 0.03308312
000150 ba 63 ca bb f0 1c c9 bc 64 e4 44 bd e5 a9 90 bd
       -0.006176439 -0.024549931 -0.048069373 -0.07063655
000160 4b a6 48 bd 0b 43 8a 3c ba 28 29 3d 3c 23 e1 3c
       -0.048986714 0.016877672 0.041298606 0.027482621
000170 e8 0b 2e bd bd 8b 47 3d b3 4d 53 bc 1b 0c a4 bd
       -0.042491823 0.04871725 -0.012896943 -0.080101214
000180 d3 00 fe bc 4f 67 b8 3d 43 2c b9 bc c5 6a bf 3c
       -0.031006252 0.090040796 -0.022604113 0.023366341
000190 4c 01 e1 bc 9b 95 40 3c 2e fc af bb 6e 73 1f bc
       -0.027466439 0.011754419 -0.0053706383 -0.00973211
0001a0 6e 51 9b 3c bf a7 5c 3c 86 e0 0a bc 5f ae 1d 3c
       0.018959727 0.013467728 -0.008476382 0.009624093
0001b0 b1 25 43 bb 82 0a 8a bc b4 3f 5b 3b 12 48 99 3a
       -0.0029777105 -0.016850714 0.0033454718 0.0011694452
0001c0 4c 91 66 3c 1c 40 2a 3d 8f 1c 17 bd ac 98 ee 3c
       0.014072727 0.041565046 -0.03689247 0.029125534
0001d0 69 15 cc 3d 9d d3 6a bc be 3d 30 bd c3 cc 8d 3a
       0.09965021 -0.014332679 -0.043027632 0.001081847
0001e0 0d 31 d7 bd 56 4e 99 3d 1b 3f 8e bc b0 be 9b 3d
       -0.105074026 0.074856445 -0.017364075 0.0760473
0001f0 f9 ba 32 bd 9f 16 b6 bd 1c 18 aa 3d 8f 5c 05 3d
       -0.043635342 -0.088910334 0.0830538 0.032558974
000200 c4 da 57 3c f9 37 e7 3a c3 82 64 bc 6d e6 97 3d
       0.013174716 0.0017640583 -0.013947192 0.07416997
000210 c1 0a 16 bd af 10 b1 bd ca 2a 03 3d 7f 7f fa 3c
       -0.03663135 -0.0864576 0.03202323 0.030578373
000220 0a 19 90 3c 52 73 ee 3a fd 27 bc 3c ad b2 de bc
       0.017590065 0.0018192327 0.022968287 -0.027184809
000230 c0 7b 42 bd a2 b9 0e 3d bc 6b 04 3d 33 87 43 bc
       -0.0474813 0.034845002 0.032329306 -0.0119340895
000240 ea a6 ab 3c d1 77 03 bc f7 50 e7 bc c1 86 14 bd
       0.020953614 -0.008024172 -0.02823685 -0.036261324
000250 09 ab 56 3d 9e 7e da 3b 8f b0 ef 3c fe 41 e2 bc
       0.052409206 0.006667926 0.029258994 -0.027619358
000260 93 2d 17 bc f8 77 60 3d 22 1f dc 3d 27 6f ea bc
       -0.009227174 0.05480191 0.107481256 -0.028617455
000270 16 84 6f 3c 48 2c 1a bd 72 ab 0e bc f6 e6 70 bd
       0.014618894 -0.037639886 -0.008707868 -0.05881401
000280 cb 9d ef bc 3c b9 8c 3d c8 22 41 3c 2a 7f 8c bd
       -0.029250046 0.06871268 0.011788078 -0.06860192
000290 90 84 04 3d cf 15 00 3d 22 3b 34 3c 7e b5 88 3c
       0.032352984 0.0312708 0.0110004265 0.016688105
0002a0 c0 b8 96 3d 58 55 d2 bc e3 e2 8f 3d 66 fa 2b bc
       0.07359457 -0.02567546 0.07025697 -0.010496711
0002b0 93 3e 82 3c 90 ab f3 bc 9a a1 59 3c 64 09 5b bd
       0.015898978 -0.029744893 0.013283158 -0.053475752
0002c0 e2 30 d2 bb 10 ed 70 3d a8 3c 71 3d 1c 5f 04 3d
       -0.0064145187 0.05881983 0.058895737 0.032317266
0002d0 b9 cc 8b 3c bd 3d af 3c 9f 01 20 3d d3 a9 f5 3c
       0.017065393 0.021391744 0.039064046 0.029988205
0002e0 31 8d 80 3c 78 2f 62 3d ea ec 59 bd 15 0c 09 3b
       0.015692325 0.05522105 -0.053204454 0.0020911742
0002f0 70 46 2f bd ce 00 a0 bb ab 75 34 bd 1d 3d 82 3d
       -0.042791784 -0.0048829084 -0.04405753 0.06359313
000300 3f f4 8d 3d a0 e0 92 bc cd 5d 72 bc b1 91 e2 3c
       0.06931352 -0.017929375 -0.014792872 0.027657362
000310 91 70 d2 3b 3a 45 3e bc 2d 71 88 3c 3b ba d4 3d
       0.0064221104 -0.011613185 0.016655529 0.10387083
000320 c8 23 8e bc 6c 07 db bd c3 79 62 bc 4e 50 96 3d
       -0.017351046 -0.10694775 -0.013822976 0.07339536
000330 df 63 df bc 80 04 ce 3c db 3c 55 ba d8 08 00 bd
       -0.027269302 0.02514863 -0.00081343733 -0.031258434
000340 47 19 06 bd fc 8c 29 bd 06 b4 84 bb 1d 0e ed bc
       -0.03273895 -0.04139422 -0.004049781 -0.028937394
000350 39 e6 43 3d a9 5b 83 bd 3b 3e 50 3d 21 63 83 3c
       0.04782698 -0.06413967 0.050840598 0.01603848
000360 98 af b4 bd 56 8b 4b bc e0 29 0e 3c ba dd 1b bc
       -0.08822554 -0.012423357 0.008676976 -0.009513313
000370 18 47 54 3b e9 32 17 bd 28 d9 a3 3b 2a f0 af bb
       0.0032391008 -0.036913786 0.0050002523 -0.005369206
000380 64 14 1c 3c 14 ed ce bc 26 0e 0b 3d 65 9a 89 3d
       0.009526346 -0.025259532 0.03394904 0.067189015
000390 74 2a 0e 3e c3 dc 31 3d 41 a7 9d 3d f2 33 30 3d
       0.13883382 0.043423425 0.07697917 0.04301829
0003a0 e0 e9 55 bd 3c 71 08 3d f0 2b 98 bd 50 bc 09 3d
       -0.052224994 0.033311114 -0.074302554 0.033626854
0003b0 3a a2 9d bc 52 63 16 3d be e5 d5 bc d0 9b 41 3d
       -0.019242395 0.036715813 -0.026110526 0.047267735
0003c0 fb 55 8e 3d 3e 98 3f 3d d7 71 76 3d 3f 5a 6a bb
       0.06949993 0.04677605 0.06016716 -0.0035759357
0003d0 1d 71 98 3d 42 15 d2 bd 3c 42 d7 bc 31 68 92 bd
       0.0744345 -0.10257961 -0.0262767 -0.07148779
0003e0 b3 e8 67 3d 10 fd c1 bc ab 8b ac ba 6b 57 e6 bc
       0.056618404 -0.02368024 -0.0013164183 -0.028117856
0003f0 c3 41 57 bd 84 b1 8b 3c 2f 3a b6 3d 69 82 c4 3c
       -0.05255295 0.01705242 0.088978164 0.023987966

sequential_2/dense_5/BiasAdd/ReadVariableOp/resource f4 [11]
000000 38 a4 78 be 17 ae 15 be da 2b 40 be f2 e4 06 be
       -0.24281394 -0.14617191 -0.18766728 -0.13173273
000010 c6 3d 26 be b9 a9 ff bd be 2e 4a be ed c9 34 be
       -0.16234502 -0.12483544 -0.19744393 -0.17655154
000020 a6 94 18 be 7a b4 d2 bd 07 9c 7b bd
       -0.14900455 -0.102883294 -0.061428096

sequential_2/batch_normalization_2/FusedBatchNormV3 f4 [3]
000000 87 7a 06 c0 9d 2e 0b c0 88 9a d7 bf
       -2.1012285 -2.17472 -1.6844034

sequential_2/batch_normalization_2/FusedBatchNormV31 f4 [3]
000000 2b 04 80 3c b9 ec 94 3c 48 f0 67 3c
       0.015626987 0.018179284 0.014156409

sequential_2/dense_4/MatMul f4 [256, 256]
000000 f7 ef 92 3d 15 4c 11 3e f1 31 60 bd c4 1f 07 3d
       0.07174676 0.14189179 -0.054735128 0.03298928
000010 c9 48 b8 bd ae 3f 8f bd 74 c6 02 be 81 ed 91 3c
       -0.08998258 -0.06994568 -0.12771016 0.017813446
000020 6a 78 ca 3d 31 2e 07 3d 30 e2 1b 3d 63 28 f4 3c
       0.098862484 0.033003036 0.038057506 0.029804414
000030 0f bc 92 3d c0 e0 bb 3c 6d dc 72 3d a4 9a a6 3d
       0.071647756 0.022934318 0.059292246 0.08134964
000040 d2 03 95 3c ca 91 14 bd 4c 00 5d 3d 82 04 8a 3d
       0.018190298 -0.036271848 0.05395536 0.06739141
000050 4e e9 89 3d 34 61 80 3d 0a 3c 4e 3d c3 78 aa bd
       0.067339525 0.0626854 0.050350226 -0.08323815
000060 f8 10 c0 bb d8 ba 4e 3d 6e a7 e2 3d 5c 4d a8 3c
       -0.005861398 0.050471157 0.11067091 0.0205447
000070 54 03 3a bd 11 d6 bf 3d 36 26 1a 3e d8 b6 50 3d
       -0.04541333 0.09367002 0.15053639 0.050955623
000080 ec 3c 8a bc 7f 3e d3 bd a5 3a 29 bd 41 74 d8 bd
       -0.016874753 -0.103146546 -0.041315693 -0.10569049
000090 ae 6b 67 bb 95 04 2b bd cf ac e1 bd 28 b1 15 bc
       -0.0035311985 -0.041752417 -0.11019289 -0.009136476
0000a0 dd 9a 12 3e 23 0d 06 b9 1e 31 ac 3d c8 87 8f bd
       0.14316888 -0.0001278413 0.08407806 -0.0700832
0000b0 f6 e0 a7 3d d2 eb 3d 3d b8 b3 a3 bd 47 31 59 3b
       0.08197205 0.046367474 -0.07993263 0.0033140944
0000c0 8d 50 37 3e a8 f2 aa 3c d0 4e 17 3c a3 ec df bd
       0.17901821 0.02086766 0.009235099 -0.10933807
0000d0 5c d8 09 3c 5b 5e 19 be 55 67 45 be 11 6a 05 3c
       0.0084134005 -0.149774 -0.192777 0.008142964
0000e0 d3 d3 a3 3d 9b 62 9d 3a 04 2e 89 bc c6 ac ee 3c
       0.07999387 0.0012007536 -0.016745575 0.02913512
0000f0 e0 4c af bd 24 4f a7 bd b4 c3 3a 3d 73 e8 c2 3b
       -0.085595846 -0.08169392 0.045596793 0.0059481203
000100 71 20 0b 3d fc f7 4a bd ef d0 ab bd e1 87 53 bd
       0.033966485 -0.049552903 -0.0838946 -0.051643256
000110 45 5e ab 3c 45 38 25 bd 7d 20 25 3e 3a 1d 7b 3c
       0.020918975 -0.040336866 0.16125675 0.015326792
000120 b5 ae 3e 3d d7 f0 e8 bd 8f 00 77 bd 25 06 25 3d
       0.046553332 -0.113740616 -0.060303267 0.040289063
000130 51 fd b5 bc cb 8e 21 3d 7a d1 45 3d 53 a5 9b bb
       -0.022215517 0.03944282 0.048295476 -0.004749933
000140 29 76 64 3d c2 81 24 be 92 ee 3c 3c 04 2f 0d bc
       0.05577675 -0.16065124 0.011531489 -0.008617166
000150 98 e5 d1 3d 78 4a e4 3d b1 47 56 3d e4 d7 2a 3d
       0.1024887 0.11147016 0.052314464 0.041709796
000160 80 8e d3 3d 5d b7 24 3d 78 8e f0 3c e4 7b 8c bd
       0.10329914 0.04021393 0.02936481 -0.06859568
000170 2a 82 97 bd 6e 3b 9a bd d5 49 9c bd ff 46 38 bd
       -0.07397874 -0.075308666 -0.0763127 -0.044989582
000180 7f cc e9 bd 05 38 15 be a2 f5 0c 3c 5a af f5 bc
       -0.11415958 -0.14572151 0.008603485 -0.02999084
000190 4f 06 f1 bd 5c 73 9f 3b f5 16 f8 3b be 5f c6 bd
       -0.117687814 0.004866047 0.007571096 -0.0968623
0001a0 48 a0 2f 3c 24 e3 23 3e e7 3b a9 bd ff d3 81 bd
       0.010719366 0.16004616 -0.082633786 -0.06339263
0001b0 d7 4c 32 be cc 9f f2 bb 72 c6 25 bd bf 94 a7 bd
       -0.17412125 -0.007404303 -0.040472455 -0.08182668
0001c0 5a 6e da 3d cf 08 0c 3d 13 1d 07 3e 2e 73 ca 3a
       0.10665579 0.034188088 0.13194685 0.0015445703
0001d0 cd 73 3c 3d 1e 9b 5d bd 5d ff d4 3d e5 f6 48 3d
       0.046008874 -0.05410301 0.10400269 0.049063582
0001e0 0f 9f a0 3d 71 fb 3a 3d d2 53 8b bd d8 c0 85 bd
       0.07842838 0.04564995 -0.06803097 -0.06530923
0001f0 0a 0f 92 3d 10 16 b7 bd ab 19 13 bd 8e dc 7f 3d
       0.07131775 -0.08939755 -0.03591315 0.062466197
000200 e2 9f 84 bb 1b c8 82 bd 4f 7e 7e bd 98 81 fc 3c
       -0.00404738 -0.06385823 -0.062132176 0.030823514
000210 5e 62 b1 3d a0 28 07 be 05 6a 9f 3d a1 cd 25 bd
       0.0866134 -0.13199091 0.077838935 -0.040479306
000220 20 c4 93 bd 40 e0 7e 3d dc 81 e1 bb f4 7a 4a 3e
       -0.07215142 0.06222558 -0.0068819355 0.19773465
000230 86 4c 4c bc 8e f6 94 3d 3f 40 01 bd 1c 47 93 bd
       -0.0124694165 0.07273589 -0.03155541 -0.071912974
000240 22 0f 74 3d b5 73 19 3e ba 0c 55 be e6 8b 77 3c
       0.059584744 0.14985545 -0.20805636 0.015109038
000250 07 00 b1 bd e3 1d 0b bd 17 81 c0 bc 3f 0f 03 3e
       -0.08642583 -0.03396405 -0.023499055 0.12798785
000260 cd 50 14 be 98 5d 3c 3d 9d 86 55 3d a5 7b a0 bd
       -0.14483948 0.045987695 0.05213033 -0.07836083
000270 70 77 df bd 25 d9 01 3e c0 ba e6 bd c5 a8 c2 3b
       -0.10911453 0.1268049 -0.112660885 0.005940529
000280 d1 bf e3 bc 4e e1 6a 3d b2 25 e9 3c 8e c5 06 be
       -0.027801426 0.057343774 0.028460357 -0.13161299
000290 bc c3 7a 3d d3 50 38 3e 07 b1 18 bd 48 0e 8e bc
       0.061221823 0.17999582 -0.0372782 -0.017340794
0002a0 49 9a 80 be 2b 53 8a 3d 76 1f 35 3e b1 71 b1 bd
       -0.2511771 0.06754144 0.17687783 -0.08664263
0002b0 0f ca 36 3d dd e2 c2 bc fb f4 89 3d 87 11 af bd
       0.04462629 -0.023789817 0.067361794 -0.08548265
0002c0 d8 9e c4 3d bb 14 e0 bc 7d db 2d 3d 9a 2f 32 3e
       0.096006095 -0.027353635 0.04244565 0.17400971
0002d0 b0 4f 63 bd 60 f9 06 3c cd 31 a9 bd 69 b1 80 3d
       -0.055495918 0.008238167 -0.08261452 0.06283838
0002e0 59 49 05 3d dd f5 00 bc 26 62 4c 3e 81 eb 6a 3d
       0.032540653 -0.007871118 0.19959316 0.0573535
0002f0 7f 4f 8f bc 3e a4 87 3e ac 9c 4f bc 3f c8 11 bd
       -0.017493961 0.26492494 -0.012671631 -0.03559136
000300 38 c2 d0 bc 1b 76 0f 3b b5 e8 a0 bd 90 86 7f 3d
       -0.025483236 0.0021890465 -0.07856885 0.06238419
000310 34 a0 85 ba ca 22 a7 bd 2c 02 3f be e9 8a 83 3d
       -0.0010194839 -0.08160932 -0.18653172 0.064229794
000320 2a 66 89 3d 91 6e 75 bd f0 83 d2 bb 78 27 d1 bd
       0.067089394 -0.059919897 -0.0064244196 -0.10212606
000330 33 10 52 3d 51 9f 48 be 81 b2 07 3d ce 19 bf bd
       0.05128498 -0.19592024 0.03312922 -0.09331094
000340 43 3c 08 bd a7 91 de 3d 63 00 98 bd 25 67 a4 3c
       -0.033260595 0.10867625 -0.07421949 0.020068714
000350 a0 23 c9 bd 8e 0c dc bc e7 26 24 bd 86 72 5c 3c
       -0.09821248 -0.026861455 -0.040076163 0.013455039
000360 06 09 b5 3d 62 fe d3 3d 63 35 59 3d 55 3c 76 3d
       0.08839612 0.10351254 0.05302943 0.06011613
000370 ec b6 01 3d 52 8e cb bd dd 8d a0 bd 85 7b 08 3d
       0.03166859 -0.09939255 -0.07839558 0.033320922
000380 64 95 e3 3d 0d 4c 98 3d 1f 3c d3 3d 23 bf a6 3d
       0.111124784 0.074363805 0.103142016 0.08141925
000390 93 9e 17 3d ca 79 ab 3c 1e 30 21 bd 6b 4c fb 3c
       0.037016463 0.020932097 -0.03935253 0.030676087
0003a0 84 7e d6 bd bd d8 24 bd 98 63 99 bc 2b a7 73 3b
       -0.1047335 -0.04024576 -0.018724248 0.0037178497
0003b0 44 69 0a bd ea ef 08 be ef 36 df bc bb a3 09 bd
       -0.033791795 -0.1337277 -0.027247874 -0.03360341
0003c0 3d ca 7d bd bd 3a 0c be b6 c4 4d be b2 ef 62 bc
       -0.061960448 -0.13694282 -0.2009457 -0.013851093
0003d0 b9 54 9e bc ba a5 3f 3d 53 33 db bd 93 d1 6b 3c
       -0.019327508 0.04678891 -0.10703149 0.014393228
0003e0 a7 f1 02 bb ab 28 c7 3c 33 41 0d 3e 8b c6 08 bb
       -0.0019980462 0.024311384 0.13794403 -0.0020870294
0003f0 c2 fb 50 bd cf 7d c1 bc 29 78 0e 39 79 f7 de 3b
       -0.051021345 -0.02361956 0.00013586938 0.0068044034

sequential_2/dense_5/MatMul f4 [11, 256]
000000 84 d5 99 bd c9 dc b2 bd 8c ec bb bd 78 93 b3 3c
       -0.07511428 -0.08733518 -0.09175977 0.021920905
000010 1c 2e fe bb 00 9a ac bd e9 17 ad be 06 ff 10 be
       -0.0077569615 -0.08427811 -0.33807305 -0.14159784
000020 37 8b c1 be 35 91 10 be ad e4 83 be 1d a7 71 be
       -0.37801525 -0.14117892 -0.25760403 -0.23598905
000030 55 ed dc bd fc 0e c8 bc af c1 08 be 47 12 07 be
       -0.10787455 -0.024421208 -0.13355134 -0.13190566
000040 8f 41 f6 be 4c 07 89 bd 41 a4 af 3d 52 34 04 be
       -0.48096892 -0.06690845 0.08576251 -0.12910584
000050 5b 15 8c bd 09 35 c9 bd 23 a4 73 bd 93 7f d2 bd
       -0.06840011 -0.09824569 -0.059482705 -0.10278239
000060 80 42 04 bf 8a 57 63 bd 27 82 d7 bd 22 5c 8b be
       -0.5166397 -0.055503406 -0.105228715 -0.2721873
000070 fe bf b5 be 53 bb 30 be e8 d3 84 3d e4 a4 af be
       -0.3549804 -0.17258959 0.064857304 -0.3430549
000080 d1 8a 0e be 00 85 c0 be d3 c3 a7 be 80 db e7 bd
       -0.13920142 -0.3760147 -0.3276659 -0.11321163
000090 e2 24 56 be 0e 93 36 3c 27 db 89 3d 68 c0 c3 3c
       -0.20912507 0.011143459 0.06731253 0.023895457
0000a0 69 a2 cf 3c 12 0a 09 3d e8 2b 92 bd 30 d9 e2 be
       0.025345998 0.03345687 -0.07137281 -0.44306326
0000b0 a1 1e b0 be 61 d9 92 be 1a 7d 78 3c 47 b4 60 3d
       -0.34398368 -0.28681472 0.015166545 0.054859426
0000c0 e0 e2 71 be ca e5 87 bd 84 94 c6 3d 4d f6 c2 bd
       -0.23621702 -0.06635626 0.09696296 -0.095196344
0000d0 89 f6 94 bd a3 30 4f bd 90 16 36 bd 1f 18 0f be
       -0.07273585 -0.050583493 -0.04445511 -0.13974045
0000e0 ad b8 60 be e5 69 cc be 55 ca 75 be 30 d3 fd bd
       -0.21945448 -0.3992454 -0.24002965 -0.123937964
0000f0 c6 81 fc bd 99 2c 3f bd 1b 58 e5 bc 2b ad 05 bd
       -0.1232944 -0.04667339 -0.027996114 -0.03263585
000100 ba d7 42 bd 0e fd 20 be 4e f2 ed 3d 8c e3 ed bc
       -0.047569014 -0.15721533 0.116184816 -0.029039167
000110 00 53 9c be a9 45 8c be 18 b4 94 3d 51 2d 81 be
       -0.30532074 -0.27396896 0.07260913 -0.25229886
000120 32 99 b5 bd 17 3a 30 bd 86 9f 36 be 34 22 26 3c
       -0.0886711 -0.04302415 -0.17834291 0.010139991
000130 f1 c2 b2 3d 6a 45 af be 1c a6 be bc 1f 94 75 be
       0.08728588 -0.34232646 -0.023272566 -0.23982285
000140 8a 88 52 3c 40 f5 87 bd e6 67 ce be 70 a3 b8 be
       0.012849936 -0.066385746 -0.40313643 -0.36062193
000150 3a 2a 9c bd 47 69 d6 3d 3d 07 29 be e9 cd 92 3d
       -0.076252416 0.10469299 -0.16506667 0.071681805
000160 90 60 81 be b1 15 b9 be c4 d0 55 be 84 52 01 bf
       -0.25268984 -0.36149362 -0.20880419 -0.50516534
000170 86 2b 9f 3c 7f 1b e3 be 6e 74 a4 be 57 f1 c6 3d
       0.019429933 -0.44356915 -0.3212008 0.09714001
000180 50 36 1d be 85 31 a6 be 8b 9a ad be ef 25 a6 be
       -0.1535275 -0.32459655 -0.3390697 -0.32450816
000190 96 41 ff bd 37 14 a3 bd 27 8c 49 3d 65 f9 d7 bd
       -0.124636814 -0.0796284 0.049205925 -0.10545615
0001a0 a3 f4 c6 bc 6b 9e 41 bc b6 31 5a 3d e2 77 fd bd
       -0.024286574 -0.011817555 0.053270064 -0.123763815
0001b0 47 68 23 be 48 31 27 3c 4f 12 e0 3d 83 1e 2d be
       -0.15957747 0.010204621 0.10940992 -0.1690617
0001c0 86 7e 44 3d 92 9e 89 be 1a b3 0e be 3e 86 8f be
       0.047972225 -0.26878792 -0.1393551 -0.28032106
0001d0 8d 04 c3 be 5d 09 5f be 53 54 67 be 53 57 6b be
       -0.3808941 -0.21780916 -0.22590761 -0.2298253
0001e0 a1 b3 8e 3d e5 00 d3 be d8 02 bf bd a2 94 42 bd
       0.06967855 -0.4121162 -0.09326714 -0.04750503
0001f0 c5 01 bd bc 97 51 4b bd 8a b7 a1 be 1f 08 f4 be
       -0.023072133 -0.049638357 -0.31585342 -0.47662446
000200 11 02 d9 be b4 51 49 be 41 66 7d be ab ae 24 be
       -0.4238439 -0.19660074 -0.24746038 -0.16082256
000210 27 7c 05 3b bd 5c 01 3d 54 b0 87 be 73 b1 9e bc
       0.002036819 0.031582583 -0.26501715 -0.019371724
000220 12 1d 8b be f9 c4 da 3c f6 c6 3a 3c bb 80 4a bd
       -0.27170616 0.026705252 0.011399975 -0.049439173
000230 ae 89 eb 3c b8 db 8b be 89 28 da be 59 ef f0 3d
       0.028752174 -0.2731607 -0.4260905 0.11764402
000240 81 9d b3 bd f9 08 1a 3c f6 3d 8e be 46 fd 78 bd
       -0.08770276 0.009401553 -0.27781647 -0.060788415
000250 bb 3d 63 be c8 aa 07 bd a3 e3 24 be f1 36 2c 3d
       -0.22191517 -0.033121854 -0.16102462 0.042044584
000260 8b 1e 7c bc cb 06 33 be bd 28 80 be 58 df 82 3c
       -0.015388141 -0.1748306 -0.2503108 0.01597564
000270 26 2e 98 be 9a 99 26 bd 7a 4b 65 bd a2 92 29 be
       -0.29722708 -0.04067383 -0.055980183 -0.16559842
000280 91 ed ac bd cd 8c 33 be 82 3b 3e be 4d c0 a0 bd
       -0.0844375 -0.1753418 -0.18577388 -0.078491785
000290 e3 19 15 be 21 bb bb be b5 1f 45 be 7d 23 93 be
       -0.14560656 -0.36666206 -0.19250377 -0.28738013
0002a0 d9 17 b2 be ce f2 3b 3d 61 24 ac be fe fe a9 be
       -0.3478382 0.045885853 -0.33621505 -0.33202356
0002b0 05 46 86 3d dc b0 e7 bb 7a b1 87 be 05 40 af be
       0.06556324 -0.007070644 -0.2650259 -0.3422853
0002c0 e3 fb f6 b9 c0 bf 9b bd 71 75 77 be 8f 6c c9 be
       -0.00047108447 -0.07604933 -0.24165894 -0.39340636
0002d0 be 7f ad be 7f e4 5c be 7f 01 83 be 67 84 2d bd
       -0.33886522 -0.2157154 -0.2558708 -0.042362597
0002e0 54 0f 67 be 73 8d 62 be 64 35 8e bd a5 25 70 be
       -0.22564441 -0.22124271 -0.06943777 -0.2345186
0002f0 f2 b8 c0 be 58 30 91 bd c5 80 81 bd 19 7d f2 be
       -0.37641102 -0.07089299 -0.06323389 -0.47361067
000300 39 22 2e bc c2 ce a8 3d 6c cb f2 bd e0 94 c1 be
       -0.0106282765 0.08242561 -0.11855206 -0.37808895
000310 a9 47 93 3d 52 3b 94 be 95 33 94 bd 0d 5d 4a be
       0.071914025 -0.28951508 -0.07236401 -0.19762059
000320 31 15 38 3c da 04 53 be c0 6f 59 be 83 1a d2 be
       0.011235521 -0.2060732 -0.21234035 -0.41035852
000330 8c d7 db bd 08 dc 15 be 87 92 cd be c5 56 c6 bd
       -0.10734472 -0.14634717 -0.40150854 -0.09684519
000340 90 27 ad bb 33 79 c1 bd cd 9c 14 be f3 50 9f bd
       -0.0052842572 -0.09446945 -0.1451294 -0.07779112
000350 a7 79 0b be 71 55 31 be 57 e8 5e 3c fe 05 15 bd
       -0.13620625 -0.1731775 0.013605199 -0.036382668
000360 1d b9 7c bd ab f7 47 be 64 dc 5a be b0 8c 4a 3c
       -0.061699975 -0.19528072 -0.21373135 0.012362644
000370 31 fd 39 bc f6 58 01 3e 1d dd bb 3d cf e4 d2 3d
       -0.011351869 0.12631592 0.091730334 0.10297548
000380 33 86 b6 bc 3b 54 44 3d f1 16 81 be 7b 65 c2 be
       -0.022280788 0.04793189 -0.25212815 -0.37968048
000390 07 e5 89 be 21 30 af be 25 22 9a be 25 37 2f be
       -0.26932546 -0.34216407 -0.30104175 -0.1711088
0003a0 c4 65 a8 bc b2 23 50 be ec be 8e bc 1c 9c 7d 3c
       -0.020556338 -0.20326117 -0.017425023 0.015479114
0003b0 dc 2e 6d be f4 c0 ae be 2f f3 5a be 98 73 78 be
       -0.23162407 -0.34131587 -0.2138183 -0.24262846
0003c0 91 0c 97 be ff 1f 7d be d8 0e 78 be 39 75 47 3d
       -0.29501775 -0.24719237 -0.24224412 0.048695777
0003d0 aa 92 98 bd a4 07 47 bd 1b b0 01 be df bd c5 3c
       -0.07449849 -0.04859127 -0.12664835 0.02413839
0003e0 e7 7d c8 be 90 0c d7 3d 68 1b a3 bd f1 b5 82 3c
       -0.39158556 0.10500443 -0.07964212 0.015955897
0003f0 1a 74 e8 bd 27 8a d7 be ba db 1b be df e3 94 be
       -0.113502696 -0.4209759 -0.15220538 -0.29080102

sequential_2/conv2d_6/Conv2D f4 [32, 3, 3, 3]
000000 8e 65 b8 3d 63 35 b8 3b 8b 48 f3 3b c0 8a e6 bd
       0.09003745 0.0056215986 0.0074244193 -0.11256933
000010 b4 59 02 be b2 ba 0e bc dc f2 fb bd ea e7 ff bd
       -0.12729532 -0.008711504 -0.12302181 -0.12495406
000020 33 e8 3b 3d 33 a7 fc 3c db 23 2f be bf 33 a0 bc
       0.04587574 0.030841446 -0.17103522 -0.019555924
000030 98 69 e5 bd 97 95 87 3d 3f 8d 55 3d 10 d7 b6 3d
       -0.11201781 0.06620329 0.052136656 0.08927739
000040 2f a4 96 3d 91 85 f0 3d b3 86 8c 3b 91 06 05 be
       0.07355534 0.11744226 0.0042885183 -0.12990786
000050 de c6 c4 bd b1 b2 be 3d 95 cf 50 bc 15 48 5c 3d
       -0.096082434 0.093114264 -0.012744804 0.05377968
000060 be 61 73 3d 65 9e b0 3d ee 90 e8 3d 98 ef 67 bd
       0.059419386 0.08623961 0.11355768 -0.05662498
000070 1e 51 ab bd f9 9c 4f 3e 33 a4 10 be f6 bf 5f 3d
       -0.08365081 0.20274724 -0.14125137 0.054626428
000080 b0 3d 6b be 22 f3 9a bc ad ef c5 3d a5 8c 1f bd
       -0.2297275 -0.018914763 0.09664855 -0.03895249
000090 aa 46 1f 3e 10 45 b6 3d 89 c6 d6 3d 60 8c 20 bd
       0.155543 0.088998914 0.10487086 -0.039196372
0000a0 fe 41 19 be 27 0d 03 be 30 ca a0 3d b2 cc 85 3d
       -0.1496658 -0.12797986 0.07851064 0.06533183
0000b0 f8 b7 95 bd 15 13 2c be 41 f1 bb bd d8 98 53 bd
       -0.0731048 -0.16804154 -0.09176875 -0.051659435
0000c0 ec a7 15 bc e3 ea 45 be e1 0b fc bc f5 c0 7b 3e
       -0.009134274 -0.19327883 -0.030767383 0.24585326
0000d0 7e 0f 1a 3e 49 5a 23 3e 21 66 30 be 19 8d 3b be
       0.15044972 0.1595241 -0.17226459 -0.18315543
0000e0 fb 98 2e be 32 1b 81 3d e7 48 19 3e d6 a3 c2 3d
       -0.17050545 0.06304015 0.14969216 0.095039055
0000f0 43 12 3d bd 01 64 2e b9 e7 e4 21 3e a7 78 bc ba
       -0.046159994 -0.00016631187 0.15809976 -0.0014379219
000100 93 2f 8e bd 77 8a c2 bd fd 03 03 3e 21 61 65 bd
       -0.06942668 -0.09499066 0.1279449 -0.056000832
000110 47 43 b0 3d 42 d5 1e be 8c 10 d5 3d 75 2c bf 3d
       0.08606582 -0.15511039 0.10403547 0.093346514
000120 bc ce 71 3e 84 52 e6 3c 54 67 00 3b ad 73 d6 bd
       0.23614019 0.028115518 0.0019592838 -0.10471282
000130 f6 8e ed 3d a9 9c 23 3e e7 2d b5 bd 70 9b 24 be
       0.11599533 0.1597773 -0.08846646 -0.1607492
000140 bb ac 23 be 11 03 78 b9 84 e5 79 3e 5a a4 f5 3d
       -0.1598386 -0.00023652265 0.2440396 0.11994238
000150 c9 d3 a2 3a ca e4 41 3e b1 ba 7b 3e 99 0d 5a 3e
       0.0012422736 0.18934932 0.24582936 0.2129425
000160 d6 ff 47 3e fc fc 38 3e 79 f6 6a 3a 11 f4 1b be
       0.19531187 0.18065256 0.0008963119 -0.15229823
000170 0e 7a 6e be fb d4 c0 bd 1e c0 23 be 2f ac 75 bd
       -0.23288748 -0.09415623 -0.15991256 -0.05997866
000180 6c 05 32 3c f8 56 47 bd 63 2c 85 3d c1 d0 72 3d
       0.0108655505 -0.048666924 0.06502607 0.059281114
000190 40 f3 4d be c9 af 39 be 5c 3b fc bc d9 f3 b8 bb
       -0.20112324 -0.18133463 -0.030790024 -0.0056443033
0001a0 6f 8b 68 bc 0a c4 b7 3c 8e 90 6c be 3f b7 06 be
       -0.0141934 0.022432346 -0.23102018 -0.1315584
0001b0 cb f7 ea bd 9a d9 5a bd 41 38 76 bd 68 79 01 3e
       -0.11473044 -0.053430177 -0.06011224 0.12643969
0001c0 1d aa 4e 3c 49 c5 a8 3d cc 58 7d 3d ba 93 7b bd
       0.0126138 0.08240754 0.06185226 -0.06142018
0001d0 89 df cc 3d dc 2e a5 bd 4f 52 56 bd 1f ca db bd
       0.100035734 -0.08065578 -0.05232459 -0.10731911
0001e0 10 53 ad bd d6 71 fb bd 81 e5 16 be 9f a9 c8 bd
       -0.084631085 -0.12277572 -0.14735986 -0.09797978
0001f0 11 dc 97 be 28 c1 55 be fe 6a 56 3d fa 24 7c 3e
       -0.29660085 -0.20874465 0.05234813 0.2462348
000200 f4 e1 14 3e 8e 8d b9 3d 64 1d 03 3e c6 f4 fb 3d
       0.1453932 0.090602025 0.1280418 0.12302546
000210 d3 82 32 3d 22 fa b7 3c 8b 74 07 be f1 4b 5e 3e
       0.043581795 0.02245814 -0.13228051 0.21708657
000220 1d 59 59 3e 03 73 1f 3e 6e 63 b9 3d 4a d0 5c 3e
       0.212254 0.15571217 0.09052168 0.21563831
000230 d3 32 79 3e 83 cf b7 bc 9b 77 81 3b 71 2f c0 3c
       0.24335794 -0.022437816 0.0039510257 0.023460122
000240 7f 50 c6 3d 95 57 98 bc 1d dc 2e 3e 46 a4 32 bd
       0.09683322 -0.01859645 0.17076154 -0.043613695
000250 aa 8b 56 bc 21 02 1b be 54 c6 be bc 07 20 88 bc
       -0.013094822 -0.15137531 -0.02328793 -0.016616834
000260 f0 dd 1f be 19 6a 63 be 93 cf b9 bd 31 53 41 be
       -0.15612006 -0.22208442 -0.09072795 -0.18879391
000270 f4 df 24 be 1b a3 0c be 62 33 03 be f4 b9 d8 3d
       -0.16101056 -0.13734095 -0.1281257 0.10582343
000280 82 ed 2b bc 99 08 18 3d 22 db 05 bd 13 99 0c 3d
       -0.010493638 0.037117574 -0.032679684 0.03432567
000290 8d 1f df bd 89 2b e4 3d 71 47 80 bc 51 b1 de 3d
       -0.1089469 0.11141116 -0.015659066 0.10873664
0002a0 d0 98 2a 3d e3 9c 9c bd 9b e8 f0 3d 32 96 47 3d
       0.04164964 -0.07647111 0.11763116 0.04872722
0002b0 c9 5c 1e 3e 9b 92 cd bc e0 9e 43 bd 48 11 51 3e
       0.15465082 -0.025094321 -0.047758937 0.20416749
0002c0 fa 98 10 3e 1b b2 0c bc bb dd 02 bd 67 7f 87 3a
       0.14120856 -0.0085873855 -0.03194974 0.0010337651
0002d0 70 f0 ae 3d d7 ef e1 bd 78 11 07 3d 93 8d 50 bd
       0.085419536 -0.11032074 0.032975644 -0.050916266
0002e0 ba df d0 bd ac b6 b6 3c 81 ba 58 be a7 7b 4f be
       -0.101989225 0.022303902 -0.21164896 -0.20262013
0002f0 84 a8 1a be f6 f8 b6 bd d9 e0 65 be ba 98 48 be
       -0.15103346 -0.08934204 -0.22449054 -0.1958951
000300 36 57 f5 bc 96 63 19 3e e7 bd 28 3d a9 0b f1 3d
       -0.029948812 0.14979395 0.04119673 0.11769802
000310 3d 13 18 3e 1b 81 f7 3d 10 69 14 be e4 6c 48 3d
       0.14851089 0.12085172 -0.14493203 0.04893197
000320 f3 e8 54 bd 67 3d b1 bd 92 65 23 3d b3 dd 1a be
       -0.05197997 -0.0865429 0.039891787 -0.15123634
000330 0f 05 2b be c4 bb 05 bd bf 08 d7 bd 84 b8 ba 3d
       -0.16701148 -0.03264977 -0.10499715 0.09117225
000340 a4 2f 5e 3e b3 de 1a 3e be cc a9 bd 5c 7e 11 3e
       0.21697861 0.15124016 -0.082910046 0.14208359
000350 94 b8 29 3d a6 a0 ba bd 29 cc 76 bd 5f ab e8 bd
       0.041435793 -0.091126725 -0.060253296 -0.113608114
000360 55 f9 3e 3e 0d 4d ac bd 29 5e 9f bd 41 48 42 3e
       0.186498 -0.08413134 -0.077816315 0.18972875
000370 16 e6 86 3d a8 80 40 be 8b 56 6f 3d ec fe b1 bd
       0.06586854 -0.18799078 0.058432143 -0.086912006
000380 e2 b6 4e be 9a 13 01 3c 5b 93 8a bd b5 09 d9 bd
       -0.20186952 0.0078782085 -0.06766387 -0.105975546
000390 65 dc 4c 3e 30 70 40 bd 35 fb 04 be e0 90 16 3e
       0.20005949 -0.04698199 -0.12986453 0.14703703
0003a0 55 14 e0 3c ee b6 76 bd fb 9a 43 bc 4b b8 1e 3d
       0.027353445 -0.06023305 -0.011938806 0.038749974
0003b0 14 1f ad bd d1 1c 07 3e d4 7b fa bd 5d c0 88 bd
       -0.08453193 0.13194586 -0.122306496 -0.066773154
0003c0 f5 2e 31 3e 9a 9c d3 3d bd 83 9a 3c 0d af 41 3d
       0.17303069 0.10332604 0.018861646 0.047286082
0003d0 cb 1b 30 3b 32 39 81 bd 54 07 cb bd df 2d 78 be
       0.0026872035 -0.06309737 -0.09913507 -0.24236248
0003e0 c7 c1 2d bd 51 b8 d7 bd 3f 1c 81 3c 8c 74 6b be
       -0.04242113 -0.105332024 0.01576054 -0.22993678
0003f0 39 91 0f be 0c 90 f9 bd 00 c4 26 be 7e 9c 69 3d
       -0.14020242 -0.12185678 -0.16285706 0.05703401

sequential_2/conv2d_7/Conv2D f4 [32, 3, 3, 32]
000000 57 b6 f2 3c 72 46 13 bd 2d 18 25 3d e2 90 8f bc
       0.029627962 -0.035955854 0.04030626 -0.01752514
000010 74 11 af ba 1f 87 6c 3e 9f 5a 8d 3d ac 45 34 bb
       -0.0013356642 0.2309842 0.0690205 -0.0027507348
000020 85 2f 44 bd 21 61 8b bb f4 45 b3 3d 62 b7 04 bc
       -0.04789688 -0.004253522 0.08753577 -0.0081003625
000030 65 2e 16 be aa 44 ea bd a3 68 76 be ae 03 68 3e
       -0.14666136 -0.11438878 -0.24063353 0.22657654
000040 33 6d 56 be 29 4f 7e 3e c7 3e 74 3e 39 f1 49 3e
       -0.20940094 0.24834885 0.23852073 0.19720925
000050 63 8e d5 3d f5 94 53 bd 64 d8 24 3d 53 6c 06 3e
       0.10427549 -0.05165573 0.04024543 0.1312726
000060 9e 5c 60 bd 17 4d bf 3a 2a 6d a0 bd 65 64 35 be
       -0.054775827 0.0014595118 -0.078333214 -0.17714079
000070 75 ef 3e 3c de a6 86 3d b0 30 a0 3d ef b9 38 bd
       0.011653771 0.06574796 0.078217864 -0.045099195
000080 0f 59 fa 3d 25 63 c7 3a 1d ea 1f 3b 4f bc 8e 3a
       0.12224018 0.0015212042 0.0024401017 0.001088986
000090 12 e7 d1 bd 9f 87 a8 3d 39 04 f4 3a ca a6 81 be
       -0.10249151 0.08228993 0.0018616981 -0.25322562
0000a0 25 67 40 3e 03 c4 9c 3d b3 b5 7e bd a1 2b 9c bc
       0.18789347 0.07654574 -0.062185 -0.019063773
0000b0 6b 33 56 bd 3b aa bb bc 76 33 19 3c 12 02 28 3e
       -0.05229513 -0.02290832 0.009350648 0.1640704
0000c0 40 82 af 3c 21 9b 2b 3c 04 73 b8 3c 0b 3f 87 bd
       0.021424413 0.010473997 0.022515781 -0.06603821
0000d0 1d bf da bd 39 81 f2 bd d0 f9 c4 3d da 94 83 bd
       -0.10680983 -0.118410535 0.096179605 -0.064248756
0000e0 6a 70 95 bd 6a 72 32 be 11 77 2b 3d 33 d7 24 bc
       -0.07296832 -0.17426458 0.041861597 -0.010061073
0000f0 93 e6 1c bd 03 83 d8 3d 0b 92 2b bc 86 dc 9b 3d
       -0.03830583 0.105718635 -0.010471831 0.07610421
000100 f6 66 3c 3e 21 48 01 3e 04 14 d6 3d cc 0f 18 be
       0.18398651 0.12625171 0.104530364 -0.14849776
000110 ed 19 d1 bb 67 17 5a 3d 0f 53 fb bc 6f 70 bc 3d
       -0.0063812644 0.053244974 -0.030679254 0.092011325
000120 0b 79 df bd 87 84 11 3d 01 58 8b bd 19 d7 16 3d
       -0.10911759 0.03552678 -0.06803895 0.036826227
000130 60 92 b7 3d ff 65 5b 3b 1a 2b 00 3d 48 df 35 be
       0.08963466 0.0033477542 0.031291105 -0.17760956
000140 3a 31 85 3d bd a7 27 be e1 ea 5d be 2f a3 25 bc
       0.0650353 -0.16372581 -0.2167163 -0.010109707
000150 ab 24 f9 bc 43 3e 23 3e 1c fa f0 bd 01 06 4e bd
       -0.030412992 0.1594172 -0.117664546 -0.050298695
000160 37 f1 32 3e 6f 20 d4 3d 22 50 9d 3d 2e 06 14 3d
       0.17474829 0.10357749 0.076813 0.036138706
000170 0a 59 21 bd 5c 92 13 bc 47 44 c7 3d 03 2a 53 bd
       -0.039391555 -0.009007063 0.0972982 -0.051553737
000180 1d 24 8e bd 67 99 9a 3d 2d 92 7d 3c b3 8f 96 bc
       -0.06940482 0.075487904 0.015476746 -0.018379068
000190 e3 ae 08 bd 18 c0 c4 3e 93 fa 17 3e 2c a0 52 bd
       -0.03336991 0.38427806 0.1484168 -0.051422283
0001a0 7c c4 ec 3d f0 5e 13 be c1 a6 04 3e b0 ff ad bd
       0.11560914 -0.14391685 0.12954237 -0.08496034
0001b0 fd 28 70 be f0 29 0f bd 5c d2 d4 bd a7 aa 81 3e
       -0.23453136 -0.034952104 -0.10391685 0.2532551
0001c0 47 48 8a be b9 00 46 3e 5d 47 d8 3d e2 65 84 3e
       -0.27008268 0.19336213 0.105604865 0.2585898
0001d0 49 92 22 be a4 d0 cb bd 2d d1 fd 3d 62 51 3a 3e
       -0.15876116 -0.099519044 0.12393413 0.18195108
0001e0 49 df 35 be 91 27 3f be 9e 05 2e 3d 80 65 68 3d
       -0.17760958 -0.18667437 0.042485826 0.056737423
0001f0 5a 89 02 be 44 af be 3d 54 f5 be bb ec 2f f2 bd
       -0.12747708 0.09310773 -0.0058275852 -0.118255466
000200 92 37 5d 3e 3b 6e b0 3c c4 89 11 3e 6f d4 44 be
       0.2160323 0.021536937 0.1421271 -0.19221662
000210 a8 90 6e 3d 62 48 24 3c 5b 62 89 be ea 58 28 3d
       0.058243424 0.010027023 -0.26832852 0.04110042
000220 64 5b 85 3d 3b c1 b0 3d 8d 3b 72 be c4 97 a4 3d
       0.06511572 0.08630606 -0.2365553 0.080367595
000230 94 f7 8e bc 16 73 33 bd 19 9a 6d bd ff 2c 99 3d
       -0.017452039 -0.043810926 -0.058008287 0.074792854
000240 44 91 0d 3d 1b 6f 40 3c d5 94 40 3e 4b 39 26 be
       0.034562364 0.01174524 0.18806775 -0.16232793
000250 e2 7a a4 be c9 56 5c be c9 86 c6 3d 42 76 08 be
       -0.32125002 -0.21517481 0.09693677 -0.13326362
000260 ed 48 4a 3d 73 81 e3 bc c1 e1 dc 3b 10 d6 63 3d
       0.049385954 -0.027771687 0.006740779 0.055624068
000270 fb bc 1e be 96 e9 d5 bd 9b f1 9f bd d8 46 04 3e
       -0.15501778 -0.104449436 -0.078097545 0.1291765
000280 c7 89 1f 3e b7 89 87 3d 64 26 be 3d e1 74 41 be
       0.15579902 0.06618064 0.09284666 -0.18892242
000290 c3 7e fa bc 73 ab 58 be 5f 05 34 3d dd d2 8b 3b
       -0.030578023 -0.21159153 0.043950435 0.00426708
0002a0 4c bb 74 bd 6a 0b 63 bd a6 98 89 be fa 05 39 3c
       -0.059748933 -0.055430807 -0.26874274 0.011292929
0002b0 df f5 5a bc 7a 0f 0b 3e 81 b8 84 3b 46 02 08 be
       -0.013364284 0.13580123 0.004050315 -0.13282117
0002c0 8b 41 23 3d b8 e1 d3 3d 9e d2 c6 bc fe 33 a5 bd
       0.03985743 0.10345787 -0.024270352 -0.08066557
0002d0 d9 81 47 3d ca 7b 62 3d dc 1e 05 be 21 76 1b bd
       0.048707817 0.055293836 -0.13000053 -0.037954453
0002e0 bf 3a 95 3d c2 b4 6c bd ec 7f c9 3a 4e ff eb 3c
       0.072865956 -0.05778957 0.0015373207 0.028808262
0002f0 f9 75 07 be 12 99 ea 3d f2 d2 28 bd 80 51 4f 3d
       -0.13228597 0.11454977 -0.041216798 0.050614834
000300 d0 38 b9 3c ad c8 6e 3e c9 68 60 be 04 22 4f 3e
       0.022610098 0.23318739 -0.21914972 0.2022782
000310 eb c6 24 3e 1c ab 7e 3e 12 e9 0e 3d 9a 72 27 3d
       0.16091506 0.2486996 0.034890242 0.040880777
000320 f5 1e 47 3e 92 34 55 3e 88 de 3b 3d b2 39 8f 3d
       0.19445403 0.20820835 0.04586652 0.069934264
000330 d7 e3 97 bd 42 e7 8c 3d 47 5d f2 bb 1f 22 88 bd
       -0.07416504 0.068800464 -0.0073963734 -0.06647133
000340 22 87 67 bc 2d 83 05 3e 05 19 01 be af 87 5d 3e
       -0.014131339 0.13038321 -0.126072 0.2163379
000350 82 19 51 be 6b ea 52 be 82 d2 77 bd e8 e3 88 3e
       -0.20419887 -0.20597236 -0.06050349 0.2673638
000360 61 42 95 3d 23 88 ce 3d 10 13 07 3e f9 c9 1e be
       0.072880514 0.1008456 0.13190866 -0.15506734
000370 31 7a 24 bd 1e 64 8e 3d a4 a8 0f 3e 45 5f 91 3c
       -0.040155593 0.069526896 0.14029175 0.017745623
000380 5f fe 2e 3e 8b ae 47 bd 6d a3 ab bc 49 93 01 be
       0.17089222 -0.04875044 -0.02095195 -0.12653841
000390 26 3d 3f be 61 d5 0c be 71 3d 33 be d0 1b 4c be
       -0.1867567 -0.13753273 -0.17503907 -0.19932485
0003a0 65 38 af 3d f2 73 bd 3d 1a 20 23 3b 3a 8e 5d 3e
       0.08555678 0.092506304 0.002489096 0.21636286
0003b0 09 a9 f3 bc 6c 4b 01 3e c0 db 08 3d 17 b5 05 3e
       -0.029743688 0.12626427 0.033412695 0.13057362
0003c0 0a 2c bf bd 0a fa 68 bd d3 94 17 3e 35 18 ef bc
       -0.09334572 -0.05687908 0.14802866 -0.029186347
0003d0 12 50 7e be e2 5f 07 be c5 b9 6c bd fd 99 ea bd
       -0.24835232 -0.1322017 -0.05779435 -0.11455152
0003e0 a9 c3 32 3d d1 96 51 bc ea 53 09 bd 1e f8 7b bb
       0.043643627 -0.012792305 -0.033527292 -0.003844745
0003f0 31 05 82 be 24 e6 e7 bd 54 48 9c 3b 72 5a 03 3e
       -0.25394586 -0.11323193 0.0047693644 0.12827471

sequential_2/conv2d_8/Conv2D f4 [32, 3, 3, 32]
000000 00 b4 93 bc 9b 23 95 bd 8c 27 51 bc 63 22 89 3d
       -0.018030167 -0.07282182 -0.012765776 0.06696012
000010 80 db dd 3c 00 46 9f 3d 04 50 1c 3d 09 ab d7 3c
       0.027082205 0.07777023 0.038162246 0.026326673
000020 e0 7f b2 bd f9 7c ae bc 6b 6e 51 3d ac 84 44 bd
       -0.087157965 -0.021299826 0.051130693 -0.04797809
000030 bf 1e 48 3e 91 c3 93 3d 7f 55 3e bd b9 59 8c 3d
       0.19542979 0.07215036 -0.046468254 0.06853051
000040 3b bc bd bc 3e d1 22 3d 37 91 8a bb 8d 6f d1 bd
       -0.023161044 0.03975033 -0.0042287367 -0.10226355
000050 66 32 18 3e 60 c7 28 3d 9f 27 a2 3d 6b 6f f2 bd
       0.14862975 0.041205764 0.079177134 -0.118376575
000060 76 b3 1e be f5 38 99 3d df 31 04 be aa e7 5f 3c
       -0.15498146 0.07481567 -0.1290965 0.013666073
000070 33 22 5a bb 8e 40 1b 3e 30 22 f0 bd 76 44 d6 3c
       -0.0033284544 0.15161344 -0.11725271 0.026155692
000080 97 e9 32 3e 7a b7 ed bd 96 9e a3 3d 34 d0 3d 3e
       0.1747192 -0.11607261 0.07989232 0.18536454
000090 e7 ab 66 bd 6d 9a 94 3d d9 95 29 be 4c aa c8 3d
       -0.056316283 0.07256017 -0.16561069 0.097981066
0000a0 e0 15 15 3e b7 e5 05 3d c9 c2 c2 bc d4 e2 22 3d
       0.14559126 0.032689776 -0.023774521 0.0397671
0000b0 bf e5 22 3d 89 b2 bd 3d ce 5c 88 bc 98 68 f8 bc
       0.039769884 0.092625685 -0.016645815 -0.030323312
0000c0 c1 48 51 3d 8d 09 19 be e9 19 98 3a 02 64 a0 3d
       0.051094774 -0.1494505 0.0011604402 0.07831575
0000d0 50 d2 0d 3e a7 3f 31 3e 5e ee 1a bd 8b f6 06 3e
       0.13849759 0.17309438 -0.03782498 0.13179986
0000e0 2b 87 6e bd 50 39 11 be 89 e9 f0 bd 38 da f5 3d
       -0.058234375 -0.14182019 -0.11763293 0.120045125
0000f0 66 e0 70 3d 76 0e bd 3b ee 1d be bb f5 45 04 3d
       0.058807753 0.005769546 -0.0058019077 0.03229328
000100 f4 90 e5 3d 75 c6 79 3b cf b3 3d 3e 59 db 93 ba
       0.11209288 0.0038112674 0.18525623 -0.0011280581
000110 3e 69 c4 bd 2a 76 ac 3c c8 40 38 3e 2c ff 84 3d
       -0.09590386 0.021052439 0.17993462 0.06493983
000120 70 bd 5c 3d b7 87 13 3d 8a a0 92 3e f9 2c 20 3d
       0.0538916 0.0360181 0.28638107 0.03910539
000130 1b e5 c4 3d ad da a8 bc 2e 35 99 3d 56 9a 02 3e
       0.09614011 -0.020612085 0.07480846 0.12754187
000140 bf 3f 96 bc d3 68 0f be 53 9d e8 bc 23 96 50 bc
       -0.018340943 -0.14004831 -0.02839533 -0.012731108
000150 12 69 17 bc 3e 5a bf bc 0f 3c 0a 3d 2d a2 dd 3c
       -0.009241359 -0.02335846 0.033748683 0.02705487
000160 0b ad a3 bd a8 9f ee 3d e4 cf 22 be b1 a8 d4 3d
       -0.0799199 0.11651546 -0.15899616 0.10383738
000170 27 59 44 bc 99 b4 9b 3d 58 ba c5 3d 50 99 2f be
       -0.011984146 0.07602806 0.09654683 -0.17148328
000180 27 2f bd bc a4 3c 2b 3c 3a 3f cf bd b7 52 c2 bd
       -0.023093773 0.01045147 -0.101194814 -0.09488433
000190 91 fb 93 bd ff e4 2b be fb 1a 6d bd 89 69 ea 3c
       -0.07225717 -0.16786574 -0.05788706 0.028614776
0001a0 fd 3e 3f bc a7 98 f1 3c 1f b8 fc 3d 27 46 65 be
       -0.011672732 0.029491736 0.12339806 -0.22390042
0001b0 77 f1 23 be 77 00 c9 3c dd bd cd bd b8 0b a2 3c
       -0.1601008 0.024536354 -0.10045979 0.019780979
0001c0 6c 16 b0 bc c8 ee c4 bc 6a e6 97 bd c0 3b 21 3d
       -0.021495067 -0.024039641 -0.07416995 0.039363623
0001d0 6a 17 b5 bd 2f 07 6c bc eb c5 c1 bc f9 8a 92 bc
       -0.088423565 -0.01440601 -0.023653945 -0.017888533
0001e0 e6 c7 da bd bf 90 d7 bd de 6c 00 3d 31 04 58 3e
       -0.10682659 -0.10525655 0.031353824 0.21095349
0001f0 b2 dd 22 bc 6f 02 d6 bc be 1c 82 bd 48 f4 cf 3c
       -0.009940552 -0.026124207 -0.063531384 0.025385037
000200 33 ae 00 bc 41 f2 36 bd 61 72 9f bd 5e ca 1f bc
       -0.007854032 -0.044664625 -0.07785488 -0.009752838
000210 f1 ae 0e 3d a1 e6 b8 bd ea 25 64 be bf 04 21 3d
       0.034834806 -0.09028364 -0.22280088 0.039311167
000220 73 a4 88 3d e0 69 f7 bc c3 85 c2 bd 7d 6f f2 bd
       0.06671991 -0.030201852 -0.09498169 -0.11837671
000230 55 65 0f be f4 26 04 3d 14 f1 0d 3d 2b ba 3b be
       -0.14003499 0.03226371 0.03465374 -0.18332736
000240 b7 61 f3 bc 38 54 4a 3c 57 d1 42 be e6 12 20 bc
       -0.02970968 0.012349181 -0.1902517 -0.009770131
000250 74 94 c2 bd c6 7e 49 3e ad ce 93 3c aa 92 ee bd
       -0.095009714 0.19677266 0.018042887 -0.11649068
000260 79 b7 05 3e f8 0d 20 be 0c c3 8d 3d 8a c1 29 3b
       0.1305827 -0.15630329 0.06921968 0.0025902712
000270 5a 0c cf 3d 37 2d 8e 3c d7 a3 31 be f1 c3 7b be
       0.10109778 0.017355544 -0.17347656 -0.24586464
000280 f9 d0 ba 3d 59 f6 4c 3d 8d 22 7c bd b6 24 c8 bd
       0.091218896 0.050039623 -0.061556388 -0.09772627
000290 d9 38 9f 3d e2 55 48 bd d9 cc 81 be d1 9d 35 3d
       0.07774515 -0.04891003 -0.253516 0.04433996
0002a0 3c 3d a9 3d 84 d3 b4 3d 8f 15 41 be 63 1d 04 3c
       0.08263633 0.08829406 -0.1885588 0.008063647
0002b0 d8 60 39 bd 86 3e 79 bd 17 d9 97 3c 45 2a 7b be
       -0.045258373 -0.060850643 0.018536134 -0.24527843
0002c0 68 4c f8 bc 64 01 76 3d 40 8a 00 bd 15 90 f6 3a
       -0.03030987 0.06005992 -0.031381845 0.001881125
0002d0 b4 95 8a bd 19 96 53 3e e0 8e 2e be f7 5e 8b 3c
       -0.06766835 0.20662726 -0.1704669 0.017013056
0002e0 11 09 a6 bd 58 c7 f0 bd c4 dc a7 3d c9 d8 91 bc
       -0.08107198 -0.11756772 0.081964046 -0.017803567
0002f0 29 41 1e bd ab 43 05 be 35 d6 f3 bd be 37 e5 bd
       -0.03863636 -0.13014095 -0.11906091 -0.111922726
000300 6c 46 07 be 16 71 40 be e1 92 a2 3b 3f b9 ca 3d
       -0.13210458 -0.18793139 0.004961357 0.09898614
000310 07 d4 bc bd 34 bc 32 bd cd 49 4f 3d 0c ed d6 3d
       -0.092201285 -0.043636516 0.05060749 0.10494432
000320 07 62 8e 3d 36 b6 6a 3d f6 74 49 3c 4e 0a 96 be
       0.06952291 0.057302676 0.012295952 -0.29304737
000330 7b 4b 02 be b6 b0 00 bc 66 4b 94 bc 74 8a 82 bc
       -0.12724106 -0.007854631 -0.018102359 -0.01593516
000340 0c 39 fb 3c fd cc 14 3d ba 52 3a 3c 62 39 1a 3c
       0.03066685 0.036328305 0.011372263 0.009413095
000350 b4 32 8b bd 89 63 05 bd 09 88 05 3e 4a 67 fb bd
       -0.0679678 -0.032565627 0.13040175 -0.1227556
000360 97 d7 b8 3d 3a c9 07 3e 4f 46 27 be 75 04 3f 3d
       0.090254955 0.13260356 -0.16335414 0.04663511
000370 4b 75 3c be 17 4a 30 3e e1 49 c0 bc a1 9a de bc
       -0.18404119 0.17215763 -0.023472728 -0.027173342
000380 3b ce cc 3c d4 90 57 bd 66 a5 12 3c 4b 8a f2 3d
       0.025000682 -0.052628353 0.008950567 0.118427835
000390 ba 15 87 3d 35 35 04 bd 83 85 3b 3d b9 15 da bd
       0.06595941 -0.032277305 0.045781624 -0.106486745
0003a0 3c bf a2 bb 44 81 bd 3d 3e 21 14 bd a6 4b 35 be
       -0.0049666446 0.09253171 -0.036164515 -0.17704639
0003b0 76 1c c3 bc 98 4b 9f 3d 11 15 a8 ba b8 c4 06 bd
       -0.023817282 0.0777809 -0.0012823661 -0.03290245
0003c0 0f ad 90 bd a3 67 00 3d 2d cd db 3b 41 c8 ca bb
       -0.07064258 0.031348836 0.0067078085 -0.006188423
0003d0 34 96 c2 bd 2a b5 95 bd 03 a8 87 bd 47 81 1a 3e
       -0.09501305 -0.07309945 -0.066238426 0.15088378
0003e0 1d 19 8e 3e 70 d2 50 3c c4 38 2f 3d ef a1 2e 3d
       0.27753535 0.012745485 0.042778745 0.0426349
0003f0 86 ff 01 bc 5b 11 bb bd 39 49 f3 3d eb 33 a1 3d
       -0.007934457 -0.0913417 0.118792005 0.07871231
