a_output_actual/dig-s1-q.tflite (tflite, 203232 bytes, 5 tensors)

sequential_1/dense_2/MatMul i1 [256, 512] scale=0.0025454275 zero_point=0
-0.15018022 -0.015272565 -0.0025454275 0.015272565 0.076362826 0.05090855 0.086544536 -0.11708967
-0.18327078 -0.05090855 0.03054513 -0.055999406 0.015272565 0.0 -0.017817993 -0.086544536
0.038181413 -0.1298168 0.05345398 0.048363123 -0.055999406 0.0 -0.06872654 0.015272565
0.08399911 -0.13490766 -0.025454275 0.027999703 -0.06872654 0.11199881 0.0076362826 0.066181116
0.005090855 -0.048363123 -0.038181413 -0.025454275 0.005090855 0.10690796 0.066181116 -0.0025454275
-0.035635985 0.066181116 -0.16799822 0.043272268 -0.16290736 -0.05345398 0.012727138 0.033090558
0.06872654 -0.043272268 0.06872654 -0.1578165 -0.12727138 -0.022908848 0.048363123 -0.08145368
-0.06109026 -0.13490766 0.1018171 0.03054513 0.022908848 -0.11199881 0.1018171 -0.086544536
-0.005090855 0.0025454275 0.043272268 0.11454424 0.08399911 -0.05090855 0.017817993 -0.18327078
0.1018171 -0.022908848 0.0076362826 0.022908848 -0.086544536 -0.017817993 0.076362826 0.11963509
-0.012727138 0.025454275 -0.12472595 0.055999406 0.13745308 -0.048363123 0.0025454275 -0.025454275
0.038181413 -0.04072684 -0.0076362826 -0.07890825 -0.015272565 0.012727138 0.03054513 0.11454424
-0.13490766 -0.08399911 0.07127197 -0.0025454275 -0.06109026 0.09418082 -0.048363123 0.01018171
0.1298168 -0.01018171 -0.0025454275 0.038181413 -0.12472595 -0.058544833 -0.0025454275 0.04072684
-0.15527108 0.13999851 0.055999406 -0.045817696 0.07127197 -0.086544536 0.14508937 -0.02036342
0.096726246 -0.033090558 -0.005090855 -0.02036342 0.05345398 0.06363569 -0.06363569 0.0025454275
0.086544536 -0.048363123 -0.0076362826 -0.09163539 -0.0076362826 -0.0025454275 0.03054513 0.08908996
-0.05345398 -0.05345398 0.06363569 0.07890825 0.13999851 0.066181116 -0.015272565 0.027999703
0.076362826 0.035635985 0.11963509 0.0076362826 -0.15272565 0.08145368 0.033090558 -0.043272268
0.005090855 -0.03054513 -0.04072684 -0.02036342 -0.06109026 -0.025454275 -0.07127197 0.10436253
0.043272268 0.05090855 0.017817993 0.04072684 -0.045817696 -0.03054513 -0.005090855 0.055999406
-0.066181116 0.1018171 0.055999406 0.19854334 0.0076362826 0.08145368 -0.03054513 0.04072684
0.05345398 -0.11963509 0.025454275 0.08399911 0.035635985 -0.04072684 -0.04072684 0.035635985
-0.08908996 -0.043272268 0.01018171 0.025454275 0.038181413 0.038181413 0.10945338 0.017817993
0.027999703 -0.02036342 0.08908996 0.1578165 0.14508937 0.055999406 -0.03054513 0.02036342
-0.02036342 -0.076362826 0.07890825 -0.012727138 0.096726246 -0.04072684 0.13745308 0.058544833
0.08399911 -0.066181116 0.076362826 0.038181413 0.0076362826 -0.06363569 -0.09418082 -0.045817696
-0.10436253 -0.033090558 0.055999406 -0.043272268 0.07890825 0.033090558 0.05090855 0.15272565
0.033090558 -0.048363123 -0.01018171 0.035635985 -0.076362826 -0.022908848 -0.086544536 0.043272268
0.05345398 0.01018171 0.05090855 -0.09927167 -0.01018171 -0.025454275 0.14508937 -0.025454275
-0.017817993 -0.05345398 0.08399911 0.005090855 -0.017817993 -0.1298168 0.12727138 -0.08145368
0.16036193 0.09163539 -0.07890825 0.0076362826 0.1298168 0.055999406 -0.11708967 0.21381591
00000000: c5fa ff06 1e14 22d2 b8ec 0cea 0600 f9de
00000010: 0fcd 1513 ea00 e506 21cb f60b e52c 031a
00000020: 02ed f1f6 022a 1aff f21a be11 c0eb 050d
00000030: 1bef 1bc2 cef7 13e0 e8cb 280c 09d4 28de
00000040: fe01 112d 21ec 07b8 28f7 0309 def9 1e2f
00000050: fb0a cf16 36ed 01f6 0ff0 fde1 fa05 0c2d
00000060: cbdf 1cff e825 ed04 33fc ff0f cfe9 ff10
00000070: c337 16ee 1cde 39f8 26f3 fef8 1519 e701
00000080: 22ed fddc fdff 0c23 ebeb 191f 371a fa0b
00000090: 1e0e 2f03 c420 0def 02f4 f0f8 e8f6 e429
000000a0: 1114 0710 eef4 fe16 e628 164e 0320 f410
000000b0: 15d1 0a21 0ef0 f00e ddef 040a 0f0f 2b07
000000c0: 0bf8 233e 3916 f408 f8e2 1ffb 26f0 3617
000000d0: 21e6 1e0f 03e7 dbee d7f3 16ef 1f0d 143c
000000e0: 0ded fc0e e2f7 de11 1504 14d9 fcf6 39f6
000000f0: f9eb 2102 f9cd 32e0 3f24 e103 3316 d254

sequential_1/dense_3/MatMul i1 [11, 256] scale=0.003954246 zero_point=0
-0.1621241 -0.019771231 -0.16607834 -0.07513068 0.11467314 -0.3084312 -0.047450952 0.039542463
0.003954246 -0.011862738 0.015816985 0.06326794 -0.011862738 -0.04349671 0.04349671 -0.14235286
-0.035588216 -0.0514052 -0.24516326 -0.03163397 -0.04349671 -0.13839862 -0.08303917 0.08699342
-0.015816985 -0.4033331 -0.11467314 -0.23725477 -0.12653588 -0.22539203 -0.24911751 0.09885615
0.019771231 0.08303917 -0.3677449 -0.23725477 0.13049012 -0.08303917 -0.14235286 -0.11467314
-0.18189533 -0.37169915 -0.2056208 0.007908492 -0.22934628 0.035588216 -0.090947665 0.08303917
-0.17794108 -0.21748354 -0.20166655 -0.035588216 -0.18189533 0.13839862 -0.055359446 -0.067222185
-0.047450952 0.03163397 0.08699342 0.094901904 -0.22143778 0.03163397 0.067222185 -0.094901904
-0.17398684 -0.17794108 -0.03163397 -0.03163397 0.019771231 -0.027679723 -0.30447695 -0.26888874
-0.11071889 0.03163397 -0.13839862 -0.30447695 -0.14630711 0.106764644 0.07513068 -0.0514052
-0.25307176 -0.079084925 -0.059313692 0.027679723 -0.23725477 -0.15026136 -0.059313692 -0.003954246
-0.067222185 0.027679723 0.0514052 -0.3005227 -0.08699342 -0.06326794 0.019771231 -0.07513068
0.007908492 -0.13049012 0.011862738 0.0 -0.22539203 -0.257026 0.07117643 -0.1621241
-0.059313692 -0.13444437 -0.067222185 -0.04349671 -0.17003259 -0.257026 -0.22143778 -0.22539203
0.011862738 -0.067222185 -0.37169915 -0.12653588 -0.27284297 -0.17398684 -0.1621241 -0.23330052
-0.090947665 -0.3084312 -0.22539203 -0.14630711 0.118627384 0.007908492 -0.15026136 -0.257026
-0.023725476 -0.27679724 -0.2056208 -0.12653588 -0.06326794 -0.39147037 -0.09885615 -0.18980381
0.106764644 0.011862738 -0.28865996 -0.027679723 -0.023725476 0.007908492 -0.12653588 -0.04349671
0.03163397 -0.17003259 -0.09885615 0.015816985 -0.18189533 -0.24911751 -0.1542156 -0.09885615
-0.14630711 0.011862738 -0.14630711 -0.22934628 -0.1542156 -0.3756534 -0.09885615 0.094901904
-0.027679723 0.14235286 0.003954246 0.023725476 -0.24911751 -0.094901904 -0.003954246 -0.118627384
-0.06326794 0.17003259 -0.18189533 -0.19375806 -0.37169915 -0.18584958 -0.1028104 -0.13839862
-0.13839862 -0.2056208 -0.047450952 -0.04349671 -0.07117643 0.11071889 0.14630711 -0.094901904
-0.24911751 -0.37169915 -0.1542156 -0.23725477 -0.14630711 -0.15026136 0.07513068 0.12258163
-0.1028104 -0.094901904 -0.22539203 -0.055359446 -0.039542463 0.17003259 -0.43101284 0.011862738
-0.090947665 -0.16607834 0.007908492 -0.055359446 -0.27679724 -0.04349671 -0.13444437 -0.22934628
0.090947665 0.11071889 -0.04349671 0.035588216 -0.39147037 -0.007908492 -0.06326794 -0.17003259
-0.14630711 0.090947665 -0.09885615 -0.18584958 -0.039542463 -0.3005227 -0.11467314 -0.44682983
0.035588216 -0.22934628 0.007908492 -0.27284297 -0.019771231 -0.047450952 -0.11467314 0.023725476
-0.13839862 -0.37169915 -0.22143778 -0.047450952 -0.26888874 -0.003954246 -0.12258163 0.011862738
-0.047450952 -0.094901904 -0.015816985 -0.29261422 -0.027679723 -0.39937887 0.13839862 -0.07513068
-0.35588217 -0.18980381 -0.003954246 -0.047450952 -0.26098025 -0.015816985 -0.3163397 -0.1028104
00000000: d7fb d6ed 1db2 f40a 01fd 0410 fdf5 0bdc
00000010: f7f3 c2f8 f5dd eb16 fc9a e3c4 e0c7 c119
00000020: 0515 a3c4 21eb dce3 d2a2 cc02 c609 e915
00000030: d3c9 cdf7 d223 f2ef f408 1618 c808 11e8
00000040: d4d3 f8f8 05f9 b3bc e408 ddb3 db1b 13f3
00000050: c0ec f107 c4da f1ff ef07 0db4 eaf0 05ed
00000060: 02df 0300 c7bf 12d7 f1de eff5 d5bf c8c7
00000070: 03ef a2e0 bbd4 d7c5 e9b2 c7db 1e02 dabf
00000080: faba cce0 f09d e7d0 1b03 b7f9 fa02 e0f5
00000090: 08d5 e704 d2c1 d9e7 db03 dbc6 d9a1 e718
000000a0: f924 0106 c1e8 ffe2 f02b d2cf a2d1 e6dd
000000b0: ddcc f4f5 ee1c 25e8 c1a2 d9c4 dbda 131f
000000c0: e6e8 c7f2 f62b 9303 e9d6 02f2 baf5 dec6
000000d0: 171c f509 9dfe f0d5 db17 e7d1 f6b4 e38f
000000e0: 09c6 02bb fbf4 e306 dda2 c8f4 bcff e103
000000f0: f4e8 fcb6 f99b 23ed a6d0 fff4 befc b0e6

sequential_1/conv2d_3/Conv2D i1 [32, 3, 3, 3]
26 37 100 -5 -3 39 -127 -63
-104 66 1 51 46 -42 80 -53
-11 -24 -27 -30 -51 35 97 -14
0 43 -18 -31 -118 -43 61 76
19 122 127 120 -111 -80 50 -24
-83 31 65 95 -32 45 -40 42
-72 -56 -95 -38 40 -22 50 127
123 2 51 58 -31 -33 -29 55
77 100 -38 -81 61 1 -86 -74
51 -6 -56 -64 -81 -74 -49 -48
-39 19 53 -80 20 63 47 101
117 73 111 -9 127 -20 24 47
-91 -79 33 71 47 14 -49 -51
-3 -114 -39 -28 -127 -50 -110 6
-41 -69 -7 -68 -5 -17 27 -14
-14 81 8 62 72 24 82 102
65 24 -6 37 -30 34 -48 14
75 127 104 -10 14 -52 -67 -59
-20 91 40 45 -36 7 20 -88
-77 22 -48 7 22 -90 -48 -1
-36 44 -38 -19 -28 -93 -35 -5
55 6 5 -22 -61 44 -89 -18
-48 110 39 56 -72 -41 65 -52
-10 -5 96 127 66 -43 -77 -5
6 -49 -2 23 125 37 -63 -115
-26 -46 -26 8 -31 62 -10 -127
-38 -56 -12 -79 40 -25 9 23
59 15 -48 127 6 107 -2 30
34 -5 24 -63 29 83 49 -109
-63 -19 -3 -32 46 0 -42 31
-72 -46 -88 127 51 7 51 78
95 -85 -36 -85 95 22 120 -95
00000000: 1a25 64fb fd27 81c1 9842 0133 2ed6 50cb
00000010: f5e8 e5e2 cd23 61f2 002b eee1 8ad5 3d4c
00000020: 137a 7f78 91b0 32e8 ad1f 415f e02d d82a
00000030: b8c8 a1da 28ea 327f 7b02 333a e1df e337
00000040: 4d64 daaf 3d01 aab6 33fa c8c0 afb6 cfd0
00000050: d913 35b0 143f 2f65 7549 6ff7 7fec 182f
00000060: a5b1 2147 2f0e cfcd fd8e d9e4 81ce 9206
00000070: d7bb f9bc fbef 1bf2 f251 083e 4818 5266
00000080: 4118 fa25 e222 d00e 4b7f 68f6 0ecc bdc5
00000090: ec5b 282d dc07 14a8 b316 d007 16a6 d0ff
000000a0: dc2c daed e4a3 ddfb 3706 05ea c32c a7ee
000000b0: d06e 2738 b8d7 41cc f6fb 607f 42d5 b3fb
000000c0: 06cf fe17 7d25 c18d e6d2 e608 e13e f681
000000d0: dac8 f4b1 28e7 0917 3b0f d07f 066b fe1e
000000e0: 22fb 18c1 1d53 3193 c1ed fde0 2e00 d61f
000000f0: b8d2 a87f 3307 334e 5fab dcab 5f16 78a1

sequential_1/conv2d_4/Conv2D i1 [64, 3, 3, 32]
41 2 -62 -11 -10 -13 -13 52
-6 -15 -5 -18 -11 16 -14 -11
-37 -60 0 -50 -64 -7 -13 -32
47 -59 -68 -17 26 -23 23 -17
64 32 -127 83 34 -44 -15 41
20 -107 59 54 50 -28 -29 -25
67 -44 -44 -18 -11 29 17 -2
-5 -26 35 -88 32 2 40 -31
53 -43 8 49 -14 -29 -32 -27
-22 28 58 -52 -43 1 -5 3
-51 -7 -48 -47 -25 57 59 -53
27 -3 6 -58 53 2 -6 17
37 -70 -18 32 -22 -30 6 -22
-14 -30 -5 -4 23 -23 -49 15
-39 -39 -6 -43 -30 24 -55 -22
38 -46 -34 -25 13 -23 34 -47
-2 20 -53 35 52 -5 -50 -10
-15 -65 -19 -58 39 -75 -67 10
-2 -21 19 -3 -90 37 -95 -9
2 -3 -36 -98 -25 -2 -31 14
22 55 -18 27 22 -58 5 -24
-17 4 16 -12 -62 -32 -71 -53
-48 -27 -36 -13 -23 17 -48 -77
-46 -56 13 -71 4 19 -18 27
-17 -25 -32 -16 -11 -27 31 -13
-42 -70 60 -25 -18 -24 -12 4
36 -42 -38 -64 -19 6 -39 22
-19 12 -21 27 -21 56 -9 -8
48 -36 14 72 6 -17 -62 -68
1 -65 26 -32 -36 -29 -3 10
26 -33 47 -70 -22 8 -62 -21
45 -45 -41 -17 42 -28 -32 28
00000000: 2902 c2f5 f6f3 f334 faf1 fbee f510 f2f5
00000010: dbc4 00ce c0f9 f3e0 2fc5 bcef 1ae9 17ef
00000020: 4020 8153 22d4 f129 1495 3b36 32e4 e3e7
00000030: 43d4 d4ee f51d 11fe fbe6 23a8 2002 28e1
00000040: 35d5 0831 f2e3 e0e5 ea1c 3acc d501 fb03
00000050: cdf9 d0d1 e739 3bcb 1bfd 06c6 3502 fa11
00000060: 25ba ee20 eae2 06ea f2e2 fbfc 17e9 cf0f
00000070: d9d9 fad5 e218 c9ea 26d2 dee7 0de9 22d1
00000080: fe14 cb23 34fb cef6 f1bf edc6 27b5 bd0a
00000090: feeb 13fd a625 a1f7 02fd dc9e e7fe e10e
000000a0: 1637 ee1b 16c6 05e8 ef04 10f4 c2e0 b9cb
000000b0: d0e5 dcf3 e911 d0b3 d2c8 0db9 0413 ee1b
000000c0: efe7 e0f0 f5e5 1ff3 d6ba 3ce7 eee8 f404
000000d0: 24d6 dac0 ed06 d916 ed0c eb1b eb38 f7f8
000000e0: 30dc 0e48 06ef c2bc 01bf 1ae0 dce3 fd0a
000000f0: 1adf 2fba ea08 c2eb 2dd3 d7ef 2ae4 e01c

sequential_1/conv2d_5/Conv2D i1 [64, 3, 3, 64]
19 37 9 17 -82 3 -33 47
-31 14 33 66 -47 1 58 12
-30 23 -61 -2 -29 18 -6 -17
13 40 -40 -47 26 75 3 0
-64 49 36 2 18 38 -22 -35
-54 -27 -42 60 -62 16 -26 38
51 -22 13 62 102 -58 38 34
28 -9 30 -4 42 -14 -19 87
-30 -12 25 31 10 -29 25 -38
23 -9 -10 -21 -29 4 -48 19
-23 36 16 -37 13 13 21 31
-17 6 27 10 -7 66 -21 -21
37 -14 55 25 16 22 56 -7
-7 38 -73 51 12 -49 -31 9
7 -22 33 21 14 -58 1 -15
22 29 22 -22 -1 11 9 21
-30 -7 23 -32 -9 -25 32 -37
35 -35 -6 -2 35 31 25 -62
-23 -32 -70 83 -9 23 26 1
-5 -4 80 -28 24 5 -62 -72
79 36 12 27 -5 -52 -9 -79
17 4 40 16 46 5 22 -41
-47 -3 65 -11 -13 -47 -3 -4
-6 -4 64 20 -18 23 -57 72
7 -4 -72 -3 -93 -78 -66 32
47 4 12 15 -67 -20 -4 -25
44 -3 -12 41 -98 33 -16 0
5 38 -11 -32 7 2 124 -8
26 -29 -18 -18 -22 -37 -2 -8
-90 -3 -36 11 22 -9 0 32
3 48 -12 -2 -21 -65 -14 -11
-4 68 -18 -6 2 5 8 -30
00000000: 1325 0911 ae03 df2f e10e 2142 d101 3a0c
00000010: e217 c3fe e312 faef 0d28 d8d1 1a4b 0300
00000020: c031 2402 1226 eadd cae5 d63c c210 e626
00000030: 33ea 0d3e 66c6 2622 1cf7 1efc 2af2 ed57
00000040: e2f4 191f 0ae3 19da 17f7 f6eb e304 d013
00000050: e924 10db 0d0d 151f ef06 1b0a f942 ebeb
00000060: 25f2 3719 1016 38f9 f926 b733 0ccf e109
00000070: 07ea 2115 0ec6 01f1 161d 16ea ff0b 0915
00000080: e2f9 17e0 f7e7 20db 23dd fafe 231f 19c2
00000090: e9e0 ba53 f717 1a01 fbfc 50e4 1805 c2b8
000000a0: 4f24 0c1b fbcc f7b1 1104 2810 2e05 16d7
000000b0: d1fd 41f5 f3d1 fdfc fafc 4014 ee17 c748
000000c0: 07fc b8fd a3b2 be20 2f04 0c0f bdec fce7
000000d0: 2cfd f429 9e21 f000 0526 f5e0 0702 7cf8
000000e0: 1ae3 eeee eadb fef8 a6fd dc0b 16f7 0020
000000f0: 0330 f4fe ebbf f2f5 fc44 eefa 0205 08e2
