a_output_actual/dig-s3.tflite (tflite, 219284 bytes, 12 tensors)

dense_7/bias f4 [11]
000000 b0 95 6e be 11 be 3a be be a3 4c be 8c 26 0a be
       -0.23299289 -0.18236567 -0.19984338 -0.13491267
000010 6c a2 37 be e4 6d 45 be 64 82 89 be 71 15 39 be
       -0.17933053 -0.19280201 -0.26857293 -0.18074585
000020 5b 55 57 be 44 da 37 be fa 89 e8 bd
       -0.21028654 -0.17954355 -0.11354442

dense_6/bias f4 [128]
000000 69 c3 26 bd 36 58 51 bd a2 61 0d bb 58 01 8f 3d
       -0.0407137 -0.051109515 -0.0021573086 0.06982678
000010 79 84 bc 3d 50 59 a0 bd aa 75 95 3c 42 81 a9 bd
       0.09204955 -0.07829535 0.018244583 -0.08276607
000020 ce 89 80 3c 36 6f 92 bc 03 59 cd 3c e3 1d cf bc
       0.01569071 -0.017875295 0.025066858 -0.025282806
000030 d4 06 7e bc 40 71 4a bc ce fa 95 3d f0 be 1c bd
       -0.015504558 -0.0123561025 0.07323228 -0.03826803
000040 3b 3a fc 3c e3 11 0e 3d 01 39 18 bd c2 ac b1 3c
       0.030789485 0.034685027 -0.03716374 0.021688823
000050 f9 36 30 3d 93 e6 25 3d 7e e5 2e bd 7b bc 5f bc
       0.043021176 0.040503096 -0.04269933 -0.013655777
000060 6d 31 6a 3d 83 88 e1 bc b2 c6 1f bc bd b9 91 bc
       0.057176042 -0.027530914 -0.0097519625 -0.017788762
000070 3b 4f b7 bc 27 16 35 3d b0 29 a6 bb 79 82 01 bc
       -0.022376647 0.04421058 -0.0050708875 -0.007904642
000080 31 ef aa bc 9a 2e 23 bd d0 06 b5 3c 44 08 fc bb
       -0.020866008 -0.039839365 0.022097975 -0.007691415
000090 27 cf 74 bd 56 34 0f 3e c6 2a 48 3b ce c8 ab 3d
       -0.05976787 0.13984808 0.0030543073 0.0838791
0000a0 57 ea a5 bc 5c 41 e3 bb 60 94 fd 3b 4e 77 0a 3c
       -0.020253344 -0.0069352817 0.007738635 0.008451296
0000b0 74 4f 8c bc 7c 4a 99 bc 62 cd dd bb c3 5e 4d bc
       -0.01712773 -0.018712275 -0.0067688683 -0.0125348
0000c0 53 9c 94 3d 94 41 4d bd 3f 33 69 3d 85 9a db bd
       0.07256379 -0.05011137 0.056933638 -0.10722832
0000d0 61 c9 1f bb 8e a9 63 bd 00 68 e2 3d a4 db b7 3b
       -0.0024381506 -0.05558162 0.11054993 0.0056109
0000e0 7f a5 13 bd b4 f5 a7 bc e0 dc 16 3d e7 69 68 bd
       -0.0360465 -0.020502903 0.036831737 -0.05674162
0000f0 6a 78 c4 bd 2d c0 11 3d 82 a3 2f bd cb 60 4a 3d
       -0.0959328 0.035583664 -0.042880543 0.049408715
000100 17 9b 0a bd 66 44 bf bc 81 62 f2 bb 37 3e b1 3d
       -0.03383931 -0.023348045 -0.0073969965 0.08654445
000110 e8 84 7c 3d 60 f8 66 3c 23 b5 28 3c bc 87 3b 3c
       0.061650187 0.014097303 0.010297093 0.011445936
000120 b5 b9 87 bc 30 78 8d 3a 51 9d 0d bd 00 7b 8e 3d
       -0.016568044 0.0010793265 -0.034573857 0.06957054
000130 ae cb 19 bd 3f 5f 3a 3d 54 4b 39 ba b1 28 18 bb
       -0.03754776 0.04550099 -0.00070684147 -0.0023217613
000140 64 9f b6 bd 3b c2 8f 3c 42 d5 af 3c f8 4b 4d bd
       -0.0891712 0.017548671 0.021463994 -0.050121278
000150 ac 5c a4 3c 3c e3 0b bd 9f 5b b3 bc be fd 87 bd
       0.02006372 -0.034152254 -0.021894274 -0.06640194
000160 2b 40 05 bd 96 f4 fd 3c be 1d 50 bd 74 48 0a 3c
       -0.0325319 0.031000417 -0.050809614 0.008440126
000170 fc e0 11 3b 19 d4 b1 bc 8d e3 d7 bc d9 ec a9 3b
       0.0022259345 -0.021707581 -0.026353622 0.005185705
000180 e1 36 99 3c ac 14 39 bd 97 59 77 3d 5d 05 08 bc
       0.018702926 -0.04518573 0.060388174 -0.00830206
000190 e1 ed 2e bd 28 24 f6 bc 04 cb 6b bd 56 71 1d bc
       -0.042707328 -0.030046538 -0.057566658 -0.009609541
0001a0 d7 9c cd bb 3b 75 05 3d 37 38 24 3e bd 23 08 bc
       -0.0062748003 0.032582503 0.1603707 -0.008309302
0001b0 96 3b 1d 3d f8 cd e4 3d 97 35 ac bd 03 f2 9d bd
       0.038386904 0.11172098 -0.08408659 -0.07712176
0001c0 e7 c4 71 3d f4 74 d8 bd 2b 81 8c bd 94 f3 09 3e
       0.05902567 -0.10569182 -0.06860574 0.13471824
0001d0 e6 d0 22 bd 2f 86 64 bd a7 74 19 3d 88 f9 4c 3d
       -0.039750002 -0.05579203 0.037464764 0.05004266
0001e0 25 f4 82 bc eb 9f bf 3c db f8 d5 bc 49 19 b7 3d
       -0.015985558 0.023391685 -0.02611964 0.0894037
0001f0 7c b8 7a 3d 41 ef 4a 3d b2 b8 1b 3e 34 f0 b3 3d
       0.061211094 0.049544577 0.15207174 0.087860495

conv2d_9/bias f4 [32]
000000 d1 0e 57 bd c2 dd e2 bd 18 52 ad bd 20 ba 87 bd
       -0.052504364 -0.11077453 -0.08462924 -0.066272974
000010 76 e4 3a bd 83 7b 9d bd 09 87 14 be 75 b8 21 bc
       -0.045628034 -0.076895736 -0.14504637 -0.009870638
000020 cc 11 13 3d 48 21 6b 3d 17 a3 1b be 58 c4 c9 bd
       0.035905644 0.057404786 -0.15198933 -0.09851903
000030 bf ef 06 bd c7 44 00 be e8 5e fe bd 80 e2 07 be
       -0.032943483 -0.12526236 -0.12420446 -0.13269997
000040 50 41 8a bd fe b0 1d bd 9c 7e 03 be 0b 84 0a bd
       -0.067507386 -0.03849887 -0.12841266 -0.033817332
000050 ce f2 3e be 76 3a c5 3c 9d 9f 9b bd f0 7b 46 3d
       -0.1864731 0.024075728 -0.07598803 0.04845804
000060 bd b3 f0 bd 30 b2 88 bd ba 49 51 be 0e 99 99 bd
       -0.11753032 -0.066746116 -0.2043828 -0.07499896
000070 bf 51 c4 bd f4 6e 91 bd 36 b7 ae bc 66 67 15 bc
       -0.09585904 -0.07101241 -0.021327596 -0.00911889

conv2d_11/bias f4 [32]
000000 38 a5 85 bd 25 5d d3 bc 9e 09 73 be 09 58 f6 bb
       -0.065256536 -0.02580125 -0.23734137 -0.007517819
000010 dc 48 e1 bd 2c 29 aa bd 8c 52 63 be 43 3e ff bc
       -0.11000225 -0.08308634 -0.22199458 -0.031157618
000020 93 d8 a9 bd 1b 7f ed 3c 9a e4 f9 bc 3d 71 6e bd
       -0.082932614 0.028991273 -0.030504514 -0.05821346
000030 fd 25 ce 3c b6 76 99 bd 4d 23 77 3a b3 73 b5 bd
       0.025164599 -0.074933454 0.00094275625 -0.088599585
000040 9b 98 4c bd ed ce 04 3e 60 01 c8 bd aa 7c a1 3d
       -0.049950223 0.12969561 -0.09765887 0.07885106
000050 92 3d 62 be d2 86 46 bd ce 98 d3 bb 2d 4e a2 3d
       -0.220938 -0.04846842 -0.0064574247 0.07925067
000060 c2 63 a3 bd 21 c4 3f bd 0a 6d 05 be 1c 2b e6 bc
       -0.07978012 -0.046817902 -0.13029876 -0.028096728
000070 46 eb 89 3d e9 b8 a0 bc 93 bf d8 bc b8 8c 9c bd
       0.06734328 -0.019619422 -0.026458537 -0.076440275

conv2d_10/bias f4 [32]
000000 32 f0 74 bd 55 8c 38 3d 71 46 95 be d9 f8 c3 bd
       -0.05979938 0.045055706 -0.29155305 -0.09568948
000010 e2 15 3d 3e 43 a1 b3 3c 73 0d c4 3c b3 1b db bd
       0.18465379 0.021927482 0.023932194 -0.106986426
000020 54 1f b8 bb 01 3d 08 be ef 1b 71 bd e7 2d f9 bc
       -0.005618969 -0.13304521 -0.05886453 -0.030417396
000030 af 68 1c be 19 0c e4 bd 80 01 e1 3d 02 be b1 bd
       -0.15274309 -0.1113512 0.10986614 -0.08678819
000040 2e 00 c9 bd d2 9c b3 bc 9d 13 10 bd 92 75 13 be
       -0.098144874 -0.021925364 -0.035174955 -0.14400318
000050 44 7b e3 bd 49 8f 14 bc 6d e7 11 bd 47 61 77 3d
       -0.111074954 -0.009067365 -0.035621095 0.060395505
000060 5b cc eb bc a6 3d 3b bd e7 c7 4c bc 6a 28 b2 bc
       -0.028783968 -0.04571309 -0.012498832 -0.021747787
000070 35 ff aa 3d 26 cc 29 3e ea 32 2b bc 7a 16 2b bd
       0.08349458 0.16581783 -0.010449151 -0.041769482

sequential_3/batch_normalization_3/FusedBatchNormV3 f4 [3]
000000 1b bc 49 3c 0f 31 8f 3c 7d 59 71 3c
       0.012312914 0.017479448 0.014730808

sequential_3/batch_normalization_3/FusedBatchNormV31 f4 [3]
000000 62 28 c7 bf 14 d4 04 c0 38 0e eb bf
       -1.5559199 -2.0754442 -1.8363714

sequential_3/dense_6/MatMul f4 [128, 256]
000000 93 73 2c bd 44 27 fc bb db 91 ad 3d 5a b1 1d 3e
       -0.042102408 -0.0076951105 0.08475085 0.15399686
000010 e9 52 00 be 08 40 0e be f6 1b 0f 3e 61 c0 7e 3b
       -0.12531628 -0.13891613 0.1397551 0.003887199
000020 fa 1f 7c 3e ff 6d eb bd e9 1f d0 bd 4f f3 b4 bd
       0.24621573 -0.114955895 -0.101623364 -0.0883547
000030 a4 46 3c 3e a6 ab 85 bd 1a a0 10 bd 35 25 74 bc
       0.18386322 -0.0652688 -0.035308935 -0.014901449
000040 f7 41 fa bd 31 3e 8e bd 5f a3 0f bd 81 3e 44 3d
       -0.12219613 -0.06945456 -0.035067912 0.04791117
000050 df 24 8a bc f5 27 72 bc a6 b4 af 3c 47 44 31 be
       -0.016863285 -0.014780034 0.021448445 -0.17311202
000060 bd 65 a3 3c 2e f7 22 3e 2c f6 28 bd 31 f6 66 bd
       0.019945974 0.15914604 -0.041250393 -0.05638713
000070 20 ac 8b 3d 94 3c f3 3d a0 3b 19 be 03 46 2c be
       0.068199396 0.11876789 -0.14964151 -0.16823582
000080 b1 43 9d bd 18 70 04 be ed 08 1a 3d 19 ef a2 3d
       -0.07678927 -0.12933385 0.03760617 0.079557605
000090 db ea 01 bd cd 3b c9 3d f6 0f bf 3d 2d 76 a1 bd
       -0.031718116 0.09825859 0.09329216 -0.07883868
0000a0 c8 d9 1a bb f8 11 eb 3c 3f 49 8e bd 14 91 24 3d
       -0.0023628343 0.028695092 -0.06947564 0.04017742
0000b0 ae ff 07 3e 1b 06 18 3d 46 72 e4 3c fd c3 13 3d
       0.13281128 0.037115198 0.027886521 0.03607558
0000c0 9e 16 de b9 07 aa fb bc 80 d3 cf 3d e5 17 6e 3b
       -0.0004235999 -0.030720724 0.10147762 0.003633016
0000d0 e3 5f ac 3d 1a ea b1 bd 33 95 eb 3c 17 31 ae 3d
       0.084167264 -0.086872295 0.028757667 0.08505457
0000e0 b8 95 11 3d 0d 3a 85 bc 1f 45 8a 3d 27 ce 7a 3d
       0.035543174 -0.016263032 0.06751465 0.06123176
0000f0 a1 b8 c6 3d bb 03 4b bd d2 7b 81 3e 8f 79 f7 3c
       0.09703184 -0.049564105 0.2528978 0.03020933
000100 01 86 7e 3e 1c a0 8e bd 1b 00 f8 3d ed 54 18 3e
       0.24855806 -0.06964132 0.12109395 0.14876147
000110 5a 53 71 bd 6f a1 4e 3e 95 a4 be bd 26 92 6d bc
       -0.05891738 0.2017877 -0.09308735 -0.0145001765
000120 48 b5 35 bd 66 2e 44 3e b6 b0 f6 3c fa a6 84 3b
       -0.044362336 0.19158325 0.03011356 0.0040482255
000130 ec c9 51 bb 8f e4 2b 3c e5 95 70 be e8 66 dd bd
       -0.0032011224 0.010491504 -0.2349468 -0.108106434
000140 4e 95 ff 3c 02 bc f4 bb 01 e2 94 3d 21 e1 37 3e
       0.031199124 -0.0074687013 0.07269669 0.17956974
000150 29 3c c8 bd 0a ac 00 be 52 1f c9 3d 83 12 f5 3b
       -0.097771 -0.12565628 0.09820427 0.0074790134
000160 c6 93 34 be aa a9 8a 3d 78 c2 bb 3d bf fd 45 3e
       -0.17634496 0.06770642 0.09167951 0.19335078
000170 dc a3 96 3d a5 c2 91 3e c1 96 6e be 15 35 3b bd
       0.073554724 0.28468814 -0.23299696 -0.04570492
000180 e8 f7 ca bc 6a 21 97 bc 43 14 15 3e e0 28 c2 3e
       -0.024776414 -0.01844855 0.1455851 0.3792181
000190 2e e2 28 be 34 14 00 3e 13 da 1b 3e ec 6a 6e 3d
       -0.1649253 0.12507707 0.15219907 0.058207437
0001a0 8f 12 4e bd e7 a0 9b 3d c9 c3 5f bd bd 25 12 bd
       -0.050310668 0.07599049 -0.054630075 -0.03568052
0001b0 1a 96 09 3e f0 5a 81 bd 16 a7 65 3d c5 1d ca bd
       0.13436165 -0.06316173 0.05606755 -0.09868959
0001c0 59 35 1e 3e 2e b2 86 bd 32 b3 1b be ec 5e 73 bd
       0.15450038 -0.06576954 -0.15205076 -0.059416696
0001d0 31 1b d3 bd f9 56 2a 3b bc 7b a1 bd f7 ae fe 3d
       -0.10307921 0.002599178 -0.078849286 0.12435716
0001e0 a4 fa 12 3d 4e c0 3a bd 6f c1 ba 3d 98 be e1 bd
       0.03588356 -0.045593552 0.09118926 -0.11022681
0001f0 22 20 19 bc ef e4 0c bd ab ea 94 3e f7 29 ae 3d
       -0.00934604 -0.034398016 0.29085287 0.08504098
000200 79 22 27 be 10 56 cd 3c 48 94 d4 bd 54 70 4d be
       -0.16321744 0.025065452 -0.10379845 -0.20062381
000210 fd 0f 04 3e fd b4 a0 3d b4 40 d2 bd a5 be 1c 3e
       0.12896724 0.07847021 -0.102662474 0.153071
000220 86 bf a0 3d 49 98 a3 3d 12 fd e4 3b 07 15 05 3e
       0.0784903 0.079880305 0.006988176 0.12996303
000230 73 a5 2a 3e 55 0c 1f 3c 6c d0 64 3e f2 c8 25 3e
       0.16664676 0.00970753 0.22345132 0.16189936
000240 6a f1 73 3c 1c 02 31 3e 96 d4 f2 3d f8 e1 42 3d
       0.014889101 0.17285961 0.11856954 0.04757878
000250 87 e9 37 3e 40 0f 57 3d d7 69 6d 3e 40 dd fa bd
       0.17960177 0.052504778 0.23184906 -0.12249231
000260 c1 e5 3b 3e a3 02 70 3d 7c 5e 9f bb 51 1a 4c bc
       0.18349363 0.058596265 -0.0048635583 -0.012457446
000270 bd 9b 97 bd 40 49 40 be d4 42 cd bc b4 4e 8f 3d
       -0.074027516 -0.18777943 -0.02505628 0.06997433
000280 79 ee 7f bd c8 02 4e 3d ef c9 c3 3c 22 b5 20 be
       -0.062483285 0.05029562 0.0239 -0.15694097
000290 24 6a 40 bd a6 06 34 3e c1 c8 06 3d 69 d4 be 3d
       -0.046976224 0.17580661 0.032906298 0.09317858
0002a0 37 78 eb bc ef ba 0b be 36 40 06 bd ac 5b 39 be
       -0.028743846 -0.13645528 -0.03277608 -0.18101376
0002b0 02 c1 28 bd 2b 6f 6e 3e b0 2e 04 bd e3 f3 72 bd
       -0.04119969 0.23284595 -0.032271087 -0.05931462
0002c0 64 21 66 3d a8 8e d2 3d 78 eb 2c 3e 1e 1f 87 3d
       0.056184188 0.10281116 0.16886699 0.06597732
0002d0 61 75 24 3d 1c 16 27 3d f8 a1 b9 bd a6 79 43 be
       0.040151004 0.04079257 -0.09064096 -0.19089374
0002e0 89 ec d0 3d 86 d7 9c 3d 1d a4 7b bc 9d 53 ef bd
       0.102013655 0.07658295 -0.015358952 -0.1168587
0002f0 7b eb 9d bd f7 ef 33 3d d7 c6 ce 3d 3e 76 53 3c
       -0.0771093 0.04393002 0.100965194 0.012906609
000300 37 1c 45 bc f2 57 ae 3d b0 91 a4 3c 4a 55 2b be
       -0.012030653 0.08512868 0.020089 -0.16731754
000310 58 b0 86 3d fb e3 93 3c ea ba e2 3d 91 c5 5d 3d
       0.06576604 0.018053045 0.11070807 0.054143492
000320 20 18 a2 bd a4 b6 51 be b6 3f d3 3d 50 e7 59 3e
       -0.07914758 -0.20479828 0.10314886 0.21279645
000330 0d 50 0f 3a bf 6d 0b bd ff a6 8f bd b7 00 c4 bd
       0.00054669456 -0.03404021 -0.07014274 -0.09570449
000340 09 ea d5 3d 38 1d 38 3e ef 5f f1 bb 7c 32 66 3d
       0.10445029 0.17979896 -0.0073661725 0.05620049
000350 5b 0b 17 3d 10 f8 a9 3d 67 c4 3d 3e cc 0f 00 3d
       0.036876064 0.08299267 0.18531953 0.031265065
000360 79 29 0d be 96 84 02 3b a9 4c 83 bd 07 31 f9 bc
       -0.13785352 0.0019915453 -0.06411106 -0.030418886
000370 23 39 0a 3d 34 8a 91 3c 52 52 23 be f1 01 d4 bd
       0.033745896 0.017766096 -0.15949371 -0.10351933
000380 6a 27 f3 bd d5 e3 9d 3d 5e 40 50 3d 7c 19 16 be
       -0.11872752 0.07709471 0.050842635 -0.14658159
000390 17 88 09 3d 4e 10 ae 3d 3f fc 22 3e 97 ff c6 bc
       0.03357705 0.084992036 0.15916537 -0.024291797
0003a0 92 4c b4 bd 50 07 f3 3d 64 f9 d8 3d e3 0a 8e 3b
       -0.08803667 0.11866629 0.105944425 0.004334794
0003b0 72 63 6a bd 8a 6c 0c 3d 62 f5 15 3e d5 2c 27 3e
       -0.057223745 0.0342832 0.14644387 0.16325696
0003c0 d8 fc 34 3d a4 2a 33 3d 22 43 62 bd dd 77 cd 3d
       0.044186443 0.043741837 -0.055239804 0.10032628
0003d0 3b d2 a9 bd 98 89 86 3d ca 65 9b bd c9 a0 1a bd
       -0.082920514 0.06569213 -0.07587774 -0.037750993
0003e0 23 31 f3 bd d0 26 d5 3c 4c c6 d4 bd ea c3 ea bd
       -0.118746065 0.026019484 -0.103893846 -0.11463149
0003f0 b1 e1 5e 3d 6c b4 16 3b 00 f1 76 bc c5 31 88 3d
       0.054414455 0.0022995723 -0.015072107 0.06650118

sequential_3/dense_7/MatMul f4 [11, 128]
000000 f9 6a 7b 3a 5f 17 c1 be d9 bd b9 be 63 7b 8e be
       0.00095908303 -0.37713143 -0.36277655 -0.27828512
000010 92 2b b6 be d5 a9 5e be 25 a8 08 bf 3f 80 85 bd
       -0.35580117 -0.21744473 -0.5338157 -0.065186016
000020 f5 0a d7 be 8a 13 f6 be ed be d2 3d e2 30 74 3c
       -0.42000547 -0.48061782 0.102903225 0.014904233
000030 c9 fd ed be 73 44 31 bd ee 17 dd be 66 7a 4d 3d
       -0.46482685 -0.04327817 -0.4318232 0.050165556
000040 e9 d6 bd be f4 be cf be 2c f7 d6 be a5 00 0f bf
       -0.37078026 -0.40575373 -0.41985452 -0.5586036
000050 a8 b6 1b bf 23 2c f7 be 35 4e a7 3d 18 9a 5b be
       -0.60825586 -0.4827586 0.08169214 -0.21445501
000060 f2 93 6a be 02 3e 98 be 2c 0c 31 bc 86 b9 2d be
       -0.22907999 -0.29734808 -0.010806125 -0.16965303
000070 59 e6 97 be 5f c8 b3 3c 15 c8 01 be a7 10 c1 be
       -0.2966793 0.02194613 -0.12673981 -0.37708017
000080 74 72 2f bd dc 48 71 3c 58 a3 3e be 15 1e 76 be
       -0.04283376 0.014726844 -0.18616998 -0.24034913
000090 8f d4 3c be 29 8f 67 be ce d2 7b bd a1 d1 e6 be
       -0.1844046 -0.22613205 -0.061480336 -0.4508181
0000a0 72 6c 24 be a7 fd 6d bd da ad 4c be de 44 92 be
       -0.16056994 -0.05810323 -0.19988194 -0.28568166
0000b0 0f 6a dc 3c d3 90 a3 3c 24 cb f5 bc 0a 8f 95 be
       0.026906041 0.019966519 -0.030004092 -0.29210693
0000c0 55 a0 13 bf d4 21 95 be ef 62 09 bf e7 46 80 3d
       -0.5766652 -0.2912737 -0.53666586 0.062635235
0000d0 f1 04 aa be 78 ae b9 bd bc d7 ef be 55 ba c0 bd
       -0.33206895 -0.090664804 -0.4684428 -0.0941054
0000e0 1c 93 d8 3b d1 9f ef be bf 2e 5a be 81 03 65 3e
       0.0066093337 -0.46801618 -0.21306895 0.22364618
0000f0 10 51 e1 bb 89 77 e3 be 8b 79 f0 be 8a 72 a0 be
       -0.0068761185 -0.44427136 -0.4696773 -0.31337386
000100 8e 96 19 3e e9 92 1e 3d cb 87 ad bd 13 6f 0f bf
       0.14998838 0.038714323 -0.08473166 -0.5602886
000110 bb 18 a5 be a9 e3 bb be 1d 59 79 be d9 78 19 bf
       -0.3224543 -0.36697128 -0.243504 -0.59950024
000120 bb e2 1a bc 79 4e 59 be f5 a5 f1 bd 90 c8 68 bd
       -0.009453471 -0.21221341 -0.11799232 -0.056831896
000130 73 a4 81 be 3d bd 91 be e1 a2 7b bc f4 5a a6 bd
       -0.25320777 -0.2846469 -0.015358658 -0.08122817
000140 75 60 d1 bd 74 6c 06 be 71 1e a4 bc 5d 39 8c bd
       -0.10223476 -0.13127309 -0.020034047 -0.06846879
000150 8a 5a f3 be 3c 02 d3 be 8f cb 98 3b 01 9d 24 be
       -0.47530013 -0.41212642 0.004662938 -0.16075517
000160 a9 d3 30 be 5b ae ba bd 72 23 2d 3d fe 15 43 be
       -0.17268242 -0.09115287 0.04227013 -0.19051358
000170 3e 2d d6 be f4 a3 de 3d a6 55 ac 3d 1d 49 ed be
       -0.41831392 0.10871115 0.08414774 -0.46344844
000180 f6 aa b4 be ca 5f 7f bd 5d df d6 be 09 90 18 bd
       -0.35286683 -0.06234721 -0.41967288 -0.037246738
000190 ce 24 80 be 56 b2 d3 bd d6 0f 25 3e 3d 28 20 3e
       -0.2502808 -0.10336749 0.16119322 0.1564035
0001a0 24 71 ec bd d9 80 12 bf 04 d2 79 be 62 41 2b be
       -0.11545017 -0.57227856 -0.24396521 -0.1672416
0001b0 45 b2 88 bd d8 f6 c1 be 18 8d b1 3d 38 b3 e7 3d
       -0.06674627 -0.3788364 0.086694896 0.1131348
0001c0 85 b2 95 bd 72 f7 d8 3d 1f ee 8c be 49 64 82 be
       -0.073094405 0.105940714 -0.27525422 -0.25467137
0001d0 52 47 89 be e4 1a 48 be 20 37 7e be 07 05 52 be
       -0.26812226 -0.19541508 -0.24825716 -0.2050973
0001e0 e1 79 b3 be 99 92 0e be 62 45 08 bc fe b5 a6 bd
       -0.35053924 -0.1392311 -0.008317323 -0.08140181
0001f0 aa 8d d7 be 8f 27 ec be a3 6d 8f be d6 28 92 be
       -0.4210027 -0.4612393 -0.28013334 -0.2854678
000200 ea 15 ba bd a7 d4 1e 3d d4 89 c4 bd 54 3b a2 be
       -0.09086211 0.03877702 -0.09596601 -0.3168589
000210 ce 45 98 bc 63 11 04 3e ff da 9d be 6c 39 ab bd
       -0.018587973 0.12897258 -0.30831143 -0.08360562
000220 bb e4 d2 be 7f 9e 92 3d 58 7a 7e be aa 12 ef bd
       -0.41190132 0.07159137 -0.24851358 -0.11673482
000230 19 29 8b 3e 24 b1 1a bd 34 0b 88 be 05 e7 c7 be
       0.27179793 -0.03776659 -0.26571047 -0.3904344
000240 ef e9 83 3c 78 63 0f bf 2e b2 38 bd e6 b5 bb be
       0.01610276 -0.5601115 -0.0450918 -0.36662215
000250 f9 d0 3a be cf d8 cd 3d a6 fb 92 be 34 7c 1b 3e
       -0.18243779 0.100511186 -0.28707618 0.15184098
000260 63 86 90 be 63 6b 44 be c6 a5 c7 be 81 90 66 bd
       -0.2822753 -0.1918159 -0.38993663 -0.056290153
000270 28 fd 54 be 9a 8c 32 be e5 d8 7e be 7b 7f 25 be
       -0.20799696 -0.17436448 -0.24887426 -0.16161911
000280 69 4d bf be ff 8a 1e bc ab e3 e9 be 9e ae 97 bd
       -0.37363747 -0.009676694 -0.4568151 -0.074063525
000290 ea 43 a6 be b1 d7 06 bf 0e cc d1 be c3 1b d3 be
       -0.3247369 -0.5267287 -0.40975994 -0.41232118
0002a0 76 1c 0d 3e 7e a2 5f be 5b 15 ad be 84 34 4a be
       0.13780388 -0.2183933 -0.33805355 -0.19746596
0002b0 d2 a4 e5 be 02 7b 28 bd 25 d4 9b be 01 0d 41 3c
       -0.4485231 -0.041132934 -0.3043529 0.0117828855
0002c0 43 11 01 bf c1 5c 88 be 31 f5 a1 be 5f 84 d5 bd
       -0.50416964 -0.26633266 -0.3163238 -0.104256384
0002d0 30 4a be be 95 44 00 3e fd 4f ac be d8 a7 08 bf
       -0.37165976 0.12526162 -0.33654776 -0.5338111
0002e0 3d ec 03 be 13 ff c8 bd cc 7f bd be 50 fe 06 3e
       -0.12883087 -0.098142765 -0.37011564 0.1318295
0002f0 0a 98 ea bd 67 76 bf bd e4 d7 fd bd 15 22 40 bd
       -0.114547804 -0.09348755 -0.123946935 -0.046907503
000300 98 28 04 be aa 04 b2 3d 25 67 15 be 3a f6 59 be
       -0.1290611 0.08692296 -0.14590128 -0.21285334
000310 72 0f 8b be f4 ed 12 bf 04 3b b9 be 49 86 80 bc
       -0.2716022 -0.5739434 -0.36177838 -0.015689032
000320 0d f8 38 be a5 4a 20 be 16 e8 4d bc a6 78 8b be
       -0.18063374 -0.15653475 -0.012567541 -0.27240485
000330 0c 3e 8a 3d aa 69 e4 be f0 40 3f bd ad 56 7f be
       0.06750116 -0.44611865 -0.04669279 -0.24935408
000340 15 b6 78 bc 04 ea b4 bd b1 64 04 bf 5a 8f 38 3e
       -0.0151801305 -0.088336974 -0.5171614 0.18023434
000350 98 99 bd 3d fa 1d b7 bc 04 33 2b bd cc 6f d5 be
       0.09257811 -0.022353161 -0.0417967 -0.41686857
000360 96 7b c4 bd 89 77 46 be 58 20 17 be 8f bf cb bd
       -0.09593885 -0.19381537 -0.14758432 -0.09948646
000370 cf da a7 be 0f b5 3f be 1f d1 36 be 74 1f 01 3d
       -0.32784125 -0.18721412 -0.17853211 0.031524137
000380 96 de a7 be 87 d9 46 3e 7d 60 3c 3e ef eb 04 bf
       -0.32787007 0.19418918 0.18396182 -0.51922506
000390 2d 4d 07 bd 73 6f 1b 3d 9c 43 c6 be 9e c1 34 bd
       -0.033032585 0.037948083 -0.38723457 -0.04412996
0003a0 9c f6 bf 3d 4d d7 ab bd b5 70 04 bf d6 01 f9 bc
       0.09373209 -0.08390675 -0.5173448 -0.030396383
0003b0 07 e4 7a be 8d c7 c8 be de 7e 81 bd e3 62 9d be
       -0.24501048 -0.39214745 -0.06323026 -0.30739507
0003c0 0d 6b 5f be 1b fa 14 bd 86 7a 31 be 37 7f b6 be
       -0.2181818 -0.03637133 -0.17331895 -0.35643932
0003d0 2a cf 9a be d6 25 4d be f0 86 d6 be 68 d5 f5 be
       -0.3023618 -0.20033965 -0.41899824 -0.4801438
0003e0 e0 07 a4 be a1 50 c2 bd 1f a4 8e be c4 a3 c6 be
       -0.32037258 -0.09488035 -0.2785959 -0.38796818
0003f0 9e 63 b1 be ed 94 fb bd 27 e3 00 bf 01 1e 9c bd
       -0.34646314 -0.12284265 -0.50346607 -0.0762291

sequential_3/conv2d_9/Conv2D f4 [32, 3, 3, 3]
000000 74 b2 89 3d 60 18 12 3d b2 34 08 bd 27 e5 a9 b9
       0.0672349 0.035667777 -0.03325338 -0.00032404924
000010 b0 af e5 bd 8d 60 f2 3d a9 f3 31 be 23 25 0c 3d
       -0.1121515 0.11834822 -0.17378105 0.034215104
000020 84 68 3a 3d a7 65 d5 3d 41 98 7d 3e d2 23 d1 3b
       0.04550983 0.10419779 0.24765112 0.006382444
000030 14 8f ed 3d b8 5e 2c bd 55 e6 4f 3c 5e 2c c6 bd
       0.115995556 -0.04208252 0.012689193 -0.09676431
000040 7d 47 d7 bd 87 fb fa bd 51 22 33 3d 64 69 d4 3d
       -0.10511682 -0.12255006 0.0437339 0.10371664
000050 5c 18 b2 3d a3 3e d9 bd 82 2d 19 be e2 eb 26 bc
       0.086960524 -0.1060765 -0.14958766 -0.010188075
000060 f7 64 c3 bd cc 79 ee bd 9a 38 84 bb ff 1d 44 bd
       -0.09540742 -0.11644325 -0.0040350677 -0.04788017
000070 72 b0 ad bb c7 c0 31 3e b6 1b 99 3c 88 50 e7 bc
       -0.005300575 0.17358695 0.018689971 -0.028236642
000080 5a c5 e4 bc 9e 70 77 be 88 a0 41 be 05 27 1b be
       -0.027926136 -0.24164054 -0.18908894 -0.15151604
000090 cb ad 4d 3e d8 57 56 3d 19 ce d4 3d 78 a4 1f 3d
       0.20085828 0.052329868 0.103908725 0.03897521
0000a0 80 75 e0 3d 23 a2 22 be d8 05 14 be 5d 4a 5e be
       0.10959911 -0.15882163 -0.14455354 -0.21708055
0000b0 85 68 3b 3d 9f 70 06 3e f6 99 44 3e 53 77 85 bb
       0.045753974 0.13128899 0.19199356 -0.0040730624
0000c0 54 ae 1f 3e bc 40 a5 3d 0d 62 a8 3d 6c 63 0c be
       0.15593845 0.08068988 0.08221827 -0.13709801
0000d0 b2 e2 9a 3d df 81 4c bd 78 de 50 3d de b2 0b 3e
       0.0756277 -0.049928542 0.050993413 0.13642451
0000e0 3f c3 24 3e 20 ae 15 3d 46 93 78 3e 26 c5 ce 3d
       0.16090105 0.03654301 0.2427493 0.10096197
0000f0 97 82 5e bd 66 ef 05 be 04 97 e8 bd f4 50 a1 bd
       -0.05432376 -0.13079605 -0.11356929 -0.07876769
000100 b0 5b 14 3c 54 fc 97 3c 98 e4 cf 3d 28 d5 78 bc
       0.009055063 0.018552937 0.10151023 -0.015187539
000110 a9 5f e4 bc 88 e6 f6 bd bf f2 5f bd 55 ed 19 be
       -0.027877646 -0.12055689 -0.05467486 -0.15031941
000120 dd 5c 99 bd 53 6a 03 3e 92 e4 19 3e 3b ac 89 3d
       -0.074884154 0.12833528 0.15028599 0.067223035
000130 d0 b3 70 bd 88 8b 58 be cc 80 07 3d f8 91 b0 bd
       -0.058765233 -0.21146977 0.033081815 -0.08621591
000140 12 98 d3 bd 8c fa 08 3d 2d 81 94 3e d2 20 70 3e
       -0.103317395 0.033442065 0.29004803 0.2345002
000150 0a 96 ee 3d c5 4d 9a bc f4 52 7b bd fc b1 7d bd
       0.116497114 -0.018835912 -0.061358407 -0.061937317
000160 0f 57 41 be d1 bb 55 be d2 4b 14 3e d4 9b 25 3d
       -0.18880866 -0.20872428 0.14482048 0.040431812
000170 f2 a3 37 3e 0f bc 48 be df 33 ab 3b e2 15 1d 3c
       0.17933634 -0.19602989 0.0052246894 0.009587737
000180 fb 84 1c bd 77 c4 37 be 13 82 61 bd b9 ee 24 bd
       -0.038212758 -0.17946039 -0.05505569 -0.040266726
000190 95 71 c8 3d db 74 4b 3d 9a 36 ed bd 6e 14 49 bd
       0.09787289 0.04967199 -0.1158268 -0.04909175
0001a0 97 48 98 bd 8e 3e df 3d c5 c0 c4 3d 01 67 b6 bc
       -0.074357204 0.10900603 0.0960708 -0.022265913
0001b0 d8 63 0f be 84 c0 8c 3d d4 43 42 bd 70 47 4a 3e
       -0.14002931 0.06872657 -0.047427967 0.19753814
0001c0 c6 e0 73 3e dd c9 7b 3e 7b 16 de 3d 38 e8 a1 3e
       0.23816213 0.24588723 0.108441316 0.3162248
0001d0 41 d5 ab 3e 54 2e 3a be 37 57 08 be 9e df 5b be
       0.33561137 -0.18181735 -0.1331452 -0.21472022
0001e0 5e 62 0c be c1 62 f7 bd e9 90 b7 bd b3 44 24 3e
       -0.13709399 -0.12079383 -0.08963186 0.16041832
0001f0 4b aa b6 bc b8 b0 d6 bc 6e 6b c5 bd 13 a5 86 bd
       -0.022297999 -0.026207313 -0.09639631 -0.06574454
000200 80 8f 0c be 30 25 1e bd 0b 9d 0a be 59 17 14 be
       -0.13726616 -0.038609684 -0.1353647 -0.14462031
000210 71 30 87 bc 79 68 fc bc e1 7c 28 be 11 9e b5 3d
       -0.01650259 -0.030811535 -0.16453888 0.088680394
000220 5d bf 05 be bc 01 32 3d 69 99 10 3e 11 52 3d 3e
       -0.1306128 0.043458685 0.14121021 0.18488337
000230 b6 fa 17 3e b8 2d 1d 3e 09 7c 4a 3e 98 4b 68 3e
       0.14841732 0.15349472 0.19773878 0.22685087
000240 7d a7 38 3d 1b 3a 0d be b5 69 aa bd 87 57 19 be
       0.045081604 -0.13791697 -0.08320943 -0.14974795
000250 de 6f 95 bd b7 a1 65 be 7b 4f 09 be b9 e3 3b be
       -0.072967276 -0.2242497 -0.13409226 -0.18348588
000260 02 d3 2f be a2 25 ea 3c 17 63 19 ba d6 07 99 3b
       -0.17170337 0.028582398 -0.00058512524 0.0046701236
000270 35 9d 1e 3d 5a d7 17 be 67 52 14 3e bd 12 fb bc
       0.038724143 -0.14828244 0.14484559 -0.030648584
000280 ea 86 88 bd ed e6 af bd a6 1d f6 bc da 32 bb bd
       -0.06666358 -0.085889675 -0.030043434 -0.091405585
000290 63 9a 3b 3d a6 cc 18 be 9e f4 68 3e 9e 56 14 3e
       0.04580153 -0.14921817 0.22749564 0.14486167
0002a0 b0 c3 5d 3d 33 ca 21 3e 4f 84 5d 3d 23 eb 02 3e
       0.0541417 0.15799789 0.054081257 0.1278501
0002b0 6b ee 33 3d 83 55 17 be f4 bc 0c 3d 68 74 be 3d
       0.043928545 -0.14778714 0.034359887 0.092995465
0002c0 b3 40 f7 bd ac b4 e1 3d 64 b0 a6 3d cb 2c 1a 3d
       -0.12072887 0.110207886 0.081391126 0.037640374
0002d0 49 c0 9f bd 1a 67 88 bc 94 b6 c9 3d fa 12 ee bd
       -0.07800347 -0.016650725 0.09849277 -0.11624713
0002e0 70 9f 00 be 2f 6a b8 bd 8c 12 30 be 80 a5 41 be
       -0.1256082 -0.09004628 -0.17194575 -0.1891079
0002f0 ea 88 0c bd 7c 1d a6 3c cd 67 3f 3d f2 01 68 3d
       -0.03431026 0.020277731 0.04672985 0.05664248
000300 c7 2c 1d be cf 91 63 3a 99 39 95 be c8 83 20 be
       -0.15349112 0.000868109 -0.29145506 -0.1567527
000310 0c f2 4b be 9e 32 58 bd 52 8b 8f 3e 78 0d 89 3e
       -0.19916552 -0.052782647 0.2803598 0.26768088
000320 51 d1 c1 3d 06 1b ba bd c0 0e e2 3d 10 5f 1e be
       0.09463752 -0.090871856 0.110379696 -0.15465951
000330 56 e6 91 3c 70 97 2b bd 86 16 fe bd 32 1c ca 3d
       0.017810028 -0.04189247 -0.1240664 0.09868659
000340 88 11 a0 3d 4c 84 8b 3e af ed 38 bc e2 75 08 3e
       0.07815844 0.27249372 -0.011287137 0.13326219
000350 a5 dc f9 3d eb 69 bf bd d3 8e 48 bd 90 6a f4 3d
       0.12200288 -0.09346374 -0.048964333 0.11934388
000360 e9 3b 13 3e 2a 4b 2f 3e 3a d8 7e 3d c4 41 f4 3d
       0.14378323 0.17118517 0.06221793 0.11926606
000370 e4 84 37 3c e0 48 3d 3e f9 0d 04 be 64 49 b8 bd
       0.011201117 0.18484831 -0.12895955 -0.08998373
000380 3b c8 42 3d 8d 86 69 3d 8b 1a b0 3d 86 0b 4d 3e
       0.047554236 0.057013083 0.08598813 0.20023927
000390 c9 ff 8a be 9f 6a 42 be 3c f7 0b bd 04 7e 1f 3d
       -0.27148274 -0.18985985 -0.034171328 0.038938537
0003a0 67 29 e2 bc 38 72 7f be 0b f9 ac 3d 48 62 36 be
       -0.027607633 -0.24945915 0.08445939 -0.17810929
0003b0 78 fa 54 3d 85 90 3b be a5 d9 60 be 13 9e 68 be
       0.051996678 -0.18316849 -0.21958025 -0.2271655
0003c0 c4 19 03 3e 14 8c 1d 3e 3c 9b db 3d 0d 46 e1 bd
       0.12802798 0.15385467 0.10722968 -0.10999689
0003d0 11 2d 12 3e 06 19 76 3d ef fa 94 bc db 77 94 be
       0.14275004 0.060082458 -0.01818606 -0.28997692
0003e0 e7 b9 e3 bd c7 4e e9 bd 60 1e ff bd 5d af c9 bd
       -0.111194424 -0.11391979 -0.124569654 -0.09847901
0003f0 be b3 31 bd c8 4c 28 be 57 be e3 bc 93 9a b1 bd
       -0.043384306 -0.1643554 -0.027800722 -0.08672061

sequential_3/conv2d_10/Conv2D f4 [32, 3, 3, 32]
000000 9b 91 0a 3e c9 25 81 3e fd 45 a8 3b 91 d5 a2 3d
       0.13532107 0.2522414 0.0051352964 0.07950891
000010 9a 0e 10 bd 74 18 60 3b dd dd 28 bc 11 72 0b 3e
       -0.035170175 0.0034194263 -0.010306803 0.13617732
000020 86 a3 f9 3d 8c d3 37 be c5 6d 06 3e 0a 0c a3 bd
       0.12189393 -0.17951792 0.13127811 -0.07961281
000030 94 af 8f 3d 5a 43 20 3e 1b fa 1a 3b d9 e1 ad bd
       0.07015911 0.15650693 0.002364761 -0.08490343
000040 7e e8 31 bd 02 d0 39 bc 9d b4 b5 ba 75 fe 50 3d
       -0.043434612 -0.011341097 -0.0013863031 0.05102392
000050 74 6a 97 3d a4 ac 3f bd 5f 74 67 bc 2a 85 82 bd
       0.07393351 -0.046795502 -0.014126866 -0.06373055
000060 58 7b 04 3e 4d 4c 2b 3c 20 6c e4 3c 39 bc 6b bd
       0.12937677 0.010455203 0.02788359 -0.05755255
000070 d3 78 b3 3d 30 f4 b6 bd 76 ee b4 3c a5 5a 3a 3d
       0.0876328 -0.08933294 0.022086363 0.0454966
000080 1d 53 34 3e b6 64 84 3e 72 5d 17 3d 83 db 51 3e
       0.1760983 0.25858086 0.03695435 0.20493893
000090 ec 13 a2 bd c1 dd ee bd d2 00 21 3b 42 a1 43 bc
       -0.07913956 -0.1166339 0.002456714 -0.011940302
0000a0 c5 cf f5 3c 59 4d 95 bd e1 81 48 bc 8a de 09 3d
       0.030006299 -0.072901435 -0.012237997 0.033659495
0000b0 4b 8d 7d 3d b3 cc 74 bd c6 4f 1b 3e 67 48 94 3d
       0.061902326 -0.05976553 0.1516715 0.07240372
0000c0 ff c6 e6 3d 2b 16 f8 3d 6c 2e c8 3d d5 a0 a3 3d
       0.11268424 0.12113603 0.09774479 0.07989661
0000d0 42 3d db bd 91 28 fa 3b 7c 81 d2 3d 1f cc 83 be
       -0.107050434 0.0076342304 0.102786034 -0.2574167
0000e0 97 2f 3d be 19 54 15 be 16 35 0e 3e 45 f8 5f 3e
       -0.18475185 -0.14582862 0.13887438 0.21872051
0000f0 65 9e af 3d cb db 00 bd 94 89 1b 3e 18 93 fb bd
       0.08575133 -0.03145961 0.151892 -0.12283915
000100 0e 8e 44 3e 4b 89 84 3d c1 42 57 bc 5e d8 da 3d
       0.19194815 0.06471499 -0.013138474 0.106858
000110 cd 19 8d 3c c6 43 f7 3d eb 15 84 bb 1c fa 01 bd
       0.017224217 0.12073474 -0.004030933 -0.031732664
000120 e2 a5 d8 3c 60 a3 08 3e 20 c6 67 be 2d 42 86 be
       0.026446287 0.13343573 -0.22634172 -0.26222363
000130 43 68 a3 bd 0f d6 e1 b9 48 5d 8e bc ce ca 6a bd
       -0.07978871 -0.0004307483 -0.017378464 -0.057322316
000140 5d c5 e6 bd ea 39 ae bd ca d4 35 be 56 ce 1c 3e
       -0.11268113 -0.0850714 -0.17756954 0.15313086
000150 3d 6e 21 3d 39 b2 df bc 55 2d 05 3e c4 d0 f8 3d
       0.039411772 -0.027306663 0.13005574 0.12149194
000160 40 ea f2 bd d8 87 43 be ba 79 66 3e b8 03 7d 3b
       -0.11861086 -0.19094789 0.22507372 0.0038606953
000170 8e b0 89 bd 55 77 1f be 84 21 93 3d 57 09 a0 bb
       -0.06723128 -0.15572865 0.07184127 -0.004883926
000180 7a da 38 3c 8b ea de 3d 67 9d 38 be 01 e9 4f be
       0.011282558 0.10884579 -0.18028794 -0.20303728
000190 01 f0 fb 3d 8e 90 0e 3e a9 8b 63 bc c2 2d b6 3d
       0.123016365 0.1392233 -0.013888278 0.08895446
0001a0 ee 39 d4 bd 99 5b 8b bd 3b 50 92 bc c2 cd f7 bd
       -0.10362612 -0.0680458 -0.017860522 -0.12099792
0001b0 e3 df f4 bd b1 6f 35 b9 b7 59 4e be a7 78 09 be
       -0.119567655 -0.00017303113 -0.20151411 -0.13424931
0001c0 f0 42 28 be 8a 0b 27 bd 95 35 24 be 5e 15 44 3d
       -0.16431785 -0.04078249 -0.16036065 0.04787194
0001d0 7b 1f 57 bc 69 0e 34 3e ac 40 aa 3d 47 94 2d 3e
       -0.013130064 0.17583622 0.083131164 0.16951095
0001e0 f7 cb 55 3e 85 7b 75 3d 82 6b 83 bd 37 47 97 3d
       0.20878588 0.05993225 -0.0641699 0.0738663
0001f0 f7 61 05 3e 58 50 92 bd 7d ac 07 3c 6d 7e 73 3d
       0.13025652 -0.071442306 0.0082808705 0.05944674
000200 e4 00 93 3c f5 98 7a 3e 35 1f 3f bd 9c 42 e3 3d
       0.01794476 0.24472411 -0.04666062 0.11096689
000210 80 33 24 3d 87 d9 3d be d8 97 0b be 7c bc b7 3b
       0.040088177 -0.18540011 -0.13632143 0.005607186
000220 72 bf 91 bd 2f 8b 37 be d9 29 af 3d 92 43 5e 3c
       -0.071165934 -0.17924188 0.08552904 0.013565915
000230 a2 14 2d 3d c8 17 cb bd 65 e3 84 3d d9 b0 e0 3b
       0.042256005 -0.09916645 0.064886846 0.0068570194
000240 9c a6 b4 3d b6 38 ff 3d a0 3c 79 bd 86 19 79 3d
       0.08820841 0.12461989 -0.060848832 0.060815357
000250 9e c6 9a bd fc 52 7f 3d 90 da d5 3d 4e 01 31 bd
       -0.075574145 0.062335 0.10442078 -0.043214135
000260 8c 71 b6 be 09 ad 07 be 45 a4 db 3d 23 25 e5 3d
       -0.35633504 -0.13249601 0.10724691 0.11188724
000270 77 83 97 be c5 0c c8 bd 78 51 61 bd 63 c8 9d 3d
       -0.29592487 -0.097680606 -0.055009335 0.07704236
000280 e6 3c 9b 3e 9b de d2 3d 1c bb 89 3e c0 c3 89 3e
       0.303199 0.10296365 0.26900566 0.26907158
000290 88 60 19 3d fe c5 ff bb 72 94 17 be 33 78 06 3d
       0.037445575 -0.007805585 -0.14802721 0.032829475
0002a0 cf 8e 2c 3e da d0 18 bd 0f fd 93 bd 03 c6 91 bd
       0.16851352 -0.03730855 -0.072260015 -0.07117846
0002b0 c8 fb 71 3e a9 8c b5 3d e8 1c 86 3d c8 f2 50 3d
       0.23631203 0.088647194 0.06548482 0.051012784
0002c0 9b dc fd bd 78 68 3f 3d 0c 03 02 3e 62 e6 3c 3e
       -0.12395593 0.04673049 0.12696475 0.18447259
0002d0 3a cb cd 3b b6 18 8c be ea f4 27 3e c2 e1 d0 bc
       0.00628033 -0.27362603 0.16402021 -0.025498275
0002e0 76 c0 df bd 97 55 a6 bd 65 31 db 3d 70 9e 84 3d
       -0.10925381 -0.08121794 0.10702781 0.06475532
0002f0 e1 c8 39 3d 5b 3a 81 3d dc 76 93 3d 6c 14 10 bd
       0.04535759 0.063099585 0.07200405 -0.035175726
000300 70 92 e1 3d 0a b9 c7 bc 65 37 2d 3c 95 9c 00 3d
       0.11014259 -0.024380226 0.010572289 0.03139933
000310 4d 45 82 3d 80 f0 61 bd 8b a7 73 bd 20 85 55 3c
       0.06360874 -0.055161 -0.059485953 0.013032228
000320 52 9a e0 bd da 12 3b 3d ad b5 ba 3c bc 09 b9 3c
       -0.10966934 0.045672275 0.022791708 0.02258765
000330 02 3b 85 bd 58 fe 39 3e ad 59 b5 bd bb ac e5 bd
       -0.065053955 0.1816343 -0.08854995 -0.11214586
000340 8a 97 1e be b0 fa 7b bd 5f 1e b4 bd 57 60 7d be
       -0.15487495 -0.06151837 -0.08794855 -0.24743782
000350 d1 52 1b 3e 44 4d 02 3e 60 4f 2f be 25 cf 14 3d
       0.1516831 0.12724787 -0.17120123 0.03633036
000360 98 f2 7b bd 14 0f 17 be 1e 61 e4 bd 43 19 86 be
       -0.061510652 -0.14751846 -0.11151336 -0.26191148
000370 e3 b1 fd bd 1c 1b de 3d c5 98 fc bd e4 50 31 3e
       -0.12387445 0.108450145 -0.12333826 0.17316014
000380 6a 14 e5 3d 5c cc 15 3e 98 c0 62 3d e2 32 31 3c
       0.11185534 0.14628738 0.055359453 0.010815354
000390 94 af 78 bd 4c 84 5a be 43 f8 cf bd 82 c2 62 3d
       -0.06071432 -0.2133953 -0.10154774 0.05536128
0003a0 21 6e 72 be 9c 23 da bd aa 31 6d bd 5c ab 5d 3c
       -0.23674823 -0.10651323 -0.05790869 0.013529625
0003b0 84 e7 1e 3e f1 a6 2c 3c 62 9e b9 bd 86 4b 52 be
       0.15518004 0.010537849 -0.09063412 -0.20536622
0003c0 6e a7 b8 bd 15 33 88 bd 8f d2 3a 3d a2 e0 0d be
       -0.0901631 -0.06650368 0.04561096 -0.13855222
0003d0 75 76 52 be 6f d9 37 3e bd bc 3e be ea 76 e3 3b
       -0.20553 0.17954038 -0.18626685 0.006941666
0003e0 67 5c f4 bd 4c ef c1 bc 74 d5 19 3d ac 40 ff bd
       -0.11931687 -0.023673676 0.03755708 -0.12463507
0003f0 11 ab 22 be 1e 7c 84 bb f5 bf e7 3d 68 68 86 3d
       -0.15885569 -0.0040431162 0.1131591 0.06562883

sequential_3/conv2d_11/Conv2D f4 [32, 3, 3, 32]
000000 99 77 05 3d 04 75 88 3d 77 df 8a bd ce e8 6c 3b
       0.03258476 0.06662944 -0.06780904 0.0036149505
000010 c3 59 58 3e ea cd 05 bc 51 f5 ea 3d 2d da 38 be
       0.21127991 -0.0081667695 0.11472572 -0.18051977
000020 56 b8 0c 3e 39 5e b7 3c 53 e8 12 3e 01 89 ec 3d
       0.13742194 0.022383796 0.14346437 0.11549569
000030 1e 2f d5 bd d5 b6 05 3e f5 43 ed 3d d5 22 82 bc
       -0.104093775 0.13058026 0.115852274 -0.01588575
000040 42 32 3d 3e ea 6c ba 3d 45 6e 80 3d 9e 87 e2 3c
       0.18476203 0.09102805 0.06271032 0.027652558
000050 b6 12 81 3d e8 0a 72 3d 97 28 c3 3d c2 d9 55 bd
       0.06302397 0.059092432 0.09529226 -0.052209623
000060 c9 19 f7 3c 9c 3c c0 3d eb 41 c4 bd c2 90 22 bd
       0.030163663 0.0938656 -0.09582885 -0.039688833
000070 33 4f f2 3d aa 9c 07 3e 98 57 0c bd a2 c4 73 3d
       0.11831512 0.13243356 -0.034263223 0.059513696
000080 fb 5a 69 3d e2 49 0e 3e 79 5b ae bc 7d 5a 96 bd
       0.05697153 0.13895372 -0.021283852 -0.07341478
000090 5b 55 b6 bd bb 37 04 be 1b e3 c0 bd e6 b2 9a bd
       -0.08902999 -0.12911884 -0.09418317 -0.075536534
0000a0 d8 0e 67 bc 68 91 5a bd 09 d0 4b be af 3e d8 bd
       -0.01410266 -0.053361326 -0.19903578 -0.10558831
0000b0 d9 2a a5 3b 6f e1 2f 3e e8 b8 03 be aa 2e 71 3d
       0.005040508 0.1717584 -0.12863505 0.058882393
0000c0 63 79 71 be 89 02 fb bc da 37 b3 3d ef 0d ce 3d
       -0.23581462 -0.030640857 0.08750887 0.10061251
0000d0 7a 4f 09 be 36 46 b3 bd 04 81 1c bd 6e e1 bf bc
       -0.13409224 -0.08753626 -0.038208976 -0.023422923
0000e0 bc 0f 93 3e d6 84 f6 bc da 0e 93 bd 78 7b 77 be
       0.28722942 -0.030092638 -0.07180567 -0.24168193
0000f0 8d 9d 19 be 3f 7c a3 bd 45 1a 18 be e9 60 85 be
       -0.15001507 -0.079826824 -0.14853771 -0.260505
000100 99 d5 0c 3e a0 e0 38 3e 2e 51 c1 3d ba ea 53 be
       0.13753356 0.18054438 0.09439312 -0.2069501
000110 d9 2a d1 bc e9 5d 3a bd e6 a4 84 bd b3 13 c0 3c
       -0.025533127 -0.045499716 -0.064767644 0.023446893
000120 be 48 92 3d bb 12 74 bc 4f 62 41 bd 55 ca 79 bd
       0.07142781 -0.014897044 -0.047212895 -0.060983974
000130 b2 95 65 bd 99 e3 09 3e cb fb 7f bc 7e 9f a2 3e
       -0.056050964 0.13465728 -0.015623997 0.31762308
000140 f4 e2 96 bd 5f be 28 bc fb 30 d4 3d 12 db b2 3c
       -0.073675066 -0.010299294 0.10360905 0.021832976
000150 8e 7d 91 3d cc bd be 3d 4c 21 2c 3d 11 fa b2 3d
       0.07104026 0.09313545 0.042023942 0.08739103
000160 8c dd d0 3d 4a 97 c5 bb 83 e6 c8 bc 1b a7 ad 3b
       0.10198507 -0.006029998 -0.024523979 0.0052994615
000170 1f 61 28 3e 1b d2 87 39 cc 67 72 bd c0 dc 1e be
       0.16443299 0.00025905747 -0.05918102 -0.15513897
000180 8c ba 8c 3d 9a c6 2c 3d 12 2c 95 bd 19 b7 16 be
       0.068715185 0.04218159 -0.07283796 -0.14718284
000190 b3 e3 9e bc 66 0b bb 3c 76 7a ca bc df 80 31 bd
       -0.019395685 0.022832584 -0.024716597 -0.04333579
0001a0 98 76 3f be 7e 71 ae 3d 2d b1 90 bd 6e f4 15 bc
       -0.18697584 0.08517741 -0.070650436 -0.009152515
0001b0 c2 0a e6 bd 41 7d 04 be f3 f6 f0 3d 75 85 30 bd
       -0.11232521 -0.12938406 0.11765852 -0.043096025
0001c0 b4 ad d4 3d 84 21 67 3d a7 92 f1 bd 88 79 e4 bd
       0.10384694 0.056428447 -0.1179555 -0.11155993
0001d0 3a 64 05 be 46 1e e9 bd b9 f6 b2 3d ab 2f 74 3c
       -0.13026515 -0.11382727 0.08738465 0.014903943
0001e0 00 97 86 be 38 1d f4 bd 3c b2 1a be f3 e8 7f be
       -0.2628708 -0.119196355 -0.15107054 -0.24991207
0001f0 d8 00 d2 bb 61 0a 0a 3d 66 54 dd 3c af 36 6b 3d
       -0.006408792 0.033701304 0.027017783 0.057425197
000200 a5 95 df bd ba 16 57 3e e3 58 2a bd 9b 56 26 be
       -0.10917214 0.21004763 -0.041588675 -0.16243975
000210 fe df 9e bd 6f 81 c0 3d 12 85 fd bd c4 c9 dd bd
       -0.07757567 0.093996875 -0.12378897 -0.10829499
000220 68 3c 21 bd 01 24 92 be 79 66 18 bd 82 ba f2 bd
       -0.03936425 -0.28543094 -0.0372071 -0.1185198
000230 6b c8 0d 3e 5b 8c 5c be 45 fe 47 3d 76 40 b0 bd
       0.13845985 -0.21537916 0.048826475 -0.08606045
000240 ad 77 5e 3e fa 1c 18 be cc fa 23 bc 3a 08 d7 bd
       0.2172534 -0.14854804 -0.010008525 -0.10499616
000250 08 92 13 be 94 41 64 be c9 25 0c bd 42 13 a7 3e
       -0.14411175 -0.22290641 -0.034215722 0.3263188
000260 18 34 07 3b 55 c3 97 bd 3b d6 5f be 53 12 45 bc
       0.0020630416 -0.074103035 -0.21859066 -0.012028295
000270 ef b9 68 be 92 b6 ca bd 16 5b 82 be 9d 58 50 be
       -0.22727178 -0.09898104 -0.25460118 -0.20346303
000280 e0 0c 84 3b b8 44 5b 3d 23 a8 1b bd f2 94 94 3d
       0.004029855 0.053532332 -0.038002145 0.072549716
000290 ca 4e 89 bc 20 49 02 be 30 c5 c5 3d 73 bd f8 3d
       -0.016761202 -0.12723207 0.09656751 0.121455096
0002a0 6f 72 84 bd fb 8e 0c be ec 83 26 bd 49 52 36 3d
       -0.06467139 -0.13726418 -0.040653154 0.044512067
0002b0 ca 1a 35 3e de 1f 61 3c 47 86 53 bd ee fb 20 3d
       0.17686 0.013740508 -0.05164173 0.03930276
0002c0 ae 7b aa bc ea e3 00 be 81 0c 8e bd a7 ed e2 3d
       -0.020810928 -0.12586942 -0.06935979 0.11080485
0002d0 ec 52 a4 3d e6 6f 18 be 61 8d d2 bd 51 d6 d6 3d
       0.080236286 -0.14886436 -0.10280872 0.10490096
0002e0 e2 8f c1 3d b4 3e fc 3d 3f 2f 53 3e 27 d4 81 3d
       0.094512716 0.12316647 0.20623492 0.06339293
0002f0 f9 f3 05 be b6 05 e3 bc 6c 98 a9 3d 74 ed 58 be
       -0.1308135 -0.027712684 0.08281025 -0.21184331
000300 81 ce b1 bd 08 80 24 bc e6 bc df bd 68 0c 88 3b
       -0.086819656 -0.010040291 -0.109247014 0.0041518696
000310 3f 7a 34 3c eb 57 94 be 41 6a 45 3d a6 de 6d 3d
       0.011015474 -0.28973326 0.048197035 0.058073662
000320 73 41 a4 3d 7e 7f bf bd 09 6e a7 3d 77 40 43 bc
       0.08020296 -0.09350489 0.081752844 -0.011917225
000330 14 dc 96 3b b3 94 4e be eb 98 9c 3d 8b b5 62 3d
       0.004603872 -0.20173912 0.07646354 0.055348914
000340 45 eb b1 3d 3a 11 40 be f8 1d 1a be c9 fd f3 bd
       0.08687452 -0.18756571 -0.15050495 -0.1191364
000350 ed d6 4a be f8 c7 10 bd 3a 22 ec 39 1a c9 1a 3e
       -0.1980855 -0.035346955 0.00045038929 0.15115777
000360 ae 1c 15 bd 33 53 b6 3c 45 06 d9 3c ea d7 60 3d
       -0.036404304 0.02225647 0.026492247 0.05489341
000370 14 63 6c 3d a3 5c 05 bd 1b cf e0 3b 81 9d c0 bd
       0.057711676 -0.03255905 0.0068606264 -0.094050415
000380 9d d6 31 3d 07 6e 4e be 74 6a 34 3d 66 11 b7 3d
       0.04341756 -0.2015916 0.044046834 0.08938865
000390 1c 36 54 bd 9f 23 29 be ee 00 2b bd 75 b6 0e 3e
       -0.051809415 -0.16517495 -0.041748933 0.1393679
0003a0 85 06 e1 bd af 8e 97 bd 4a 81 cd 3c e7 ea 01 be
       -0.109875716 -0.074002616 0.025086064 -0.12687264
0003b0 34 7f e2 3d 9a d6 09 bd 12 07 2e 3e 4a 22 40 3e
       0.11059418 -0.033651926 0.16994885 0.1876308
0003c0 87 46 08 be a0 24 a3 bd 2e 99 1f be 97 01 e0 3e
       -0.13308154 -0.0796597 -0.15585777 0.43751213
0003d0 f0 1f 5e 3d 6d 7f 15 bd 3a 55 3b 3e 94 10 70 3d
       0.054229677 -0.036498476 0.1829423 0.05860956
0003e0 99 b5 ac 3d 79 c7 f5 bd d3 74 15 3e 6a be 9d bd
       0.084330745 -0.12000937 0.14595346 -0.07702334
0003f0 ea 5b 9d bd 62 62 d5 bd 1b d1 d4 bd 6e c8 2b bb
       -0.07683547 -0.10419156 -0.10391446 -0.0026211995
