a_output_actual/dig-s2.tflite (tflite, 356492 bytes, 12 tensors)

dense_5/bias f4 [11]
0	0xbe47e45c	-0.19520706
1	0xbe1a9b6e	-0.15098354
2	0xbe23c844	-0.15994364
3	0xbdd9b491	-0.106301434
4	0xbe163739	-0.14669503
5	0xbe12c0b0	-0.14331317
6	0xbe397b52	-0.18113449
7	0xbe331a05	-0.17490394
8	0xbe1e1aa0	-0.15439844
9	0xbe029b63	-0.12754588
10	0xbe01bb05	-0.12668999

dense_4/bias f4 [256]
0	0xbce55137	-0.027992828
1	0x3d4b917e	0.0496993
2	0xbd2602a4	-0.040529862
3	0xbc196b9b	-0.009364034
4	0x3ca6c4c2	0.020357493
5	0x3cf4e606	0.02989484
6	0xbc598dcf	-0.013278439
7	0xbc5ad167	-0.0133555895
8	0xbd9b8b0f	-0.07594883
9	0x3d7b0103	0.06128026
10	0xbc944c98	-0.018102929
11	0xbd132d6a	-0.035931982
12	0xbd175b90	-0.036952555
13	0x3cef5f8b	0.029220363
14	0xbcb7dc60	-0.02244395
15	0x3d53d773	0.05171914
16	0x3af70067	0.0018844724
17	0x3c8c68b9	0.01713978
18	0x3d0b48ab	0.03400485
19	0xbc48195c	-0.012213077
20	0x3c946738	0.018115625
21	0x3d5c0bee	0.053722315
22	0xbcdb4382	-0.026765589
23	0x3c54c3e8	0.012986161
24	0x3d5a2358	0.053256363
25	0xbd270762	-0.040778525
26	0x3ddc4cee	0.10756861
27	0xbd66483b	-0.056221228
28	0x3c431d9f	0.011908918
29	0xbc678f54	-0.014133293
30	0x3ce9a6ff	0.028522013
31	0xbd7df7c6	-0.062003873
32	0x3d0c3f16	0.03423985
33	0xbbfcd531	-0.007715844
34	0x3e00fead	0.12597151
35	0x3c2ebe54	0.010665495
36	0xbbbbcd26	-0.0057312427
37	0x3c1d5a8a	0.009604106
38	0xbc50d73d	-0.012746629
39	0x3ce8de5d	0.028426344
40	0x3bda6611	0.0066649993
41	0x3c65a4e5	0.014016365
42	0x3d116466	0.035496138
43	0x3d0958c9	0.033531938
44	0xbc290c9b	-0.010317947
45	0xbc610f00	-0.013736486
46	0x3d0d15ea	0.034444727
47	0xbcb79f84	-0.02241493
48	0xbd5236a7	-0.05132165
49	0xbc6ec1d1	-0.014572577
50	0xbc619359	-0.013768041
51	0xbd44bd38	-0.048032016
52	0x3d4d25e2	0.050084956
53	0xbd9ce04e	-0.0765997
54	0x3d896eb1	0.06710566
55	0x3cbd610b	0.023117563
56	0x3c95619b	0.018235018
57	0xbcabee03	-0.020987516
58	0xbcc7da11	-0.024395974
59	0xbcd49fe5	-0.02595515
60	0x3a3cee02	0.0007207097
61	0xbcb35971	-0.021893235
62	0xbc932e14	-0.017966308
63	0xbd499517	-0.04921445
64	0x3ca8050f	0.020510225
65	0xbddb7bc1	-0.107169636
66	0xbc94cf2e	-0.018165197
67	0x3c31fe16	0.010863801
68	0xbd2334bf	-0.039845224
69	0xbb821e2b	-0.0039708815
70	0xbcc8700d	-0.024467492
71	0xbda7f1e2	-0.08200432
72	0xbc9fca20	-0.01950556
73	0x3bc46d8e	0.0059945052
74	0xbd5f7218	-0.054552168
75	0x3d589051	0.052872006
76	0xbcb949ae	-0.022618141
77	0x3cebfaf1	0.028806182
78	0xbd72a26a	-0.05923692
79	0xbca5bdbc	-0.020232074
80	0xbbdb128b	-0.00668556
81	0x3b41463d	0.0029491328
82	0xbd008743	-0.031378996
83	0xbc9103ea	-0.017702062
84	0x3be04a3a	0.006844786
85	0xbd02e4f5	-0.03195663
86	0xbda5ec99	-0.08101768
87	0xbb86bd9c	-0.0041119587
88	0xbceb9a0f	-0.028759984
89	0xbcc28d8e	-0.02374914
90	0x3e0239b1	0.1271732
91	0xbd426270	-0.04745716
92	0xbd9287a5	-0.071547784
93	0xbc859428	-0.016305998
94	0xbc89749c	-0.016779236
95	0x3bf67203	0.0075209155
96	0xbc5480bf	-0.012970149
97	0x3bbe4eb1	0.0058077206
98	0x3cce467b	0.025180092
99	0x3c10f123	0.008846554
100	0xbc3f53d1	-0.011677698
101	0xbc807484	-0.015680559
102	0x3d2c89d0	0.042123616
103	0xbcdc7fe9	-0.026916461
104	0xbc2eea06	-0.010675913
105	0xbd0821e7	-0.033235457
106	0x3cdba9e2	0.026814405
107	0x3ced0584	0.028933294
108	0xbcb27c2e	-0.02178773
109	0x3d510c3c	0.05103706
110	0x3bd04186	0.0063554673
111	0x3d54816f	0.05188125
112	0xbc3fa6a0	-0.011697441
113	0x3d670553	0.056401562
114	0xbc3e01fe	-0.011597155
115	0x3b1c4b0e	0.0023848447
116	0xbb9db45b	-0.00481276
117	0xbd07da58	-0.033167213
118	0x3d9cc181	0.076540954
119	0x3d935d8b	0.07195576
120	0xbcc5c59f	-0.024142085
121	0xbcb1a20e	-0.021683719
122	0xbc325e73	-0.010886776
123	0xbd5aef9b	-0.05345116
124	0x3cab5139	0.020912753
125	0x3dbfa6fc	0.093580216
126	0x3c3ed3e6	0.0116472
127	0xbd9900ce	-0.074708566
128	0x3d1ebaf9	0.03875253
129	0xbcf39041	-0.029731872
130	0xbc0298b5	-0.0079709785
131	0x3b04367d	0.002017408
132	0xbdbcd58d	-0.09220419
133	0xbd17c11c	-0.037049398
134	0xbd126eda	-0.035750248
135	0x3d73dfd3	0.059539627
136	0xbbe403a8	-0.0069584437
137	0x3c1821ca	0.0092854
138	0x3ba13141	0.0049192016
139	0xbb985798	-0.004649114
140	0xbcf8bdbc	-0.03036391
141	0x3d0e7803	0.03478242
142	0xbcde0925	-0.02710397
143	0x3cbb5f5d	0.022872621
144	0x3d182e30	0.037153423
145	0xbd091da4	-0.033475533
146	0x3c8487a0	0.016177952
147	0x3d0afd92	0.03393323
148	0x3c466a21	0.012110264
149	0xbd28365b	-0.041067462
150	0xbb865684	-0.004099669
151	0xbbd792bd	-0.006578772
152	0xbc9e1ddf	-0.019301353
153	0xbdb4ac75	-0.08821956
154	0xbc2e92b1	-0.010655091
155	0x3bb1cbc6	0.005425903
156	0xbdb20d70	-0.08693969
157	0x3d342aa1	0.043985967
158	0xbdb6fd7e	-0.089350685
159	0xbd25326e	-0.040331297
160	0x3cad1797	0.021129413
161	0xbd14a261	-0.03628767
162	0xbcf2eb06	-0.029653084
163	0x3dd8fb46	0.105948016
164	0x3c33a784	0.010965232
165	0x3dad0646	0.08448462
166	0xbcf0a2d7	-0.029374523
167	0xbd792e13	-0.060834955
168	0xbdbec21b	-0.093143664
169	0xbc3a05d5	-0.0113539295
170	0x3d61d410	0.05513388
171	0x3d3c1c32	0.045925327
172	0xbd3872f3	-0.0450315
173	0xbc6d5dc5	-0.014487688
174	0x3d82f39c	0.06394121
175	0x3c978910	0.018497974
176	0xbca56cc1	-0.02019346
177	0x3cf3c95f	0.029759107
178	0xbc439810	-0.01193811
179	0x3c624cf5	0.013812293
180	0x3b295174	0.0025835903
181	0x3c9ab74a	0.018886227
182	0xbcd0509d	-0.025429064
183	0xbcc1e624	-0.02366931
184	0xbcbd05de	-0.023074087
185	0xbcd0d30e	-0.025491264
186	0xbcfb0369	-0.030641275
187	0x3e1362af	0.14393114
188	0x3caf6f65	0.021415422
189	0xbd0c7c4b	-0.034298223
190	0x3d8ada14	0.06779876
191	0x3d31cf9a	0.043410875
192	0xbd1daebc	-0.038496718
193	0x3c0a4fa2	0.0084418375
194	0xbd5d6a6f	-0.05405658
195	0x3cf3aa6f	0.029744355
196	0xbcc3d1fb	-0.023903837
197	0x3c6e6669	0.014550784
198	0xbd7b29cd	-0.06131916
199	0x3c9a4131	0.018829914
200	0xbc3284b9	-0.010895901
201	0xbd24302a	-0.040084995
202	0x3dc33864	0.0953224
203	0xbc43c22e	-0.0119481515
204	0xbd5febad	-0.054668117
205	0xbc71a0a0	-0.014747769
206	0x3cf92c86	0.030416738
207	0x3b66ead8	0.0035235193
208	0x39bddbd6	0.0003621268
209	0xbc264c26	-0.010149991
210	0xbc96b921	-0.018398823
211	0xbc67a0a9	-0.014137425
212	0x3d26f599	0.040761564
213	0x3c7853f5	0.015156736
214	0x3d83d7db	0.064376555
215	0x3c8c3743	0.017116195
216	0x3cff5d57	0.031172438
217	0x3cfe8e47	0.031073702
218	0xbd929835	-0.071579374
219	0xbc306f01	-0.010768653
220	0xbcdd2b0e	-0.02699807
221	0x3cfd250e	0.030901458
222	0x3d131a42	0.035913713
223	0x3c994260	0.018708408
224	0xbb69fc9f	-0.0035703552
225	0x3a8037d0	0.0009782258
226	0x3ceca341	0.02888644
227	0xbd223bc9	-0.039607797
228	0xbaec4067	-0.0018024564
229	0xbdca9767	-0.09892159
230	0xbb692ac4	-0.0035578469
231	0x3c1aaa08	0.009439953
232	0x3d35d364	0.04439105
233	0x3e0f307e	0.13983342
234	0xbcb747e3	-0.022373145
235	0xbd254a6f	-0.04035419
236	0xbb1d502e	-0.002400409
237	0xbd4b8b7b	-0.049693566
238	0xbdf54ec4	-0.11977914
239	0x3d805853	0.062668465
240	0x3ba3b2e5	0.004995691
241	0xbd91b152	-0.07113899
242	0x3d38a343	0.045077574
243	0xbc886e77	-0.016654236
244	0x3e14c728	0.14529097
245	0x3df2f4aa	0.11863072
246	0x3d578a21	0.052621964
247	0x3c2988da	0.010347569
248	0x3b802e89	0.0039117974
249	0xbda0e801	-0.07856751
250	0x3ce36978	0.027760252
251	0xbd084158	-0.03326544
252	0xbcb628ff	-0.022236345
253	0xbda237c6	-0.07920794
254	0x3d11b91a	0.035576917
255	0x3c1c871a	0.009553695

conv2d_8/bias f4 [32]
0	0xbe30ff65	-0.17284925
1	0xbe0d8edd	-0.1382403
2	0xbdd1a4bc	-0.10236499
3	0xbcd65913	-0.02616552
4	0xbda15e25	-0.07879285
5	0xbe9585ee	-0.29203743
6	0xbd942b53	-0.07234826
7	0xbda79c50	-0.08184111
8	0xbd5911a4	-0.05299534
9	0xbcc005ac	-0.023440205
10	0xbd1d3a29	-0.038385544
11	0xbdd7b1fb	-0.10531994
12	0xbd9d1636	-0.07670252
13	0xbdc181d5	-0.094485916
14	0xbdf97959	-0.12181348
15	0xbc6eb5a5	-0.014569675
16	0xbcba35d1	-0.02273074
17	0xbd439489	-0.047749076
18	0xbcc83ba6	-0.024442505
19	0x3d4a974b	0.04946069
20	0x3d876d7e	0.06612681
21	0xbdc953e6	-0.098304555
22	0x3b3f5e8f	0.0029200648
23	0x3cf5c50b	0.030001184
24	0xbe036126	-0.12830028
25	0xbc084468	-0.008317091
26	0xbc08cb05	-0.008349185
27	0xbdc65b6d	-0.09685407
28	0xbd1e7950	-0.03868991
29	0xbd445def	-0.047941145
30	0xbe12eca5	-0.14348085
31	0xbd47c08d	-0.048767615

conv2d_7/bias f4 [32]
0	0xbc17a8c1	-0.009256543
1	0x3d5996d2	0.05312235
2	0x3d5d4c05	0.054027576
3	0xbcc14b8b	-0.023595592
4	0x3c36125c	0.011112776
5	0xbd4bc556	-0.04974874
6	0x3da07787	0.07835298
7	0xbdf201c2	-0.118167415
8	0xbd5fee54	-0.054670647
9	0x3e1c9df4	0.1529463
10	0x3bdad988	0.006678764
11	0xbd13dc62	-0.036098845
12	0x3c56e8d5	0.013117035
13	0x3de74907	0.11293226
14	0xbd0a7533	-0.033803176
15	0x3d14e4e3	0.036351096
16	0xbdc664ac	-0.096871704
17	0xbd885192	-0.06656183
18	0xbd86e631	-0.06586874
19	0xbe11b504	-0.14229208
20	0x3c55398d	0.013014209
21	0x3c529918	0.012853883
22	0xbdf2b2a8	-0.11850482
23	0xbd4ef436	-0.050525866
24	0x3e18f651	0.14937712
25	0x3cd6d0b0	0.026222557
26	0x3e46aedc	0.19402641
27	0x3d2713bd	0.04079031
28	0x3920d304	0.00015337399
29	0x3ddbd4db	0.10733958
30	0x3d2e1d74	0.042508557
31	0x3df5ba36	0.119984075

conv2d_6/bias f4 [32]
0	0xbdfb1df0	-0.122615695
1	0x3dac2cc9	0.084069796
2	0xbe02aac2	-0.12760451
3	0xbca05a6f	-0.019574372
4	0xbe25fe77	-0.16210352
5	0xbdf2c4b2	-0.11853923
6	0xbd870e02	-0.06594469
7	0xbdc4f99f	-0.09617924
8	0xbdaa1b66	-0.08306007
9	0xbe08451d	-0.13307615
10	0xbe005e50	-0.12535977
11	0xbe334d8e	-0.17510054
12	0xbe05f5dc	-0.13082069
13	0xbc69d747	-0.0142725175
14	0xbd30acda	-0.043133594
15	0xbb8299dc	-0.0039856266
16	0xbd225027	-0.03962722
17	0xbddc49db	-0.10756274
18	0xbdaac6be	-0.08338688
19	0xbdfa906e	-0.12234579
20	0xbe2667ed	-0.16250582
21	0xbdc34e5b	-0.095364295
22	0xbd2cfd05	-0.042233486
23	0xbe3c68f2	-0.18399408
24	0xbdea5595	-0.11442105
25	0xbd938390	-0.07202828
26	0x3d2fbae5	0.042902846
27	0xbe41e59a	-0.18935242
28	0xbcc1fa41	-0.0236789
29	0xbdf7ab12	-0.12093176
30	0xbd5a9fae	-0.05337494
31	0xbd668710	-0.05628115

sequential_2/batch_normalization_2/FusedBatchNormV3 f4 [3]
0	0x3c75ee82	0.015010478
1	0x3c8e3f45	0.017364154
2	0x3c5fac36	0.013651898

sequential_2/batch_normalization_2/FusedBatchNormV31 f4 [3]
0	0xbff67897	-1.9255551
1	0xc00b557e	-2.177093
2	0xbfdde2cb	-1.7334837

sequential_2/dense_4/MatMul f4 [256, 256]
0	0x3d71fa51	0.05907661
1	0xbc3a5792	-0.011373417
2	0xbdb147bc	-0.0865626
3	0xbb7f48cf	-0.003895331
4	0x3d980f3c	0.07424781
5	0x3d9ad94e	0.07560979
6	0xbd381d21	-0.044949654
7	0xbd4913c2	-0.04909111
8	0xbdd5acea	-0.10433371
9	0x3c610804	0.013734821
10	0xbd3fa149	-0.046784673
11	0x3cdb62d2	0.02678052
12	0xbd4a79f0	-0.049432695
13	0xbd4f99b1	-0.05068368
14	0x3db66161	0.08905292
15	0xbd183e84	-0.037168995
16	0xbc0b2754	-0.008493263
17	0xbc7abb0d	-0.015303385
18	0xbcdb6e4d	-0.026785994
19	0xbdea98fc	-0.11454961
20	0x3dabd5bc	0.08390376
21	0x3cff5942	0.031170491
22	0xbc4a622b	-0.012352507
23	0x3dbaf5fb	0.09128948
24	0x3d77e932	0.060525127
25	0x3c926712	0.017871413
26	0xbdd1dd33	-0.102472685
27	0x3cdb1bda	0.02674668
28	0xbdcf102f	-0.10110509
29	0xbd8b1729	-0.06791527
30	0x3d7e72c7	0.06212118
31	0xbc31a597	-0.010842702
32	0x3d9bfd5e	0.07616685
33	0xbb996d36	-0.0046822084
34	0x3cc270dc	0.023735456
35	0x3c5bd0a5	0.013416444
36	0xbda92224	-0.08258465
37	0xbc1b239c	-0.009468939
38	0xbd94ec89	-0.07271678
39	0xbddcd98f	-0.107836835
40	0xbdd2e622	-0.102978006
41	0xbc6e1a72	-0.014532672
42	0x3d2a6fdd	0.041610587
43	0x3d3668da	0.044533588
44	0xbd53bfe5	-0.051696677
45	0x3bd485ae	0.0064856624
46	0xbd78f6ff	-0.06078243
47	0xba8a0588	-0.0010530213
48	0x3d314533	0.043278884
49	0x3dc361fc	0.095401734
50	0xbd1674d9	-0.03673253
51	0xba6b7f02	-0.0008983464
52	0xbdde7137	-0.10861438
53	0xbdb9989f	-0.09062313
54	0x3c97690c	0.018482707
55	0xbdb0dc3a	-0.08635755
56	0x3d94882f	0.072525375
57	0x3d5bb15e	0.053635947
58	0xbcdac72f	-0.026706306
59	0xbc8d5a3e	-0.017254945
60	0xbdb131cb	-0.086520754
61	0x3d849947	0.06474548
62	0xbd2e7cc7	-0.042599466
63	0x3d95d7cb	0.0731655
64	0x3d00aae1	0.031412963
65	0xbcb0622c	-0.021531187
66	0xbd9aa471	-0.07550896
67	0xbd454a9c	-0.048166856
68	0xbbce9d22	-0.006305353
69	0xbda92f7e	-0.082610115
70	0x3d9ac37d	0.07556818
71	0xbdea9597	-0.11454313
72	0x3c25793f	0.010099708
73	0x3d4afcde	0.04955756
74	0x3d845e4a	0.06463297
75	0x3d98322f	0.07431447
76	0xbdc20b57	-0.09474819
77	0xbd902834	-0.07038918
78	0x3c1e155a	0.009648645
79	0xbd76bfb9	-0.060241435
80	0x39b26e3a	0.0003403293
81	0xbcc6b436	-0.024255853
82	0xbddfdaab	-0.109303795
83	0x3db214d3	0.08695378
84	0x3d87c81f	0.06629967
85	0xbd1581e6	-0.036500834
86	0xbca71e04	-0.020400055
87	0xbdc03d67	-0.093867116
88	0x3da03c3a	0.07823987
89	0xbccdab51	-0.025106104
90	0xbd461a4d	-0.048364926
91	0xbced71f2	-0.028984997
92	0xbde0d306	-0.109777495
93	0x3dccf5a9	0.100077935
94	0xbdd16cb4	-0.102258116
95	0x3c67767e	0.014127372
96	0xbdd8c02a	-0.105835274
97	0x3dae66b8	0.08515686
98	0xbd0d167a	-0.034445263
99	0x3d5c4130	0.053773105
100	0xbcad354d	-0.02114358
101	0xbd824450	-0.06360686
102	0x3c8bd865	0.017070958
103	0x3d10a7c3	0.03531624
104	0xbc9487da	-0.018131185
105	0x3cad4a3c	0.021153562
106	0x3d868389	0.06568057
107	0xbccf0344	-0.025270112
108	0x3d23a984	0.039956585
109	0xbdaf8138	-0.085695684
110	0xbdc7d3ce	-0.097571954
111	0x3d946b2c	0.07247004
112	0x3d933859	0.07188482
113	0xbdbe55f8	-0.09293741
114	0x3d88de0a	0.066829756
115	0x3dc5367c	0.09629533
116	0x3d565ed8	0.052336544
117	0xbae1f267	-0.0017238379
118	0xbdad1c52	-0.08452667
119	0xbdf7b7cb	-0.120956026
120	0xbd6a5b7a	-0.057216145
121	0xbdb7afb1	-0.08969057
122	0xbd0ef0e9	-0.03489772
123	0xbcb9708a	-0.02263667
124	0x3a9f440b	0.0012151016
125	0x3c3cef10	0.011531606
126	0xbddcfb0d	-0.10790072
127	0x3d088a6d	0.033335138
128	0x3ccfbfff	0.025360106
129	0x3ca2f19b	0.019890597
130	0x3d7d578c	0.06185107
131	0xbdc15ae3	-0.094411634
132	0xbce84be9	-0.02835651
133	0x3bd935c7	0.006628725
134	0xbd7ad3e0	-0.061237216
135	0xbbd88291	-0.0066073616
136	0xbd7e07a3	-0.062019
137	0x3cf65159	0.030068086
138	0x3d60e575	0.054906327
139	0xbd834af8	-0.064107835
140	0xbdbb6f04	-0.09152034
141	0xbddc174b	-0.1074663
142	0x3d031e29	0.032011185
143	0x3d50a523	0.050938737
144	0xbc90bd25	-0.017668316
145	0xbc7fd3fe	-0.015614508
146	0xbdd9ea8a	-0.10640438
147	0x3d677bed	0.05651467
148	0x3c24ada8	0.0100511685
149	0xbc99403f	-0.018707393
150	0x3d417b6b	0.04723684
151	0x3d8879f1	0.066638835
152	0xbd95e2a7	-0.07318621
153	0x3995eb4f	0.00028594813
154	0xbd0c2c29	-0.034221802
155	0xbd2f8a86	-0.042856716
156	0x3d667c13	0.05627067
157	0x3d27a13c	0.04092525
158	0xbc26ca8a	-0.010180125
159	0xbd33721f	-0.043810006
160	0x3d8014ca	0.06253965
161	0x3d50e568	0.05100003
162	0xbc2bda82	-0.010489108
163	0x3db59095	0.088654675
164	0xbd8ec077	-0.069703035
165	0xbd654561	-0.055974368
166	0x3d1132b8	0.03544876
167	0x3d5f53c6	0.054523252
168	0xbdbdc79a	-0.092665866
169	0x3cd34baa	0.025792915
170	0xbd9914e3	-0.07474687
171	0x3d45352f	0.048146423
172	0xbc109b2b	-0.008826057
173	0xbdcb24da	-0.09919138
174	0xbdb5add2	-0.08871044
175	0x3cbed60c	0.023295425
176	0xbde22667	-0.11042481
177	0xbd920ba6	-0.07131128
178	0x3d755063	0.059891116
179	0x3b9a85f7	0.004715677
180	0x3ccb46bf	0.024814008
181	0xbdd0d86f	-0.101975314
182	0xbc9ebb8b	-0.019376537
183	0x3dc2421b	0.09485265
184	0x3dab82fc	0.08374593
185	0x3d30bab5	0.043146808
186	0xbc8176f4	-0.015803792
187	0x3c584447	0.013199872
188	0xbdebcd89	-0.11513812
189	0xbd7c5896	-0.06160792
190	0xbda34818	-0.07972735
191	0xbd39bce4	-0.045346156
192	0xbd2440e6	-0.040100954
193	0xbdd3728a	-0.10324581
194	0x3cd3ea19	0.025868462
195	0xba5be9ff	-0.0008389055
196	0xbddfb8fd	-0.109239556
197	0xbde51387	-0.11185365
198	0x3d71f6e3	0.05907334
199	0xbcc212b3	-0.023690557
200	0xbc0f47a3	-0.008745107
201	0x3c8818ce	0.01661339
202	0xbca6ad7b	-0.020346394
203	0x3dbdf8d5	0.092759766
204	0x3d3ca26c	0.046053335
205	0xbd549800	-0.05190277
206	0x3d337083	0.04380847
207	0xbd4fdfee	-0.050750665
208	0xbd8dfd5a	-0.069330886
209	0x3d41bc07	0.047298457
210	0xbd0f4ca8	-0.034985214
211	0xbd16c207	-0.036806133
212	0xbda51a4c	-0.08061656
213	0xbdb58862	-0.088639036
214	0xbc710d28	-0.014712609
215	0xbc5d2130	-0.013496682
216	0xbd449e83	-0.04800273
217	0xbbc44249	-0.005989347
218	0xbd85dbdc	-0.065360755
219	0x3c9b1f42	0.018935803
220	0xbdc1d023	-0.09463527
221	0xbd9cee74	-0.07662669
222	0x3c624bad	0.013811988
223	0xbdcb332e	-0.09921871
224	0xbd4d2726	-0.050086163
225	0xbda5cf6d	-0.08096204
226	0x3d727a53	0.05919869
227	0xbddfb038	-0.10922283
228	0xbd483421	-0.04887784
229	0x3db92c29	0.09041626
230	0x3c8565c6	0.01628388
231	0xbc1ab590	-0.009442702
232	0x3d724717	0.059149828
233	0xbdd6913f	-0.10476922
234	0xbdeec078	-0.11657804
235	0xbd9ddada	-0.07707758
236	0x3d1ff21d	0.039049257
237	0x3d9a44d8	0.07532662
238	0x3d48e577	0.04904696
239	0xbcdc0e31	-0.026862236
240	0x3a109cac	0.000551651
241	0xbd46d4d9	-0.04854283
242	0xbdbcccca	-0.09218748
243	0x3d92a0d9	0.071595855
244	0xbb149d3b	-0.0022676724
245	0x3d017af7	0.03161141
246	0xbc937d7c	-0.018004172
247	0xbd939539	-0.07206196
248	0xbcd9885a	-0.026554275
249	0x3adc2970	0.0016797017
250	0x3d4fa9b2	0.050698943
251	0x3d5ea0bb	0.054352503
252	0xbdb03e0b	-0.08605584
253	0xbd8e7d3c	-0.0695748
254	0xbdc2c016	-0.09509294
255	0xbdced06f	-0.10098349

sequential_2/dense_5/MatMul f4 [11, 256]
0	0xbd10f35e	-0.035388343
1	0xbe342479	-0.17592038
2	0xbe40e692	-0.18837956
3	0xbe940008	-0.28906274
4	0xbe570762	-0.2099891
5	0xbe044e4d	-0.12920494
6	0xbe8d58ba	-0.27606755
7	0xbd32ecc6	-0.043682836
8	0xbe062bd6	-0.1310266
9	0xbe90473d	-0.2817935
10	0xbe870e7e	-0.26378244
11	0xbe8783dd	-0.2646779
12	0xbe719182	-0.23590663
13	0xbe1ddd3c	-0.15416425
14	0xbd67f29f	-0.056627866
15	0x3c05c57f	0.0081647625
16	0xbdb97ed7	-0.09057396
17	0xbeae442f	-0.34036395
18	0xbe530b70	-0.20609832
19	0xbd844ac7	-0.06459575
20	0xbe820511	-0.2539449
21	0xbdcbca78	-0.09950727
22	0x3e2c0be4	0.16801411
23	0xbea598d4	-0.3234316
24	0xbf0432e7	-0.5164017
25	0xbd58dfee	-0.05294793
26	0xbec22f82	-0.3792687
27	0xbdf33e26	-0.11877088
28	0xbe6e0f65	-0.2324806
29	0xbe5246a0	-0.20534754
30	0xbeb3e6b5	-0.35136953
31	0xbd8b68a4	-0.06807068
32	0xbe8b9619	-0.27262953
33	0xbe03a32a	-0.12855211
34	0xbef4337b	-0.47695526
35	0x3da35373	0.07974901
36	0x3d879e4c	0.066219896
37	0xbd1a9c82	-0.037746914
38	0xbddc0db5	-0.10744802
39	0xbe73a427	-0.23793088
40	0x3dc493d2	0.09598507
41	0xbeb02256	-0.34401196
42	0x3c994622	0.0187102
43	0xbe261a0e	-0.16220877
44	0x3df991d2	0.12186016
45	0xbe2f3386	-0.17109498
46	0xbe17896c	-0.14798516
47	0xbd5bb09d	-0.05363523
48	0xbd522dde	-0.051313274
49	0xbdc45ccb	-0.09588011
50	0xbeaa4f9b	-0.3326386
51	0x3cdcd407	0.026956571
52	0xbe91666a	-0.28398448
53	0xbcd7537f	-0.026284931
54	0xbe865c6b	-0.26242384
55	0x3c4f1963	0.01264033
56	0xbea09aee	-0.31368202
57	0x3d77bf42	0.060485132
58	0xbd5ae960	-0.05344522
59	0xbe702cc2	-0.23454574
60	0xbe97a014	-0.29614317
61	0xbd71be77	-0.059019532
62	0xbc9494ec	-0.018137418
63	0xbe6cd5c9	-0.23128428
64	0xbe956892	-0.29181343
65	0x3dc3812e	0.095461234
66	0xbeb77e92	-0.35838753
67	0xbccaa025	-0.024734566
68	0xbe6a2c85	-0.22868545
69	0xbeed1053	-0.46301517
70	0xbd8cfb3c	-0.06883857
71	0xbda5991c	-0.08085844
72	0xbc114fa3	-0.0088690845
73	0x3d80d464	0.0629051
74	0x3cf36f86	0.029716264
75	0xbe888040	-0.26660347
76	0xbd887388	-0.06662661
77	0xbdcd18c7	-0.100144915
78	0x3e177c85	0.14793594
79	0xbebf1135	-0.37317815
80	0xbcb2db66	-0.021833133
81	0xbe33a434	-0.17543107
82	0xbdbf1529	-0.09330208
83	0xbdd80d27	-0.105493836
84	0xbed41cb1	-0.4142814
85	0x3cbba9a7	0.022908045
86	0x3e582ba0	0.21110392
87	0x3c9852c7	0.018594159
88	0xbe0a775f	-0.13522099
89	0xbd9bd214	-0.076084286
90	0xbe43b399	-0.1911148
91	0xbdfd7ece	-0.12377702
92	0xbe82a2f2	-0.25514942
93	0xbda5b8bf	-0.08091878
94	0xbb88ec36	-0.004178549
95	0xbe43e9a6	-0.19132099
96	0xbc86b417	-0.016443295
97	0xbe61cccc	-0.2205078
98	0xbd32cbbf	-0.04365134
99	0xbe43d8af	-0.19125627
100	0xbdc09d56	-0.094050094
101	0x3c977318	0.018487498
102	0xbeb11938	-0.34589553
103	0xbeac5f01	-0.33666232
104	0xbc50b71f	-0.012738972
105	0xbeb165b6	-0.34647912
106	0xbdcc41d4	-0.09973493
107	0xbe59ca79	-0.21268643
108	0xbe0c7f7f	-0.13720511
109	0x3ceecec2	0.029151324
110	0xbeaf766b	-0.34270033
111	0xbeb80cda	-0.35947305
112	0xbe9af56f	-0.30265376
113	0xbe175f7f	-0.14782523
114	0xbe1da206	-0.15393838
115	0xbca6a9cc	-0.020344637
116	0xbc9056ef	-0.017619578
117	0x3dd0813c	0.101808995
118	0xbe1a533d	-0.15070815
119	0xbeacdfd8	-0.3376453
120	0xbe00f2a0	-0.12592554
121	0xbe1e0955	-0.15433247
122	0xbd3bcca4	-0.045849457
123	0xbceb34a8	-0.028711632
124	0xbe728c58	-0.2368635
125	0xbe969bb3	-0.29415664
126	0xbe38855b	-0.18019621
127	0x3e832380	0.25613022
128	0xbdbe9ab8	-0.09306854
129	0xbe109b1a	-0.14121667
130	0xbc4d28ad	-0.012521905
131	0xbdbb0236	-0.09131281
132	0xbb94f176	-0.004545386
133	0x3d933e01	0.07189561
134	0xbd96d2ab	-0.073644005
135	0xbecd18e9	-0.40058067
136	0xbd21fb15	-0.03954609
137	0xbc669ebe	-0.014075933
138	0x3c04fa92	0.008116381
139	0x3d8fecfd	0.07027624
140	0x3d895238	0.06705135
141	0xbdf00d07	-0.11721235
142	0xbea3a748	-0.31963563
143	0xbe22a178	-0.15881908
144	0xbe60bba9	-0.21946587
145	0xbc810596	-0.015749734
146	0xbb823dbe	-0.0039746454
147	0xbe90c072	-0.28271824
148	0xbcad3e93	-0.021148002
149	0x3dc65908	0.0968495
150	0xbdaf166a	-0.08549197
151	0xbe34f8ab	-0.17672984
152	0xbd1f74c6	-0.038929723
153	0xbd9915fc	-0.07474896
154	0xbe361146	-0.17780027
155	0xbe7e9e6e	-0.24865124
156	0xbb661e9c	-0.003511346
157	0xbe9bb7f3	-0.3041378
158	0x3d89eb1c	0.06734297
159	0xbbc7fa39	-0.006102827
160	0xbe346c1e	-0.17619368
161	0xbdbffd44	-0.093744785
162	0xbe068dc7	-0.13140021
163	0xbf1c9ea1	-0.6117955
164	0xbecb63a2	-0.3972445
165	0xbebc9244	-0.36830342
166	0xbe82ef77	-0.25573322
167	0xbdbdab30	-0.09261167
168	0x3d06447e	0.032780163
169	0xbe8fba5c	-0.28071868
170	0xbeb326e1	-0.349906
171	0xbe5166de	-0.20449397
172	0x3d4b2bfe	0.0496025
173	0xbdedbd75	-0.11608402
174	0xbedbdc49	-0.42941502
175	0xbe46137f	-0.19343375
176	0x3dc8fb37	0.098135404
177	0xbd133ea6	-0.035948418
178	0xbe49d497	-0.19710003
179	0xbed3e5b1	-0.41386178
180	0xbe932d75	-0.28745618
181	0xbe077a50	-0.13230252
182	0xbe120d22	-0.14262822
183	0xbd069ff3	-0.032867383
184	0x3c739233	0.0148664
185	0xbe868b23	-0.26278028
186	0xbcfaa0ee	-0.030594315
187	0xbe8de907	-0.27716848
188	0xbe81fc39	-0.25387743
189	0xbeadf1bd	-0.33973494
190	0xbea119a1	-0.31464866
191	0xbe76d5e0	-0.24105024
192	0x3c3e42da	0.011612618
193	0xbdd7442b	-0.10511049
194	0xbd86022c	-0.06543383
195	0xbe456d4a	-0.19279972
196	0xbe23e154	-0.16003925
197	0xbe233a70	-0.15940261
198	0x3cf46a47	0.029835833
199	0xbea980fa	-0.33106214
200	0xbdc07d70	-0.09398925
201	0xbe93e880	-0.2888832
202	0xbe49d57f	-0.19710349
203	0xbb14d71f	-0.002271123
204	0xbba1c784	-0.004937114
205	0xbd855696	-0.065106556
206	0xbe4bf6ea	-0.19918409
207	0xbdd08b80	-0.101828575
208	0xbe42dda3	-0.1902986
209	0xbd76e24c	-0.060274407
210	0x3c9b6c54	0.018972553
211	0xbe3c0178	-0.18359935
212	0xbed4da9c	-0.41573036
213	0xbed128a3	-0.40851316
214	0xbe3cb39b	-0.18427889
215	0xbe7aff44	-0.24511439
216	0xbe8ca12f	-0.27466723
217	0xbe27d575	-0.16390021
218	0xbd1a0d11	-0.037610117
219	0xbe0d48dd	-0.13797326
220	0xbe69fc49	-0.22850145
221	0xbec6c091	-0.38818792
222	0xbf056107	-0.52101177
223	0xbe995b52	-0.29952484
224	0xbe0c1b95	-0.13682397
225	0x3ca38adf	0.01996368
226	0xbe7fd914	-0.24985152
227	0x3d8cbc2e	0.0687183
228	0xbe2adbb2	-0.1668537
229	0x3d812912	0.06306662
230	0xbd0f7e1a	-0.03503237
231	0xbe25dbd4	-0.16197139
232	0xbe441130	-0.19147182
233	0xbe692da2	-0.22771314
234	0x3ca13b78	0.019681677
235	0xbe97a3f6	-0.2961728
236	0xbe09fdbe	-0.13475701
237	0xbde4a1fe	-0.1116371
238	0x3d8b79ee	0.068103656
239	0xbe96d5dd	-0.2946004
240	0xbc44c373	-0.012009489
241	0xbd55f9b5	-0.052240092
242	0x3cfc0e8e	0.030768659
243	0xbb413b8e	-0.002948496
244	0xbe338ccc	-0.17534178
245	0xbea744a1	-0.32669547
246	0x3bb08364	0.0053867567
247	0xbe041bd6	-0.12901244
248	0xbda67c4b	-0.08129176
249	0xbe12df1b	-0.1434292
250	0xbec9f427	-0.39444086
251	0xbd83c44b	-0.06433924
252	0x3d04c746	0.032416604
253	0x3d51e76d	0.051246095
254	0xbe09a3cb	-0.13441388
255	0xbeaf1aa0	-0.342

sequential_2/conv2d_6/Conv2D f4 [32, 3, 3, 3]
0	0xbda1158b	-0.07865437
1	0xbb83bcfb	-0.004020331
2	0x3d30e5ed	0.043188024
3	0x3cbba179	0.022904145
4	0xbcd8354e	-0.026392605
5	0xbdc67a19	-0.09691257
6	0xbd0176bf	-0.031607386
7	0x3e352518	0.17689931
8	0x3def853b	0.116953336
9	0xbc89bed4	-0.016814627
10	0xbe02ad82	-0.127615
11	0xbcfd5d64	-0.030928321
12	0xbd99c74d	-0.07508717
13	0x3d889f31	0.06670988
14	0xbd0a55a7	-0.03377309
15	0x3cb6645c	0.022264652
16	0xbb227ddb	-0.0024794254
17	0xbda67d7e	-0.081294045
18	0x3e169593	0.14705496
19	0x3c0dae6e	0.008647544
20	0xbda8d2a0	-0.082432985
21	0x3d14d51d	0.036336053
22	0xbe0d0c1d	-0.13774152
23	0xbdf07233	-0.11740532
24	0xbd9e122b	-0.07718309
25	0xbd70b76c	-0.058768675
26	0x3d98cce6	0.07460956
27	0x3d8f0e3f	0.06985139
28	0xbdd0b365	-0.10190467
29	0x3d33b753	0.043876003
30	0x3cd4c5b7	0.025973184
31	0x3dcbf7f8	0.09959406
32	0x3e0fdc9e	0.14049003
33	0x3c0986b1	0.008393929
34	0x3dfb9e60	0.12286067
35	0xbc93feef	-0.018065898
36	0xbe02c74c	-0.12771338
37	0xbc904cbb	-0.017614713
38	0xbe05b492	-0.13057163
39	0xbc016991	-0.007898704
40	0x3e1902fc	0.14942545
41	0xbd8ced9d	-0.06881259
42	0x3e480038	0.19531333
43	0x3e907b45	0.28219047
44	0x3df78a35	0.12086908
45	0xbd9f4793	-0.077773236
46	0xbc8a9964	-0.016918845
47	0xbe4e2069	-0.20129551
48	0xbe6264b8	-0.22108734
49	0xbdb944cc	-0.09046325
50	0xbe1b7844	-0.15182596
51	0xbe4b72ea	-0.19868055
52	0x3d55e6b3	0.052221965
53	0xbd276dce	-0.040876202
54	0xbe4a52bf	-0.19758128
55	0xbe7a1e6c	-0.24425668
56	0xbe1c856e	-0.15285274
57	0xbcc83e39	-0.024443733
58	0xbe8276b5	-0.2548119
59	0xbe45238b	-0.1925184
60	0x3dad6bd7	0.084678344
61	0xbd17bc7a	-0.03704498
62	0xbdbf8ea3	-0.09353378
63	0xba98a2f4	-0.0011645244
64	0xbcf03eff	-0.029326914
65	0x3ceebc8b	0.029142639
66	0xbdd8821d	-0.10571692
67	0x3d02e2d0	0.031954587
68	0xbca40610	-0.020022422
69	0x3d9a29ba	0.0752749
70	0x3da06f2d	0.07833705
71	0xbd965e70	-0.07342231
72	0x3e85d16c	0.2613634
73	0x3e154159	0.1457571
74	0x3e5530e2	0.20819429
75	0x3da90502	0.08252908
76	0x3e376aca	0.1791183
77	0x3de8ccca	0.113671854
78	0xbbcc44ca	-0.006233786
79	0xbd476906	-0.048684143
80	0x3da6084c	0.08107051
81	0xbe948c82	-0.2901345
82	0xbe21e8da	-0.15811482
83	0x3cc2557d	0.023722405
84	0x3ce9a820	0.028522551
85	0x3ca324e8	0.01991506
86	0xbd89c226	-0.06726484
87	0xbcd223cd	-0.025651837
88	0x3e018206	0.12647256
89	0xbd28c01f	-0.041198846
90	0xbdb4b026	-0.0882266
91	0xbe2dbea0	-0.16967249
92	0xbe1ffc3f	-0.15623568
93	0x3d4ef39e	0.0505253
94	0x3deca1bf	0.11554288
95	0x3db57b1d	0.088613726
96	0x3de591eb	0.11209472
97	0xbdba60ef	-0.0910052
98	0x3e0c524d	0.1370327
99	0x3d423507	0.047413852
100	0xbbf8867d	-0.0075843916
101	0x3bfbacd5	0.0076805153
102	0x3e14ddfe	0.14537808
103	0x3cd0e012	0.02549747
104	0x3e476124	0.1947065
105	0x3dbe8a96	0.09303777
106	0xbd3e5e86	-0.046476863
107	0x3d890f57	0.06692379
108	0xbe1bf6fe	-0.15230939
109	0x3d6e3c42	0.058162935
110	0x3badd005	0.005304339
111	0xbdf7f23d	-0.1210675
112	0xbc8521ab	-0.016251406
113	0xbda02429	-0.07819397
114	0xbeab97c9	-0.3351424
115	0xbe92fd9f	-0.28709123
116	0xbe4f8557	-0.20265709
117	0xbda78f07	-0.08181577
118	0xbe321500	-0.17390823
119	0xbc461c7a	-0.01209175
120	0xbe573edc	-0.21020073
121	0xbcee2e64	-0.029074855
122	0xbe368b2f	-0.17826532
123	0x3dc2ac34	0.095055014
124	0x3bbaecb3	0.0057044863
125	0x3e0dd09d	0.13849111
126	0x3decddd1	0.115657456
127	0x3cb385d3	0.021914398
128	0x3d34d6b1	0.04415006
129	0x3e4ce93a	0.20010844
130	0x3e781089	0.24225058
131	0x3c657af8	0.014006369
132	0x3e8946e8	0.2681191
133	0x3e5cafe5	0.21551473
134	0x3e647fdd	0.22314401
135	0x3cd299b5	0.025708059
136	0x3d8c0177	0.06836217
137	0xbe4c4a08	-0.19950116
138	0xbdc8fabb	-0.09813448
139	0x3cb6c8ef	0.02231261
140	0xbd5b51ce	-0.053544812
141	0x3d142bd3	0.036174607
142	0x3e3c107a	0.1836566
143	0xbdcb0a3a	-0.0991406
144	0x3a84da8b	0.0010135932
145	0xbe0f6ad1	-0.14005591
146	0xbda1d9ac	-0.07902846
147	0xbc83a702	-0.016070846
148	0x3dbad26a	0.091221645
149	0xbe123201	-0.14276887
150	0x3e0eb2b4	0.13935357
151	0xbcbd48a7	-0.023105932
152	0x3d3e687d	0.046486367
153	0xbe0f2b2f	-0.13981317
154	0x3d05f01c	0.03269969
155	0xbdbde331	-0.09271849
156	0xbcafd05c	-0.021461658
157	0xbc7e4cb9	-0.015521222
158	0xbdd5a731	-0.1043228
159	0x3d11d8ad	0.03560703
160	0x3d5db75d	0.054129947
161	0xbdd94214	-0.106083065
162	0x3e2dcb77	0.16972147
163	0x3e27fa08	0.16403973
164	0x3dd79816	0.10527055
165	0xbd9edcad	-0.07756934
166	0x3c99d79f	0.018779574
167	0x3def10c2	0.11673118
168	0xbe9d2c78	-0.3069799
169	0xbe41cd2c	-0.18925923
170	0xbe90f556	-0.28312176
171	0x3e16e46a	0.1473557
172	0x3b00e152	0.0019665551
173	0x3d277782	0.040885456
174	0x3e39114c	0.18073004
175	0x3df0be43	0.117550395
176	0x3e0048b3	0.12527733
177	0xbe662415	-0.22474702
178	0xbe47e6f4	-0.19521695
179	0xbe00a2f8	-0.12562168
180	0x3cef381b	0.029201558
181	0x3bd42318	0.00647391
182	0x3e148ae1	0.14506103
183	0x3e338fd5	0.17535336
184	0x3e1ad387	0.15119754
185	0x3ca12028	0.019668654
186	0xbe0e1fea	-0.13879362
187	0xbcc3cec7	-0.02390231
188	0xbd716093	-0.05892999
189	0x3db359d1	0.087573655
190	0x3e67f87d	0.22653385
191	0xbd3b27e0	-0.045692325
192	0x3c368bf6	0.011141768
193	0x3e139485	0.14412124
194	0x3dfe3327	0.124121
195	0x3de5de23	0.1122401
196	0x3d5f089d	0.054451574
197	0x3b3cb7eb	0.0028796147
198	0xbe0cf342	-0.1376467
199	0x3db8548c	0.09000501
200	0x3e061f11	0.13097788
201	0x3c7ba373	0.015358794
202	0x3d98b1c4	0.07455781
203	0x3a135926	0.0005620889
204	0x3d096e99	0.03355274
205	0x3c84fc2c	0.016233526
206	0x3e472455	0.19447453
207	0xbdb3ce22	-0.08779551
208	0xbe7e428f	-0.24830078
209	0xbe352876	-0.17691216
210	0xbb986122	-0.004650251
211	0xbe823722	-0.25432688
212	0xbe3a7f45	-0.18212612
213	0xbdb7cad8	-0.08974236
214	0xbd6e1c24	-0.058132306
215	0xbdd3560d	-0.10319147
216	0xbdd17bc1	-0.10228682
217	0x3d845193	0.064608715
218	0xbd3c8427	-0.046024468
219	0xbe2263e9	-0.15858425
220	0xbd22b811	-0.03972632
221	0xbdbec041	-0.09314013
222	0xbb1d8f9e	-0.0024041901
223	0x3e11e842	0.14248756
224	0x3d360cbc	0.04444574
225	0xbe00334c	-0.12519568
226	0xbde554a4	-0.111977845
227	0xbcadf751	-0.021236094
228	0x3d1bef87	0.038070228
229	0xbc3fadc3	-0.011699143
230	0x3e0549ec	0.1301648
231	0xbe34a4e7	-0.1764103
232	0x3dbf642f	0.093452804
233	0x3e026599	0.12734069
234	0xbe17522f	-0.14777444
235	0xbd774a26	-0.060373448
236	0xbd358f9f	-0.04432642
237	0xbdd13167	-0.10214501
238	0x3cb80162	0.022461597
239	0x3bbd2f4f	0.005773462
240	0xbdc05e33	-0.09392967
241	0xbd347d32	-0.044064708
242	0x3d52d428	0.05147186
243	0xbcf92bb7	-0.030416353
244	0x3c64b1e0	0.013958424
245	0xbd1e9532	-0.038716502
246	0xbe04df4c	-0.12975806
247	0xbe0afa49	-0.13572039
248	0xbda0d9f3	-0.078540705
249	0xbd68944b	-0.05678205
250	0xbd9192e2	-0.07108094
251	0x3d591161	0.05299509
252	0x3d5555ef	0.052083906
253	0x3e1a64f3	0.15077572
254	0xbbe041bb	-0.006843773
255	0xbc4c8d2d	-0.012484831

sequential_2/conv2d_7/Conv2D f4 [32, 3, 3, 32]
0	0x3d23a31c	0.039950475
1	0x3c659fa8	0.014015116
2	0x3d8e173e	0.06938027
3	0x3d4fc2c5	0.050722856
4	0x3db67ea7	0.08910876
5	0xbe01e4c7	-0.12684928
6	0xbc9f6f14	-0.019462146
7	0xbc2daafe	-0.01059985
8	0x3d6a5302	0.05720807
9	0xbce8dd47	-0.028425826
10	0x3d17f4c5	0.037098665
11	0xbe01886f	-0.12649702
12	0xbca72bac	-0.020406567
13	0x3dba4091	0.09094346
14	0x3db752a4	0.08951309
15	0x3d121bd9	0.03567109
16	0x3ceff2ca	0.029290576
17	0xbdbf501c	-0.093414515
18	0x3daa99ef	0.08330142
19	0xbd849200	-0.0647316
20	0xbd90e59c	-0.070750445
21	0xbbecfe16	-0.007232438
22	0x3db79879	0.08964629
23	0xbd39b0b1	-0.04533452
24	0x3db80734	0.08985749
25	0x3c2ecaee	0.010668499
26	0xbd535300	-0.051592827
27	0x3d336408	0.04379657
28	0xbb8887c3	-0.0041665747
29	0x3d67e253	0.056612324
30	0xbdef03e5	-0.11670665
31	0xbd7021eb	-0.058626097
32	0xbd07b2e6	-0.033129595
33	0xbcf3cae3	-0.02975983
34	0xbd2040e5	-0.03912439
35	0xbdbd3d55	-0.09240214
36	0x3cbb2277	0.022843583
37	0xbc2d8144	-0.010589901
38	0xbd79ae3d	-0.060957182
39	0x3d43ef9d	0.047835935
40	0xbdbd937e	-0.092566475
41	0xbcb9f6b0	-0.022700638
42	0xbd9bc4e9	-0.07605917
43	0x3d9b1e46	0.075741336
44	0x3ba0b03c	0.0049038213
45	0x3dbe0e54	0.092800766
46	0xbc1b0803	-0.009462359
47	0xbb845728	-0.00403871
48	0xbd9185fe	-0.07105635
49	0x3c1c35c1	0.0095343
50	0xbdb021c0	-0.08600187
51	0xbd02c042	-0.031921633
52	0xbd1068b0	-0.035256088
53	0xbc633af9	-0.013869041
54	0x3c8970af	0.016777365
55	0xbd21f8c3	-0.03954388
56	0x3d2fdf1b	0.04293738
57	0x3c48ef78	0.012264125
58	0x3da3b4a7	0.07993441
59	0xbd76d1bf	-0.060258623
60	0xbd95a38e	-0.07306586
61	0xbdbda6b1	-0.092603095
62	0xbd9ab87a	-0.07554717
63	0xbdabf55a	-0.083964065
64	0x3c0d1e60	0.008613199
65	0x3c366a61	0.011133761
66	0xbd9375e0	-0.07200217
67	0xbe00043a	-0.12501612
68	0x3d66bc33	0.056331825
69	0xbc301bb0	-0.010748789
70	0x3d836e1e	0.064174876
71	0xbcd06915	-0.025440732
72	0xbc756f73	-0.014980185
73	0x3d0769ed	0.033060003
74	0x3c7063d0	0.014672235
75	0x3db355e7	0.08756619
76	0x3d235471	0.03987545
77	0x3c75f2ed	0.015011531
78	0x3cb1d939	0.021710025
79	0xbd46b0d8	-0.048508495
80	0xbd91e899	-0.071244426
81	0x3b700bde	0.0036628167
82	0xbdb9118a	-0.090365484
83	0x3d2172e0	0.039416194
84	0x3d11b444	0.035572305
85	0xbd455c6d	-0.048183847
86	0xbd146fba	-0.036239363
87	0xbd87a888	-0.06623942
88	0xbdf6e027	-0.120544724
89	0xbd354b78	-0.044261426
90	0xbcd00ac9	-0.025395768
91	0xbdd0393c	-0.101671666
92	0xbc9697db	-0.018382957
93	0x3d35338a	0.044238605
94	0xbdd2b676	-0.10288708
95	0x3c3b135e	0.011418192
96	0x3dbc535e	0.091955885
97	0x3d0dca47	0.034616735
98	0xbae68271	-0.0017586482
99	0xbdd80b49	-0.105490275
100	0x3cadfb59	0.021238016
101	0xbdd329d2	-0.10310711
102	0xbd062cf1	-0.032757703
103	0xbd986d95	-0.07442776
104	0xbdcf26a5	-0.10114793
105	0xb9b350cd	-0.00034201742
106	0x3d0bb2de	0.034106128
107	0x3cfe54b3	0.031046247
108	0x3bc13029	0.0058956337
109	0x3d2bf029	0.04197708
110	0xbd8d05a0	-0.068858385
111	0xbd238e9a	-0.039930917
112	0x3d15d5ab	0.036580723
113	0x3c39112c	0.011295598
114	0xbe012fa0	-0.12615824
115	0x3c2310b7	0.009952716
116	0xbc9640cb	-0.018341443
117	0xbbbd71c4	-0.005781384
118	0xbce5d84e	-0.028057244
119	0xbe08fb40	-0.13377094
120	0x3c5da458	0.013527952
121	0x3db3c884	0.0877848
122	0xbd034cd7	-0.032055702
123	0xbd293076	-0.04130598
124	0xbd4b0f73	-0.04957528
125	0xbcb58180	-0.022156477
126	0xbe0f0bed	-0.13969393
127	0xbd598f8e	-0.05311542
128	0xbc8b8af3	-0.01703403
129	0xbd867715	-0.06565682
130	0x3bbbb9d3	0.005728939
131	0xbdd0fcf6	-0.102044985
132	0x3d8b4ac4	0.0680137
133	0x3d389ca4	0.04507126
134	0xbd28b7d6	-0.041190945
135	0xbda54a50	-0.080708146
136	0x3c109854	0.00882538
137	0xbb68c0bf	-0.0035515276
138	0xbe0bffcb	-0.13671796
139	0x3b50ace6	0.0031841337
140	0xbd1a57d2	-0.03768141
141	0xbd93f63b	-0.07224699
142	0x3c440d92	0.011966126
143	0x3d34ed72	0.044171758
144	0x3d6317f4	0.055442765
145	0xbcad5c61	-0.021162214
146	0xbca562fc	-0.020188801
147	0xbcf80529	-0.030275898
148	0xbca0f11d	-0.019646222
149	0x3cdab3a9	0.026696997
150	0xbd952f17	-0.07284372
151	0x3d1f2d3e	0.038861506
152	0x3d87d177	0.06631749
153	0x3cca71fc	0.024712555
154	0xbd3c7e0b	-0.04601864
155	0xbd39cb1f	-0.045359727
156	0xbcd4cf97	-0.025977893
157	0xbd915010	-0.07095349
158	0xbc393134	-0.011303235
159	0xbcaf32b5	-0.021386484
160	0xbdddd354	-0.10831323
161	0xbdbce65f	-0.09223627
162	0x3cf5bc3d	0.029996986
163	0xbd83ca19	-0.064350314
164	0xbdc6254c	-0.096750826
165	0xbdf9cca7	-0.121972375
166	0x3d8a7939	0.06761403
167	0xbd809093	-0.06277575
168	0xbcd6c3ad	-0.026216352
169	0xbc8a2527	-0.016863419
170	0xbd9693c1	-0.073524006
171	0x3d07bb65	0.033137698
172	0xbcfe14b1	-0.031015726
173	0x3d74d9b3	0.059777927
174	0xbb85c09d	-0.004081799
175	0xbdd96154	-0.10614267
176	0xbc156265	-0.009117697
177	0xbdc38d4a	-0.09548433
178	0xbd1f3c83	-0.038876068
179	0xbc4d55f7	-0.012532703
180	0xbdafe10e	-0.08587848
181	0x3c6920e0	0.014229029
182	0xbdaa35c4	-0.08311036
183	0x3d4374d9	0.047718856
184	0xbdd5daac	-0.10442099
185	0xbcae0928	-0.0212446
186	0xbc9c20eb	-0.019058665
187	0xbcf0598e	-0.029339578
188	0x3b444002	0.0029945378
189	0x3c2a6c02	0.010401728
190	0xbdd42ebd	-0.10360477
191	0xbd3e4b2d	-0.046458412
192	0xbd69e484	-0.057102695
193	0xbd894ca5	-0.06704072
194	0x3d853bc1	0.06505538
195	0xbd0cfa2f	-0.03441828
196	0xbd9f32e0	-0.077733755
197	0x3d566920	0.05234635
198	0xbaf8ca34	-0.001898116
199	0xbd7231d7	-0.059129562
200	0x3d9d1aae	0.07671104
201	0x3d927dd2	0.071529046
202	0x3cd62456	0.026140373
203	0xbb0a820a	-0.0021134638
204	0xbcf662a0	-0.030076325
205	0xbdaaffab	-0.08349546
206	0x3d9e2239	0.07721371
207	0x3cc6761e	0.024226245
208	0xbd85d147	-0.06534057
209	0x3b996b76	0.004682
210	0xbddc5e4d	-0.10760174
211	0x3dc58136	0.09643786
212	0xbd8c3020	-0.068451166
213	0x3ded6f08	0.11593443
214	0xbd5e7f13	-0.054320406
215	0x3cb330ea	0.02187391
216	0x3c89ad80	0.016806364
217	0x3d5708a8	0.05249849
218	0xbda3d66c	-0.07999882
219	0x3b2e5776	0.0026602424
220	0x3c80bc56	0.015714806
221	0xbcfbfb9a	-0.030759621
222	0xbe050305	-0.12989433
223	0x3d650821	0.055915955
224	0xbc91ecd8	-0.017813131
225	0xbd3af437	-0.045643058
226	0xbd3cfdea	-0.04614059
227	0x3da239d8	0.07921189
228	0xbd8d5892	-0.06901659
229	0xbdd7d043	-0.1053777
230	0xbd9b2bba	-0.075766996
231	0xbd7d4ee5	-0.061842818
232	0x3d047feb	0.032348555
233	0xbd2ec2e3	-0.042666327
234	0xbd8e53b4	-0.06949559
235	0xbdbffe4d	-0.09374676
236	0xbdcad001	-0.09902955
237	0x3bc66acf	0.006055213
238	0x3d358f10	0.04432589
239	0xbddca681	-0.107739456
240	0x3d08eed6	0.033430897
241	0xbde208f6	-0.110368654
242	0xbc01283f	-0.007883131
243	0x3d9030f1	0.07040585
244	0xbdaea90b	-0.08528336
245	0xbda58643	-0.08082249
246	0xbc9a49b6	-0.018833976
247	0xbe03ce97	-0.12871777
248	0x3d9859de	0.07439016
249	0x3d216863	0.03940619
250	0xbc25ca36	-0.010119012
251	0x3c70227f	0.014656662
252	0x3dd3bf3e	0.10339211
253	0x3cab49d3	0.020909226
254	0xbe0789eb	-0.13236205
255	0xbd1a3146	-0.037644647

sequential_2/conv2d_8/Conv2D f4 [32, 3, 3, 32]
0	0x3d684a35	0.056711394
1	0x3df55320	0.119787455
2	0xbca7030b	-0.020387193
3	0x3d99425f	0.074833624
4	0x3da1658d	0.078806974
5	0x3d00e583	0.03146888
6	0x3b4c7eaa	0.0031203427
7	0xbcbe7715	-0.023250142
8	0xbe442e81	-0.19158365
9	0xbdbcc2ab	-0.092168175
10	0x3cef9e8c	0.029250406
11	0x3e279f22	0.16369298
12	0x3c0f6c96	0.008753916
13	0x3d451d50	0.048123658
14	0x3c83bebb	0.016082158
15	0x3d440787	0.04785874
16	0xbddf2848	-0.10896355
17	0xbde7310c	-0.11288652
18	0x3c887ae4	0.016660161
19	0xbe0a5245	-0.13507946
20	0x3d7383ac	0.059451744
21	0x3c51d8ca	0.012808034
22	0xbd3ff1f2	-0.046861596
23	0xbb0ee0c3	-0.002180145
24	0xbc73ef9a	-0.014888668
25	0xbcab289b	-0.020893386
26	0xbe30c167	-0.17261277
27	0x3d19d9ee	0.03756135
28	0xbd3bac91	-0.04581887
29	0x3c20314e	0.00977738
30	0xbde9fcb8	-0.114251554
31	0x3e37913d	0.17926498
32	0xbc90faaa	-0.017697651
33	0xbc75def8	-0.015006773
34	0x3c9befe8	0.019035295
35	0x3dd8e215	0.10589997
36	0xbcace01b	-0.021102956
37	0x3bb98791	0.0056619127
38	0xbd8febff	-0.070274346
39	0x3d550f3a	0.052016474
40	0xbe0673e9	-0.13130154
41	0x3c73095d	0.014833775
42	0x3d0942ba	0.0335109
43	0x3e4d3739	0.20040597
44	0x3d1d4d65	0.038403887
45	0x3cad8784	0.021182783
46	0xba7bb3d4	-0.00096016866
47	0x3d65106c	0.055923864
48	0x3d9d6210	0.076847196
49	0xbd8633c2	-0.06552841
50	0x3c9cf9a2	0.019162003
51	0x3d9adee2	0.07562043
52	0xbd04cd52	-0.03242237
53	0xbd7ef265	-0.062242884
54	0xbdeb80d2	-0.1149918
55	0x3c044c0c	0.008074772
56	0x3db2f614	0.08738342
57	0xbd9ded51	-0.0771128
58	0xbdedca79	-0.11610884
59	0x3c087d13	0.008330601
60	0x3e25e6c2	0.16201308
61	0x3dcbcb78	0.09950918
62	0xbe0e62fd	-0.13904949
63	0x3e0e4ec4	0.13897234
64	0xbd3c1296	-0.045916162
65	0xbcf2aa9f	-0.029622374
66	0xbbb048f1	-0.005379789
67	0x3e398a0e	0.1811907
68	0xbdaba66d	-0.083813526
69	0xbe200086	-0.156252
70	0x3b6b114a	0.003586846
71	0x3cb6af6e	0.022300448
72	0xbdad9eaf	-0.08477532
73	0xbcfdcebe	-0.030982371
74	0xbdad84e5	-0.08472613
75	0x3dfede35	0.124447264
76	0xbce3cbb7	-0.0278071
77	0x3da9f851	0.08299316
78	0x3e19fd56	0.15038046
79	0x3d87eca4	0.066369325
80	0x3e831ede	0.25609487
81	0x3eaad0cc	0.33362424
82	0xbd6fad72	-0.05851502
83	0x3d86b8ac	0.06578192
84	0xbd98b639	-0.07456631
85	0x3c76273f	0.015024005
86	0xbd9cb037	-0.07650798
87	0xbdabcba6	-0.08388452
88	0xbc9d83a6	-0.019227814
89	0xbda3b14f	-0.07992803
90	0xbd2244a7	-0.039616253
91	0xbe88254c	-0.26590955
92	0x3d4a86de	0.049445026
93	0x3d84b2a7	0.06479388
94	0x3dca3be5	0.09874705
95	0xbd93cbf8	-0.07216638
96	0xbcf97e25	-0.030455658
97	0x3cb602e1	0.02221817
98	0x3d37ade4	0.04484357
99	0x3cfd7646	0.030940186
100	0x3d1325a9	0.035924587
101	0xbdd0ae7a	-0.10189529
102	0x3c9a766b	0.018855294
103	0xbd03ba94	-0.032160357
104	0xbda36571	-0.07978333
105	0x3e593e25	0.21215113
106	0x3cdaca9a	0.026707936
107	0x3e2359fa	0.15952292
108	0x3e1dba41	0.15403081
109	0x3d1e8fa4	0.038711205
110	0x3c620c96	0.013796946
111	0x3c541123	0.012943539
112	0xbe4950e2	-0.1965976
113	0xbbd92443	-0.006626637
114	0xbcbed0e7	-0.023292972
115	0xbe4c66f8	-0.19961154
116	0x3e008e94	0.12554389
117	0x3d3c3258	0.04594645
118	0x3e0a0a10	0.13480401
119	0xbd1af254	-0.03782876
120	0x3da69acc	0.08134994
121	0x3d49861b	0.04920016
122	0xbe30f3f2	-0.17280558
123	0xbd551467	-0.05202141
124	0x39fd3cb4	0.00048301148
125	0x3c7aeb99	0.01531496
126	0xbde011f5	-0.10940925
127	0xbccfca8f	-0.025365142
128	0xbd60e1f3	-0.054902982
129	0x3baea033	0.005329156
130	0xbcc428b0	-0.023945183
131	0xbe0574e2	-0.13032869
132	0x3dfcf9c1	0.12352324
133	0x3da62531	0.081125624
134	0xbdca76e0	-0.09885955
135	0x3d283334	0.041064456
136	0xbdcf8776	-0.10133259
137	0xbdb038a1	-0.08604551
138	0xbd5d2b53	-0.053996395
139	0xbdfcd404	-0.12345126
140	0x3d46d85a	0.048546173
141	0xbd0aa4d7	-0.03384861
142	0x3b9542d7	0.004555087
143	0x3c7ef2cd	0.015560818
144	0xbda02ee9	-0.078214474
145	0x3d1036a6	0.035208367
146	0xbca326c2	-0.019915942
147	0x3d932eb5	0.07186643
148	0x3e5f4536	0.21803746
149	0xbd9562e7	-0.07294255
150	0xbe2c8f05	-0.16851433
151	0xbd5f171f	-0.05446541
152	0xbe18c246	-0.1491786
153	0xbe2b2b0b	-0.16715638
154	0xbe1c856a	-0.15285268
155	0xbd642183	-0.05569602
156	0x3cff242e	0.031145182
157	0xbd928a95	-0.07155339
158	0x3dd5e123	0.10443332
159	0x3e39c0fb	0.18140022
160	0x3ce4664c	0.02788081
161	0xbd00c1df	-0.03143489
162	0xbd9bb018	-0.076019466
163	0xbdaf21d0	-0.08551371
164	0x3e13edd0	0.14446187
165	0xbd6ffe8b	-0.05859236
166	0xbe2b98fd	-0.16757579
167	0xbdfb3565	-0.122660436
168	0x3dcc4f75	0.09976093
169	0xbe5fec83	-0.21867566
170	0xbd46b5df	-0.04851329
171	0x3df5149b	0.11966821
172	0x3e484eaa	0.19561258
173	0xbd2a0b10	-0.041514456
174	0x3dfcf38d	0.12351141
175	0x3cb896d1	0.022532852
176	0x3dd9a857	0.106278114
177	0x3dc78697	0.09742468
178	0xbd7df116	-0.061997496
179	0xbc8c61e0	-0.017136514
180	0x3ccf3f62	0.025298778
181	0x3e672c42	0.22575477
182	0xbd293113	-0.041306566
183	0xbdb88c17	-0.09011095
184	0xbe25c188	-0.16187108
185	0xbd5180e1	-0.0511483
186	0xbe5a3da3	-0.21312575
187	0x3d8787e3	0.06617715
188	0xbe11508f	-0.14190887
189	0x3e3e988c	0.1861288
190	0x3e82b292	0.25526863
191	0xbd9cc73f	-0.07655191
192	0x3d841d2a	0.06450875
193	0xbd3740f4	-0.04473968
194	0x3cfef56d	0.031122888
195	0x3c61a228	0.013771571
196	0xbd8283f7	-0.063728265
197	0x3d1bcd3c	0.038037524
198	0x3da3d09c	0.079987735
199	0xbd8a7658	-0.067608535
200	0x3cf7e812	0.030262027
201	0x3da08af7	0.078390054
202	0xbd579e54	-0.052641228
203	0x3dae2959	0.0850398
204	0xbe09cd11	-0.13457133
205	0x3d74cd30	0.059765995
206	0x3c563a46	0.013075417
207	0xbd5f19b9	-0.05446789
208	0xbce0b48b	-0.02742984
209	0x3d4ab733	0.04949112
210	0x3d161785	0.036643524
211	0xbdf12c6d	-0.11776052
212	0xbe258a2c	-0.1616599
213	0xbde9dd56	-0.114191696
214	0xbd9d575e	-0.076826796
215	0x3c4ac7ab	0.012376706
216	0x3b8f136a	0.004366328
217	0x3d8393ce	0.06424676
218	0x3cd1eed7	0.025626583
219	0x3bf747c3	0.0075463965
220	0xbdf35353	-0.11881127
221	0xbc11d3d1	-0.008900599
222	0x3c375e0f	0.011191859
223	0x3e069d99	0.13146056
224	0xbd7f933a	-0.062396266
225	0x3d07c32b	0.03314511
226	0xbe9d035a	-0.3066662
227	0xbd4c9195	-0.049943525
228	0xbd5b11c1	-0.05348373
229	0x3e1cc924	0.15311104
230	0xbcfa59fe	-0.03056049
231	0xbe5c0c9b	-0.21489184
232	0xbd8c33f6	-0.06845848
233	0xbd9de0ad	-0.07708869
234	0xbe222266	-0.15833434
235	0xbe11e79d	-0.1424851
236	0xbe61d6e7	-0.22054635
237	0x3e6a4629	0.22878326
238	0x3e19e6b0	0.15029407
239	0x3d3a8f51	0.045546833
240	0xbdc60ae2	-0.096700445
241	0xbe0124ea	-0.12611738
242	0x3d8034a7	0.06260043
243	0x3dd916c5	0.10600046
244	0xbc35d445	-0.011097972
245	0x3d4be7d1	0.049781624
246	0xbe0899fb	-0.13339989
247	0xbe0410c8	-0.12897027
248	0xbcefa628	-0.029254034
249	0x3d59fe65	0.053221125
250	0x3dada53f	0.08478784
251	0x3b9f63d2	0.0048641944
252	0xbdcfc3c0	-0.10144758
253	0xbd146868	-0.036232382
254	0xbb9d2d5b	-0.0047966666
255	0x3d400f8f	0.046889838
