a_output_actual/dig-s0-q.tflite (tflite, 335904 bytes, 5 tensors)

sequential/conv2d/Conv2D i1 [32, 3, 3, 3]
-66 -127 -85 -33 18 -5 78 41
53 1 22 42 22 67 48 -5
10 16 44 54 9 20 42 -15
-25 -76 -84 -27 12 -28 -33 -81
-81 -73 -116 -127 3 -52 52 -7
-15 35 27 31 41 1 26 15
55 98 57 109 63 71 -3 -127
-12 -54 -8 -117 104 55 64 -37
-121 -17 -57 90 -16 24 68 97
-62 -54 -67 48 59 98 77 6
3 2 -73 1 34 54 -86 81
56 58 -9 -7 46 80 113 40
-44 -52 50 21 17 28 36 -19
-46 -127 -82 -90 -24 5 23 -107
-81 -101 -51 -37 -58 113 73 -1
87 54 -64 -63 -16 -59 12 -25
37 127 -16 90 -25 35 -29 -13
98 65 -122 -5 3 -78 -127 -112
82 12 44 -27 45 111 1 -74
-62 56 125 22 25 62 -10 30
27 -71 -77 -113 -63 111 79 34
-10 76 127 -74 -4 -64 -70 -86
30 -45 98 16 -42 -10 -94 -27
-84 37 7 106 -28 88 36 85
-55 -18 38 26 -51 -2 57 46
57 -35 -107 -122 16 -23 24 -36
63 51 -127 -82 -17 41 24 -33
-53 -92 -41 -80 -30 -8 35 -16
3 -49 36 -33 -68 -35 -79 -5
0 -42 127 124 106 47 65 28
-23 -5 -5 100 -56 -124 118 -35
11 61 -33 -66 -76 -45 -66 23
00000000: be81 abdf 12fb 4e29 3501 162a 1643 30fb
00000010: 0a10 2c36 0914 2af1 e7b4 ace5 0ce4 dfaf
00000020: afb7 8c81 03cc 34f9 f123 1b1f 2901 1a0f
00000030: 3762 396d 3f47 fd81 f4ca f88b 6837 40db
00000040: 87ef c75a f018 4461 c2ca bd30 3b62 4d06
00000050: 0302 b701 2236 aa51 383a f7f9 2e50 7128
00000060: d4cc 3215 111c 24ed d281 aea6 e805 1795
00000070: af9b cddb c671 49ff 5736 c0c1 f0c5 0ce7
00000080: 257f f05a e723 e3f3 6241 86fb 03b2 8190
00000090: 520c 2ce5 2d6f 01b6 c238 7d16 193e f61e
000000a0: 1bb9 b38f c16f 4f22 f64c 7fb6 fcc0 baaa
000000b0: 1ed3 6210 d6f6 a2e5 ac25 076a e458 2455
000000c0: c9ee 261a cdfe 392e 39dd 9586 10e9 18dc
000000d0: 3f33 81ae ef29 18df cba4 d7b0 e2f8 23f0
000000e0: 03cf 24df bcdd b1fb 00d6 7f7c 6a2f 411c
000000f0: e9fb fb64 c884 76dd 0b3d dfbe b4d3 be17

sequential/conv2d_1/Conv2D i1 [64, 3, 3, 32]
20 -97 26 -70 -72 -9 15 37
-109 8 -17 -36 -60 39 -16 3
-55 18 18 25 -27 -30 -43 19
91 52 5 -60 -46 0 43 -12
24 -64 45 13 -2 -15 -24 22
-127 -77 -47 -17 -82 21 -84 -16
17 -46 -13 22 -1 -76 -71 7
78 -14 -1 -36 -56 24 61 -55
-22 -32 -14 32 -10 -30 -66 27
-85 -43 -7 -18 -18 8 -42 -30
11 0 11 43 -32 17 20 -18
-36 -1 -28 -15 -16 -29 28 9
-25 10 36 -16 -35 -34 0 28
-68 41 -56 -33 -32 39 12 6
-28 52 51 65 10 -67 -39 42
60 25 -20 -17 -50 -4 46 -25
-29 -73 4 10 -61 -33 -42 47
-84 -32 -17 15 -43 53 -14 22
16 -26 -39 52 -20 -79 21 16
41 -18 17 -3 -23 51 49 -21
-11 -75 -42 20 -50 22 -19 16
-21 31 -17 -23 -30 36 -39 -18
9 2 62 48 37 -52 16 -33
-4 22 -43 -24 -8 13 44 11
22 9 45 -6 -31 -2 24 6
-14 54 52 15 -13 48 19 -11
-21 -4 -7 24 17 1 -8 18
79 52 23 -21 -59 -25 10 48
-5 -76 35 12 18 32 41 16
-19 -49 19 57 4 24 -26 -27
55 -7 -77 7 -8 -2 59 50
25 -4 -3 -12 12 38 45 -19
00000000: 149f 1aba b8f7 0f25 9308 efdc c427 f003
00000010: c912 1219 e5e2 d513 5b34 05c4 d200 2bf4
00000020: 18c0 2d0d fef1 e816 81b3 d1ef ae15 acf0
00000030: 11d2 f316 ffb4 b907 4ef2 ffdc c818 3dc9
00000040: eae0 f220 f6e2 be1b abd5 f9ee ee08 d6e2
00000050: 0b00 0b2b e011 14ee dcff e4f1 f0e3 1c09
00000060: e70a 24f0 ddde 001c bc29 c8df e027 0c06
00000070: e434 3341 0abd d92a 3c19 ecef cefc 2ee7
00000080: e3b7 040a c3df d62f ace0 ef0f d535 f216
00000090: 10e6 d934 ecb1 1510 29ee 11fd e933 31eb
000000a0: f5b5 d614 ce16 ed10 eb1f efe9 e224 d9ee
000000b0: 0902 3e30 25cc 10df fc16 d5e8 f80d 2c0b
000000c0: 1609 2dfa e1fe 1806 f236 340f f330 13f5
000000d0: ebfc f918 1101 f812 4f34 17eb c5e7 0a30
000000e0: fbb4 230c 1220 2910 edcf 1339 0418 e6e5
000000f0: 37f9 b307 f8fe 3b32 19fc fdf4 0c26 2ded

sequential/conv2d_2/Conv2D i1 [64, 3, 3, 64]
-36 36 -24 33 -31 41 13 -28
-25 -7 46 48 8 16 -34 39
8 -11 -48 45 49 -20 1 4
89 -45 -29 -22 2 1 -15 -53
-8 -29 -88 -15 6 38 -33 -21
31 11 -19 77 -31 -78 23 69
6 20 -23 46 42 -55 -100 -23
-31 18 -21 -4 56 -14 -65 34
-35 6 42 12 -22 -91 23 -11
-22 -4 -31 -3 8 -88 -41 7
39 28 -2 101 -12 -29 16 -31
45 -11 3 -56 -20 8 -9 71
5 36 -63 37 -5 69 69 6
-16 -92 8 66 11 -30 5 -4
-2 -21 3 4 -17 -39 -4 -8
-3 -32 -54 13 12 1 43 -25
-45 -3 60 -41 14 -4 49 19
6 16 -5 -3 40 -4 15 36
-21 -15 17 -2 -79 -17 -72 -28
59 25 38 -2 -30 -24 -45 20
57 10 35 19 -26 -20 101 8
-93 -4 17 82 -6 -61 5 25
12 5 25 47 -2 -41 8 -13
-38 -15 27 -117 32 -29 -22 31
31 -19 -50 -2 0 54 18 -11
-58 4 25 25 72 103 18 37
10 2 29 58 52 -29 -11 -42
96 19 16 25 -87 38 -2 -69
23 0 75 13 -79 -13 2 -5
77 -49 18 -56 18 7 -31 -47
-97 -9 -1 116 -28 33 -13 69
-15 3 -120 32 101 -20 -56 -10
00000000: dc24 e821 e129 0de4 e7f9 2e30 0810 de27
00000010: 08f5 d02d 31ec 0104 59d3 e3ea 0201 f1cb
00000020: f8e3 a8f1 0626 dfeb 1f0b ed4d e1b2 1745
00000030: 0614 e92e 2ac9 9ce9 e112 ebfc 38f2 bf22
00000040: dd06 2a0c eaa5 17f5 eafc e1fd 08a8 d707
00000050: 271c fe65 f4e3 10e1 2df5 03c8 ec08 f747
00000060: 0524 c125 fb45 4506 f0a4 0842 0be2 05fc
00000070: feeb 0304 efd9 fcf8 fde0 ca0d 0c01 2be7
00000080: d3fd 3cd7 0efc 3113 0610 fbfd 28fc 0f24
00000090: ebf1 11fe b1ef b8e4 3b19 26fe e2e8 d314
000000a0: 390a 2313 e6ec 6508 a3fc 1152 fac3 0519
000000b0: 0c05 192f fed7 08f3 daf1 1b8b 20e3 ea1f
000000c0: 1fed cefe 0036 12f5 c604 1919 4867 1225
000000d0: 0a02 1d3a 34e3 f5d6 6013 1019 a926 febb
000000e0: 1700 4b0d b1f3 02fb 4dcf 12c8 1207 e1d1
000000f0: 9ff7 ff74 e421 f345 f103 8820 65ec c8f6

sequential/dense/MatMul i1 [512, 512] scale=0.0027478256 zero_point=0
-0.04946086 -0.02473043 -0.082434766 -0.082434766 0.021982605 -0.021982605 0.030226082 0.052208684
-0.10441737 0.016486954 -0.04946086 -0.016486954 -0.065947816 0.0027478256 -0.04396521 0.060452163
0.082434766 0.04946086 -0.046713036 -0.02473043 -0.013739128 0.038469557 0.1181565 -0.05495651
0.0 -0.008243477 -0.10441737 0.0961739 -0.005495651 0.04946086 0.016486954 -0.046713036
0.060452163 0.0 -0.05495651 0.09342607 0.10441737 0.065947816 -0.052208684 0.07419129
0.021982605 -0.027478255 0.021982605 0.06319999 -0.046713036 -0.02473043 0.06319999 0.021982605
-0.07419129 -0.1291478 -0.013739128 -0.013739128 0.082434766 -0.065947816 -0.06319999 0.013739128
-0.010991302 0.12365215 -0.090678245 -0.052208684 0.008243477 -0.035721734 -0.10441737 -0.041217383
0.065947816 -0.090678245 -0.057704337 -0.005495651 -0.013739128 0.046713036 0.016486954 -0.090678245
0.18135649 -0.08793042 -0.05495651 0.0 -0.021982605 -0.041217383 0.030226082 0.05495651
-0.030226082 -0.013739128 -0.08793042 0.046713036 -0.046713036 0.021982605 -0.05495651 0.11266085
0.07693911 -0.021982605 0.07693911 0.05495651 0.10991302 -0.035721734 -0.008243477 0.008243477
0.038469557 -0.060452163 -0.07419129 -0.016486954 -0.0961739 -0.021982605 0.030226082 0.010991302
-0.052208684 -0.06869564 0.02473043 0.013739128 0.030226082 0.032973908 0.0 0.04396521
-0.065947816 -0.06869564 -0.038469557 0.019234778 0.013739128 0.115408674 0.060452163 0.010991302
-0.027478255 0.008243477 -0.06319999 0.06319999 0.046713036 -0.0027478256 0.021982605 -0.12365215
-0.07144347 -0.09892172 0.041217383 -0.041217383 -0.02473043 0.02473043 -0.046713036 -0.021982605
-0.019234778 -0.09892172 -0.04396521 -0.12365215 -0.0027478256 -0.115408674 0.032973908 -0.008243477
-0.09342607 -0.11266085 0.02473043 -0.038469557 -0.060452163 -0.019234778 0.05495651 0.030226082
-0.08793042 -0.0027478256 0.035721734 0.06319999 -0.032973908 -0.035721734 0.08518259 -0.04946086
-0.027478255 0.027478255 -0.06319999 -0.005495651 -0.0027478256 -0.05495651 0.082434766 -0.060452163
-0.04946086 0.04946086 -0.082434766 0.04396521 -0.032973908 -0.07693911 -0.027478255 0.019234778
0.019234778 0.0027478256 -0.06869564 0.16212171 -0.016486954 -0.008243477 -0.032973908 -0.052208684
0.0 0.08793042 0.09892172 0.035721734 -0.041217383 -0.019234778 -0.008243477 -0.010991302
0.07693911 -0.04946086 0.013739128 0.008243477 0.04946086 -0.019234778 -0.08518259 0.02473043
0.107165195 0.013739128 -0.065947816 -0.027478255 -0.046713036 0.065947816 0.07419129 -0.052208684
-0.057704337 -0.11266085 -0.07693911 0.035721734 0.019234778 0.10166955 -0.06319999 0.12090433
0.041217383 -0.013739128 0.07968694 -0.07144347 -0.08518259 -0.04946086 0.016486954 -0.04396521
0.0 -0.052208684 -0.013739128 -0.052208684 -0.030226082 -0.060452163 -0.12639998 -0.0027478256
0.082434766 -0.10441737 0.035721734 0.0027478256 -0.1291478 0.0027478256 -0.010991302 -0.1401391
-0.035721734 0.0 0.1291478 -0.04396521 0.041217383 0.005495651 -0.060452163 -0.107165195
-0.010991302 0.010991302 0.032973908 0.065947816 -0.057704337 -0.005495651 0.027478255 0.030226082
00000000: eef7 e2e2 08f8 0b13 da06 eefa e801 f016
00000010: 1e12 eff7 fb0e 2bec 00fd da23 fe12 06ef
00000020: 1600 ec22 2618 ed1b 08f6 0817 eff7 1708
00000030: e5d1 fbfb 1ee8 e905 fc2d dfed 03f3 daf1
00000040: 18df ebfe fb11 06df 42e0 ec00 f8f1 0b14
00000050: f5fb e011 ef08 ec29 1cf8 1c14 28f3 fd03
00000060: 0eea e5fa ddf8 0b04 ede7 0905 0b0c 0010
00000070: e8e7 f207 052a 1604 f603 e917 11ff 08d3
00000080: e6dc 0ff1 f709 eff8 f9dc f0d3 ffd6 0cfd
00000090: ded7 09f2 eaf9 140b e0ff 0d17 f4f3 1fee
000000a0: f60a e9fe ffec 1eea ee12 e210 f4e4 f607
000000b0: 0701 e73b fafd f4ed 0020 240d f1f9 fdfc
000000c0: 1cee 0503 12f9 e109 2705 e8f6 ef18 1bed
000000d0: ebd7 e40d 0725 e92c 0ffb 1de6 e1ee 06f0
000000e0: 00ed fbed f5ea d2ff 1eda 0d01 d101 fccd
000000f0: f300 2ff0 0f02 ead9 fc04 0c18 ebfe 0a0b

sequential/dense_1/MatMul i1 [11, 512] scale=0.0035504852 zero_point=0
-0.1704233 -0.29824075 0.031954367 -0.0710097 -0.07811067 -0.14556989 -0.07811067 0.03550485
-0.049706794 -0.18462524 -0.31954366 0.028403882 -0.0071009705 -0.031954367 0.06390873 -0.3337456
-0.14912038 -0.11006504 0.06035825 -0.028403882 0.0035504852 0.014201941 0.0035504852 -0.11716601
-0.10651456 -0.11716601 0.0 -0.17752427 -0.13136795 -0.2662864 -0.16332231 -0.028403882
0.04615631 -0.2165796 -0.06035825 -0.06745922 0.028403882 0.06745922 -0.03550485 -0.0710097
0.05325728 0.07811067 -0.17752427 -0.09941359 0.0035504852 -0.2165796 -0.18107475 -0.15267086
-0.22013009 0.0071009705 -0.14912038 -0.13136795 -0.039055336 -0.10651456 -0.0071009705 -0.1420194
-0.088762134 -0.08521165 -0.12781747 -0.20947863 -0.11716601 0.03550485 -0.2840388 -0.3159932
-0.04615631 0.0071009705 0.07456019 -0.09231262 -0.03550485 -0.088762134 -0.07811067 -0.25208446
0.024853397 -0.024853397 -0.010651456 -0.31954366 -0.17752427 -0.039055336 -0.20947863 -0.20947863
-0.12426698 -0.10296407 -0.017752426 -0.20947863 -0.30179125 -0.05325728 -0.021302912 -0.08521165
-0.25208446 -0.11006504 -0.09231262 -0.37280095 -0.35149804 -0.18462524 -0.04615631 -0.25563493
-0.10651456 -0.056807764 -0.12426698 0.06035825 -0.06745922 -0.10651456 -0.04615631 -0.13491844
0.0035504852 -0.039055336 -0.27693784 -0.11716601 -0.024853397 -0.11006504 -0.017752426 -0.06035825
0.09941359 -0.3124427 -0.24853396 0.028403882 -0.12426698 -0.017752426 -0.22013009 0.06390873
-0.06745922 0.010651456 -0.23788251 0.04615631 0.05325728 -0.088762134 -0.014201941 -0.014201941
-0.12781747 -0.03550485 -0.15622135 -0.18107475 -0.22368057 -0.16332231 0.07456019 -0.23788251
-0.3337456 0.06390873 -0.088762134 0.021302912 -0.039055336 -0.18462524 -0.358599 0.031954367
-0.13846892 -0.028403882 -0.22368057 0.024853397 -0.34439707 0.0071009705 -0.21302912 -0.08166116
-0.22013009 -0.056807764 -0.14912038 -0.0071009705 0.04615631 -0.06745922 -0.06035825 -0.23078154
-0.2627359 -0.19172621 -0.06745922 -0.1704233 -0.241433 -0.095863104 -0.17397378 -0.22368057
-0.3337456 -0.11006504 -0.08166116 -0.049706794 0.0 -0.08521165 -0.23433203 -0.15267086
-0.06390873 -0.3408466 -0.16332231 -0.24498348 -0.27693784 0.014201941 -0.25918543 -0.22723106
0.0071009705 0.06390873 -0.05325728 0.07456019 0.0071009705 0.0071009705 -0.29824075 -0.12426698
-0.22013009 -0.056807764 -0.08166116 -0.010651456 -0.06745922 0.09941359 -0.14556989 -0.3124427
-0.13846892 0.07811067 0.031954367 -0.13136795 -0.0710097 -0.14912038 0.05325728 -0.049706794
0.0035504852 -0.18817572 -0.06035825 -0.09231262 -0.031954367 -0.1420194 -0.03550485 -0.014201941
0.014201941 -0.06745922 -0.13136795 -0.12781747 -0.095863104 -0.11716601 -0.22723106 -0.13491844
-0.07811067 -0.06035825 -0.06035825 -0.11361553 -0.13846892 -0.25563493 -0.088762134 -0.18817572
-0.3372961 -0.11361553 -0.22723106 -0.3408466 -0.010651456 -0.15267086 -0.06035825 -0.095863104
-0.21302912 -0.22723106 0.08166116 -0.1207165 -0.04615631 0.0035504852 -0.07811067 -0.2627359
-0.056807764 -0.05325728 -0.04615631 -0.010651456 -0.241433 -0.0710097 -0.056807764 -0.06390873
00000000: d0ac 09ec ead7 ea0a f2cc a608 fef7 12a2
00000010: d6e1 11f8 0104 01df e2df 00ce dbb5 d2f8
00000020: 0dc3 efed 0813 f6ec 0f16 cee4 01c3 cdd5
00000030: c202 d6db f5e2 fed8 e7e8 dcc5 df0a b0a7
00000040: f302 15e6 f6e7 eab9 07f9 fda6 cef5 c5c5
00000050: dde3 fbc5 abf1 fae8 b9e1 e697 9dcc f3b8
00000060: e2f0 dd11 ede2 f3da 01f5 b2df f9e1 fbef
00000070: 1ca8 ba08 ddfb c212 ed03 bd0d 0fe7 fcfc
00000080: dcf6 d4cd c1d2 15bd a212 e706 f5cc 9b09
00000090: d9f8 c107 9f02 c4e9 c2f0 d6fe 0ded efbf
000000a0: b6ca edd0 bce5 cfc1 a2e1 e9f2 00e8 bed5
000000b0: eea0 d2bb b204 b7c0 0212 f115 0202 acdd
000000c0: c2f0 e9fd ed1c d7a8 d916 09db ecd6 0ff2
000000d0: 01cb efe6 f7d8 f6fc 04ed dbdc e5df c0da
000000e0: eaef efe0 d9b8 e7cb a1e0 c0a0 fdd5 efe5
000000f0: c4c0 17de f301 eab6 f0f1 f3fd bcec f0ee
