a_output_actual/dig-s3.tflite (tflite, 219284 bytes, 12 tensors)

dense_7/bias f4 [11]
0	0xbe85a276	-0.2610051
1	0xbe4a93c8	-0.19782937
2	0xbe5a358e	-0.21309492
3	0xbe19e693	-0.15029363
4	0xbe439f96	-0.19103846
5	0xbe50bdc3	-0.20384888
6	0xbe8eba07	-0.27876303
7	0xbe534771	-0.20632721
8	0xbe5fb3be	-0.2184591
9	0xbe3a3862	-0.18185571
10	0xbe0745ca	-0.13210216

dense_6/bias f4 [128]
0	0xbd7adaa1	-0.061243657
1	0xbd33de45	-0.043913145
2	0xbc00cd96	-0.0078615155
3	0x3d8540f7	0.06506532
4	0x3da85276	0.08218853
5	0xbd84fae6	-0.064931676
6	0xbc538d23	-0.012912068
7	0xbdbaf1ed	-0.09128175
8	0x3ca97162	0.020683948
9	0xbcefcb7f	-0.02927184
10	0x3d10c1fb	0.035341244
11	0xbccf1de3	-0.025282806
12	0xbd3a9a48	-0.04555729
13	0xbc0c2c19	-0.008555436
14	0x3d825135	0.06363145
15	0xbd29c830	-0.04145068
16	0x3d1aea9d	0.0378214
17	0x3c925753	0.017863905
18	0xbd858510	-0.0651952
19	0x3c7e580f	0.0155239245
20	0x3cfa5d19	0.03056197
21	0x3cc969f3	0.024586653
22	0xbd13a2ea	-0.03604404
23	0xbcd78d5a	-0.026312519
24	0x3d8390cf	0.064241044
25	0xbd24c8c0	-0.040230513
26	0xbceadda2	-0.028670136
27	0xbc736b90	-0.014857188
28	0x3c3b28fd	0.011423347
29	0x3cfb4421	0.030672135
30	0x3c95a8a8	0.018268898
31	0xbb86225a	-0.0040934505
32	0xbd01df30	-0.03170699
33	0xbd65dc5b	-0.05611835
34	0x3bfda3ca	0.0077404724
35	0xbc3f72dd	-0.0116851
36	0xbd9f79ae	-0.077868804
37	0x3e005ad3	0.12534647
38	0xbaa11e94	-0.0012292438
39	0x3dae8903	0.08522227
40	0xbc8ae07f	-0.016952751
41	0xbc20429c	-0.009781506
42	0x3b9ca713	0.004780659
43	0x39549418	0.00020273065
44	0xbd0ccabd	-0.034373034
45	0xbc9b71ca	-0.018975157
46	0xbcb730ae	-0.02236208
47	0x3a587d71	0.00082584383
48	0x3d93c206	0.072147414
49	0xbd6430d9	-0.055710647
50	0x3d6b51ed	0.057451177
51	0xbdec6166	-0.11542015
52	0xbcaa24bf	-0.020769475
53	0xbd6e1f49	-0.058135305
54	0x3df0e79a	0.117629245
55	0x3c321116	0.010868331
56	0xbd139fa5	-0.03604092
57	0xbd21f751	-0.0395425
58	0x3cba1642	0.022715691
59	0xbd9b0ee4	-0.075711995
60	0xbda149ba	-0.0787539
61	0x3c8bbc35	0.017057518
62	0xbd1e2741	-0.038611654
63	0x3d51037c	0.051028714
64	0xbcdc2444	-0.026872762
65	0xbccb84b0	-0.024843544
66	0xbcaf8776	-0.021426897
67	0x3dbbbb10	0.09166539
68	0x3d7df5f7	0.06200215
69	0x3cdc8a4a	0.02692141
70	0x3b5eb995	0.0033985127
71	0x3b73bd18	0.0037191566
72	0xbcca7821	-0.024715485
73	0xbc42d068	-0.011890508
74	0xbd122f3c	-0.035689577
75	0x3d950c5d	0.07277749
76	0xbd9c036c	-0.0761784
77	0x3d25230b	0.040316623
78	0xbbfa3c07	-0.0076365503
79	0xbb6127d1	-0.0034356008
80	0xbdc49882	-0.09599401
81	0xbb52201d	-0.0032062598
82	0x3cab4b89	0.020910041
83	0xbd4d5145	-0.050126333
84	0x3c863ae4	0.016385503
85	0xbd387166	-0.04503002
86	0xbcb35b9f	-0.021894274
87	0xbd98f888	-0.074692786
88	0xbd0471a4	-0.03233494
89	0x3c4be989	0.012445816
90	0xbd7e3026	-0.062057637
91	0x3c06116c	0.008182865
92	0x3d0f7b32	0.035029598
93	0xbcf12d1f	-0.02944046
94	0xbcd8d87f	-0.02647042
95	0x3b926050	0.0044670478
96	0x3ce3d2d3	0.02781049
97	0xbd0c67f1	-0.034278814
98	0x3d4c4368	0.04986897
99	0xbcaf7aea	-0.021420915
100	0xbd776784	-0.060401455
101	0xbcedc805	-0.02902604
102	0xbd801678	-0.062542856
103	0x39a66d50	0.00031743431
104	0xbbf34893	-0.007424423
105	0x3c455ce8	0.012046076
106	0x3e382907	0.179844
107	0xbd177084	-0.036972538
108	0x3c8cbc9c	0.01717978
109	0x3de7cb87	0.11318117
110	0xbdb33612	-0.087505475
111	0xbd837458	-0.06418675
112	0x3d5086a7	0.050909664
113	0xbdcf8575	-0.10132877
114	0xbdafda7f	-0.08586597
115	0x3ddbc4db	0.107309066
116	0xbcef3de9	-0.029204326
117	0xbd4fb57d	-0.05071019
118	0x3d73fb9e	0.059566133
119	0x3d13eb6c	0.036113188
120	0xbc8bcc13	-0.017065084
121	0x3bea120c	0.0071432646
122	0xbd44015a	-0.04785285
123	0x3dae25ff	0.08503341
124	0x3d787efa	0.06066797
125	0x3d21b816	0.0394822
126	0x3e2ca4eb	0.16859786
127	0x3de400f5	0.11132995

conv2d_9/bias f4 [32]
0	0xbd0b0e0c	-0.033948943
1	0xbdc352fd	-0.09537313
2	0xbd84b663	-0.064801
3	0xbd55a7dd	-0.05216204
4	0xbd19a104	-0.037507072
5	0xbdba1700	-0.09086418
6	0xbe1f124d	-0.15534325
7	0xbd58675c	-0.052832946
8	0xbaa11896	-0.0012290652
9	0xbb5b758d	-0.0033486814
10	0xbe12bb4c	-0.1432926
11	0xbda46c08	-0.08028418
12	0xbcc0c706	-0.023532402
13	0xbe1b0a68	-0.15140688
14	0xbdfc0039	-0.1230473
15	0xbdf35950	-0.118822694
16	0xbd9a781f	-0.075424425
17	0xbd5d4ae3	-0.054026496
18	0xbe18115f	-0.14850377
19	0xbd51677f	-0.051124092
20	0xbe3c815b	-0.1840872
21	0xbb9434f1	-0.0045229127
22	0xbdd6ff0c	-0.10497865
23	0x3d613ef4	0.054991677
24	0xbe0f6077	-0.14001642
25	0xbd879eb1	-0.06622065
26	0xbe2faf86	-0.171568
27	0xbda46905	-0.080278434
28	0xbdb8c194	-0.09021297
29	0xbdad57f8	-0.08464044
30	0xbc389f7b	-0.011268492
31	0xbb52a401	-0.003214121

conv2d_11/bias f4 [32]
0	0xbdd1ba19	-0.102405734
1	0xbcd278b5	-0.025692323
2	0xbe4bc3af	-0.19898866
3	0x3cc10390	0.023561269
4	0xbdd55611	-0.104168065
5	0xbdb8ef14	-0.090299755
6	0xbe811ebc	-0.2521876
7	0xbca8e8fd	-0.02061891
8	0xbde12399	-0.10993118
9	0x3d072d27	0.033002045
10	0xbc825204	-0.015908249
11	0xbd8889a0	-0.06666875
12	0xbc5d5e8e	-0.013511313
13	0xbda6ee7c	-0.08150956
14	0xbcbe55f4	-0.023234345
15	0xbe252933	-0.16128998
16	0xbd0c3e7a	-0.03423927
17	0x3dd9f3bb	0.10642191
18	0xbdc49342	-0.095984
19	0x3db1538f	0.08658516
20	0xbe705748	-0.23470795
21	0xbd41a2e4	-0.047274485
22	0xbc02ad67	-0.007975913
23	0x3dbfcacc	0.09364852
24	0xbd69fcc3	-0.057125818
25	0xbdad60e9	-0.0846575
26	0xbdf71235	-0.120640196
27	0xbd010f23	-0.031508576
28	0x3d6767f8	0.056495637
29	0xbd1a8ca5	-0.037731785
30	0xbd5f12d0	-0.0544613
31	0xbdb94c79	-0.09047789

conv2d_10/bias f4 [32]
0	0xbd7961cd	-0.060884286
1	0x3d69261e	0.056921117
2	0xbe9c3d2e	-0.30515426
3	0xbd92b1e8	-0.07162839
4	0x3e472d51	0.1945088
5	0x3d0db151	0.03459293
6	0x3d45f43c	0.048328623
7	0xbe08ad3b	-0.13347332
8	0xbcce4e4d	-0.025183821
9	0xbdd39303	-0.10330775
10	0xbd364155	-0.0444959
11	0xbd1b6984	-0.037942424
12	0xbdfd20de	-0.123597845
13	0xbde63c68	-0.1124199
14	0x3e011796	0.12606654
15	0xbd94bfb9	-0.07263131
16	0xbdd7986f	-0.10527121
17	0xbc2c2534	-0.010506917
18	0xbd1878e9	-0.037224684
19	0xbe194f10	-0.14971566
20	0xbdddbde4	-0.108272344
21	0xbd08a943	-0.033364546
22	0xbd13663c	-0.03598617
23	0x3da91a98	0.082570255
24	0xbc766059	-0.0150376195
25	0xbcd0c399	-0.025483893
26	0xbd6bb9b4	-0.057550147
27	0xbcaf515c	-0.0214011
28	0x3d7babd4	0.061443165
29	0x3e365d9b	0.17809145
30	0xbcd7e713	-0.026355302
31	0xbc3fd029	-0.011707344

sequential_3/batch_normalization_3/FusedBatchNormV3 f4 [3]
0	0x3c25ba6c	0.010115247
1	0x3c7f12cb	0.015568445
2	0x3c56a301	0.013100387

sequential_3/batch_normalization_3/FusedBatchNormV31 f4 [3]
0	0xbfa88e74	-1.3168473
1	0xbfe6369c	-1.7985415
2	0xbfc6fcc4	-1.5545888

sequential_3/dense_6/MatMul f4 [128, 256]
0	0xbcf32aa8	-0.029683426
1	0x3c2c8e9d	0.0105320485
2	0x3da815f7	0.082073145
3	0x3e111b85	0.14170654
4	0xbdc218de	-0.09477399
5	0xbe12e929	-0.14346756
6	0x3ddf57a3	0.10905387
7	0x3a9a9a4e	0.0011795254
8	0x3e6bab9e	0.23014686
9	0xbdf873c9	-0.12131459
10	0xbdba226c	-0.09088597
11	0xbdabc07f	-0.08386325
12	0x3e586817	0.21133457
13	0xbd52a535	-0.051427085
14	0xbbefec8d	-0.0073219
15	0xbc60bb31	-0.013716505
16	0xbe03df4a	-0.12878147
17	0xbde3f587	-0.11130815
18	0x3b7b8f6a	0.0038385042
19	0x3ca4437f	0.020051716
20	0x3c221052	0.009891586
21	0xbc7227e1	-0.014780016
22	0x3bf1a729	0.0073746634
23	0xbde5eb0f	-0.112264745
24	0x3d1ef0cf	0.03880387
25	0x3e1c5ef0	0.15270591
26	0xbd3216ff	-0.043478962
27	0xbcd74e13	-0.026282346
28	0x3dac6426	0.08417539
29	0x3e05c97c	0.13065141
30	0xbe0af3d9	-0.13569583
31	0xbe24205c	-0.16027969
32	0xbd6b6eba	-0.057478644
33	0xbdf99d76	-0.121882364
34	0x3c16f86f	0.009214505
35	0x3d8ae242	0.067814365
36	0x3c34df79	0.011039608
37	0x3ddf5659	0.109051414
38	0x3dd69f09	0.10479552
39	0xbd8bb759	-0.0682208
40	0x3cfb5b30	0.03068313
41	0x3d532adb	0.051554542
42	0xbd60c85b	-0.054878574
43	0x3d2afd5c	0.04174553
44	0x3e33afdf	0.17547558
45	0x3dab9b3d	0.08379219
46	0x3d3bc09e	0.04583799
47	0x3d20305b	0.039108615
48	0x3cdb44d9	0.026766228
49	0xbd01d619	-0.03169832
50	0x3dd6fe93	0.10497775
51	0x3cbac916	0.022800963
52	0x3deb9ebf	0.11504888
53	0xbdb1ea0f	-0.08687221
54	0x3d65a56f	0.056065973
55	0x3df28bad	0.11843047
56	0x3dc3864f	0.09547102
57	0x3b307cd3	0.002692987
58	0x3dad6300	0.084661484
59	0x3daec23b	0.0853314
60	0x3dcf220f	0.10113918
61	0xbd08b91a	-0.03337965
62	0x3e678542	0.22609428
63	0x3d37f7c4	0.044914022
64	0x3e8159ea	0.2526391
65	0xbda569b5	-0.08076803
66	0x3e1b499d	0.151648
67	0x3e2610c8	0.16217339
68	0xbd8015a3	-0.06254127
69	0x3e692839	0.2276925
70	0xbddccd6c	-0.107813686
71	0xbc3fd7cd	-0.011709166
72	0xbd5bfa99	-0.053705785
73	0x3e4be572	0.19911745
74	0x3d22f528	0.03978458
75	0x3d02d6c9	0.031943116
76	0xbc40059b	-0.011720086
77	0x3b76e964	0.0037675733
78	0xbe642f6f	-0.2228372
79	0xbddf5f1c	-0.109068125
80	0x3d0278d7	0.031853523
81	0xbc0dbf36	-0.008651545
82	0x3d9e688b	0.07734784
83	0x3e129a4d	0.14316674
84	0xbdaf2de2	-0.08553673
85	0xbe00ac0a	-0.12565628
86	0x3e0b8f52	0.13628891
87	0x3c6c1c35	0.014411022
88	0xbe2eb37f	-0.1706066
89	0x3d81f875	0.063462175
90	0x3daad422	0.083412424
91	0x3e469737	0.19393621
92	0x3da96660	0.082714796
93	0x3e930c19	0.28720167
94	0xbe62d98a	-0.22153297
95	0xbcad261c	-0.021136336
96	0xbca1c8a4	-0.019748993
97	0x3cc0d92d	0.023541057
98	0x3e22e285	0.15906723
99	0x3ec40081	0.38281634
100	0xbe108611	-0.14113642
101	0x3de4d5af	0.111735694
102	0x3e44e097	0.19226299
103	0x3d9173b5	0.071021475
104	0xbd4deab6	-0.050272666
105	0x3e029241	0.12751104
106	0xbd97fab6	-0.07420866
107	0xbcd40b45	-0.02588428
108	0x3e171d14	0.14757186
109	0xbdabea54	-0.08394304
110	0x3daa04d8	0.08301705
111	0xbdad62cd	-0.084661104
112	0x3e235434	0.1595009
113	0xbd67a1d9	-0.056550834
114	0xbe0028be	-0.12515542
115	0xbda6618c	-0.08124074
116	0xbdeeb1e0	-0.11655021
117	0x3b2a5718	0.0025991853
118	0xbd93e636	-0.072216436
119	0x3e14700c	0.14495867
120	0x3d8d022e	0.06885181
121	0xbc91ce00	-0.017798424
122	0x3d447937	0.047967162
123	0xbda7c2d6	-0.08191459
124	0x3ce22f8d	0.027610565
125	0xbd535dd3	-0.05160315
126	0x3e956838	0.29181075
127	0x3d8a2a24	0.06746319
128	0xbe25bdd3	-0.16185693
129	0x3abefdb9	0.0014571465
130	0xbd9141d2	-0.07092632
131	0xbe403664	-0.18770748
132	0x3dc74cc3	0.09731438
133	0x3dc12b2f	0.09432065
134	0xbdbe4e41	-0.092922695
135	0x3e2d1d7b	0.16905777
136	0x3dd6bc1a	0.10485096
137	0x3dbb7533	0.09153213
138	0x3cb35062	0.021888915
139	0x3e024677	0.12722193
140	0x3e161439	0.14656152
141	0x3c92acad	0.017904604
142	0x3e748b90	0.23881364
143	0x3e423785	0.18966492
144	0xbc3ec02f	-0.0116425
145	0x3e62bd0a	0.22142425
146	0x3dcb2a59	0.099201865
147	0x3d644f19	0.055739496
148	0x3e46b695	0.19405587
149	0x3d571235	0.052507598
150	0x3e638448	0.2221843
151	0xbdf8d5ec	-0.12150177
152	0x3e4aeca2	0.19816831
153	0x3d847ef4	0.06469527
154	0xbc0364da	-0.00801965
155	0xbcd4449b	-0.02591162
156	0xbd60b220	-0.054857373
157	0xbe423824	-0.18966728
158	0xbd5c8885	-0.053841133
159	0x3d9f906e	0.0779122
160	0xbd858910	-0.06520283
161	0x3d028f05	0.031874675
162	0x3ce47d24	0.027891703
163	0xbe26c3c7	-0.1628562
164	0xbccaf6ea	-0.02477594
165	0x3e120d50	0.14262891
166	0x3d3e614d	0.046479512
167	0x3dace2e9	0.08441717
168	0xbd5b51a8	-0.05354467
169	0xbdb88cb1	-0.0901121
170	0xbd521ad3	-0.051295113
171	0xbe383710	-0.17989755
172	0xbcd61702	-0.026134018
173	0x3e84f8c0	0.2597103
174	0xbc92adc4	-0.017905124
175	0xbd3391d4	-0.043840244
176	0x3d530975	0.05152269
177	0x3dd9f4fb	0.106424294
178	0x3e5664b5	0.20936854
179	0x3d6cd5e1	0.05782116
180	0x3d8cf852	0.06883301
181	0x3d271627	0.04079261
182	0xbdb95e7a	-0.09051223
183	0xbe6e9226	-0.23297939
184	0x3dc9f731	0.09861601
185	0x3d9f111e	0.07766937
186	0xbd1f13b7	-0.03883716
187	0xbdfbd7e2	-0.12297036
188	0xbd7eec14	-0.06223686
189	0x3d265912	0.040612288
190	0x3dcfdfb0	0.10150087
191	0x3cf0682c	0.029346548
192	0x3c220d68	0.009890892
193	0x3dc604bc	0.09668872
194	0x3d224257	0.039614048
195	0xbe29f6b4	-0.16598016
196	0x3d95ce1d	0.073147036
197	0x3d315a07	0.043298747
198	0x3e062cb7	0.13102995
199	0x3d77101d	0.0603181
200	0xbd7dfce4	-0.062008753
201	0xbe3641d7	-0.17798553
202	0x3dd77848	0.10520989
203	0x3e45551b	0.19270746
204	0xb9203ccd	-0.00015281439
205	0xbcfa90f0	-0.03058669
206	0xbdb48988	-0.088152945
207	0xbdf9bfdb	-0.12194797
208	0x3dcba767	0.09944039
209	0x3e212ccd	0.15739746
210	0xbc07364f	-0.008252694
211	0x3d8175d0	0.06321299
212	0x3d3fe07e	0.04684495
213	0x3da9f810	0.08299267
214	0x3e14a784	0.14517027
215	0x3d7a4eac	0.061110184
216	0xbdbac948	-0.091204226
217	0x3d0767a7	0.033057835
218	0xbd5d1a0e	-0.053979926
219	0xbcc54fa9	-0.024085836
220	0x3d82f7d5	0.063949265
221	0x3cb530a3	0.022117918
222	0xbe3498e2	-0.17636445
223	0xbdec78cf	-0.1154648
224	0xbdfe2fcf	-0.124114625
225	0x3dba1f0b	0.09087952
226	0x3d8daf6f	0.06918227
227	0xbe10c10b	-0.1413614
228	0x3d66d5cb	0.056356233
229	0x3dbf2d0b	0.09334763
230	0x3e0d17d7	0.13778625
231	0xbc5078d2	-0.012724118
232	0xbdd6d3b3	-0.10489597
233	0x3dfb5b64	0.12273291
234	0x3e1758c1	0.1477995
235	0x3d03c529	0.03217045
236	0xbd3e28bb	-0.046425562
237	0x3d6d81e7	0.057985213
238	0x3e33453f	0.17506884
239	0x3e2d4b65	0.16923292
240	0x3da46c22	0.08028437
241	0x3d77500e	0.06037908
242	0xbd0b8642	-0.034063585
243	0x3da021a8	0.078189194
244	0xbd14eb27	-0.03635707
245	0x3d872ef0	0.066007495
246	0xbd53cac0	-0.05170703
247	0xbcca99f0	-0.024731606
248	0xbde2efbb	-0.11080881
249	0x3d2d50d4	0.04231341
250	0xbdde27ee	-0.1084746
251	0xbdf68b7b	-0.120383225
252	0x3d473b82	0.048640735
253	0x3d083364	0.033252135
254	0x3c8a33ba	0.016870368
255	0x3d910a5f	0.07082056

sequential_3/dense_7/MatMul f4 [11, 128]
0	0xbc9ed01d	-0.019386346
1	0xbebab729	-0.36467865
2	0xbec084c0	-0.3760128
3	0xbe8b4247	-0.27199003
4	0xbec04f49	-0.3756049
5	0xbe6e002f	-0.23242258
6	0xbf0e97b2	-0.5570022
7	0xbdb5f490	-0.08884537
8	0xbee07620	-0.43840122
9	0xbef6154c	-0.48063123
10	0x3d9f7d44	0.077875644
11	0x3c7430e2	0.014904233
12	0xbefa0849	-0.48834446
13	0xbceb2392	-0.028703485
14	0xbee585c1	-0.4482861
15	0x3cb1e6c4	0.021716483
16	0xbed0f999	-0.40815428
17	0xbed24396	-0.4106719
18	0xbedb4485	-0.42825714
19	0xbf1099ff	-0.5648498
20	0xbf22ec3e	-0.63641727
21	0xbefc6ac5	-0.4930021
22	0x3d97228a	0.07379635
23	0xbe609460	-0.219316
24	0xbe859f39	-0.2609804
25	0xbe9a1a37	-0.30098125
26	0xbce40e96	-0.027838986
27	0xbe309aac	-0.17246503
28	0xbea43c30	-0.3207717
29	0xbc66b3cc	-0.014080953
30	0xbe2063a4	-0.1566301
31	0xbece6758	-0.4031322
32	0xbd7655d5	-0.06014045
33	0xbc4c7ef0	-0.012481436
34	0xbe52bd12	-0.20579937
35	0xbe825c5d	-0.25461093
36	0xbe4cab1d	-0.1998715
37	0xbe7f285a	-0.24917737
38	0xbdabbff8	-0.083862245
39	0xbef2cc96	-0.47421712
40	0xbe246c73	-0.16056995
41	0xbd6e60f2	-0.058197923
42	0xbe72c3a8	-0.2370745
43	0xbe98e1e5	-0.29859844
44	0xbabad8d1	-0.001425529
45	0x3ace4eab	0.0015739998
46	0xbd3e898b	-0.04651789
47	0xbea4cb46	-0.32186335
48	0xbf1665e8	-0.58749247
49	0xbe971180	-0.2950554
50	0xbf11d3ab	-0.56963605
51	0x3d837147	0.0641809
52	0xbea81abb	-0.32832894
53	0xbdf72267	-0.120671086
54	0xbef2451b	-0.47318348
55	0xbdf706f5	-0.12061874
56	0x3bd8931c	0.0066093337
57	0xbefc3582	-0.49259573
58	0xbe68689f	-0.2269616
59	0x3e58766e	0.21138927
60	0xbcd190e1	-0.025581779
61	0xbef60615	-0.48051515
62	0xbf01e5b5	-0.5074113
63	0xbeab4b2e	-0.33455795
64	0x3e055911	0.13022257
65	0x3d1de688	0.03854993
66	0xbdcc4acd	-0.099752046
67	0xbf127542	-0.5721017
68	0xbeb2f18a	-0.34949905
69	0xbec94768	-0.3931229
70	0xbe8911ba	-0.26771337
71	0xbf256379	-0.6460491
72	0xbceeaf8c	-0.029136442
73	0xbe6bc2f9	-0.23023595
74	0xbdf1a5f5	-0.11799232
75	0xbd7e4946	-0.062081598
76	0xbe8eb157	-0.27869675
77	0xbe978e29	-0.29600647
78	0xbd1a2ce0	-0.037640452
79	0xbddb1809	-0.10697944
80	0xbdf481a7	-0.11938792
81	0xbe05e2dc	-0.13074821
82	0xbd005acc	-0.03133659
83	0xbd8c395d	-0.06846879
84	0xbf0086eb	-0.5020587
85	0xbee2a4e5	-0.4426643
86	0x3b98cb8f	0.004662938
87	0xbe35ec4b	-0.1776592
88	0xbe30d3b4	-0.17268258
89	0xbe05c78b	-0.13064401
90	0x3cd31f4c	0.02577176
91	0xbe40e8f6	-0.18838868
92	0xbee523fa	-0.4475401
93	0x3df168ad	0.117875434
94	0x3da9ee52	0.08297409
95	0xbf03dc79	-0.5150829
96	0xbebfa33c	-0.37429225
97	0xbd84fe89	-0.06493861
98	0xbee4ecf7	-0.4471204
99	0xbd429a5e	-0.047510497
100	0xbe7e3563	-0.24825053
101	0xbdc6cf4a	-0.09707506
102	0x3e29dffe	0.16589352
103	0x3e2a9592	0.16658619
104	0xbdc7dc8d	-0.097588636
105	0xbf1c1691	-0.60971934
106	0xbe885468	-0.26626897
107	0xbe3da8cb	-0.1852142
108	0xbdc035e0	-0.09385276
109	0xbecbfe3e	-0.3984241
110	0x3d8a4502	0.067514434
111	0x3dafc767	0.08582955
112	0xbdcb716a	-0.099337414
113	0x3db236ac	0.08701834
114	0xbe91cfdd	-0.284789
115	0xbe880b7d	-0.26571265
116	0xbe86587e	-0.2623939
117	0xbe6171d5	-0.2201608
118	0xbe8b105d	-0.27160922
119	0xbe66c175	-0.22534736
120	0xbeb3aa25	-0.35090747
121	0xbe2d7db3	-0.16942482
122	0xbc9c5362	-0.019082729
123	0xbdd65300	-0.1046505
124	0xbede761a	-0.4344948
125	0xbef9fee1	-0.4882727
126	0xbe9dbabd	-0.30806533
127	0xbe9dec48	-0.3084433
128	0xbdcf7eb2	-0.10131587
129	0x3c7f1a12	0.0155701805
130	0xbdcd1b43	-0.100149654
131	0xbeb05a0c	-0.344437
132	0xbcecfa78	-0.028928027
133	0x3de2371c	0.110456675
134	0xbeaa3856	-0.33246106
135	0xbdc05ee7	-0.09393101
136	0xbedfaa4a	-0.43684608
137	0x3d897722	0.06712176
138	0xbe88f9fa	-0.26753217
139	0xbdef12aa	-0.11673482
140	0x3e8a654d	0.2703041
141	0xbd66f768	-0.05638829
142	0xbe93f5b4	-0.28898394
143	0xbed022ff	-0.406517
144	0x3c0b23fb	0.008492465
145	0xbf14027e	-0.578163
146	0xbd5287ab	-0.051398914
147	0xbec61121	-0.38684943
148	0xbe3a1602	-0.18172458
149	0x3d9fbca6	0.07799654
150	0xbe8bb2aa	-0.27284747
151	0x3e0ecd10	0.13945413
152	0xbe9142f2	-0.28371388
153	0xbe52fcab	-0.20604198
154	0xbec72803	-0.38897714
155	0xbd6a76c3	-0.057242166
156	0xbe6b10ec	-0.22955674
157	0xbe459471	-0.19294907
158	0xbe87e872	-0.2654453
159	0xbe39a709	-0.18130125
160	0xbebeab4f	-0.37240073
161	0x3b598a3c	0.0033193966
162	0xbef70056	-0.48242444
163	0xbdc7318f	-0.097262494
164	0xbea9125f	-0.3302183
165	0xbf0c4302	-0.54789746
166	0xbedd3d2f	-0.43210742
167	0xbedaa62d	-0.42704907
168	0x3e0d1bfe	0.1378021
169	0xbe5ec916	-0.21756396
170	0xbeb6f866	-0.35736388
171	0xbe6b3e12	-0.22972897
172	0xbeedc961	-0.46442702
173	0xbd4d9b62	-0.050197013
174	0xbe9db8a7	-0.3080494
175	0x3cb8d2b2	0.022561405
176	0xbf09b42f	-0.53790563
177	0xbe902ece	-0.2816071
178	0xbeae7a22	-0.34077555
179	0xbdb1718b	-0.08664235
180	0xbec25fdf	-0.3796377
181	0x3de3f651	0.111309655
182	0xbea4e2a4	-0.32204163
183	0xbf093ce8	-0.5360856
184	0xbe03fabe	-0.1288862
185	0xbdd6ec7c	-0.104943246
186	0xbec34a2c	-0.38142526
187	0x3e01197a	0.12607375
188	0xbe0f0a59	-0.13968791
189	0xbdc860be	-0.09784077
190	0xbe0096a9	-0.12557472
191	0xbd8a26b6	-0.06745665
192	0xbe24bc89	-0.16087545
193	0x3db204aa	0.08692296
194	0xbe21b14c	-0.1579029
195	0xbe631a8f	-0.221781
196	0xbe82417b	-0.25440583
197	0xbf1b549b	-0.6067597
198	0xbeba91ea	-0.3643945
199	0xbccc9dee	-0.02497765
200	0xbe486edd	-0.19573541
201	0xbe1ea13d	-0.15491195
202	0xbc4d6556	-0.012536367
203	0xbe8f8d52	-0.28037506
204	0x3d7bd80f	0.061485346
205	0xbeeeff9a	-0.46679384
206	0xbd8b486b	-0.06800922
207	0xbe8554c9	-0.26041248
208	0xbbc2907e	-0.005937635
209	0xbddf6e28	-0.109096825
210	0xbf0907b9	-0.5352741
211	0x3e388f4f	0.18023418
212	0x3d95c49a	0.073128894
213	0xbd33d421	-0.043903474
214	0xbd2b3304	-0.0417967
215	0xbed9ba75	-0.42525068
216	0xbdc6088a	-0.096695974
217	0xbe3e457d	-0.18581195
218	0xbe225df4	-0.15856153
219	0xbdcc3a08	-0.09972006
220	0xbeb3e9a8	-0.35139203
221	0xbe4314b1	-0.19050862
222	0xbe36d128	-0.17853224
223	0x3ca71a37	0.020398242
224	0xbeb13fec	-0.3461908
225	0x3e39b6d4	0.1813615
226	0x3e35b50c	0.17744845
227	0xbf08a421	-0.5337544
228	0xbd5bc4d3	-0.053654503
229	0x3ce9fcc0	0.028562903
230	0xbec1ac26	-0.3782665
231	0xbd1d74f4	-0.038441613
232	0x3db73676	0.089459345
233	0xbdd01fea	-0.10162337
234	0xbf08d024	-0.534426
235	0xbd04f176	-0.032456838
236	0xbe7f0f1a	-0.24908105
237	0xbeceaef3	-0.4036785
238	0xbd63b8dd	-0.05559622
239	0xbe9fc16c	-0.31202257
240	0xbe730b15	-0.23734696
241	0xbd1a8747	-0.037726667
242	0xbe339a45	-0.17539318
243	0xbec02147	-0.3752539
244	0xbe9b0bc8	-0.30282426
245	0xbe54b209	-0.2077104
246	0xbee2ea89	-0.4431956
247	0xbefb74e1	-0.4911261
248	0xbea603fc	-0.32424915
249	0xbdd9b5b6	-0.10630362
250	0xbe93b212	-0.28846794
251	0xbed20a9c	-0.4102372
252	0xbec26430	-0.37967062
253	0xbe077582	-0.1322842
254	0xbf039196	-0.5139402
255	0xbdc46139	-0.09588856

sequential_3/conv2d_9/Conv2D f4 [32, 3, 3, 3]
0	0x3d806dc7	0.06270938
1	0x3c953b81	0.01821685
2	0xbd5e9db0	-0.0543496
3	0x3cba443b	0.022737613
4	0xbdf0212a	-0.117250755
5	0x3dd98721	0.10621477
6	0xbe235624	-0.15950829
7	0x3ccdad75	0.025107125
8	0x3d1d5401	0.03841019
9	0x3e0148f7	0.1262549
10	0x3e9258bf	0.28583333
11	0x3d0605b3	0.03272028
12	0x3e1597fb	0.14608757
13	0xbd18bfbe	-0.037292235
14	0x3c1e0e1d	0.00964692
15	0xbdb22b18	-0.08699626
16	0xbdf2361c	-0.11826727
17	0xbdf9b5f9	-0.12192912
18	0x3d950982	0.07277204
19	0x3dd3c04d	0.10339413
20	0x3dcdf56d	0.10056577
21	0xbd9a742e	-0.07541691
22	0xbe1f84f2	-0.15578058
23	0xbca1399c	-0.01968079
24	0xbd97d625	-0.07413892
25	0xbdfcac28	-0.12337524
26	0xbc1eee79	-0.009700411
27	0xbc905405	-0.017618189
28	0xbc93c71f	-0.018039284
29	0x3e2ee1ea	0.17078367
30	0x3d2e06bb	0.042486887
31	0xbd7211b3	-0.05909891
32	0xbd840beb	-0.06447586
33	0xbe4e75b9	-0.20162095
34	0xbe5c93c3	-0.21540742
35	0xbe2ee75d	-0.17080446
36	0x3e603dc3	0.2189856
37	0x3ced22a8	0.02894719
38	0x3da2ec8e	0.079552755
39	0x3d751acf	0.05984002
40	0x3de65973	0.1124753
41	0xbe28e7f0	-0.16494727
42	0xbdcfcd31	-0.10146559
43	0xbe4d7c05	-0.20066841
44	0x3d471a9d	0.048609365
45	0x3e14e7e2	0.14541581
46	0x3e2f5ab8	0.1712445
47	0xbbaedc24	-0.0053363014
48	0x3e2c4fc1	0.16827299
49	0x3d9e1d61	0.07720447
50	0x3d967173	0.073458575
51	0xbdfa34f1	-0.12217129
52	0x3dbc1d55	0.09185282
53	0xbcfbf2df	-0.030755458
54	0x3dacd163	0.08438375
55	0x3e20ebd6	0.15714964
56	0x3e3706b6	0.17873654
57	0x3d845803	0.064620994
58	0x3e80fd23	0.25193128
59	0x3deb0dd0	0.11477244
60	0xbd1dc984	-0.03852226
61	0xbe14a745	-0.14516933
62	0xbdec965f	-0.115521185
63	0xbd9120b1	-0.070863135
64	0xba85a096	-0.0010194953
65	0x3bd43cdc	0.0064769816
66	0x3dffec13	0.124961995
67	0xbcb871a3	-0.022515124
68	0xbd191a3c	-0.037378535
69	0xbdbacf1d	-0.09121535
70	0xbd70c55f	-0.058781978
71	0xbe1dc4a3	-0.15407042
72	0xbd87c166	-0.06628685
73	0x3de7c361	0.113165624
74	0x3e000d2b	0.12505023
75	0x3d9f164a	0.07767923
76	0xbd90582e	-0.07048069
77	0xbe61a47c	-0.22035402
78	0x3d8f597a	0.06999488
79	0xbdbbb503	-0.091653846
80	0xbdc4b79f	-0.096053354
81	0x3d1bfb28	0.03808132
82	0x3e9fd14e	0.31214374
83	0x3e79ac49	0.24382128
84	0x3e0a2d44	0.1349383
85	0xbcffcad4	-0.031224646
86	0xbd84595c	-0.064623564
87	0xbd6f01d4	-0.058351353
88	0xbe51fe98	-0.20507276
89	0xbe5c8a74	-0.2153719
90	0x3e15912a	0.14606157
91	0x3d1a77bd	0.037711848
92	0x3e1e9a96	0.15488657
93	0xbe365462	-0.17805627
94	0x3a9e4292	0.0012074283
95	0xba3763aa	-0.0006995747
96	0xbd1b1ebf	-0.03787112
97	0xbe476044	-0.19470316
98	0xbd69d04b	-0.05708341
99	0xbd73e3e1	-0.059543494
100	0x3dc18e0c	0.094509214
101	0x3cc45bce	0.023969557
102	0xbdd43b31	-0.10362852
103	0xbd844e47	-0.06460243
104	0xbdce4f88	-0.10073763
105	0x3dffd370	0.124915004
106	0x3db8f65e	0.09031366
107	0xbca6c279	-0.020356404
108	0xbde98a1d	-0.11403296
109	0x3d7108de	0.058846347
110	0xbd69c390	-0.05707127
111	0x3e415627	0.18880521
112	0x3e5f4611	0.21804072
113	0x3e7ae248	0.24500382
114	0x3df333ac	0.1187509
115	0x3eaa3edd	0.33251086
116	0x3eab1b56	0.33419293
117	0xbe0b9149	-0.1362964
118	0xbe0f54a0	-0.13997126
119	0xbe697f31	-0.22802426
120	0xbddb19d3	-0.10698285
121	0xbdee1fb2	-0.11627139
122	0xbda19c3e	-0.07891129
123	0x3e4c7f30	0.19970393
124	0x3c7338a9	0.014845052
125	0x3c2dce7e	0.010608314
126	0xbdabf365	-0.08396033
127	0xbda2a4fa	-0.07941623
128	0xbe29edc4	-0.16594607
129	0xbcd2db85	-0.02573944
130	0xbe20b04a	-0.15692249
131	0xbe1bdc35	-0.15220721
132	0xbcb60e9e	-0.022223767
133	0xbd36b06e	-0.04460185
134	0xbe34424e	-0.17603418
135	0x3dbd50fd	0.09243963
136	0xbe183c75	-0.14866813
137	0x3cae6ae9	0.021291213
138	0x3e075662	0.13216546
139	0x3e26ddff	0.16295622
140	0x3dfa5320	0.12222886
141	0x3e11ef5a	0.14251462
142	0x3e3c7d76	0.18407235
143	0x3e5b75d6	0.2143167
144	0x3d6f4cc4	0.05842282
145	0xbe08cfd8	-0.13360536
146	0xbdd81723	-0.10551288
147	0xbe0e1ad4	-0.13877422
148	0xbda1f796	-0.079085514
149	0xbe792a3b	-0.24332516
150	0xbe09983e	-0.13436982
151	0xbe44d808	-0.19223034
152	0xbe3d22d8	-0.18470323
153	0x3cf7c38d	0.030244613
154	0x3c02314f	0.007946326
155	0xbca264c4	-0.01982344
156	0x3d4a054d	0.04932146
157	0xbe20bb08	-0.15696347
158	0x3deac15a	0.1146266
159	0xbcea9e4c	-0.028639935
160	0xbd8ae799	-0.06782455
161	0xbddf650b	-0.10907944
162	0xbb85607e	-0.0040703407
163	0xbdef3a10	-0.116809964
164	0x3c61eb43	0.013789001
165	0xbe18a38c	-0.14906138
166	0x3e5602ce	0.20899507
167	0x3de06c6d	0.109581806
168	0x3d7cc52e	0.061711483
169	0x3e2c535c	0.16828674
170	0x3ced0587	0.0289333
171	0x3e31ce33	0.17363815
172	0x3d78e67b	0.06076668
173	0xbe0fbc61	-0.14036705
174	0x3d91b0c4	0.071137935
175	0x3db7f485	0.08982185
176	0xbe05e3af	-0.13075136
177	0x3e04ed66	0.12981185
178	0x3dae1370	0.08499801
179	0x3d08f990	0.033441126
180	0xbca30df0	-0.019904107
181	0x3c404a4a	0.011736462
182	0x3df2750f	0.118387334
183	0xbd8b16f4	-0.06791487
184	0xbe070b81	-0.13187982
185	0xbdda03e2	-0.10645272
186	0xbe200024	-0.15625054
187	0xbe599db2	-0.21251562
188	0xbd8dd94d	-0.069262125
189	0x3d06ddd9	0.032926414
190	0x3c72a4a3	0.01480976
191	0x3d01133c	0.031512484
192	0xbe26316c	-0.1622979
193	0x3b8f178b	0.00436682
194	0xbe93ca60	-0.28865337
195	0xbe39e311	-0.18153025
196	0xbe54c7b4	-0.20779306
197	0xbd628d19	-0.055310342
198	0x3e9ba8f1	0.3040233
199	0x3e80453f	0.2505283
200	0x3d80d464	0.0629051
201	0xbdcc97d3	-0.09989896
202	0x3dbe9fe1	0.09307838
203	0xbe339260	-0.17536306
204	0xbc3e6550	-0.0116208345
205	0xbd2b151a	-0.04176817
206	0xbdf096af	-0.117474906
207	0x3de50ae3	0.11183717
208	0x3d947dea	0.07250579
209	0x3e88bbe8	0.2670586
210	0xbb28f837	-0.0025782713
211	0x3e05744a	0.13032642
212	0x3e017de6	0.12645683
213	0xbde26cb3	-0.11055889
214	0xbd458ef9	-0.048232052
215	0x3dffae1b	0.1248438
216	0x3e1140dd	0.141849
217	0x3e3455b0	0.17610812
218	0x3d5fe276	0.05465933
219	0x3e0d064d	0.13771935
220	0x3b86cbef	0.0041136662
221	0x3e4323b2	0.19056585
222	0xbe03ccf7	-0.12871157
223	0xbd9e534b	-0.077307306
224	0x3d6ecc15	0.058300097
225	0x3d28a4f7	0.041172948
226	0x3d9e8c00	0.07741547
227	0x3e366e6a	0.17815557
228	0xbe86767b	-0.26262268
229	0xbe591872	-0.21200731
230	0xbd5717ee	-0.052513056
231	0x3d453cf6	0.04815384
232	0xbcc70d82	-0.024298433
233	0xbe6e786c	-0.23288125
234	0x3dac33a7	0.084082894
235	0xbe21c44e	-0.1579754
236	0x3d8861ef	0.06659304
237	0xbe12e979	-0.14346875
238	0xbe576d82	-0.21037868
239	0xbe5a6e4c	-0.21331137
240	0x3e323691	0.17403628
241	0x3e30defb	0.1727256
242	0x3e08fb20	0.13377047
243	0xbdc3c27f	-0.095585816
244	0x3e0e9df6	0.13927445
245	0x3da10f21	0.07864214
246	0xbca3f565	-0.020014474
247	0xbe9869dd	-0.29768267
248	0xbdd86fec	-0.105682224
249	0xbdfb2031	-0.122619994
250	0xbdfcf75b	-0.12351867
251	0xbdc2632a	-0.0949157
252	0x3bb5437d	0.005531727
253	0xbe1f3d6a	-0.15550771
254	0xbb9b923d	-0.0047476576
255	0xbd1fe3e0	-0.039035678

sequential_3/conv2d_10/Conv2D f4 [32, 3, 3, 32]
0	0x3e1622f4	0.14661771
1	0x3e7dd915	0.24789841
2	0xba702eb8	-0.0009162235
3	0x3da24ee8	0.079252064
4	0xbd8b71ca	-0.06808813
5	0x3ba1fde1	0.004943595
6	0xbcb227f7	-0.021747572
7	0x3e198343	0.14991479
8	0x3e0ae1af	0.13562654
9	0xbe3ae96b	-0.18253104
10	0x3dfcf360	0.123511076
11	0xbdd341e3	-0.10315301
12	0x3d2dedec	0.042463228
13	0x3e32a19e	0.17444465
14	0xbc7215fd	-0.01477575
15	0xbdabab89	-0.08382327
16	0xbd5b4bd8	-0.053539127
17	0xbc8fef89	-0.017570274
18	0xbd106899	-0.035256002
19	0x3d87fc22	0.066398874
20	0x3dcead10	0.10091603
21	0xbdc6983e	-0.09697007
22	0xbcb8105e	-0.022468742
23	0xbda65e93	-0.08123507
24	0x3dd5632d	0.10419307
25	0x3a9b72f4	0.001185982
26	0x3c057e90	0.008147851
27	0xbd4f6494	-0.05063303
28	0x3d865682	0.06559469
29	0xbd98f6db	-0.07468959
30	0x3c859073	0.01630423
31	0x3cbc7ad0	0.02300778
32	0x3e151fa1	0.14562847
33	0x3e774163	0.24146037
34	0x3caf32ee	0.02138659
35	0x3e23c5dd	0.15993448
36	0xbd8ed9b0	-0.06975114
37	0xbd9ddf41	-0.07708598
38	0x3c403810	0.011732116
39	0xbd35d898	-0.044396013
40	0x3b81e580	0.003964126
41	0xbdfc4e5c	-0.12319633
42	0x3b6a5290	0.0035754777
43	0x3c3a1da6	0.011359608
44	0x3db2c74a	0.087294176
45	0xbda0d5f7	-0.078533106
46	0x3e044c5c	0.12919754
47	0x3d9fe328	0.078069985
48	0x3dfcc859	0.12342901
49	0x3e057ccc	0.13035887
50	0x3dc7c191	0.09753717
51	0x3dc36a24	0.09541729
52	0xbde444f2	-0.11145963
53	0xbc001c77	-0.007819287
54	0x3de18cb9	0.11013169
55	0xbe80c430	-0.2514968
56	0xbe3cc3ac	-0.18434018
57	0xbe2a744d	-0.16645928
58	0x3dd347e9	0.1031645
59	0x3e6c066a	0.23049322
60	0x3daa52d1	0.08316577
61	0xbd609ee8	-0.054839045
62	0x3e2a7f40	0.16650105
63	0xbe0c4eb0	-0.13701892
64	0x3e598e04	0.21245581
65	0x3d441ec1	0.04788089
66	0xbc615c12	-0.013754861
67	0x3de9f7c6	0.11424212
68	0x3d9ff824	0.07811001
69	0x3e3b0426	0.18263301
70	0x3b900c54	0.004396001
71	0xbd5280f6	-0.051392518
72	0x3d49c9ea	0.049264826
73	0x3de33120	0.11093354
74	0xbe358d63	-0.17729716
75	0xbe97f018	-0.29675364
76	0xbdc147d0	-0.09437525
77	0x3d070e63	0.032972705
78	0xbd89f211	-0.06735624
79	0xbdb1fed1	-0.086911805
80	0xbe07afcb	-0.13250653
81	0xbdc1e937	-0.0946831
82	0xbe05c569	-0.13063587
83	0x3e2f372d	0.17110892
84	0x3c9d11c8	0.019173518
85	0xbd3e88db	-0.046517234
86	0x3df7eb84	0.12105468
87	0x3e062d14	0.13103133
88	0xbda49d28	-0.08037788
89	0xbe787691	-0.2426398
90	0x3e640888	0.2226888
91	0xbbafe27f	-0.0053675766
92	0xbcfffb0b	-0.031247636
93	0xbe3f659e	-0.18691108
94	0x3da76255	0.08173052
95	0x3a515229	0.000798496
96	0x3d281821	0.041038636
97	0x3dcd1358	0.10013455
98	0xbe279a7d	-0.16367526
99	0xbe37502a	-0.17901674
100	0x3dd7aa0f	0.10530483
101	0x3e016798	0.12637174
102	0xbcc6ff60	-0.024291694
103	0x3d824893	0.06361499
104	0xbd966c64	-0.073448926
105	0xbd9c830b	-0.07642182
106	0x3b162ecc	0.0022916077
107	0xbe152e19	-0.14568366
108	0xbe2cc05f	-0.16870259
109	0x3d7878e5	0.06066217
110	0xbe77b571	-0.24190308
111	0xbe261d4f	-0.16222118
112	0xbe4fee0e	-0.20305654
113	0xbda2d6ce	-0.07951127
114	0xbe2f1307	-0.17097102
115	0x3d5e8dee	0.054334573
116	0x3c76eaec	0.015070658
117	0x3e065fe6	0.1312252
118	0x3da514c9	0.08060605
119	0x3e2b5cc4	0.16734606
120	0x3e4bedb7	0.199149
121	0x3d497c20	0.04919064
122	0xbdcbe996	-0.09956662
123	0x3da3bacd	0.07994614
124	0x3e01b46c	0.12666482
125	0xbd8b8945	-0.068132915
126	0x3a88d0d9	0.0010438218
127	0x3d69cf41	0.05708242
128	0x3b0b5cf5	0.0021265124
129	0x3e7ee10e	0.24890539
130	0xbd48d66e	-0.04903262
131	0x3df1d6ba	0.11808534
132	0x3d9b1033	0.07571449
133	0xbe403774	-0.18771154
134	0xbde8fbac	-0.113761276
135	0x3b4fa8c9	0.0031686297
136	0xbdc09197	-0.09402769
137	0xbe2de2d8	-0.16981065
138	0x3d914248	0.0709272
139	0xbd4e86fa	-0.050421692
140	0x3d8ba1b5	0.068179525
141	0xbdcb989d	-0.09941218
142	0x3d542be1	0.05179966
143	0xbba77884	-0.005110802
144	0x3d921ab3	0.07133999
145	0x3ddc65ed	0.10761628
146	0xbd518e63	-0.05116118
147	0x3bb7bd5e	0.005607291
148	0xbd7fc3a8	-0.06244245
149	0x3d40b8f2	0.047051378
150	0x3dc6b4a7	0.097024255
151	0xbd7dc1a7	-0.06195226
152	0xbea6faad	-0.32613125
153	0xbe247716	-0.16061053
154	0x3db57597	0.08860319
155	0x3d9539f9	0.07286448
156	0xbe9b46a1	-0.30327323
157	0xbe0a6f66	-0.13519058
158	0xbce9af72	-0.028526042
159	0x3dd0f0a1	0.10202146
160	0x3ea81583	0.32828912
161	0x3deb611f	0.11493134
162	0x3e8cf836	0.2753312
163	0x3e91ef53	0.28502902
164	0x3d01a017	0.031646814
165	0x3b139e63	0.0022524826
166	0xbe1defa5	-0.15423448
167	0x3d06358a	0.032765903
168	0x3e30e2bc	0.17273992
169	0xbd3d1b85	-0.046168823
170	0xbd5c948a	-0.053852595
171	0xbdb1217c	-0.08648965
172	0x3e736ba0	0.23771524
173	0x3dd29828	0.10282928
174	0x3c84ffa9	0.01623519
175	0x3c4f22e6	0.012642598
176	0xbe2bde45	-0.16784008
177	0x3c8d0ba1	0.01721746
178	0x3df5dd72	0.12005128
179	0x3e4969fc	0.19669336
180	0xbbd29e27	-0.0064275446
181	0xbea30b54	-0.3184458
182	0x3e39bac9	0.18137659
183	0xbd6a999f	-0.05727541
184	0xbdf011f5	-0.11722175
185	0xbdfba598	-0.12287444
186	0x3def1ea5	0.11675767
187	0x3d84e6a1	0.064893015
188	0x3d59091b	0.0529872
189	0x3d2d48e1	0.04230583
190	0x3db43d7c	0.0880079
191	0xbd5eec84	-0.054424778
192	0x3e0fc5ce	0.140403
193	0x3b68705c	0.0035467362
194	0xbc789d07	-0.015174157
195	0x3cbd1979	0.023083435
196	0x3da41ca0	0.08013272
197	0xbca27621	-0.019831719
198	0xbceeb872	-0.029140685
199	0x3bdb8c57	0.0067000794
200	0xbda499b5	-0.0803713
201	0x3d4a68ad	0.049416233
202	0x3d0b61bf	0.034028765
203	0xbc63fa18	-0.013914607
204	0xbe063726	-0.13106975
205	0x3e62a57d	0.22133441
206	0xbdafb6f1	-0.08579815
207	0xbde68773	-0.11256304
208	0xbe431162	-0.190496
209	0xbd3fb60e	-0.04680448
210	0xbdcb8a97	-0.09938543
211	0xbe4f090c	-0.20218295
212	0x3e55c665	0.20876463
213	0x3dc11beb	0.09429153
214	0xbe286f7a	-0.16448775
215	0x3d5c7623	0.0538236
216	0xbd302b50	-0.043010056
217	0xbe46226c	-0.19349068
218	0xbdbeb9a0	-0.09312749
219	0xbe6751c8	-0.22589791
220	0xbe07a821	-0.1324773
221	0x3dee03a9	0.11621792
222	0xbe0ecd38	-0.13945472
223	0x3e40413c	0.18774885
224	0x3dbb59b0	0.09147966
225	0x3e003410	0.1251986
226	0x3d342fed	0.043991018
227	0x3b31d632	0.0027135727
228	0xba8c6bd9	-0.0010713293
229	0xbe3d6fc8	-0.18499672
230	0xbda595c8	-0.08085209
231	0x3d24977d	0.040183533
232	0xbe7769a4	-0.24161392
233	0xbdde2db1	-0.10848559
234	0xbd02a9de	-0.03190028
235	0xbbeab6f1	-0.0071629216
236	0x3e2981ed	0.16553469
237	0x3c90746b	0.017633637
238	0xbd89ee25	-0.067348756
239	0xbe2dd0df	-0.16974209
240	0xbd49aea5	-0.04923882
241	0xbd9944d6	-0.074838325
242	0x3d4fe0aa	0.050751366
243	0xbe3b3e60	-0.18285513
244	0xbe1c98e4	-0.15292698
245	0x3e495343	0.19660668
246	0xbe4672b2	-0.1937969
247	0x3d0ac910	0.033883154
248	0xbd835c2c	-0.06414065
249	0xbda6f95b	-0.081530295
250	0x3ced017b	0.02893137
251	0xbe176a01	-0.14786531
252	0xbdea2559	-0.11432905
253	0x3c3762b9	0.011192971
254	0x3dee1b47	0.116262965
255	0x3dbff330	0.09372556

sequential_3/conv2d_11/Conv2D f4 [32, 3, 3, 32]
0	0x3c8c7849	0.0171472
1	0x3d0b2c59	0.03397784
2	0xbd2a7796	-0.041617952
3	0xbbbc60cd	-0.0057488442
4	0x3e7417e9	0.23837246
5	0xbd005127	-0.031327393
6	0x3e1d27c0	0.15347195
7	0xbe0ce9de	-0.13761088
8	0x3e10b71c	0.1413235
9	0x3d732c6e	0.059368543
10	0x3e328c3b	0.17436306
11	0x3dcba9fc	0.09944531
12	0xbd96edda	-0.07369585
13	0x3e14abd4	0.14518672
14	0x3e090b74	0.13383275
15	0xbd8559f0	-0.06511295
16	0x3e461dde	0.19347331
17	0x3da4b0aa	0.080415085
18	0x3d1fc041	0.039001707
19	0x3c0431c1	0.008068503
20	0x3da26269	0.079289265
21	0x3d93e836	0.07222025
22	0x3db300b7	0.08740371
23	0xbcaf6aba	-0.021413196
24	0xbc33f649	-0.010984012
25	0x3e00c69f	0.12575768
26	0xbdfab458	-0.12241429
27	0xbcbf3fde	-0.023345884
28	0x3e104546	0.14088926
29	0x3e222c08	0.15837109
30	0xbbc88d56	-0.006120364
31	0x3db58e4b	0.08865031
32	0x3d117d3a	0.035519816
33	0x3e2f353f	0.17110156
34	0xbd1e18f4	-0.038598016
35	0xbdbe0c7a	-0.092797235
36	0xbe1d0e32	-0.15337446
37	0xbdda2dbb	-0.10653254
38	0xbd86dae0	-0.06584716
39	0xbcda27c1	-0.026630284
40	0x3bfc5087	0.0077000293
41	0xbce03b80	-0.027372122
42	0xbe42b02c	-0.19012517
43	0xbdf3a063	-0.11895826
44	0x3cb46515	0.022020856
45	0x3e3ad971	0.1824701
46	0xbe08695d	-0.13321443
47	0x3dd839ec	0.10557923
48	0xbe796db2	-0.24358252
49	0xbd1b9ec0	-0.037993193
50	0x3db80d9e	0.08986972
51	0x3de70b15	0.112814106
52	0xbdec939e	-0.11551593
53	0xbd962119	-0.073305316
54	0xbd298af9	-0.0413923
55	0xbd8800f1	-0.066408046
56	0x3e8a9b28	0.270715
57	0xbd4375f0	-0.047719896
58	0xbda61012	-0.08108534
59	0xbe62f623	-0.22164206
60	0xbdfe9830	-0.12431371
61	0xbda79e0c	-0.08184442
62	0xbdf7f6a7	-0.12107592
63	0xbe6d01b1	-0.23145176
64	0x3dedfa42	0.116199985
65	0x3e760256	0.24024329
66	0x3dddc1db	0.108279906
67	0xbe5da491	-0.21644808
68	0xbd7fe370	-0.06247276
69	0xbc7e6a68	-0.015528299
70	0xbd964ad1	-0.07338489
71	0x3d6948ef	0.05695432
72	0x3e0df727	0.13863812
73	0xbc0536da	-0.008130753
74	0xbd63a757	-0.05557951
75	0xbdcc8d56	-0.09987895
76	0xbd073ff6	-0.033019982
77	0x3e1bc7b2	0.15212896
78	0xbd82cddf	-0.06386923
79	0x3eae5d1a	0.34055406
80	0xbd9dec57	-0.07711094
81	0x3a32d6f1	0.000682219
82	0x3ddd066a	0.10792239
83	0x3d26ddf3	0.04073901
84	0x3de21c38	0.110405385
85	0x3d89c538	0.067270696
86	0x3da65c82	0.08123113
87	0x3dc8831d	0.09790633
88	0x3e10caf0	0.14139915
89	0xbbfd98bc	-0.0077391546
90	0xbd0c115a	-0.034196235
91	0xbd03f0b1	-0.032211963
92	0x3e5ae245	0.21375377
93	0x3ce80dd3	0.028326904
94	0xbdd9be6a	-0.10632022
95	0xbe3a05f0	-0.18166327
96	0x3d99b2c3	0.07504799
97	0x3d202bd6	0.039104305
98	0xbd918e55	-0.07107226
99	0xbe070bdb	-0.13188116
100	0xbcc4a3cb	-0.024003884
101	0x3d0af0e9	0.033921156
102	0x3c04fd38	0.008117013
103	0xbbcb3610	-0.006201513
104	0xbe404c5f	-0.18779133
105	0x3e00ab7e	0.12565419
106	0xbd86e84a	-0.065872744
107	0xbcf6a858	-0.03010957
108	0xbe0aa3f4	-0.13539106
109	0xbdc9a390	-0.0984565
110	0x3e0456b8	0.12923706
111	0xbd777040	-0.060409784
112	0x3e0c220a	0.1368486
113	0x3d93504d	0.071930505
114	0xbdf6ddb5	-0.12054006
115	0xbe02bc9c	-0.12767261
116	0xbde8fdad	-0.1137651
117	0xbddded75	-0.10836307
118	0x3dd50a01	0.10402299
119	0x3c395f0a	0.011314163
120	0xbe83b4c8	-0.25723863
121	0xbde8d7e6	-0.11369304
122	0xbe0d7d7c	-0.138174
123	0xbe8f717a	-0.28016263
124	0xbc555715	-0.01302125
125	0x3d2b1551	0.041768376
126	0x3c8b45ab	0.017000994
127	0x3d4a4ec7	0.049391534
128	0xbe0e9739	-0.13924874
129	0x3e58e8c9	0.2118255
130	0xbc02ba3a	-0.00797897
131	0xbe43d3d4	-0.19123775
132	0xbddedf37	-0.108824186
133	0x3e00a88b	0.12564294
134	0xbe15c215	-0.14624818
135	0xbdb3c7d3	-0.08778348
136	0xbd017037	-0.031601157
137	0xbe826e83	-0.2547494
138	0xbdc0a910	-0.09407246
139	0xbdd3964c	-0.10331401
140	0x3e20cdef	0.15703557
141	0xbe5f89f6	-0.21829972
142	0x3d8c8475	0.06861202
143	0xbdc94ce3	-0.09829118
144	0x3e765343	0.240552
145	0xbe47319c	-0.19452518
146	0xbb90dab8	-0.0044206046
147	0xbe1d90d2	-0.15387276
148	0xbe0f4319	-0.1399044
149	0xbe5a0ccd	-0.21293946
150	0xbd416ef6	-0.04722496
151	0x3ec20b4f	0.37899253
152	0xbd002c69	-0.031292353
153	0xbde68161	-0.11255146
154	0xbe554e36	-0.20830616
155	0x3b2b1543	0.0026105202
156	0xbe783e50	-0.2424252
157	0xbde6c498	-0.11267966
158	0xbe62a606	-0.22133645
159	0xbe72e66d	-0.23720713
160	0xbcd2f555	-0.025751749
161	0x3d0dddf5	0.034635503
162	0xbd129566	-0.03578701
163	0x3d5aef3b	0.053450804
164	0xbc94aa3e	-0.018147584
165	0xbe00c28d	-0.12574215
166	0x3dab9673	0.08378305
167	0x3e19132c	0.1494872
168	0xbd877519	-0.066141315
169	0xbddd71c7	-0.10812717
170	0xbdda3f70	-0.10656631
171	0x3ca071f1	0.019585581
172	0x3e358766	0.17727432
173	0xba5314b1	-0.00080520945
174	0xbd8b1720	-0.0679152
175	0xbb67a11c	-0.0035343831
176	0xbca6a45d	-0.020342046
177	0xbe294b0b	-0.16532533
178	0xbe067629	-0.13131012
179	0x3db82345	0.08991102
180	0x3dc8523b	0.09781309
181	0xbdfc9c0c	-0.12334451
182	0xbdb7696d	-0.08955655
183	0x3db60a7a	0.08888717
184	0x3d96cd01	0.0736332
185	0x3de66c87	0.11251169
186	0x3e6615c4	0.2246924
187	0x3d547ac6	0.0518749
188	0xbdccd2c3	-0.10001137
189	0xbce61f99	-0.028091239
190	0x3d9065cc	0.07050666
191	0xbe511713	-0.20418958
192	0xbdb7f1cf	-0.08981668
193	0x3b728ad8	0.0037009027
194	0xbde9698e	-0.11397086
195	0xbce091e1	-0.02741331
196	0x3c6aac3f	0.014323293
197	0xbe9be69d	-0.3044938
198	0x3ceb7353	0.028741514
199	0x3d315973	0.043298196
200	0x3dc7b820	0.09751916
201	0xbde5b5cb	-0.11216315
202	0x3dc1bc18	0.09459704
203	0xbc97a1a8	-0.0185097
204	0x3cb9386f	0.022609917
205	0xbe2a8bcb	-0.1665489
206	0x3d564553	0.052312206
207	0x3d38e3ad	0.045139004
208	0x3d8c5488	0.068520606
209	0xbe2e27c6	-0.1700736
210	0xbe23e25c	-0.16004318
211	0xbdfcdc71	-0.12346733
212	0xbe5d6ee0	-0.21624327
213	0xbd8c8543	-0.06861355
214	0x3cb5f438	0.02221118
215	0x3e12ef88	0.14349186
216	0x3af426da	0.0018627301
217	0x3bfb5efd	0.0076712356
218	0x3cbe9877	0.02326606
219	0x3d18ef7a	0.037337758
220	0x3c0363fa	0.008019442
221	0x3bc8bcd1	0.0061260243
222	0xbcaa3ee1	-0.020781936
223	0xbe07f3a6	-0.13276538
224	0x3cffd83d	0.03123104
225	0xbe672db6	-0.22576031
226	0x3d42bf6d	0.04754584
227	0x3d54af8c	0.051925227
228	0xbd8a284f	-0.067459695
229	0xbe2eb507	-0.17061244
230	0xbd4572ec	-0.0482053
231	0x3e0d6b5f	0.1381049
232	0xbdf40d89	-0.11916644
233	0xbdb19049	-0.08670098
234	0xbb9e88cb	-0.0048380843
235	0xbdee58bc	-0.116380185
236	0x3dd944a6	0.10608797
237	0xbb6c1f6f	-0.0036029478
238	0x3deddfe9	0.11614973
239	0x3e74fdcc	0.23924941
240	0xbe1b245c	-0.15150589
241	0xbdd46c5c	-0.103722304
242	0xbe141700	-0.14461899
243	0x3eea64e8	0.4578011
244	0x3d541456	0.051777206
245	0xbc685f48	-0.014182873
246	0x3e5893f0	0.21150184
247	0x3d91603f	0.070984356
248	0x3de86ad9	0.113485046
249	0xbdf4d825	-0.11955289
250	0x3e12332c	0.14277333
251	0xbdb358db	-0.08757182
252	0xbdd65345	-0.10465101
253	0xbdbb6a34	-0.09151116
254	0xbdf800dc	-0.12109539
255	0xbcba0654	-0.022708096
