a_output_actual/dig-s1.tflite (tflite, 766460 bytes, 12 tensors)

sequential_1/conv2d_3/BiasAdd/ReadVariableOp/resource f4 [32]
000000 15 ac a5 bd e0 e1 1a 3c 35 36 34 bd a2 74 ce 3c
       -0.08089463 0.009453267 -0.04399701 0.0252021
000010 31 7b 26 3d bd d2 d9 bc 87 0f 07 3b a0 04 bb bd
       0.04064483 -0.026589746 0.002060862 -0.091317415
000020 8f 9d c6 bc cd c3 3e bc a1 21 07 bc 30 41 51 3d
       -0.024245052 -0.011643362 -0.008247764 0.05108756
000030 13 a4 35 be 10 34 8f bd f3 9e 42 ba c8 1d dd bd
       -0.1773837 -0.06992352 -0.0007424198 -0.10796696
000040 b0 e7 98 bd 33 d1 d2 bd 1c 03 22 bd 18 a2 23 3a
       -0.07466066 -0.10293808 -0.039553747 0.00062421104
000050 dc b4 54 3b 3a 8b 9c bd e0 ed ad 3d 8b 73 b3 bc
       0.0032456433 -0.07643743 0.08492637 -0.021905681
000060 d0 db cd bc 9a 0e 51 bd f7 90 9e bd de 25 95 bd
       -0.025129229 -0.051039316 -0.077424936 -0.07282613
000070 e8 1a 1f bd 99 9c ac bd 73 98 68 bd 61 ea b0 bc
       -0.03884402 -0.08428306 -0.056786012 -0.021596136

sequential_1/conv2d_4/BiasAdd/ReadVariableOp/resource f4 [64]
000000 29 a9 bb bd d9 96 25 3d 09 b0 0d bd 0e e7 a8 bc
       -0.09163124 0.040427063 -0.03459171 -0.020617988
000010 ab c1 f7 bd c8 64 5e bc 62 f2 86 bd 5d 98 3a 3d
       -0.12097486 -0.013573833 -0.065891996 0.04555546
000020 16 db ca bd 94 1c 12 bd 3a f3 d5 3d ab 63 87 bd
       -0.099050686 -0.035671785 0.104467824 -0.06610807
000030 c9 ed dc bd 27 4b 83 bc 9b 44 c2 3d 63 91 d8 bd
       -0.107875414 -0.016027046 0.09485742 -0.10574605
000040 92 94 6d 3c 20 2d c9 bd 25 38 43 bd 83 c8 d7 bc
       0.014500754 -0.0982306 -0.047660965 -0.026340729
000050 56 4f 2e be 99 cb e5 bc 40 f6 84 bc 8f 87 e6 bc
       -0.17022452 -0.028051184 -0.016230702 -0.028140811
000060 76 d0 a6 bc 99 3c 95 bc 9b a2 f2 3c 94 6c d4 bc
       -0.020363074 -0.018217372 0.029618552 -0.02593068
000070 30 ff 45 3d 4a 02 be bd 71 27 cd 3d bf fa 1e be
       0.04833907 -0.0927778 0.100172885 -0.1552534
000080 cc 6f 96 bd 13 69 f3 3d cf 91 e1 bc 17 c2 88 bc
       -0.07345542 0.11885276 -0.027535347 -0.016694112
000090 7d a7 84 3a 93 e9 41 3d ef 63 64 bc 54 c9 33 bd
       0.0010120716 0.047341894 -0.013939842 -0.043893173
0000a0 70 88 72 3a fd 7a ae bc 12 3c 4c 3d f7 95 05 3d
       0.0009251898 -0.02129888 0.049861975 0.03261372
0000b0 0d 58 4a 3d a2 92 fb bb 95 e1 91 3b ec cb 14 3d
       0.049400378 -0.007677392 0.0044519403 0.036327288
0000c0 0c d7 c8 bd 13 8e c4 3d 36 b1 46 3b 66 51 a7 3c
       -0.09806642 0.09597411 0.0030318028 0.020424556
0000d0 b8 b4 95 3c f7 0e a7 bd 9c 25 90 3d 26 35 6a bd
       0.01827465 -0.08157151 0.070384234 -0.057179593
0000e0 c6 af 46 3d 5a 5e 9d bd 42 99 ea bc 33 07 4b bc
       0.048507474 -0.07684012 -0.028637532 -0.012391853
0000f0 ca 86 6e bd 12 75 69 3d 9b ac cf bd de 16 0d bd
       -0.058234014 0.056996413 -0.10140344 -0.034445636

sequential_1/conv2d_5/BiasAdd/ReadVariableOp/resource f4 [64]
000000 0e 5b 4a be 12 49 ba bd 7a d2 c7 3c e2 eb 5a 3c
       -0.19761297 -0.09095968 0.024392355 0.013361903
000010 29 0b 23 3c 59 fb a7 bd ef e5 f6 bc 23 21 24 bd
       0.009951391 -0.08202238 -0.030138938 -0.040070664
000020 d1 10 96 3d 64 b5 3a 3b 1c dc 48 bd 95 77 51 bd
       0.07327426 0.0028489465 -0.049038038 -0.051139433
000030 2e 25 b0 bd 06 16 4d 3c cc ff 51 bc 59 b0 0d 3d
       -0.086008415 0.012517458 -0.012817334 0.034592006
000040 f8 42 07 3d a9 9f f9 bc bc 41 fb bd 77 98 d7 bd
       0.03302285 -0.03047164 -0.12268397 -0.10527127
000050 17 06 90 bd 41 7a 18 bd c5 99 b6 bc 0f 98 62 bc
       -0.070324115 -0.037225965 -0.02229012 -0.013830199
000060 69 b5 7a bd 98 8e 66 bc 03 99 8c bd 4a 0d 00 be
       -0.061208162 -0.014072083 -0.06865122 -0.1250507
000070 50 86 1b bd dc 67 77 bd 95 ce ce bd 56 61 aa bc
       -0.037969887 -0.060401782 -0.10097996 -0.020798367
000080 67 63 3c 3d 55 99 43 bd 0a 6c 68 bd a0 18 c2 bd
       0.045993235 -0.04775365 -0.05674366 -0.09477353
000090 4e 08 91 bd dd 22 93 bd 49 72 09 3d c2 f1 93 bc
       -0.07081662 -0.07184384 0.033556256 -0.018059615
0000a0 d4 d9 7d bd f8 75 7d bc 37 3d 13 bd ea 92 5d 3d
       -0.061975315 -0.0154700205 -0.03594705 0.054095186
0000b0 70 7f 11 3d 2e f2 41 3c 75 50 42 bc 10 32 08 bd
       0.035521924 0.011837525 -0.011860003 -0.03325087
0000c0 4f ac 95 ba f2 d9 91 bd 31 43 b6 bc 3f fc 80 3d
       -0.001141915 -0.07121648 -0.022248836 0.06298112
0000d0 60 94 e7 3a 70 2a a2 3c 88 ee 24 3c 7e 62 39 bc
       0.001766812 0.019795626 0.010066636 -0.011314986
0000e0 97 c3 9b bd 21 3a 0b bd 48 b4 ce 3c d9 92 0e be
       -0.07605665 -0.033990983 0.02523245 -0.13923205
0000f0 29 df 8a bd 35 d3 6c bc 50 c8 50 bc 3c 3c 8d 3d
       -0.06780846 -0.014454653 -0.012743071 0.068962544

sequential_1/dense_2/BiasAdd/ReadVariableOp/resource f4 [256]
000000 e6 87 bd bb e8 62 5d 3d e7 0e b0 3b 0b 47 84 bc
       -0.0057840226 0.054049402 0.0053728702 -0.016147157
000010 c1 96 c4 3c 26 d8 f7 bc b7 e2 b0 bc 25 7c 06 bd
       0.023997666 -0.030254435 -0.021592481 -0.032833237
000020 47 2c 0b 3d 82 98 8a 3c 18 8c a0 3c 9f 57 96 bc
       0.033977773 0.016918425 0.019598052 -0.018352328
000030 ba 11 88 3d b3 f8 cd bc 2d ba c0 3a df 7e 1f bd
       0.06644006 -0.025143003 0.0014703922 -0.038939353
000040 69 28 a2 3c 89 62 98 3d a4 11 13 bd 31 36 9a bc
       0.01979466 0.07440669 -0.035905495 -0.018824669
000050 92 2f 8c bc 37 eb 20 3d 2b aa 06 bd 14 2d bc bc
       -0.017112527 0.03928682 -0.03287713 -0.022970714
000060 ca 9c 75 3d 4d 9a ad 3c 74 ca 48 3d 7f 6d 48 3c
       0.05996398 0.02119174 0.0490212 0.012233137
000070 66 32 b1 3c 19 b2 4b 3b a6 63 bb bc 25 3d 2a bd
       0.021630477 0.0031081496 -0.022874665 -0.04156222
000080 2c 24 b3 bc 37 b5 23 3d 86 07 5a bd 0e 8b ae bd
       -0.021867834 0.03996774 -0.05322983 -0.08522616
000090 bb 72 ce 3c e2 22 a1 bc 4f ab 2d bd 98 6b ba bc
       0.025201192 -0.019669954 -0.0423997 -0.022756383
0000a0 c0 be 85 3d 67 b6 b4 bc 51 d2 7f 3d 3c bc c3 bb
       0.06530523 -0.022059632 0.062456433 -0.005973367
0000b0 93 e9 06 bb d2 1e a4 bc db 9f 44 bc 5d 56 35 3c
       -0.0020585998 -0.020034228 -0.012001003 0.011067954
0000c0 dd 06 f8 bb b9 3c 1c 3c a8 58 ee 3c ec a6 05 bc
       -0.0075691775 0.009535962 0.029095009 -0.008157473
0000d0 d7 d6 fc bc 58 ad 8a 3c 2a cb 99 bc 65 ca 5f 3d
       -0.030864162 0.01692836 -0.018773634 0.054636378
0000e0 bd 8c a6 bc 0a 15 8b bb 2e 84 84 3c 8a 2d 73 bd
       -0.020330781 -0.0042444514 0.01617631 -0.0593696
0000f0 78 ab d0 bb 27 ca 31 3d 9c 00 b5 3d 08 7c 70 3d
       -0.006368097 0.043405678 0.08838007 0.058712035
000100 e5 e9 b7 bc c6 e0 6c 3c 43 b2 49 bc de 43 a9 3b
       -0.022450397 0.014457887 -0.012310567 0.005165561
000110 b3 41 2f 3c 11 b4 8e bd 62 11 4b 3d 0e 37 dd 3c
       0.010696816 -0.06967939 0.049577124 0.027003791
000120 cf 4d e4 bc c6 05 aa bc 5e 9d 0e 3d a4 90 71 bc
       -0.027869133 -0.020754706 0.034818046 -0.014743958
000130 9e b5 22 3d 6d 67 8f 3d fb ca f8 3c d4 a8 07 3c
       0.039723985 0.07002149 0.030370226 0.008279998
000140 f8 75 9c ba c3 e1 ed 3b 0c eb 3a bd d5 ee 99 bc
       -0.0011937013 0.007259579 -0.045634314 -0.018790642
000150 f7 0b 38 bc b8 bb 9d 3c 59 f3 87 bc 7d 27 c2 bc
       -0.011233321 0.01925455 -0.01659553 -0.02370047
000160 f3 ad 69 bc 52 bb a2 3c a9 a0 2d bd 9b c4 90 3c
       -0.014262664 0.019864712 -0.042389546 0.017671874
000170 ea 8b 5a bc af 98 10 bc ff 10 90 39 35 23 69 bc
       -0.013339022 -0.008825465 0.00027478483 -0.014229585
000180 9d 77 8e bc ec b1 87 bc 21 a5 b3 3d 05 26 87 bd
       -0.01739102 -0.016564332 0.0877173 -0.065990485
000190 68 40 60 3d 8c d5 7b 3d 9d 93 24 bd 85 02 d6 3c
       0.054748923 0.06148295 -0.040179837 0.026124248
0001a0 9a 93 40 bd 82 f2 37 3d 7d 2e a7 3d 4f 10 26 3d
       -0.047015764 0.044909008 0.08163164 0.040542897
0001b0 1c 7a 40 bc a6 94 25 bd 4c 03 c6 3c 1e e0 54 3d
       -0.011747863 -0.040424965 0.024171494 0.051971547
0001c0 0e 9b ad bc ce 99 08 bc ab 38 5d bd f1 89 3b 3d
       -0.0211921 -0.008337451 -0.05400912 0.045785848
0001d0 3f 8f f8 bc 98 3a 47 3d a1 ab 4f 3c 04 64 16 3c
       -0.030341743 0.048639864 0.012675197 0.009179119
0001e0 32 c7 02 3d 8d 04 1a bd 58 20 b6 3c 32 c8 6c 3c
       0.03192825 -0.037601996 0.02223222 0.014452027
0001f0 2c 0f d7 bc cb 15 9a bc 46 ea 8a bc e4 a9 36 3d
       -0.026252352 -0.01880922 -0.016957413 0.044595614
000200 ba cf 54 3d e5 d4 44 3c 45 ab 01 3d 74 5a 97 bc
       0.051955916 0.012013649 0.031657476 -0.018475749
000210 28 1a a2 3c 48 9f 16 3c b7 8c e7 bc 54 b8 52 3d
       0.019787863 0.009193249 -0.02826534 0.05144532
000220 d5 2c 75 3d db 27 18 bc 69 11 39 3d 76 55 c9 bb
       0.05985721 -0.009286846 0.04518262 -0.006144221
000230 d8 f5 30 3c 05 5f 2c bd 58 ef 74 3d c6 53 52 bd
       0.010800801 -0.042082805 0.05979857 -0.051349424
000240 a7 5a 10 bc 18 3d 83 bb 6e 7b e7 3b 65 86 b1 3c
       -0.008810676 -0.0040050857 0.0070642745 0.02167053
000250 ee 4c 38 3d 02 f3 4e 3d c2 a2 18 3d 96 99 e9 bc
       0.04499524 0.05052472 0.037264593 -0.028515618
000260 45 45 83 3c f2 18 97 3c 67 2d 80 3c 4d c4 2e bc
       0.016024241 0.018444512 0.01564665 -0.010666919
000270 b6 5e 95 bc b1 22 bd 3c 83 8e b1 bc 70 d0 d5 3b
       -0.018233638 0.023087831 -0.0216744 0.006525092
000280 e4 6d f1 bc 80 3b f1 bc f6 5d 05 ba 04 b3 c5 bc
       -0.029471345 -0.029447317 -0.00050875486 -0.024133213
000290 76 a9 c6 3c e5 16 18 bb 2f df 05 3c 6e f8 a7 3b
       0.024250727 -0.0023207006 0.008170887 0.0051260507
0002a0 f3 93 15 3d 50 ce 96 bc ef ad 4e 3d 83 b6 8b 3b
       0.03651805 -0.018408924 0.050458845 0.0042637005
0002b0 30 1e 48 3c ae 3a 8b bb 63 f9 f8 3c 50 c8 16 3d
       0.0122142285 -0.0042489385 0.030392354 0.036812127
0002c0 04 e6 ce ba 89 68 54 3d d5 fe f4 3c 7e 6f 51 bc
       -0.0015785103 0.051857505 0.02990667 -0.012782929
0002d0 d0 31 1c 3c f9 aa a3 bc 58 2d a7 bc 3a 8d 8e 3d
       0.009533361 -0.019978987 -0.020407364 0.069605306
0002e0 bf 32 b5 bb fc b3 e5 bb 76 23 12 3b 5d bf 4a 3c
       -0.005529731 -0.007009981 0.0022298968 0.012374726
0002f0 67 00 5d bc 5a 66 27 3d 6d 45 1e bd 54 6c 30 bc
       -0.013488865 0.040869094 -0.03864043 -0.010768015
000300 c7 d0 ad bc a4 2b a1 bc 5b e9 04 bb 0e 00 c6 3c
       -0.021217717 -0.01967413 -0.0020280692 0.024169948
000310 43 e1 83 3d 27 1e a7 3d 31 28 e1 bc eb 7f 27 3d
       0.0643945 0.08160048 -0.027484985 0.040893476
000320 05 eb 51 3c 55 87 44 bc 30 9b fe bb 3f 3a 87 3c
       0.012812381 -0.011995156 -0.0077699646 0.016507266
000330 30 67 45 bc 3d a3 06 bc 5a 38 7e bc 19 d2 98 3b
       -0.012048528 -0.00821763 -0.015516365 0.0046637175
000340 d8 08 22 3b 2c 64 70 3c ce f2 4d bc 79 b1 57 3d
       0.002472451 0.01467232 -0.012570096 0.052659485
000350 62 16 b3 bc 39 bf 92 3d 31 a0 d8 bc 99 c4 aa bd
       -0.021861259 0.07165379 -0.026443573 -0.08338279
000360 a3 19 9f 3c 0d df d1 3c a4 4e 22 bc 44 54 d4 bc
       0.019421404 0.025619054 -0.009906445 -0.025919087
000370 ae 49 4f 3b 3f 24 90 bc 57 fa c6 bc 69 d6 a1 bc
       0.003162961 -0.017595408 -0.024289293 -0.019755559
000380 4d c0 a2 bb 89 fe 96 bc 43 a7 c1 bc 9a 1b 6a bc
       -0.0049667717 -0.018431919 -0.023639327 -0.014288807
000390 c4 4e 7d bc d7 93 a9 3d f9 2b 44 3c 17 ce bb b9
       -0.015460674 0.08280151 0.0119733745 -0.00035820968
0003a0 72 83 51 bd d5 d2 35 bd 47 90 70 bc 29 d1 c9 bc
       -0.051150747 -0.04439052 -0.014682836 -0.024635868
0003b0 c0 a5 f9 bb 5a 69 27 bc 77 96 df 3c 27 8c 4e bd
       -0.007618636 -0.010217989 0.027293427 -0.05042663
0003c0 5f 96 51 3d b1 3f 4c 3b 46 37 c9 bc 7e 14 9c 3d
       0.051168796 0.0031165893 -0.02456249 0.07621096
0003d0 24 e8 da bc 9c 8c 47 bd 40 59 d3 bc e0 11 bf bc
       -0.026722021 -0.04871808 -0.025799394 -0.023323953
0003e0 70 36 12 bc f0 ac 61 bc 36 5b da bb e1 ac c3 bc
       -0.008924112 -0.013774142 -0.006663705 -0.023886146
0003f0 17 cd f5 bc 2c 6f 8b 3b c0 c1 61 bc 17 9f 5f bb
       -0.030005021 0.004255196 -0.013779104 -0.0034121925

sequential_1/dense_3/BiasAdd/ReadVariableOp/resource f4 [11]
000000 53 26 0b be 4b e0 c0 bd d7 9d 14 be e7 5e aa bd
       -0.13588838 -0.094177805 -0.14513336 -0.083188824
000010 39 27 d2 bd bb 4b e0 bd 4b 99 38 be e0 64 07 be
       -0.102613874 -0.109519444 -0.18027227 -0.13222075
000020 cf 10 03 be 19 47 90 bd f6 bc 57 bd
       -0.1279938 -0.07044811 -0.05267044

sequential_1/batch_normalization_1/FusedBatchNormV3 f4 [3]
000000 d7 d1 02 c0 f4 f1 08 c0 1b ca d4 bf
       -2.0440576 -2.1397676 -1.6624178

sequential_1/batch_normalization_1/FusedBatchNormV31 f4 [3]
000000 6b 2a 82 3c 4d 3f 8b 3c 85 30 5a 3c
       0.015889367 0.016997958 0.013317232

sequential_1/dense_2/MatMul f4 [256, 512]
000000 71 16 06 3d 6f 0a 6a bc 8d 6f 80 3c 72 db ca 3c
       0.032736246 -0.014284714 0.015678192 0.024762843
000010 b4 ee cf bd b3 c3 c2 bc 72 11 17 3d 1b 7f 6f 3d
       -0.10152951 -0.023774957 0.03688187 0.058470827
000020 ef 28 2b bd 81 49 60 3d 62 1e d0 bd 3a d9 ab 3d
       -0.041787084 0.0547576 -0.10162045 0.08391042
000030 a7 68 c6 bd 34 35 e2 3b c4 1d bc bd 2c 87 d1 bc
       -0.096879296 0.006903315 -0.09185365 -0.02557715
000040 3a 2d eb 3c 1a 24 0c bd 20 c9 4f bd d9 1f 80 3d
       0.02870809 -0.034214117 -0.050728917 0.062560745
000050 14 a1 ff bc f7 60 ad bd 5e 88 88 3b fe 3d 87 bd
       -0.031204738 -0.0846576 0.004166647 -0.06603621
000060 f8 f1 c4 3c 08 4a 0b bd 93 d5 a1 39 da a0 87 bd
       0.024041161 -0.03400615 0.00030867438 -0.06622477
000070 af 04 0c 3d 0c 49 b9 bb 13 6e d0 bd 54 c9 eb b9
       0.034184154 -0.00565446 -0.10177245 -0.00044972694
000080 bd 3f 41 3d ef d1 b3 bd 91 c3 b6 3c 70 4e 78 3c
       0.047179926 -0.08780276 0.02231005 0.01515542
000090 68 25 91 3d ce 2a 35 3d 5f c1 9a bd 71 0e ef bc
       0.07087213 0.044230275 -0.07556414 -0.02918169
0000a0 cf e5 51 3d 06 43 b3 bb 21 2b 29 bd 38 b5 aa bc
       0.051244553 -0.0054706363 -0.041300897 -0.020838365
0000b0 51 b1 8d bd 8f 05 16 be 63 e9 0f be 40 3c 06 bd
       -0.06918586 -0.14650558 -0.14053874 -0.032772303
0000c0 e7 d9 0c bd 5a 61 ce 3d ae 3f 6a 3d 51 cc b6 bd
       -0.034387495 0.10077162 0.057189636 -0.08925689
0000d0 3d 33 92 bc cc 17 9a bd a6 f0 bf bd bb df 14 3d
       -0.017846698 -0.0752407 -0.09372072 0.03634618
0000e0 5b 4f 89 bd b1 ab 9c 3c 7d d8 0f bd be 1b 87 bc
       -0.06704589 0.019124838 -0.03511857 -0.01649272
0000f0 5f 97 b5 bd 40 f1 e9 bc 7c cc 89 bd d0 0c 63 bc
       -0.08866762 -0.02855742 -0.067284554 -0.013858035
000100 6a 5b ae bd 59 e6 92 3c ab 29 6b bd 43 cb d2 3c
       -0.085135296 0.017932104 -0.057412785 0.025731688
000110 0b 10 82 3d 7d 73 a4 bd 9d 19 43 3d 03 11 e8 39
       0.06350716 -0.0802984 0.04763185 0.00044263163
000120 32 9d 57 3d 71 1c ca bd e5 73 64 3d 27 2a 9d bc
       0.052640148 -0.09868706 0.05577459 -0.019185139
000130 36 a0 7f 3d 77 13 c9 bd 00 7d 5c 3d e2 f2 0c be
       0.06240865 -0.09818166 0.053830147 -0.13764527
000140 07 a3 7f bd 21 13 ad ba 48 cb 07 3e cb 9f e7 3d
       -0.062411334 -0.0013204553 0.1326114 0.11309775
000150 20 a4 c0 bc 51 4a b1 bc 29 7c a4 3d 57 cd 27 39
       -0.02351576 -0.021641882 0.08031494 0.00016002856
000160 a6 04 64 3d 5d 19 b8 3c ef cd 11 be 50 d7 8e 3d
       0.055668496 0.022473032 -0.14238714 0.06974661
000170 b1 a6 f0 bc ef d1 43 bd 67 51 8a bd c6 fe 2f bc
       -0.02937636 -0.04780763 -0.067538075 -0.010741895
000180 7f 32 e3 bd 33 c1 04 3d df a5 86 3c a0 5b cf 3d
       -0.11093616 0.03241081 0.016436515 0.10124898
000190 db c8 33 3d 12 19 a2 bd 00 0b a5 3b a0 d3 00 bc
       0.043892723 -0.07914938 0.0050367117 -0.007862955
0001a0 3e 4b 9b 3d e2 5c b5 bd 88 f7 98 3c f6 6e 4a bd
       0.07582711 -0.088556066 0.01867272 -0.049422227
0001b0 38 0a 11 be 33 4f 47 bc 0c 16 91 bd 2f a8 ff 3d
       -0.14164054 -0.012164879 -0.07084283 0.1248325
0001c0 2b 71 82 3d 39 86 0d 3c df 20 8e bd fe 9e 8e bd
       0.06369241 0.008637958 -0.069398634 -0.06963919
0001d0 cc ca 75 bc 13 71 94 bd f0 c7 32 bc f5 d7 29 3d
       -0.015001964 -0.0724813 -0.010911927 0.04146572
0001e0 3f 98 a2 bd c9 d4 bf bd e0 53 fc 3c ac 75 6c 3d
       -0.07939195 -0.093667574 0.030801713 0.05772941
0001f0 2c d7 7d 3d d0 15 96 bd 53 0c 0a 3d 35 28 4e 3d
       0.061972782 -0.07328379 0.03370316 0.050331313
000200 e3 b0 e5 3d a3 19 33 bd 9a a1 95 bd 3d b7 09 3e
       0.11215379 -0.04372562 -0.07306214 0.13448806
000210 6c d2 0d 3c 23 54 84 bb 66 ee 1b 3e 8b 40 00 bd
       0.0086561255 -0.00403835 0.1522766 -0.031311553
000220 0b ce 28 bd dc 64 8b 3d 5d 5b 81 3c 1f d5 0a 3d
       -0.041212123 0.06806347 0.015790636 0.033894654
000230 44 91 00 3d ed bd 5c bd 18 24 32 bd 6d 99 25 bd
       0.031388536 -0.053892065 -0.043491453 -0.04042952
000240 2b 12 6b bc e1 91 de 3d cd 9b ba 3b df b6 94 3c
       -0.014347593 0.10867668 0.0056948424 0.018153606
000250 d4 ac d2 3b 56 ac a2 bd 16 ac 9a bd af e6 5e 3d
       0.006429294 -0.07943027 -0.07552354 0.054419216
000260 c5 43 f6 3b b0 63 a8 bd 38 dd 0c 3c bd fc 55 3d
       0.007515403 -0.08222139 0.008597665 0.052242983
000270 6d 61 5a bd d6 0d b4 bd 79 77 5d 3d 05 d2 30 bd
       -0.05331557 -0.087917015 0.054069016 -0.04316904
000280 e6 f3 16 3b c4 4f 09 3c 7e 69 79 bc 6e ea 1d be
       0.0023033558 0.008380834 -0.015222905 -0.15421459
000290 43 b2 51 bd e0 9d bc 3d 13 b7 15 3c 5c 7a d4 bc
       -0.051195394 0.092098 0.009137887 -0.025937252
0002a0 44 77 b7 3c 99 35 1e 3d 84 6e d2 bc 5c 04 8f bd
       0.022395737 0.038625333 -0.025687464 -0.06983253
0002b0 d3 fe 57 3d e8 e6 9f 3d 9d 13 a1 bc ea 29 3c 3d
       0.052733254 0.07807714 -0.019662673 0.04593841
0002c0 a4 95 20 3e e8 03 92 bd f7 74 81 3d 11 70 d3 3d
       0.15682083 -0.07129651 0.063211374 0.10324109
0002d0 69 e8 97 3d a1 06 96 3c 4e 48 e5 bd 56 2f 05 bd
       0.074173756 0.018313708 -0.11195432 -0.032515846
0002e0 95 5b 83 bd 88 ef b2 bc ee de 69 3d 18 d0 b7 bd
       -0.06413952 -0.021842733 0.057097368 -0.089752376
0002f0 61 ee 7d bd 0c 7c 5c bd f0 3d 82 bd a8 74 84 3d
       -0.061994914 -0.053829238 -0.0635947 0.06467563
000300 d6 13 7d bc a7 91 c2 bb 17 50 a5 3a 8a 7d 9a 3d
       -0.015446624 -0.0059377733 0.001261237 0.07543476
000310 8c b9 2f 3c 6d 31 97 3c 84 fd 17 3d f6 fa 79 bd
       0.01072539 0.018456185 0.037107006 -0.06103035
000320 cf b9 e4 3d ac da b1 3c 25 11 8e bd ee c3 9c 3d
       0.11168253 0.021710716 -0.06936864 0.07654558
000330 67 83 b7 3d ac dd 88 3d e0 7c d6 3c ab 09 14 3d
       0.0896061 0.066829056 0.026182592 0.036142033
000340 41 f3 0e 3d b4 bb 07 3e 33 fe 1f 3d e4 95 01 3d
       0.034899954 0.13255197 0.039060783 0.031637087
000350 1e 41 64 3e 83 9f 50 bd cf 9a 1c 3d 9b e0 19 3d
       0.22290465 -0.050933372 0.038233574 0.037567716
000360 1a eb 10 3d 2f 1f 23 3d 0f 36 3f 3d 12 a3 dd 3d
       0.03538046 0.03982466 0.046682414 0.10822119
000370 24 8e a5 bd b3 5c d5 bd b2 ac 0a 3d ee 9d 08 bc
       -0.08083752 -0.104180716 0.0338561 -0.008338435
000380 9f c7 2b bd 3a da 02 bc dc 65 df 3d d1 17 99 bd
       -0.04193842 -0.0079866 0.109081 -0.07475246
000390 8c b9 94 bd 27 24 a3 3d 23 ab 9f 3c 94 76 79 3d
       -0.07261953 0.0796588 0.019490784 0.0609041
0003a0 33 dc 2b 3d ec 01 29 ba 6f 40 23 3e dc d1 1e bd
       0.041958045 -0.0006447125 0.15942548 -0.038774356
0003b0 52 c6 1a 3d 37 9f 82 3b 8e 7b 59 bd 22 96 07 bd
       0.03778679 0.003986265 -0.053096347 -0.033102162
0003c0 3c f7 eb 3d e1 e5 86 3d f5 e6 8a 3c 04 c4 11 3e
       0.115217656 0.06586815 0.016955832 0.1423493
0003d0 fe c6 11 3e 2e 4f 17 bd 4b a4 96 bd 88 84 47 bd
       0.14236066 -0.036940746 -0.07355555 -0.048710376
0003e0 20 87 80 3d 61 39 cc 3d 5c 7a c4 3b e5 ef 8b bd
       0.06275773 0.09971882 0.0059960317 -0.068328656
0003f0 bf dd 13 bc 81 97 b0 39 27 a2 5d 3c f8 36 03 3d
       -0.009025036 0.00033682215 0.01352743 0.032034844

sequential_1/dense_3/MatMul f4 [11, 256]
000000 da f2 84 bb 82 de 8f bd 2d 3b 31 be da be 57 3d
       -0.0040572705 -0.07024862 -0.1730773 0.052672245
000010 7b 1b 3d bd c9 4b 1a 3e 62 e6 c8 bd ca 63 82 be
       -0.046168786 0.15067972 -0.09809567 -0.25466758
000020 45 49 82 be 1c 84 71 be b4 9a 9d be 88 3f cf 3d
       -0.25446525 -0.23585552 -0.30782092 0.101195395
000030 1b e5 40 be 42 35 09 3d b4 c1 af 3d 0f 64 54 bd
       -0.18837397 0.033498056 0.08581868 -0.051853236
000040 fe 0d 6f be 4a 9c 7d be 95 ce 29 be 00 8f 2c 3c
       -0.23345181 -0.24766651 -0.16582711 0.010532141
000050 f3 24 af 3c 88 3e c9 bc c8 6d 00 3d 5a ac d0 bd
       0.021379923 -0.02456595 0.031354696 -0.101891235
000060 c2 e0 ce be 2b d3 d7 bd c2 d9 84 be 72 01 68 be
       -0.40405852 -0.10538324 -0.25947386 -0.22656801
000070 63 0e 26 3d ab e0 46 be c4 6f e9 bd 7d 84 89 be
       0.040541064 -0.19421642 -0.11398271 -0.26858893
000080 c3 7f 31 be 14 bc bc be 30 2a 6d bc a4 5d b2 3d
       -0.17333893 -0.36862242 -0.01447539 0.08709267
000090 8d e2 b4 3d 3c 38 6c bc df d8 aa bd f9 7a 81 bd
       0.08832274 -0.014417704 -0.08342146 -0.06322283
0000a0 84 87 40 be 90 96 80 be 82 22 3d bd 44 07 de 3d
       -0.18801695 -0.2511487 -0.046175487 0.108412296
0000b0 4e 69 f7 bd 56 83 04 3d b4 28 b2 3d 42 c3 c0 be
       -0.12080632 0.032351814 0.0869917 -0.3764897
0000c0 08 c0 ab bd f7 b0 e8 bd ba a3 a3 3d 4b 0e 93 bd
       -0.083862364 -0.11361878 0.07990213 -0.071804605
0000d0 a5 21 87 bc 3e 09 6e be 0a 58 bc bd 0e fc 81 be
       -0.016495535 -0.23245713 -0.091964796 -0.25387615
0000e0 da 48 b2 bd 4a 84 15 3b d2 df 97 be 61 e3 5f 3d
       -0.087053016 0.0022814446 -0.2966295 0.054660205
0000f0 3b 94 9b bd e9 a8 2d be 40 ff a3 be 37 20 12 be
       -0.07596632 -0.16958965 -0.32030678 -0.14270101
000100 90 ae 1b be d3 1d a5 bb b1 8f 68 bd 93 cc f1 bd
       -0.15203309 -0.0050389557 -0.05677766 -0.118065976
000110 9b 05 83 bd 56 49 89 3d ce 29 13 3d 53 a6 a7 be
       -0.063975535 0.06703441 0.03592854 -0.32744083
000120 d4 7b 6d be eb d4 18 3d 5d 4b b0 be 05 c5 35 be
       -0.23191768 0.03731243 -0.34432498 -0.17750938
000130 19 e2 94 be 7a 2d 4b be 3b c1 2d be d6 76 76 be
       -0.2907875 -0.19841567 -0.16968243 -0.2406877
000140 28 dc 6a bc 8c 29 07 be 39 19 b4 3d a0 c3 2e 3d
       -0.014334716 -0.13199443 0.08793873 0.04266703
000150 e0 08 0c be 01 12 0c be 16 e0 62 bd cc 4d 88 bd
       -0.1367526 -0.13678743 -0.055389486 -0.066554636
000160 5c df 0e bd 73 98 5d bd 4f 5b 6a be dd 9a 23 be
       -0.03488098 -0.054100465 -0.22886394 -0.15977044
000170 62 c8 f5 ba 7f 2c 10 be 46 28 b3 bc de 76 ca 3d
       -0.0018751735 -0.14079474 -0.02186979 0.09885953
000180 b1 4e 08 3e ec 68 cc bc 3c 5c 38 bd 4f 5a 46 be
       0.13311268 -0.024952374 -0.045009837 -0.19370387
000190 68 e6 9b be 79 8f 02 bd 52 d6 ac bd f3 5f 8a be
       -0.30449224 -0.031875107 -0.08439316 -0.27026328
0001a0 2d fc 2c bd 5f d6 88 be 89 a2 a3 be 50 ad f5 bd
       -0.04223268 -0.26726052 -0.31959942 -0.11995947
0001b0 48 2b e1 3c e6 ce 19 be b3 41 a6 be 2f 58 75 be
       0.027486458 -0.15020332 -0.32472 -0.2395942
0001c0 61 f7 21 be a8 d5 6d be 99 38 77 be dc a6 ca be
       -0.15817024 -0.23226035 -0.24142684 -0.3958043
0001d0 3d fc a9 bc ee 2c 9c be 0d 72 ee bc ea 87 8e bd
       -0.02075016 -0.3050303 -0.029107118 -0.06959517
0001e0 eb 61 8e bd 04 f3 ed bd 2c 4d bf be df 46 b6 bd
       -0.0695227 -0.11618617 -0.37363565 -0.08900236
0001f0 4b 3e 0e bd ad 9e 94 3d d9 30 40 be 2e 56 c4 be
       -0.034727376 0.072568275 -0.18768634 -0.38347
000200 66 4e 7d be 1b 85 24 be 64 c3 ee bd b7 c9 21 3d
       -0.24736938 -0.160664 -0.116583616 0.03949901
000210 64 22 01 be 23 27 dd bc ee 1c 31 bd 0e d3 e9 be
       -0.12610775 -0.0269962 -0.04324048 -0.45668834
000220 9d 9d bd bd 0a 62 0b be df fa 91 be 71 8c dc 3c
       -0.09258578 -0.13611618 -0.28511712 0.026922436
000230 fa e6 c8 3d 81 20 86 be 4f eb ae be 86 c8 82 bd
       0.0980968 -0.26196674 -0.341639 -0.06385903
000240 78 72 ac be 94 21 95 be e8 7d 5a be eb 61 c7 be
       -0.33681083 -0.2912718 -0.21337092 -0.38941893
000250 d4 2c cf bd ad 47 9f be ae b4 9f be c1 83 ce bd
       -0.10115972 -0.31109372 -0.31192535 -0.10083724
000260 ed ec 77 be 6c b3 46 bd f3 d6 84 bd f6 53 90 bc
       -0.24211474 -0.048510954 -0.06486311 -0.01761816
000270 ba ec 02 3c e5 d1 b9 be b4 ad fb bd 58 91 e7 bb
       0.00799101 -0.3629295 -0.122889906 -0.007066887
000280 09 4a 03 3e 25 66 d6 3d c6 a8 87 bd 1d c5 bb bd
       0.12821211 0.10468701 -0.06623988 -0.09168456
000290 a7 cc 94 3c 7a d7 89 bc 40 f4 7e be 74 6c b1 3d
       0.018163992 -0.01682638 -0.24897861 0.08663264
0002a0 60 0c a6 be 44 2c 16 3d cb c2 2c bd bf 0c 23 3d
       -0.32431316 0.03666331 -0.042177957 0.039807077
0002b0 83 db 19 be e0 63 27 be 12 2d 6c bd 00 c2 a3 be
       -0.15025143 -0.16346693 -0.05766017 -0.31983948
0002c0 3f 83 5b bd c3 7f 8d be b8 79 18 be bd ed 8d 3d
       -0.053591963 -0.27636537 -0.14890182 0.069301106
0002d0 8e 64 0f be 33 c2 1d be 5f 4e 0d be 2e 87 47 be
       -0.14003202 -0.15406112 -0.13799427 -0.1948516
0002e0 ad b4 e3 3d 60 be eb bd ee be 7d bd 9e ee 11 bd
       0.111184455 -0.115109205 -0.061949663 -0.035627954
0002f0 5f 66 cc 3c e9 42 2e be 90 b0 03 be d3 3c e8 bd
       0.024951158 -0.17017712 -0.12860322 -0.11339726
000300 60 0c c5 bc 47 b7 9f be 2a da 81 3b 7d 53 3c bd
       -0.024053752 -0.31194517 0.0039627748 -0.045978058
000310 dc f5 c7 bd 40 34 85 be f1 4c 9a 3b d3 fc de bd
       -0.09763691 -0.26016426 0.004708879 -0.10888066
000320 70 47 0e be 40 e4 91 be 2d f8 c7 bd 7b e6 b6 be
       -0.13894439 -0.28494453 -0.09764133 -0.35722718
000330 6e f7 bd 3c c0 70 c7 3d 37 f2 79 3d 6b 28 96 bc
       0.023189273 0.09738302 0.06102201 -0.01832982
000340 6e 55 90 bc 7a a4 95 be 6f 73 84 be bc 58 89 3d
       -0.017618861 -0.29227048 -0.2586932 0.06706378
000350 ab fc 24 bd 1d 89 03 be f8 4d 72 be 0c f0 76 3e
       -0.040280025 -0.12845273 -0.23662555 0.24115008
000360 7d 66 d3 be a9 e8 00 be 20 68 fc bd dd d4 c8 bd
       -0.4128913 -0.12588753 -0.12324548 -0.098062254
000370 94 51 c7 3d d3 41 58 bd bc 43 17 be 6e ed 33 bc
       0.09732357 -0.05279715 -0.14771932 -0.010981901
000380 30 e5 92 be 50 51 bb bd 8d e0 80 3d 9f 27 e2 3c
       -0.2869048 -0.091463685 0.0629283 0.027606783
000390 9e 7e 74 be cd dd d9 be 2d 9d 01 bd 58 b2 4a be
       -0.23876426 -0.42552033 -0.031644035 -0.19794595
0003a0 e0 1c b7 3c 23 90 b7 3c 0b 58 eb bc cc cf e5 bd
       0.022352636 0.022407597 -0.028728506 -0.11221275
0003b0 47 15 ac bd fa 79 09 be fb 93 1b bd 09 8e 7d bd
       -0.08402496 -0.13425437 -0.037982922 -0.061903033
0003c0 7e 94 8f be 95 47 f2 bd 65 4b 28 be b1 58 52 bd
       -0.28042978 -0.118300594 -0.1643501 -0.051354114
0003d0 9f 86 28 be 7b df 99 be b8 95 0b be 1a b6 99 be
       -0.16457604 -0.30053315 -0.13631332 -0.30021745
0003e0 49 35 99 3c 05 b0 ab 3d 05 1d 14 be d3 97 a5 bd
       0.018702166 0.083831824 -0.14464195 -0.08085599
0003f0 bf 28 00 be ad 67 87 be 0c 24 1a be 3a 98 f2 bc
       -0.12515543 -0.26446286 -0.15052813 -0.029613603

sequential_1/conv2d_3/Conv2D f4 [32, 3, 3, 3]
000000 b0 96 0d 3e 46 3a 3d 3e eb 43 d9 bc fd d6 a8 3d
       0.13827014 0.18479261 -0.026521644 0.08244131
000010 bb 67 5f 3e 53 60 3c 3c f1 57 11 3e 2d 0e 44 3e
       0.21816914 0.011497575 0.14193703 0.19146033
000020 af 30 46 3e 3f 8c 99 bb 6f 9e 0b 3e 02 80 e8 3c
       0.19354509 -0.004685908 0.13634656 0.028381351
000030 a7 05 a4 bc 9d 33 ed bd b3 e3 be bc e8 93 60 be
       -0.020022226 -0.1158211 -0.023301935 -0.21931422
000040 de fa 34 be 9e 65 21 be 55 20 20 bd 73 52 22 be
       -0.17673823 -0.1576142 -0.039093334 -0.15851764
000050 e3 03 79 3d 2b 8e a8 bc fd 49 db bc 0e 32 13 be
       0.060794722 -0.020575603 -0.026768679 -0.14374563
000060 4e fa 21 bd e8 5c 7b bd 5c 21 40 be 54 ab 1b bc
       -0.03954535 -0.0613679 -0.18762726 -0.009501297
000070 8a cc f4 bd 90 f0 a5 bd 62 36 07 bd 23 1d 0c 3e
       -0.11953075 -0.08102524 -0.033010848 0.1368299
000080 e7 89 ab 3d f4 7c a3 3d 38 ed 66 3e c7 de 03 3e
       0.08375912 0.07982817 0.2255143 0.12877952
000090 fc 26 b7 3d 23 ee b0 3c 52 85 12 3e cf ff eb 3c
       0.089429826 0.021597927 0.1430867 0.028808502
0000a0 a5 dc 2b 3e 88 12 e1 bd 11 33 3d 3c 59 b1 93 3d
       0.16783388 -0.10989863 0.01154782 0.07211561
0000b0 cc e5 01 3d 77 de e6 3b f3 18 b7 3d f0 f3 1e bc
       0.031713292 0.007045563 0.089403056 -0.009701714
0000c0 db ec 8b 3d 00 dd 09 bb 2d e2 c3 bc 69 c9 fe bc
       0.06832286 -0.0021036267 -0.02391156 -0.0311019
0000d0 a5 c6 81 be f2 23 83 be 78 dc e4 3c bc 88 06 3e
       -0.25346866 -0.25613362 0.027937159 0.13138098
0000e0 85 ba 98 3d d7 e2 b1 3d bb 83 21 3e 9b 61 33 bd
       0.07457451 0.086858444 0.15772907 -0.043794256
0000f0 2d 89 cb bc 86 8c 5e be 72 7e b1 bd 5a 1c 72 3d
       -0.024845684 -0.21733293 -0.08666696 0.05910907
000100 2c 9b af bd 76 b2 e9 3d 8d 42 45 3c a0 17 22 3e
       -0.085745186 0.11410992 0.012039793 0.15829325
000110 93 32 ad 3d e0 00 7b be ad 45 9c bd 28 2d e3 bc
       0.08456912 -0.24512053 -0.07630477 -0.027731493
000120 1b a3 7e 3d ec de 5c bc 94 14 00 3e 90 53 34 3d
       0.06216727 -0.013480883 0.1250785 0.044025004
000130 19 35 fe bc e3 90 92 bd 6c ab 3c 3d 2e 6f a0 bd
       -0.031031178 -0.07156541 0.04606192 -0.07833706
000140 07 3f fe bc da 00 c6 bd b7 63 28 3c a9 fe d1 3c
       -0.031035913 -0.09668131 0.01027768 0.025634127
000150 0c 21 02 3e e6 8c 99 3c b4 1a 61 3d 9e 33 e5 3d
       0.12707919 0.018743943 0.054957107 0.11191486
000160 3c ff c7 3d 37 d6 ce 3d 5f d5 3d be 68 ca e1 bd
       0.09765479 0.10099452 -0.18538426 -0.11024934
000170 95 a9 be bd 2c d2 af bd 0f 60 b9 bc a4 e0 53 3d
       -0.09309689 -0.08585009 -0.022628812 0.051727906
000180 01 4b f0 3d 91 60 f2 3d f8 b0 31 bd 23 68 99 be
       0.11733056 0.11834825 -0.04338166 -0.29962263
000190 06 95 28 be 29 c3 d5 bd a2 7a 47 bd 69 8f 13 3d
       -0.16463098 -0.104376145 -0.048700936 0.03602544
0001a0 3c cb aa 3d f5 6d ac 3d ab 04 cd 3d 07 68 11 3e
       0.08339545 0.0841941 0.10010656 0.1419984
0001b0 7c 58 10 be 76 40 24 bd f1 e2 9c bd d3 b9 9a 3b
       -0.14096254 -0.040100537 -0.07660473 0.004721859
0001c0 41 73 1e 3e 3d 1f a2 3d 31 20 f3 3d 43 8f f7 3c
       0.15473653 0.079161145 0.118713744 0.03021968
0001d0 9c f2 ed 3d 68 51 d7 bd db 1c 88 bd 90 1b 18 be
       0.1161854 -0.10513574 -0.06646129 -0.14854264
0001e0 9f 86 01 3d 6b 5e 0c 3d 92 e8 77 ba b2 4b e4 3d
       0.031622525 0.03426973 -0.0009456958 0.1114725
0001f0 ce ce 0f 3d e9 be a3 3d 4a cd e8 bd bd de 38 be
       0.035109334 0.079953976 -0.11367281 -0.18053718
000200 12 b8 37 bd 10 f8 1d 3c ce b0 90 3c 8e ca 1c bd
       -0.044853278 0.009641662 0.017662432 -0.03827911
000210 6d a3 a2 3d 88 24 26 3e 6e b2 79 3b 6a b8 e6 3c
       0.07941327 0.16224873 0.0038100737 0.028164107
000220 51 51 df bd e7 dd d8 3d d2 e2 40 bb 1d 20 de 3d
       -0.10904182 0.105891995 -0.002943207 0.10845969
000230 f1 3f 05 3d 46 8f c5 3d df ab 66 3d a3 5f c8 bd
       0.032531682 0.09646468 0.056316253 -0.09783866
000240 04 38 d0 bd f8 7c d8 bd d7 42 38 be 22 22 7d 3d
       -0.10166934 -0.10570711 -0.17994247 0.06180013
000250 83 4c c0 3d 73 17 f6 3d 8a 5b 20 3c 81 cc fd bc
       0.093895935 0.12016191 0.00978745 -0.030981304
000260 3e ac 25 3d 77 3c 34 be 87 89 fe bd ad 6e 05 be
       0.040447466 -0.1760119 -0.12428575 -0.130305
000270 83 ce 4b 3d 76 a3 51 3d 6c d3 60 3d 95 4e 2f 3d
       0.04975749 0.05118128 0.054889128 0.04279955
000280 9b b3 c0 3c 4a 3f a6 3d f4 21 35 bc d1 89 e0 3d
       0.023523143 0.0811754 -0.011055458 0.109637864
000290 83 24 1e 3e e5 88 1b 3a dc 95 dc bc 3d ae b7 bd
       0.15443616 0.00059331796 -0.026926927 -0.0896878
0002a0 46 3f 2c 3c 4e c9 0e 3e 0d cb 38 bd 59 14 c9 3d
       0.010513132 0.13943979 -0.04511552 0.09818334
0002b0 e1 a8 3d 3c 26 01 e5 3d 41 f9 21 3e 54 0a 15 be
       0.011575908 0.1118186 0.15817739 -0.14554721
0002c0 74 e4 b6 3d c0 98 0b be 07 ba a4 3c 00 a6 b4 3d
       0.08930293 -0.13632488 0.020108236 0.088207245
0002d0 ca 95 34 bc 33 e4 ce bd 86 8d 48 3e 46 fa 20 be
       -0.011022041 -0.10102119 0.19585237 -0.15720472
0002e0 4a ac 63 3d d6 67 c0 bd f4 13 2b be c9 4c 52 be
       0.05558423 -0.09394805 -0.1670683 -0.20537104
0002f0 53 a4 66 3d 4f e5 89 bd da 5f ec 3d 0c b5 a7 3d
       0.056309056 -0.0673319 0.1154172 0.08188829
000300 46 a4 19 bd d5 19 d7 3d ae 41 23 bd ef 36 5a 3e
       -0.03751018 0.10502974 -0.03985756 0.21310018
000310 ca 31 5b 3e 9a 7c a7 3d 25 78 01 be ef 23 19 be
       0.21405712 0.08178063 -0.12643488 -0.14955114
000320 7c 9a 5e 3c 40 58 04 be 26 29 89 be 93 88 18 be
       0.013586637 -0.1292429 -0.26789206 -0.14895849
000330 71 46 27 be db 6c f1 bd a2 c4 ac 3d 1e 67 19 bd
       -0.16335465 -0.11788341 0.08435942 -0.037451856
000340 d8 98 6b 3a 32 e8 88 3a 34 7f 3d bd 43 c9 0a 3e
       0.0008987314 0.0010445176 -0.04626389 0.13553338
000350 2a 61 c0 bc 91 65 19 bd ce fc 41 3a 57 3d 9e bd
       -0.023483831 -0.037450377 0.00074000366 -0.077265434
000360 65 7e 4f 3e 9b a9 5b 3d 7e e5 22 3e 56 85 32 3c
       0.2026306 0.053628545 0.15907857 0.010896048
000370 fa 72 e3 3c 80 1d 5c 3d db 64 c2 bd e0 9f ab 3c
       0.027764786 0.05373907 -0.09491893 0.020950258
000380 92 8d d4 bd 2b ba 2a 3e 27 32 db 3d a8 c2 38 bd
       -0.10378565 0.1667258 0.10702925 -0.045107514
000390 2a 88 b9 3c c0 07 b1 3d 69 d0 d0 3c 67 87 a7 bd
       0.022647936 0.08644056 0.025490003 -0.08180123
0003a0 34 00 39 bd 89 79 39 be 7e e6 ab bd 15 11 62 3d
       -0.04516621 -0.18112768 -0.08393572 0.055192072
0003b0 16 2a 17 3e ee 92 42 be 46 71 26 be 76 cb 69 bc
       0.14762148 -0.19001362 -0.16254148 -0.0142697
0003c0 2f c2 6e bd f3 14 69 be 52 1b ff bc b4 d0 3a 3e
       -0.058290657 -0.22761898 -0.031140957 0.18243676
0003d0 d7 c0 fe bb c0 1e 47 3d 74 23 9e bd 8d a7 d2 bd
       -0.007774453 0.04861331 -0.07721606 -0.10285864
0003e0 1c 64 54 3d 09 0c 91 bc 36 89 eb bd 90 ce cc 3c
       0.051853284 -0.017705934 -0.1150078 0.02500084
0003f0 7a 09 22 3c 25 47 2d 3e e0 4e 4c 3d 3a 9b cf bd
       0.009889955 0.1692167 0.04987991 -0.10137029

sequential_1/conv2d_4/Conv2D f4 [64, 3, 3, 32]
000000 88 c1 d0 3c 61 a5 36 bc 5f ee db 3d a2 9e 78 bd
       0.025482908 -0.011147828 0.10738825 -0.06069816
000010 ad ff a7 3c 77 be 04 bb 14 49 91 3d 2c d5 75 bc
       0.020507658 -0.0020255127 0.07094017 -0.015004437
000020 8e 78 0e 3d 61 55 ba bd 72 4f 51 3d dd 71 1a 3d
       0.03478294 -0.09098316 0.051101156 0.037706245
000030 78 97 76 3c 1b f1 c3 ba eb 49 8e bd 9e 73 70 bd
       0.015050761 -0.0014949174 -0.069476925 -0.05870401
000040 57 9b a2 3d 38 04 61 3d 8c 49 1f 3e 54 fb 8f 3d
       0.07939785 0.054935664 0.155554 0.07030359
000050 c6 f8 d4 bb 8e c6 e6 3b 80 05 da 3c 7b 9a 43 bd
       -0.0064993827 0.0070427125 0.02661395 -0.047754746
000060 fe 2b 7a bd ad 4b 86 3b be 18 36 bd 52 8d 21 3e
       -0.06107711 0.0040983767 -0.04445719 0.15776566
000070 27 a3 c1 3d e1 53 84 3d 64 63 02 3e 3f 84 81 bc
       0.09454947 0.06461311 0.12733227 -0.01581013
000080 64 ce 6b bd d9 15 58 bc 04 32 11 3d 69 7a 25 3d
       -0.057569876 -0.013188803 0.03544809 0.040399943
000090 98 ff e9 bd b8 3e a0 3c 20 30 a2 bd 4b b2 c7 3d
       -0.11425704 0.019561157 -0.07919335 0.097508036
0000a0 de 62 71 3d 3d 19 52 3d f0 5b 8b 3d d5 9a 70 bd
       0.058932178 0.0512936 0.06804645 -0.05874141
0000b0 a0 90 83 bb e5 6a 14 bd 2a b1 ef 3c 18 a0 21 3e
       -0.0040150434 -0.036234755 0.029259283 0.15783727
0000c0 58 6c 00 3d 16 14 9c bb a0 ef b2 3c b5 5e d8 3c
       0.031353325 -0.0047631366 0.021842778 0.026412347
0000d0 58 d2 17 bd f1 98 ff 3c 65 61 73 bd 28 f4 8d 3d
       -0.037065834 0.031200858 -0.059419055 0.06931335
0000e0 0c 62 c1 3c 0d 4c 8e bc b0 3a 56 bc 79 41 03 3e
       0.023606323 -0.017370248 -0.013075516 0.12817945
0000f0 7f 3a cd 3b 51 c6 16 bb f7 8d 16 bd 60 94 a2 bc
       0.006263077 -0.002300639 -0.036756482 -0.019846141
000100 fa 50 0c 3d 78 e2 2c be dd e3 c6 bd 37 2e 03 3e
       0.034256913 -0.16883266 -0.0971143 0.12810598
000110 99 70 7d 3c c3 2d 76 bd 13 d4 86 bd 8d ac 1b 3e
       0.01546874 -0.060102236 -0.06583419 0.15202542
000120 1a f8 45 3d fc b5 58 3d 87 34 3d 3d 7e c8 c1 3d
       0.04833231 0.05290793 0.046192672 0.09462069
000130 29 8d d9 bd 04 7d 76 3e 70 62 ae 3c 62 e6 a9 bb
       -0.10622627 0.24071127 0.021287173 -0.0051849345
000140 e2 2f cf 3d 3e d6 bb 3a 30 34 6b 3c 45 59 ea bd
       0.10116555 0.0014330817 0.014355704 -0.11442808
000150 8e 32 a4 3d 57 d3 c7 bc 7c 30 1b 3d 2b a1 e4 bd
       0.08017455 -0.024392767 0.037888035 -0.11163553
000160 14 fd 30 be 3d 0e 2a bc 06 7f 72 3d 07 95 80 3d
       -0.17284042 -0.010379371 0.05920317 0.06278425
000170 8f e6 3d b8 b7 25 ce bd 11 68 0d be 2a 09 f1 bc
       -4.5275836e-05 -0.10065787 -0.1380923 -0.029423315
000180 f6 e5 96 bd a6 25 15 bd 44 fb fa 3d af 68 02 be
       -0.0736808 -0.036412857 0.12254956 -0.12735246
000190 de 71 29 bd 05 9c 14 bd e0 62 f6 bd 8f e6 6d bd
       -0.041368358 -0.036281604 -0.12030578 -0.058081206
0001a0 34 b2 20 bd da ab 11 3c c7 26 cc bd dc f3 ca bd
       -0.039232448 0.00889107 -0.09968334 -0.09909794
0001b0 95 3d 31 3d fe d2 fb bd 2b 61 9b bd 60 f8 9e bd
       0.04327162 -0.12296103 -0.07586893 -0.077622175
0001c0 d2 0c c2 3d 83 48 00 3e bf a2 a7 3d f7 bc 5d 3e
       0.094751015 0.12527661 0.08185338 0.21654116
0001d0 af 79 48 bd b4 e4 22 3e b1 74 c4 3c ef 8a 08 3e
       -0.04894417 0.15907556 0.023981424 0.13334249
0001e0 bc f6 ad bd ef c0 db bd 0d c7 91 3a 47 83 33 3d
       -0.084943265 -0.107301585 0.0011121944 0.043826368
0001f0 69 6d 9a 3e 25 49 6e bc da 3a f6 3c c7 ec 6b bd
       0.30161598 -0.014543806 0.03005736 -0.057598855
000200 29 ff ff bd fe 06 2b be a4 09 63 3d 51 c1 18 be
       -0.1249984 -0.16701886 0.055429116 -0.14917494
000210 a7 9f bd bd 7b 53 f5 3c 03 57 67 bd 41 81 15 3e
       -0.09258967 0.029947033 -0.056479465 0.14600088
000220 2f 39 5a bd 91 57 15 bc 64 85 97 3d 7e 95 43 be
       -0.05327719 -0.009115116 0.07398489 -0.19099995
000230 aa f1 f1 3c a1 9c 8c bd 1d eb 07 be 24 2d 32 be
       0.02953418 -0.06865812 -0.13273282 -0.17400032
000240 a2 2f c6 3d de 89 e6 3a ec 89 ea 3d d8 c9 14 3d
       0.09677054 0.0017588695 0.11452088 0.036325306
000250 db b3 0b bd 80 27 0b 3d 6e 94 f5 bc d3 08 04 be
       -0.03410707 0.033973217 -0.029978003 -0.12893991
000260 6e 4a 9b bd db 58 8c 3c f8 ab 38 be f2 d8 1c 3e
       -0.07582556 0.017132213 -0.18034351 0.15317133
000270 82 8f 54 3d 0a 33 48 bd 08 28 a5 3d 22 95 f0 bd
       0.051894672 -0.0488768 0.08064276 -0.11747195
000280 f0 11 25 3d 1e fe 5a bd 44 1c 23 bc 44 a5 1c 3d
       0.04030031 -0.053465 -0.0099554695 0.038243547
000290 fe 79 72 3d 74 e6 93 3d b2 1f 14 3d 3a a6 f7 3d
       0.059198372 0.0722169 0.03616304 0.12092252
0002a0 6b 2c 05 3e 45 9b 0a 3e 0f e6 09 3b 0e ff 13 3e
       0.13005225 0.13535793 0.0021041667 0.14452764
0002b0 ae ca d2 3b c4 09 ff 3d 75 39 2a bd fb 7c d6 bc
       0.0064328527 0.124530345 -0.0415587 -0.026182642
0002c0 3f 92 5d 3e 2e 61 43 bd ae 53 6f 3e 3b cd 9f bd
       0.2163782 -0.0477001 0.23371765 -0.078028165
0002d0 0c e7 c4 3d 0c 5f 0e bd 47 90 41 bd 40 90 e5 bd
       0.09614381 -0.034758613 -0.047256734 -0.11209154
0002e0 bf 2d 8d bd 51 37 d0 3d 26 48 04 be 85 75 2e bd
       -0.06893491 0.10166801 -0.12918147 -0.042592544
0002f0 16 d9 47 bc aa a8 46 3c e6 ce 70 3d 3b 97 68 3d
       -0.012197753 0.012125174 0.058791064 0.05678485
000300 99 7b c6 bd b9 6d 3c bd 2c 65 8a bc 12 03 22 3c
       -0.09691543 -0.046003077 -0.016893946 0.009888427
000310 28 52 a6 3c 63 6f 59 3d d4 f5 78 bd 34 14 91 bd
       0.020302847 0.053084742 -0.060781315 -0.070839316
000320 61 5b 06 be a8 89 0d be 62 df 82 bd ab d6 9d 3d
       -0.13120796 -0.13822043 -0.06390263 0.0770696
000330 72 8e 6b 3d 58 81 12 3d bd 5e a2 3d 5c 31 d1 3d
       0.057508893 0.035767883 0.07928226 0.10214493
000340 a5 ac 23 be 42 4b a1 bd 1b b6 27 be 0d 62 93 bb
       -0.15983827 -0.078756824 -0.16378061 -0.0044977725
000350 14 a3 19 bd c4 c6 df bc 7d dc 0a bd e7 02 3e 3d
       -0.03750904 -0.027316459 -0.03390168 0.046389487
000360 ff 8c 25 bd 31 ab 2f be 81 5f 9c 3c 6d c5 d5 bd
       -0.040417667 -0.17155148 0.019088509 -0.104380466
000370 31 ba bf 3d e8 e8 58 bb ce ae 4f be 5e 0b df 3b
       0.09361685 -0.0033097807 -0.20281526 0.006806775
000380 c6 50 20 be 7b 6f 02 bd 54 73 b5 bc f5 a6 de bd
       -0.15655813 -0.031844597 -0.02214972 -0.10871688
000390 17 c1 0b bd dd c9 6f bd 96 99 31 bd d2 a0 e9 bd
       -0.03411969 -0.05854212 -0.04335936 -0.11407627
0003a0 70 3f 22 be b0 33 0d be 2f b8 23 be ed 38 1e be
       -0.15844512 -0.13789248 -0.15988229 -0.15451403
0003b0 76 90 2b bd 7a b2 41 be d4 9d 4a 3d a1 e4 3f bc
       -0.041885816 -0.1891574 0.049466923 -0.011712224
0003c0 9c 9c 80 bd 3c 98 b0 3d fa b5 6c 3d f9 af 8d 3d
       -0.06279871 0.086227864 0.057790734 0.0691833
0003d0 59 6a 35 be 8f b1 8f bc fe 81 ac 3c ad ad d4 3d
       -0.1771635 -0.017540721 0.021058079 0.103846885
0003e0 03 68 9d bd 97 e0 36 3d 72 3e 77 bd a2 47 f1 3d
       -0.07685854 0.04464778 -0.060362287 0.11781241
0003f0 de 7f 88 bd 78 dc f4 bc 3d 9e 05 be 98 6d 48 bd
       -0.06665014 -0.029890284 -0.13048644 -0.04893264

sequential_1/conv2d_5/Conv2D f4 [64, 3, 3, 64]
000000 26 5a f4 3c 25 7d b2 3d cb f6 9e 3d 9e 55 67 3d
       0.029828142 0.08715276 0.07761916 0.056478135
000010 1d 5d 80 3d 13 a1 6f bd aa 91 a9 3d 39 20 d2 3c
       0.0626776 -0.05850322 0.08279736 0.02565013
000020 f2 71 3c 3c b1 cb ec 3c fa 3a 8f bc b5 db 0d bd
       0.011501776 0.028905721 -0.017484177 -0.034633357
000030 cc 0a 40 bc a4 26 16 3b 4a 2a 53 3d 29 34 64 bc
       -0.011721324 0.0022911215 0.051554002 -0.013928452
000040 a7 3d 07 be f4 4d c0 3d 56 b4 28 3c 27 f7 2e 3c
       -0.13207112 0.093898684 0.010296902 0.010679043
000050 f8 b3 20 bd 14 2a 32 3d 1e 48 85 ba 4a c1 e9 3c
       -0.03923413 0.04349716 -0.0010168587 0.02853455
000060 7e c5 f5 3c 0b 3e 3c bd d5 29 9c bc 34 2d 1e bb
       0.030001398 -0.045957606 -0.019062916 -0.002413583
000070 6d 4a 02 bc 9a 23 9b 3d 3c 14 19 bd 19 52 01 be
       -0.007952315 0.0757515 -0.037372813 -0.12628974
000080 a0 33 85 bc d4 29 f1 bc dd 36 56 bd 9f e9 df 3d
       -0.016259968 -0.02943889 -0.052298415 0.109332316
000090 a6 9c 3e bd 1b 77 a3 bd 90 46 cd bb 67 f3 92 3d
       -0.04653611 -0.07981702 -0.006264515 0.071753316
0000a0 9e 60 88 bd 4a f7 a4 bc ef a9 0b 3e 99 22 c6 bc
       -0.06659053 -0.020137448 0.13639043 -0.02418642
0000b0 fa bf 0f 3e 3f 9b 70 3c 3b ae 85 bd c9 4b 14 3d
       0.14038077 0.014685451 -0.065273724 0.036205087
0000c0 31 f8 c0 bd ba 45 fd 3b 0f 86 46 3d f8 d3 86 3d
       -0.09422339 0.0077292593 0.048467692 0.065833986
0000d0 c0 76 8b bc d7 10 38 bd b4 3b ca 3d 44 ba 86 bd
       -0.017024398 -0.044937935 0.09874669 -0.06578496
0000e0 11 ce 80 bd c7 86 d5 3d 84 41 99 bd 77 a6 90 bd
       -0.06289304 0.10426097 -0.07483199 -0.07063001
0000f0 a4 7f 67 ba 88 3c 43 bc ff 61 43 3d fd 03 34 3c
       -0.00088309706 -0.011916287 0.04770088 0.010987279
000100 d0 e8 8e 3d ac 29 cc 3d 40 fe 3a 3e f8 e9 18 3d
       0.06977999 0.09968886 0.18261051 0.037332505
000110 62 3e f2 3d c6 ed 6f 3d b7 2b b9 bd c3 10 06 be
       0.11828305 0.058576368 -0.09041541 -0.13092332
000120 2f 9e 8b bd 8f cc 67 bd 82 7c 1f bd d8 5a 30 be
       -0.068172805 -0.056591567 -0.0389371 -0.17222154
000130 1e fe e6 bd cb b5 e3 bc 71 b8 bf bc 9d c3 e3 3d
       -0.11278938 -0.027796647 -0.023403378 0.11121295
000140 ef a9 27 bc 96 0c d6 bc e1 0c 88 3d 96 2b d3 bd
       -0.010233386 -0.026129048 0.066430815 -0.10311048
000150 3a a9 c0 3a 69 e0 0b bd 1f e8 0f bd 52 69 97 bc
       0.0014698871 -0.03414956 -0.035133477 -0.018482838
000160 56 d6 86 bd 69 6a 98 3d cc 7e 07 3e c9 f2 17 bd
       -0.0658385 0.07442171 0.13231963 -0.037096772
000170 7e d7 19 bd 0d e9 c0 3c 73 b2 03 bd f4 fb 2c be
       -0.037559025 0.023548627 -0.032152604 -0.16892987
000180 14 c6 4c be 87 89 1d bd 7b 03 ae 3d 5b e9 9e 3d
       -0.19997436 -0.038461234 0.084967576 0.07759353
000190 87 93 63 be 8f 2b 3f bd b0 e4 17 be 11 2a 4f bd
       -0.22224246 -0.0466724 -0.14833331 -0.050577227
0001a0 0d 59 1f bc c3 ed 4f 3c 9f 26 82 3d 05 f8 af 3d
       -0.009725821 0.012690964 0.06355023 0.08592228
0001b0 a3 d3 66 3d 64 4e c6 3d d5 b3 c2 bc 79 8a 8d bc
       0.056354176 0.096829206 -0.023767391 -0.017277943
0001c0 16 66 34 be 7c bf 60 3d 46 40 d0 bd 0a 2e 9b bd
       -0.17617068 0.054870114 -0.10168509 -0.07577141
0001d0 92 aa de bd 9e f6 be bd 86 68 25 3e b3 29 3a 3d
       -0.108723775 -0.09324382 0.16153154 0.045449924
0001e0 8a 68 2e bc 68 ee 13 3d 47 6e 80 3d 01 96 b0 3c
       -0.010645041 0.036116034 0.06271034 0.021555902
0001f0 f4 db 3e be c6 14 c8 3b 9d b3 54 3d 7f 19 1a 3c
       -0.18638593 0.006105992 0.051929105 0.009405493
000200 71 77 a1 3d 60 41 b6 3d 30 7e 09 3d 4c b0 cf 3c
       0.0788411 0.08899188 0.033567607 0.02535262
000210 94 5a 50 3e 60 29 fb 3d 38 6f 23 3d 1d f2 33 bc
       0.20347053 0.12263751 0.03990099 -0.010983017
000220 1c ea 93 bc e7 75 a5 bd 4c 39 dd bc 12 b5 f3 bb
       -0.018055968 -0.08079129 -0.02700486 -0.0074373567
000230 28 a9 a6 bd d3 a7 bb bc 4a bf ac bd 21 96 0b 3e
       -0.08137733 -0.022907173 -0.08434923 0.13631488
000240 69 3b 1b 3d e9 15 f6 bc 89 fd ff bc 9c bd f1 3c
       0.037898455 -0.030039744 -0.031248825 0.029509358
000250 91 a3 a9 3d e4 64 61 bd 90 ac 09 bc 38 8f d4 bd
       0.08283151 -0.055027857 -0.0084029585 -0.10378879
000260 f2 66 41 3d dd 35 fc 3c 7b c6 83 bd 42 6e 32 3d
       0.047217317 0.030787403 -0.064343415 0.04356218
000270 22 ca a1 bd c7 0e 23 3d 95 36 48 3d 1d 1e 9d 3d
       -0.07899882 0.039809015 0.04888018 0.07671759
000280 aa f3 1f be 9b c0 b6 bc 0b 70 db 3d 8a 8d ac 3d
       -0.15620294 -0.022308638 0.1071473 0.08425434
000290 f0 3e f4 ba fe 87 bc bc ec c5 a3 3d 61 ea 37 be
       -0.001863448 -0.023014065 0.07996735 -0.17960502
0002a0 65 0e 18 3c 6a 5a d7 3b ea 06 74 3d 76 d5 f4 3d
       0.009280776 0.0065720575 0.059576906 0.11954777
0002b0 57 f4 99 3d a4 86 a2 bd a6 82 89 3d 7c 08 65 bd
       0.07517307 -0.07935837 0.06714372 -0.055916294
0002c0 64 76 a5 3c e6 bf a9 3d 6c a6 e0 3c be 27 23 bd
       0.020198055 0.08288555 0.027423106 -0.039832823
0002d0 22 10 40 3c 8d 0a 03 3e 38 75 32 3d e3 27 bb 3c
       0.011722596 0.12796994 0.04356882 0.022846168
0002e0 3b 66 21 3c 88 2e 9b 3d fa 09 41 3e 60 e8 6e 3d
       0.009851034 0.075772345 0.18851462 0.05832708
0002f0 1e 53 39 3c b6 f3 01 3c 1c eb 99 3d f5 cc af 3b
       0.011311321 0.00793164 0.07515547 0.005365009
000300 74 58 14 3c c5 18 bf 3d 98 33 71 3d 4f 16 5f 3c
       0.009054292 0.09330896 0.058887094 0.013616159
000310 64 66 4f 3d 34 4c a0 3d 4a b0 7e 3d 57 95 5d bc
       0.050634757 0.078270346 0.06217984 -0.013524375
000320 ad 6a f9 bc 79 63 ab 3d ca 50 83 3c 91 b5 bf 3c
       -0.030446375 0.08368582 0.016029734 0.023402007
000330 9e 26 e8 bc 24 e0 64 bd 6a 08 f9 bc 51 16 c5 bc
       -0.028338727 -0.05587782 -0.03039952 -0.024058493
000340 b6 6c a5 3c 70 cb e7 bd ef bd 02 bd 28 af d5 3b
       0.020193439 -0.113180995 -0.031919416 0.0065211244
000350 30 f3 4b 3d 2e da 00 3d 2c 9d 02 3d 30 d0 c3 bc
       0.04979247 0.031458072 0.031888172 -0.023902982
000360 49 3e 39 3d 4b cf a0 bc f8 a3 a7 bd 22 bb 92 bd
       0.045225415 -0.019630095 -0.081855714 -0.07164599
000370 c5 ab a1 bd 7d ed 81 3d 85 b3 48 3d 20 57 c8 bd
       -0.078940906 0.063441254 0.04899933 -0.09782243
000380 fa 58 88 3d 5e f2 5c bc 36 e5 a0 bd 21 2b d1 bb
       0.06657596 -0.013485519 -0.078562185 -0.006383315
000390 c9 d9 15 be 38 ff 3f bd 54 57 31 bd 04 ed 86 bd
       -0.1463386 -0.046874255 -0.043296173 -0.06588176
0003a0 ad 81 16 ba e9 e0 ac bd e1 8b 42 bd 72 c0 fd 3c
       -0.0005741369 -0.08441336 -0.04749668 0.030975554
0003b0 65 0b 83 bc f3 7c cd 3d 57 f8 cb 3c ba 84 da b9
       -0.015996644 0.10033598 0.024898691 -0.0004167909
0003c0 4f d4 8b bd a2 7f 4c 3c ee dd 8d bd 09 32 c1 bd
       -0.06827604 0.012481602 -0.06927095 -0.094333716
0003d0 7b 6a a8 bd 33 6c 61 bd 85 80 d6 3d d4 45 0b 3d
       -0.082234345 -0.055034827 0.10473732 0.03400214
0003e0 f2 87 30 3d bf 75 40 bd 7f b9 25 3d cb b6 c6 bd
       0.043098398 -0.04698729 0.040460106 -0.09702834
0003f0 06 b7 ce bd f0 97 e1 3c 9a 06 3f 3d ee 5e 06 3c
       -0.10093503 0.02753827 0.046637155 0.008201344
