a_output_actual/dig-s2-q.tflite (tflite, 98560 bytes, 5 tensors)

sequential_2/dense_4/MatMul i1 [256, 256] scale=0.0032412414 zero_point=0
000000 13 fd e5 ff 17 17 f2 f1 e0 05 f2 08 f1 f1 1c f5
       0.061583586 -0.009723725 -0.08751352 -0.0032412414 0.07454855 0.07454855 -0.04537738 -0.048618622 -0.103719726 0.016206207 -0.04537738 0.025929932 -0.048618622 -0.048618622 0.09075476 -0.035653654
000010 fd fb f8 dd 1a 0a fc 1c 13 06 e0 08 e1 eb 13 fd
       -0.009723725 -0.016206207 -0.025929932 -0.11344345 0.08427228 0.032412414 -0.012964966 0.09075476 0.061583586 0.01944745 -0.103719726 0.025929932 -0.100478485 -0.06806607 0.061583586 -0.009723725
000020 18 ff 07 05 e7 fd ea df e0 fc 0d 0e f0 03 ed 00
       0.0777898 -0.0032412414 0.02268869 0.016206207 -0.08103104 -0.009723725 -0.07130731 -0.10696097 -0.103719726 -0.012964966 0.04213614 0.04537738 -0.051859863 0.009723725 -0.061583586 0.0
000030 0d 1d f5 00 df e4 06 e5 17 11 f8 fb e5 14 f3 16
       0.04213614 0.093996 -0.035653654 0.0 -0.10696097 -0.09075476 0.01944745 -0.08751352 0.07454855 0.055101104 -0.025929932 -0.016206207 -0.08751352 0.06482483 -0.04213614 0.07130731
000040 0a fa e9 f1 fe e6 17 dd 04 0f 14 17 e3 ea 03 ee
       0.032412414 -0.01944745 -0.07454855 -0.048618622 -0.006482483 -0.08427228 0.07454855 -0.11344345 0.012964966 0.048618622 0.06482483 0.07454855 -0.093996 -0.07130731 0.009723725 -0.058342345
000050 00 f9 de 1b 15 f5 fa e3 18 f9 f1 f7 de 1f e1 04
       0.0 -0.02268869 -0.11020221 0.08751352 0.06806607 -0.035653654 -0.01944745 -0.093996 0.0777898 -0.02268869 -0.048618622 -0.029171173 -0.11020221 0.100478485 -0.100478485 0.012964966
000060 df 1b f6 11 fa ec 06 0b fb 06 15 f9 0d e6 e2 16
       -0.10696097 0.08751352 -0.032412414 0.055101104 -0.01944745 -0.06482483 0.01944745 0.035653654 -0.016206207 0.01944745 0.06806607 -0.02268869 0.04213614 -0.08427228 -0.097237244 0.07130731
000070 16 e4 16 1e 10 01 e6 db ef e5 f5 f9 00 04 df 0b
       0.07130731 -0.09075476 0.07130731 0.097237244 0.051859863 0.0032412414 -0.08427228 -0.11992593 -0.055101104 -0.08751352 -0.035653654 -0.02268869 0.0 0.012964966 -0.10696097 0.035653654
000080 08 06 14 e3 f7 02 ee fe ed 09 12 ec e4 df 0a 10
       0.025929932 0.01944745 0.06482483 -0.093996 -0.029171173 0.006482483 -0.058342345 -0.006482483 -0.061583586 0.029171173 0.058342345 -0.06482483 -0.09075476 -0.10696097 0.032412414 0.051859863
000090 fb fc df 12 03 fa 0f 15 ea 01 f5 f3 11 0d fe f2
       -0.016206207 -0.012964966 -0.10696097 0.058342345 0.009723725 -0.01944745 0.048618622 0.06806607 -0.07130731 0.0032412414 -0.035653654 -0.04213614 0.055101104 0.04213614 -0.006482483 -0.04537738
0000a0 14 10 fd 1c ea ee 0c 11 e4 08 e9 0f fe e2 e6 07
       0.06482483 0.051859863 -0.009723725 0.09075476 -0.07130731 -0.058342345 0.0388949 0.055101104 -0.09075476 0.025929932 -0.07454855 0.048618622 -0.006482483 -0.097237244 -0.08427228 0.02268869
0000b0 de ea 12 02 08 e0 fb 1d 1a 0e fb 04 dd ed e8 f2
       -0.11020221 -0.07130731 0.058342345 0.006482483 0.025929932 -0.103719726 -0.016206207 0.093996 0.08427228 0.04537738 -0.016206207 0.012964966 -0.11344345 -0.061583586 -0.0777898 -0.04537738
0000c0 f4 e0 08 00 de de 13 f9 fd 05 fa 1d 0e f0 0e f1
       -0.0388949 -0.103719726 0.025929932 0.0 -0.11020221 -0.11020221 0.061583586 -0.02268869 -0.009723725 0.016206207 -0.01944745 0.093996 0.04537738 -0.051859863 0.04537738 -0.048618622
0000d0 eb 0f f5 f5 e7 e5 fb fc f1 fe ec 06 e3 e9 05 e1
       -0.06806607 0.048618622 -0.035653654 -0.035653654 -0.08103104 -0.08751352 -0.016206207 -0.012964966 -0.048618622 -0.006482483 -0.06482483 0.01944745 -0.093996 -0.07454855 0.016206207 -0.100478485
0000e0 f1 e7 12 df f1 1c 05 fd 12 e0 dc e9 0d 17 10 f8
       -0.048618622 -0.08103104 0.058342345 -0.10696097 -0.048618622 0.09075476 0.016206207 -0.009723725 0.058342345 -0.103719726 -0.11668469 -0.07454855 0.04213614 0.07454855 0.051859863 -0.025929932
0000f0 00 f1 e4 16 00 0a fb ea f8 01 10 11 e5 eb e3 e1
       0.0 -0.048618622 -0.09075476 0.07130731 0.0 0.032412414 -0.016206207 -0.07130731 -0.025929932 0.0032412414 0.051859863 0.055101104 -0.08751352 -0.06806607 -0.093996 -0.100478485

sequential_2/dense_5/MatMul i1 [11, 256] scale=0.004907876 zero_point=0
000000 f9 e4 df c4 e3 ee c7 f7 f0 d2 d6 d0 d1 eb f3 03
       -0.03435513 -0.13742052 -0.1619599 -0.29447255 -0.1423284 -0.088341765 -0.27974892 -0.044170883 -0.07852601 -0.2257623 -0.20613079 -0.23557803 -0.23067017 -0.103065394 -0.063802384 0.014723627
000010 f2 c6 e6 fb d6 f8 1e ca a7 fc bd e7 de df c1 fa
       -0.06871026 -0.2846568 -0.12760477 -0.02453938 -0.20613079 -0.039263006 0.14723627 -0.2650253 -0.43680096 -0.019631503 -0.32882768 -0.12269689 -0.16686778 -0.1619599 -0.30919617 -0.029447254
000020 ce ea b0 0d 0e 02 ec da 13 c2 05 e9 19 e3 e9 f5
       -0.24539378 -0.10797327 -0.39263007 0.063802384 0.06871026 0.009815752 -0.09815752 -0.18649928 0.09324964 -0.3042883 0.02453938 -0.11288115 0.12269689 -0.1423284 -0.11288115 -0.053986635
000030 f3 e4 c1 16 d3 fc d8 09 c5 0d f5 d5 cf f4 03 da
       -0.063802384 -0.13742052 -0.30919617 0.10797327 -0.22085442 -0.019631503 -0.19631504 0.044170883 -0.28956467 0.063802384 -0.053986635 -0.21103866 -0.2404859 -0.058894508 0.014723627 -0.18649928
000040 c6 1c bb 01 df aa f8 09 fe 0b 0e d5 fb f7 21 b4
       -0.2846568 0.13742052 -0.33864343 0.004907876 -0.1619599 -0.42207733 -0.039263006 0.044170883 -0.009815752 0.053986635 0.06871026 -0.21103866 -0.02453938 -0.044170883 0.1619599 -0.37299857
000050 f8 e5 ed f6 b7 12 2c 04 e8 ee e7 ea d5 fc 06 e1
       -0.039263006 -0.13251264 -0.09324964 -0.04907876 -0.35827494 0.088341765 0.21594654 0.019631503 -0.117789015 -0.088341765 -0.12269689 -0.10797327 -0.21103866 -0.019631503 0.029447254 -0.15214415
000060 01 de 00 da ed 04 c0 bd 00 c0 f7 d8 e7 0b ca c2
       0.004907876 -0.16686778 0.0 -0.18649928 -0.09324964 0.019631503 -0.31410405 -0.32882768 0.0 -0.31410405 -0.044170883 -0.19631504 -0.12269689 0.053986635 -0.2650253 -0.3042883
000070 ca e9 eb fd ff 18 e7 cc e6 e3 f8 01 da d0 dc 36
       -0.2650253 -0.11288115 -0.103065394 -0.014723627 -0.004907876 0.117789015 -0.12269689 -0.25520954 -0.12760477 -0.1423284 -0.039263006 0.004907876 -0.18649928 -0.23557803 -0.17668353 0.2650253
000080 f8 e3 0a f1 07 16 f1 b1 fd 01 02 0f 0e f2 c9 ea
       -0.039263006 -0.1423284 0.04907876 -0.07361814 0.03435513 0.10797327 -0.07361814 -0.3877222 -0.014723627 0.004907876 0.009815752 0.07361814 0.06871026 -0.06871026 -0.26993316 -0.10797327
000090 d9 02 03 d1 02 14 f0 e7 01 f3 e3 d4 04 d4 16 07
       -0.19140716 0.009815752 0.014723627 -0.23067017 0.009815752 0.09815752 -0.07852601 -0.12269689 0.004907876 -0.063802384 -0.1423284 -0.21594654 0.019631503 -0.21594654 0.10797327 0.03435513
0000a0 de f8 e7 98 b6 bc d6 f5 0d cd cd d9 06 f2 b4 db
       -0.16686778 -0.039263006 -0.12269689 -0.5104191 -0.3631828 -0.33373556 -0.20613079 -0.053986635 0.063802384 -0.25030166 -0.25030166 -0.19140716 0.029447254 -0.06871026 -0.37299857 -0.1815914
0000b0 14 04 d9 b7 c7 ec e6 fb 03 d4 fa d6 cf c1 c7 d9
       0.09815752 0.019631503 -0.19140716 -0.35827494 -0.27974892 -0.09815752 -0.12760477 -0.02453938 0.014723627 -0.21594654 -0.029447254 -0.20613079 -0.2404859 -0.30919617 -0.27974892 -0.19140716
0000c0 03 ed f1 e3 e8 e4 0b c2 f9 d3 e3 00 fc f3 db ee
       0.014723627 -0.09324964 -0.07361814 -0.1423284 -0.117789015 -0.13742052 0.053986635 -0.3042883 -0.03435513 -0.22085442 -0.1423284 0.0 -0.019631503 -0.063802384 -0.1815914 -0.088341765
0000d0 de eb 08 e1 b2 bd e7 cf cf e9 05 e7 dd bb ab c6
       -0.16686778 -0.103065394 0.039263006 -0.15214415 -0.38281432 -0.32882768 -0.12269689 -0.2404859 -0.2404859 -0.11288115 0.02453938 -0.12269689 -0.17177565 -0.33864343 -0.41716945 -0.2846568
0000e0 e6 09 d0 11 df 0c 01 ed e6 de 05 cc ed ef 13 ce
       -0.12760477 0.044170883 -0.23557803 0.08343389 -0.1619599 0.058894508 0.004907876 -0.09324964 -0.12760477 -0.16686778 0.02453938 -0.25520954 -0.09324964 -0.08343389 0.09324964 -0.24539378
0000f0 fc fb 13 00 e9 d0 03 ef f3 e5 b7 f8 0a 14 f0 c2
       -0.019631503 -0.02453938 0.09324964 0.0 -0.11288115 -0.23557803 0.014723627 -0.08343389 -0.063802384 -0.13251264 -0.35827494 -0.039263006 0.04907876 0.09815752 -0.07852601 -0.3042883

sequential_2/conv2d_6/Conv2D i1 [32, 3, 3, 3]
000000 db 13 37 20 08 df 04 7f 57 07 e3 13 df 70 1a 18
       -37 19 55 32 8 -33 4 127 87 7 -29 19 -33 112 26 24
000010 16 cf 3b 0f bc 1e c9 b2 ae ec 38 21 c1 16 07 32
       22 -49 59 15 -68 30 -55 -78 -82 -20 56 33 -63 22 7 50
000020 5f 00 33 07 bb fc b8 f2 54 e0 4e 70 3e ce eb 81
       95 0 51 7 -69 -4 -72 -14 84 -32 78 112 62 -50 -21 -127
000030 ab eb b1 8d 16 d7 a0 8b d3 fd 81 a3 19 da c4 11
       -85 -21 -79 -115 22 -41 -96 -117 -45 -3 -127 -93 25 -38 -60 17
000040 f9 21 e8 22 15 28 23 e0 78 28 51 29 54 2f 00 e9
       -7 33 -24 34 21 40 35 -32 120 40 81 41 84 47 0 -23
000050 37 81 b5 1b 01 04 c5 f0 51 ef ef b3 b3 0b 41 2b
       55 -127 -75 27 1 4 -59 -16 81 -17 -17 -77 -77 11 65 43
000060 38 ce 44 1f e9 e9 4a 11 62 16 dc 25 b1 11 f1 c6
       56 -50 68 31 -23 -23 74 17 98 22 -36 37 -79 17 -15 -58
000070 ee d5 81 9b c3 de bc 04 ab 03 c9 2b fc 46 22 0f
       -18 -43 -127 -101 -61 -34 -68 4 -85 3 -55 43 -4 70 34 15
000080 06 42 64 f4 57 61 57 2d 58 99 e1 2b 03 fc 7f bb
       6 66 100 -12 87 97 87 45 88 -103 -31 43 3 -4 127 -69
000090 f6 a6 d8 12 61 ab 50 df 1f 98 2e b0 09 19 c6 12
       -10 -90 -40 18 97 -85 80 -33 31 -104 46 -80 9 25 -58 18
0000a0 20 93 4f 48 37 d2 00 35 8f b9 81 3f fb 18 5f 26
       32 -109 79 72 55 -46 0 53 -113 -71 -127 63 -5 24 95 38
0000b0 23 a1 a4 c4 0a 07 56 50 45 fd c4 01 e2 2d 7a f6
       35 -95 -92 -60 10 7 86 80 69 -3 -60 1 -30 45 122 -10
0000c0 1a 4f 57 52 14 fa a7 36 3d 06 27 f3 13 f0 5b be
       26 79 87 82 20 -6 -89 54 61 6 39 -13 19 -16 91 -66
0000d0 8b a2 05 81 94 e6 d1 b3 d4 1c d1 ac ec cf 01 43
       -117 -94 5 -127 -108 -26 -47 -77 -44 28 -47 -84 -20 -49 1 67
0000e0 1a b7 b1 08 39 fa 75 81 21 50 cc e1 f9 d0 0b 09
       26 -73 -79 8 57 -6 117 -127 33 80 -52 -31 -7 -48 11 9
0000f0 c8 e1 1f e4 17 fb b3 d5 da d7 f1 30 0f 4e 14 fc
       -56 -31 31 -28 23 -5 -77 -43 -38 -41 -15 48 15 78 20 -4

sequential_2/conv2d_7/Conv2D i1 [32, 3, 3, 32]
000000 0e 0c 35 2f 43 8d d3 f0 24 ca 1e 81 cf 42 49 2a
       14 12 53 47 67 -115 -45 -16 36 -54 30 -127 -49 66 73 42
000010 13 8f 54 ab a0 f0 3f e2 4f 01 bb 1d d2 2c 8d cd
       19 -113 84 -85 -96 -16 63 -30 79 1 -69 29 -46 44 -115 -51
000020 cc d3 c2 95 f4 e9 bf 31 86 e3 b1 37 f8 4f ee e7
       -52 -45 -62 -107 -12 -23 -65 49 -122 -29 -79 55 -8 79 -18 -25
000030 a0 f9 99 cf de e6 02 e8 1a fd 40 bf a6 a1 a8 a6
       -96 -7 -103 -49 -34 -26 2 -24 26 -3 64 -65 -90 -95 -88 -90
000040 fa 08 b1 87 3d f8 40 f3 d9 19 1c 54 28 16 14 d4
       -6 8 -79 -121 61 -8 64 -13 -39 25 28 84 40 22 20 -44
000050 ae fe a2 30 34 d4 c3 c2 8a c9 d6 9d e4 2e a3 0f
       -82 -2 -94 48 52 -44 -61 -62 -118 -55 -42 -99 -28 46 -93 15
000060 56 33 f8 92 0a a4 dd c0 9c ef 1f 1e 01 28 a7 e0
       86 51 -8 -110 10 -92 -35 -64 -100 -17 31 30 1 40 -89 -32
000070 3c 18 97 07 fc f0 ee 8b 11 51 ee d5 a3 e0 85 c3
       60 24 -105 7 -4 -16 -18 -117 17 81 -18 -43 -93 -32 -123 -61
000080 d8 ab fe 8e 44 31 e4 b4 f8 07 8d f6 d1 b1 0d 31
       -40 -85 -2 -114 68 49 -28 -76 -8 7 -115 -10 -47 -79 13 49
000090 2e e3 da e0 f9 27 a5 23 46 17 d1 cf d7 cb f3 f7
       46 -29 -38 -32 -7 39 -91 35 70 23 -47 -49 -41 -53 -13 -9
0000a0 9f a8 20 b8 94 8d 3e d1 e4 e7 c3 23 e2 48 fc a2
       -97 -88 32 -72 -108 -115 62 -47 -28 -25 -61 35 -30 72 -4 -94
0000b0 00 9f da ec c2 15 a9 39 9b e3 eb de 05 13 ad e1
       0 -97 -38 -20 -62 21 -87 57 -101 -29 -21 -34 5 19 -83 -31
0000c0 c8 de 30 d2 94 32 ec e3 36 35 28 07 e5 a4 39 28
       -56 -34 48 -46 -108 50 -20 -29 54 53 40 7 -27 -92 57 40
0000d0 e0 07 b1 40 d1 70 b2 1c fc 37 b2 0f 06 dd 99 4a
       -32 7 -79 64 -47 112 -78 28 -4 55 -78 15 6 -35 -103 74
0000e0 e0 e4 af 3c 9c a2 b8 d1 0e be d0 86 94 04 3a 92
       -32 -28 -81 60 -100 -94 -72 -47 14 -66 -48 -122 -108 4 58 -110
0000f0 20 8c e8 11 bc d7 db 85 50 19 fc 06 4f 12 8e db
       32 -116 -24 17 -68 -41 -37 -123 80 25 -4 6 79 18 -114 -37

sequential_2/conv2d_8/Conv2D i1 [32, 3, 3, 32]
000000 1b 19 01 19 13 02 e3 21 c5 f0 09 30 e4 14 12 0d
       27 25 1 25 19 2 -29 33 -59 -16 9 48 -28 20 18 13
000010 cb de 08 b3 46 f1 0e df 1d e4 d3 f3 cf 0a e5 37
       -53 -34 8 -77 70 -15 14 -33 29 -28 -45 -13 -49 10 -27 55
000020 f6 d6 09 2b d6 18 fc 09 d4 22 fd 54 eb 02 df ee
       -10 -42 9 43 -42 24 -4 9 -44 34 -3 84 -21 2 -33 -18
000030 2e f4 14 37 e5 ca f4 01 f2 e3 e2 e6 38 03 be 31
       46 -12 20 55 -27 -54 -12 1 -14 -29 -30 -26 56 3 -66 49
000040 e5 f5 ea 49 c6 bd 19 dc db eb bb 24 e4 3d 18 ed
       -27 -11 -22 73 -58 -67 25 -36 -37 -21 -69 36 -28 61 24 -19
000050 73 7f c8 ee cf 0b f5 bc f5 c0 fd ac 22 23 0a c8
       115 127 -56 -18 -49 11 -11 -68 -11 -64 -3 -84 34 35 10 -56
000060 e9 0d 24 12 1f cc 08 ee ee 57 30 4a 37 f5 fa e4
       -23 13 36 18 31 -52 8 -18 -18 87 48 74 55 -11 -6 -28
000070 9f f9 0a c8 2c 1e 0f e7 21 17 c2 d3 03 0d bf f9
       -97 -7 10 -56 44 30 15 -25 33 23 -62 -45 3 13 -65 -7
000080 e5 0a e4 d7 39 12 db 08 d5 cd da ae fa f0 fe 02
       -27 10 -28 -41 57 18 -37 8 -43 -51 -38 -82 -6 -16 -2 2
000090 d0 f6 0d e9 58 c1 bd e9 ca e6 ca e8 17 e1 31 39
       -48 -10 13 -23 88 -63 -67 -23 -54 -26 -54 -24 23 -31 49 57
0000a0 0c e4 c4 dd 1d cd c2 d7 2c 96 ec 18 3a e9 41 12
       12 -28 -60 -35 29 -51 -62 -41 44 -106 -20 24 58 -23 65 18
0000b0 15 0f 0d d8 0d 3b 02 f0 a5 08 b8 1b c8 29 59 de
       21 15 13 -40 13 59 2 -16 -91 8 -72 27 -56 41 89 -34
0000c0 24 f5 0c 1b de 07 13 df 09 14 d9 1a b9 1a f8 f4
       36 -11 12 27 -34 7 19 -33 9 20 -39 26 -71 26 -8 -12
0000d0 f7 26 03 c4 af e8 be 06 f3 22 07 12 e6 f9 e8 39
       -9 38 3 -60 -81 -24 -66 6 -13 34 7 18 -26 -7 -24 57
0000e0 e5 f9 83 05 f8 50 05 c8 f3 e7 c6 c5 c5 43 4d f8
       -27 -7 -125 5 -8 80 5 -56 -13 -25 -58 -59 -59 67 77 -8
0000f0 d9 d1 1b 38 f8 13 c4 ed eb 34 16 db e2 f0 e6 fd
       -39 -47 27 56 -8 19 -60 -19 -21 52 22 -37 -30 -16 -26 -3
