a_output_actual/dig-s2-q.tflite (tflite, 96912 bytes, 5 tensors)

sequential_2/conv2d_6/Conv2D i1 [32, 3, 3, 3]
00000000: c8fd 1f10 edba e97f 54f4 a4ea ca30 e810
00000010: fec6 6a06 c51a 9dac c9d6 361f d214 0c2d
00000020: 3f04 37f8 c7f8 c5fc 43e1 587f 36dd f8a5
00000030: 9cd7 bca7 18ee a089 b6f4 84a2 29ee d3ff
00000040: f20e cd10 f625 26dc 7f47 6528 5737 fde8
00000050: 2781 bb0a 0c09 e3f5 37ee d9b6 bc16 3327
00000060: 31d8 3c15 fd03 400b 5529 ec1d c616 02d2
00000070: fae2 8193 b3e1 befb b0f5 bc24 0234 2c08
00000080: 114c 5c05 6652 5510 2c81 c20e de17 75c1
00000090: 01a7 cef6 3aa5 59f1 1ea7 15c5 f2f6 be17
000000a0: 22bc 4644 2ce0 0830 81b2 8b3d 0111 4b31
000000b0: 34a3 afcc 0c03 3c49 3f08 c7f6 e82c 71e9
000000c0: 0648 3e38 1b01 bb2d 4108 2500 1108 61d4
000000d0: 84a8 fe81 a5d3 e3cc b62f df8e e3bd fe67
000000e0: 20a6 aff1 1bf8 5e81 435c 96d5 e0b6 1004
000000f0: bce0 25f1 07ed c0bd d9e4 dd1a 1a4b fdfa
-56 -3 31 16 -19 -70 -23 127
84 -12 -92 -22 -54 48 -24 16
-2 -58 106 6 -59 26 -99 -84
-55 -42 54 31 -46 20 12 45
63 4 55 -8 -57 -8 -59 -4
67 -31 88 127 54 -35 -8 -91
-100 -41 -68 -89 24 -18 -96 -119
-74 -12 -124 -94 41 -18 -45 -1
-14 14 -51 16 -10 37 38 -36
127 71 101 40 87 55 -3 -24
39 -127 -69 10 12 9 -29 -11
55 -18 -39 -74 -68 22 51 39
49 -40 60 21 -3 3 64 11
85 41 -20 29 -58 22 2 -46
-6 -30 -127 -109 -77 -31 -66 -5
-80 -11 -68 36 2 52 44 8
17 76 92 5 102 82 85 16
44 -127 -62 14 -34 23 117 -63
1 -89 -50 -10 58 -91 89 -15
30 -89 21 -59 -14 -10 -66 23
34 -68 70 68 44 -32 8 48
-127 -78 -117 61 1 17 75 49
52 -93 -81 -52 12 3 60 73
63 8 -57 -10 -24 44 113 -23
6 72 62 56 27 1 -69 45
65 8 37 0 17 8 97 -44
-124 -88 -2 -127 -91 -45 -29 -52
-74 47 -33 -114 -29 -67 -2 103
32 -90 -81 -15 27 -8 94 -127
67 92 -106 -43 -32 -74 16 4
-68 -32 37 -15 7 -19 -64 -67
-39 -28 -35 26 26 75 -3 -6

sequential_2/conv2d_7/Conv2D i1 [32, 3, 3, 32]
00000000: 240d 3f2e 518d eef6 34e6 228d ed53 5120
00000010: 1bab 4cc5 c0f9 52d7 520a d128 fc33 96cb
00000020: e2e5 dcac 15f6 c92b aceb bb45 0454 f7fc
00000030: bf09 b2e3 e0f3 0fdc 270b 49c9 beac bbb4
00000040: 080a bf8e 33f6 3ae9 f21e 0d50 240e 14d4
00000050: bf03 ae24 20d4 dfc4 92d8 e9a4 ef28 a20a
00000060: 541f fea0 13a2 e2bc a400 1f1c 0526 c1dc
00000070: 210a 8d09 effb e686 0c50 e3da d3ec 81d0
00000080: f1c4 05a3 3e29 dbb7 08fd 8403 debe 0b28
00000090: 32ed eee4 ee18 be23 3c16 d6d7 e8bf f6ed
000000a0: 9eac 1bc5 a891 3dc7 e8f1 bd1e e436 fca0
000000b0: f8a9 ddf5 b20d b42b a1ed efe5 0309 a2d6
000000c0: ccc3 3be1 b930 feca 4641 18fe e5b4 4616
000000d0: c504 9e58 c269 cf14 0f30 b702 0ee4 8a33
000000e0: f0d7 d648 c1a0 bbc8 1dd9 c1ab a606 289e
000000f0: 1e9c f940 b2b7 ef8b 4424 f70d 5e13 88de
36 13 63 46 81 -115 -18 -10
52 -26 34 -115 -19 83 81 32
27 -85 76 -59 -64 -7 82 -41
82 10 -47 40 -4 51 -106 -53
-30 -27 -36 -84 21 -10 -55 43
-84 -21 -69 69 4 84 -9 -4
-65 9 -78 -29 -32 -13 15 -36
39 11 73 -55 -66 -84 -69 -76
8 10 -65 -114 51 -10 58 -23
-14 30 13 80 36 14 20 -44
-65 3 -82 36 32 -44 -33 -60
-110 -40 -23 -92 -17 40 -94 10
84 31 -2 -96 19 -94 -30 -68
-92 0 31 28 5 38 -63 -36
33 10 -115 9 -17 -5 -26 -122
12 80 -29 -38 -45 -20 -127 -48
-15 -60 5 -93 62 41 -37 -73
8 -3 -124 3 -34 -66 11 40
50 -19 -18 -28 -18 24 -66 35
60 22 -42 -41 -24 -65 -10 -19
-98 -84 27 -59 -88 -111 61 -57
-24 -15 -67 30 -28 54 -4 -96
-8 -87 -35 -11 -78 13 -76 43
-95 -19 -17 -27 3 9 -94 -42
-52 -61 59 -31 -71 48 -2 -54
70 65 24 -2 -27 -76 70 22
-59 4 -98 88 -62 105 -49 20
15 48 -73 2 14 -28 -118 51
-16 -41 -42 72 -63 -96 -69 -56
29 -39 -63 -85 -90 6 40 -98
30 -100 -7 64 -78 -73 -17 -117
68 36 -9 13 94 19 -120 -34

sequential_2/conv2d_8/Conv2D i1 [32, 3, 3, 32]
00000000: 162e f81c 1e0c 01f7 b7dd 0b3e 0312 0612
00000010: d7d5 06cd 1705 eeff faf8 be0e ef04 d544
00000020: f9fa 0728 f802 e514 ce06 0d4c 0f08 0015
00000030: 1de7 071d f4e8 d403 21e3 d403 3e26 cb35
00000040: eff5 fe45 e0c5 0108 e0f4 e02f f520 3919
00000050: 617f ea19 e406 e3e0 f9e2 f19b 1319 26e5
00000060: f408 110c 0ed9 07f4 e251 0a3d 3b0f 0505
00000070: b5fd f7b4 3011 33f2 1f13 beec 0006 d6f6
00000080: eb02 f7ce 2f1f da10 d9df ebd1 12f3 0206
00000090: e20d f81b 53e4 c0eb c7c0 c6eb 0ce5 2845
000000a0: 0bf4 e3df 37ea c0d1 26ad ee2e 4af0 2f09
000000b0: 2825 e8f9 0a56 f0de c2ed af19 ca47 61e3
000000c0: 19ef 0c05 e80e 1ee6 0c1e ec20 cd17 05eb
000000d0: f613 0ed3 c2d5 e305 0218 0a03 d3fd 0432
000000e0: e80d 8bed ec3a f4ae e6e3 c4ca ac57 3911
000000f0: dbd0 1828 fc13 cdcf f514 2002 d9f2 fe12
22 46 -8 28 30 12 1 -9
-73 -35 11 62 3 18 6 18
-41 -43 6 -51 23 5 -18 -1
-6 -8 -66 14 -17 4 -43 68
-7 -6 7 40 -8 2 -27 20
-50 6 13 76 15 8 0 21
29 -25 7 29 -12 -24 -44 3
33 -29 -44 3 62 38 -53 53
-17 -11 -2 69 -32 -59 1 8
-32 -12 -32 47 -11 32 57 25
97 127 -22 25 -28 6 -29 -32
-7 -30 -15 -101 19 25 38 -27
-12 8 17 12 14 -39 7 -12
-30 81 10 61 59 15 5 5
-75 -3 -9 -76 48 17 51 -14
31 19 -66 -20 0 6 -42 -10
-21 2 -9 -50 47 31 -38 16
-39 -33 -21 -47 18 -13 2 6
-30 13 -8 27 83 -28 -64 -21
-57 -64 -58 -21 12 -27 40 69
11 -12 -29 -33 55 -22 -64 -47
38 -83 -18 46 74 -16 47 9
40 37 -24 -7 10 86 -16 -34
-62 -19 -81 25 -54 71 97 -29
25 -17 12 5 -24 14 30 -26
12 30 -20 32 -51 23 5 -21
-10 19 14 -45 -62 -43 -29 5
2 24 10 3 -45 -3 4 50
-24 13 -117 -19 -20 58 -12 -82
-26 -29 -60 -54 -84 87 57 17
-37 -48 24 40 -4 19 -51 -49
-11 20 32 2 -39 -14 -2 18

sequential_2/dense_4/MatMul i1 [256, 256] scale=0.0038250575 zero_point=0
00000000: 0ffd e9ff 1314 f4f3 e504 f407 f3f3 17f6
00000010: fefc f9e2 1608 fd18 1005 e507 e6ee 10fd
00000020: 14ff 0604 eafe ede4 e5fc 0b0c f202 f000
00000030: 0b19 f600 e4e8 05e9 130e f9fb e911 f513
00000040: 08fa ecf3 feea 14e2 030d 1113 e7ee 03f0
00000050: 00fa e317 11f6 fbe7 14f9 f3f8 e31a e504
00000060: e416 f70e faef 0409 fb06 11f9 0aea e613
00000070: 13e8 1119 0e00 eae0 f1e9 f7fa 0003 e409
00000080: 0705 10e7 f902 f0fe f008 0eef e8e4 080d
00000090: fbfc e40f 03fb 0c11 ed00 f7f5 0f0b fdf5
000000a0: 100d fd17 eef1 090e e807 ec0d fee6 e906
000000b0: e3ed 1001 06e5 fb19 160b fc03 e2f0 ebf4
000000c0: f6e5 0700 e3e3 0ffa fe04 fb18 0cf2 0bf3
000000d0: ee0c f7f6 ebe9 fcfc f3fe ef05 e7ec 04e6
000000e0: f3eb 0fe3 f318 04fe 0fe5 e2ec 0a14 0df9
000000f0: 00f3 e813 ff08 fbed f900 0d0e eaee e7e6
0.057375863 -0.011475173 -0.08797632 -0.0038250575 0.07267609 0.07650115 -0.04590069 -0.04972575
-0.10327655 0.01530023 -0.04590069 0.026775403 -0.04972575 -0.04972575 0.08797632 -0.038250577
-0.007650115 -0.01530023 -0.026775403 -0.11475173 0.08415127 0.03060046 -0.011475173 0.09180138
0.06120092 0.019125288 -0.10327655 0.026775403 -0.0994515 -0.06885104 0.06120092 -0.011475173
0.07650115 -0.0038250575 0.022950346 0.01530023 -0.08415127 -0.007650115 -0.07267609 -0.10710161
-0.10327655 -0.01530023 0.042075634 0.04590069 -0.053550806 0.007650115 -0.06120092 0.0
0.042075634 0.095626436 -0.038250577 0.0 -0.10710161 -0.09180138 0.019125288 -0.08797632
0.07267609 0.053550806 -0.026775403 -0.019125288 -0.08797632 0.06502598 -0.042075634 0.07267609
0.03060046 -0.022950346 -0.07650115 -0.04972575 -0.007650115 -0.08415127 0.07650115 -0.11475173
0.011475173 0.04972575 0.06502598 0.07267609 -0.095626436 -0.06885104 0.011475173 -0.06120092
0.0 -0.022950346 -0.110926665 0.08797632 0.06502598 -0.038250577 -0.019125288 -0.095626436
0.07650115 -0.026775403 -0.04972575 -0.03060046 -0.110926665 0.0994515 -0.10327655 0.01530023
-0.10710161 0.08415127 -0.03442552 0.053550806 -0.022950346 -0.06502598 0.01530023 0.03442552
-0.019125288 0.022950346 0.06502598 -0.026775403 0.038250577 -0.08415127 -0.0994515 0.07267609
0.07267609 -0.09180138 0.06502598 0.095626436 0.053550806 0.0 -0.08415127 -0.12240184
-0.057375863 -0.08797632 -0.03442552 -0.022950346 0.0 0.011475173 -0.10710161 0.03442552
0.026775403 0.019125288 0.06120092 -0.095626436 -0.026775403 0.007650115 -0.06120092 -0.007650115
-0.06120092 0.03060046 0.053550806 -0.06502598 -0.09180138 -0.10710161 0.03060046 0.04972575
-0.019125288 -0.01530023 -0.10710161 0.057375863 0.011475173 -0.019125288 0.04590069 0.06502598
-0.07267609 0.0 -0.03442552 -0.042075634 0.057375863 0.042075634 -0.011475173 -0.042075634
0.06120092 0.04972575 -0.011475173 0.08797632 -0.06885104 -0.057375863 0.03442552 0.053550806
-0.09180138 0.026775403 -0.07650115 0.04972575 -0.007650115 -0.0994515 -0.08797632 0.022950346
-0.110926665 -0.07267609 0.06120092 0.0038250575 0.022950346 -0.10327655 -0.019125288 0.095626436
0.08415127 0.042075634 -0.01530023 0.011475173 -0.11475173 -0.06120092 -0.08032621 -0.04590069
-0.038250577 -0.10327655 0.026775403 0.0 -0.110926665 -0.110926665 0.057375863 -0.022950346
-0.007650115 0.01530023 -0.019125288 0.09180138 0.04590069 -0.053550806 0.042075634 -0.04972575
-0.06885104 0.04590069 -0.03442552 -0.038250577 -0.08032621 -0.08797632 -0.01530023 -0.01530023
-0.04972575 -0.007650115 -0.06502598 0.019125288 -0.095626436 -0.07650115 0.01530023 -0.0994515
-0.04972575 -0.08032621 0.057375863 -0.110926665 -0.04972575 0.09180138 0.01530023 -0.007650115
0.057375863 -0.10327655 -0.11475173 -0.07650115 0.038250577 0.07650115 0.04972575 -0.026775403
0.0 -0.04972575 -0.09180138 0.07267609 -0.0038250575 0.03060046 -0.019125288 -0.07267609
-0.026775403 0.0 0.04972575 0.053550806 -0.08415127 -0.06885104 -0.095626436 -0.0994515

sequential_2/dense_5/MatMul i1 [11, 256] scale=0.005333853 zero_point=0
00000000: f9df ddca d9e8 ccf8 e7cb cfce d4e3 f502
00000010: efc0 d9f4 d0ed 1fc3 9ff6 b9ea d4da bef3
00000020: cde8 a70f 0cf9 ecd3 12c0 04e2 17e0 e4f6
00000030: f6ee c205 cbfb cf02 c50b f6d4 c8f5 fdd5
00000040: c912 bdfb d5a9 f3f1 fe0c 06ce f4ed 1cba
00000050: fcdf efec b204 2803 e7f2 dce9 d0f1 ffdc
00000060: fdd7 f8dc ee03 bfc1 febf edd8 e605 c0bd
00000070: c7e4 e3fc fd13 e4c1 e8e3 f7fb d4c9 de30
00000080: efe6 feef ff0d f2b5 f9fd 020d 0dea c4e2
00000090: d7fd ffcb fc12 f0df f9f2 dfd1 ffc7 0dff
000000a0: dfee e78d b6bb d0ef 06cb beda 09ea afdc
000000b0: 12f9 dbb2 cae7 e5fa 03cf facc d0c0 c5d3
000000c0: 02ec f4dc e2e2 06c2 eeca db00 fff4 dbed
000000d0: dcf5 04de b2b3 ddd2 cde1 f9e6 d5b7 9ec8
000000e0: e604 d10d e10c f9e2 dcd5 04c8 e7eb 0dc9
000000f0: fef6 06ff dfc3 01e8 f1e5 b6f4 060a e7c0
-0.03733697 -0.17601715 -0.18668485 -0.28802806 -0.20802027 -0.12801248 -0.27736035 -0.042670824
-0.13334632 -0.28269422 -0.2613588 -0.26669264 -0.23468953 -0.15468174 -0.058672383 0.010667706
-0.0906755 -0.3413666 -0.20802027 -0.06400624 -0.25602496 -0.10134321 0.16534944 -0.32536504
-0.51738375 -0.053338528 -0.37870356 -0.11734477 -0.23468953 -0.20268641 -0.3520343 -0.06934009
-0.2720265 -0.12801248 -0.4747129 0.08000779 0.06400624 -0.03733697 -0.106677055 -0.24002339
0.09600935 -0.3413666 0.021335412 -0.16001558 0.122678615 -0.1706833 -0.14934789 -0.053338528
-0.053338528 -0.09600935 -0.33069888 0.026669264 -0.28269422 -0.026669264 -0.2613588 0.010667706
-0.31469733 0.058672383 -0.053338528 -0.23468953 -0.29869577 -0.058672383 -0.01600156 -0.22935568
-0.2933619 0.09600935 -0.35736814 -0.026669264 -0.22935568 -0.4640452 -0.06934009 -0.08000779
-0.010667706 0.06400624 0.03200312 -0.26669264 -0.06400624 -0.10134321 0.14934789 -0.3733697
-0.021335412 -0.17601715 -0.0906755 -0.106677055 -0.41604054 0.021335412 0.21335411 0.01600156
-0.13334632 -0.07467394 -0.1920187 -0.122678615 -0.25602496 -0.08000779 -0.005333853 -0.1920187
-0.01600156 -0.21868797 -0.042670824 -0.1920187 -0.09600935 0.01600156 -0.34670043 -0.33603275
-0.010667706 -0.34670043 -0.10134321 -0.21335411 -0.13868017 0.026669264 -0.3413666 -0.35736814
-0.3040296 -0.14934789 -0.15468174 -0.021335412 -0.01600156 0.10134321 -0.14934789 -0.33603275
-0.12801248 -0.15468174 -0.048004676 -0.026669264 -0.23468953 -0.2933619 -0.181351 0.25602496
-0.0906755 -0.13868017 -0.010667706 -0.0906755 -0.005333853 0.06934009 -0.07467394 -0.40003896
-0.03733697 -0.01600156 0.010667706 0.06934009 0.06934009 -0.11734477 -0.32003117 -0.16001558
-0.21868797 -0.01600156 -0.005333853 -0.28269422 -0.021335412 0.09600935 -0.08534165 -0.17601715
-0.03733697 -0.07467394 -0.17601715 -0.2506911 -0.005333853 -0.3040296 0.06934009 -0.005333853
-0.17601715 -0.09600935 -0.13334632 -0.61339307 -0.39470512 -0.36803585 -0.25602496 -0.0906755
0.03200312 -0.28269422 -0.3520343 -0.20268641 0.048004676 -0.11734477 -0.4320421 -0.1920187
0.09600935 -0.03733697 -0.19735256 -0.41604054 -0.28802806 -0.13334632 -0.14401403 -0.03200312
0.01600156 -0.2613588 -0.03200312 -0.27736035 -0.25602496 -0.3413666 -0.31469733 -0.24002339
0.010667706 -0.106677055 -0.06400624 -0.1920187 -0.16001558 -0.16001558 0.03200312 -0.33069888
-0.09600935 -0.28802806 -0.19735256 0.0 -0.005333853 -0.06400624 -0.19735256 -0.10134321
-0.1920187 -0.058672383 0.021335412 -0.181351 -0.41604054 -0.41070667 -0.18668485 -0.24535723
-0.2720265 -0.16534944 -0.03733697 -0.13868017 -0.22935568 -0.38937128 -0.5227176 -0.29869577
-0.13868017 0.021335412 -0.2506911 0.06934009 -0.16534944 0.06400624 -0.03733697 -0.16001558
-0.1920187 -0.22935568 0.021335412 -0.29869577 -0.13334632 -0.11201091 0.06934009 -0.2933619
-0.010667706 -0.053338528 0.03200312 -0.005333853 -0.17601715 -0.32536504 0.005333853 -0.12801248
-0.08000779 -0.14401403 -0.39470512 -0.06400624 0.03200312 0.053338528 -0.13334632 -0.3413666
