a_output_actual/dig-s2.tflite (tflite, 356636 bytes, 12 tensors)

sequential_2/conv2d_6/BiasAdd/ReadVariableOp/resource f4 [32]
000000 e8 42 b0 bd 9d 51 1a 3c 0b fa 9c bd cc d1 3c bd
       -0.08606511 0.009418872 -0.076648794 -0.046098515
000010 4d cd 79 bb 06 78 09 be 5a c2 50 3c d9 83 b2 bd
       -0.0038116754 -0.13424692 0.0127416495 -0.08716554
000020 c4 b5 c2 bd 01 29 26 be 65 6d d7 bd c6 06 a3 bd
       -0.09507325 -0.16226579 -0.10518912 -0.07960276
000030 60 4d 04 be c9 65 db bd 3a 18 0f be 6f 74 4b bd
       -0.12920141 -0.10712773 -0.13974085 -0.049671587
000040 dc 61 d1 3c ad c6 98 3c 00 b5 82 bd 2e 0a 97 bd
       0.025559358 0.018649423 -0.06382179 -0.073749885
000050 29 8e a4 bd 78 4e 8c 3d 39 f8 3d 3d 65 3b 03 be
       -0.080349274 0.06850904 0.0463793 -0.12815626
000060 ea 7e ba bc 41 d2 2e be 75 17 b9 bd 7e e3 9b bd
       -0.022765595 -0.17072393 -0.09037677 -0.0761175
000070 16 e5 c5 bd 3a 7b 1a bd a1 0e d3 3c 1b ab 8c bd
       -0.09662835 -0.037715174 0.025763812 -0.06868573

sequential_2/conv2d_7/BiasAdd/ReadVariableOp/resource f4 [32]
000000 90 d8 cc 3c 49 12 09 3c 39 21 e5 bc 60 08 c8 3d
       0.025005609 0.008366176 -0.027969943 0.097672224
000010 c6 a6 b0 bc 39 af 1d 3d b4 62 cb 3c 0e 6a 37 3d
       -0.021563899 0.038497183 0.024827339 0.044778876
000020 c0 6f 5d bc f2 4a cb bc 90 15 f1 bd 3a 53 c8 3c
       -0.013515413 -0.02481601 -0.11771691 0.024453748
000030 15 5c 50 bd ab 7b b2 bc 2e bb af bc 94 9e f1 3d
       -0.050869066 -0.021787485 -0.021451559 0.117978245
000040 c8 f1 a0 bc 59 18 b2 bc 23 fa 88 3a 5d 8a bd bd
       -0.01964654 -0.021740125 0.0010450523 -0.09254906
000050 8e ca 89 3a 09 f0 58 bd 54 1a 6f bd e0 fa 71 bd
       0.0010512637 -0.05296329 -0.058374718 -0.059077144
000060 8a f1 25 bd bd 14 2b bc ae 92 17 bd 6c 0c 41 3d
       -0.040513553 -0.010441956 -0.03700512 0.047130987
000070 f9 5e 99 bd 79 d5 82 3d a4 40 6e bb 9a cf d7 bb
       -0.07488818 0.06388373 -0.0036354447 -0.0065860273

sequential_2/conv2d_8/BiasAdd/ReadVariableOp/resource f4 [32]
000000 1e e3 92 bd 9e 1e e7 3c 43 f5 bc 3c 68 7a 14 3c
       -0.071722254 0.028212842 0.023066169 0.009062387
000010 8b a6 c9 bc 66 5d 6d bd 94 36 a0 bd ed 72 6f bd
       -0.024615547 -0.0579504 -0.0782291 -0.05845921
000020 ae 60 cb bd cb 04 55 bc 61 e5 ca 3b 38 08 c8 3c
       -0.099305496 -0.013001631 0.006191895 0.024417982
000030 6f cb 21 bd a1 16 5c bd b3 2f a6 3c fa 6e af ba
       -0.03950065 -0.053732518 0.020286417 -0.0013384514
000040 cd 2d 20 bc 06 ff 2e 3d 32 d7 e6 bb cd a5 a3 bc
       -0.009776545 0.042723678 -0.0070446962 -0.01997652
000050 33 86 f5 bd 01 60 b1 3b ce 20 c4 bc 73 96 2a bd
       -0.11988487 0.005413056 -0.023941424 -0.041647386
000060 f8 69 65 bd df ef 0f 3d f4 1a 90 bd a7 f8 95 3c
       -0.056009263 0.03514087 -0.07036391 0.018307043
000070 e7 73 7f bc 4d 73 ec bd ee 18 5e 3b 81 9e eb bd
       -0.015591598 -0.115454294 0.003388937 -0.115048416

sequential_2/dense_4/BiasAdd/ReadVariableOp/resource f4 [256]
000000 85 e9 99 bd 8a 50 74 bc d1 8f 11 3c 12 cb 88 bb
       -0.075152434 -0.01491178 0.008884386 -0.0041745985
000010 3b a5 59 bd 47 40 2c 3d 4d 8a 5e 3d 58 34 49 3d
       -0.05313609 0.042053487 0.054331113 0.049122185
000020 5f e3 59 3d aa 51 97 3d 4b 00 46 3d d2 d2 8e 3b
       0.053195354 0.07388623 0.048340123 0.004358628
000030 7b da 32 bc bc 06 69 bb dc ed d5 bc 7e 7a ca 3a
       -0.010916348 -0.0035556993 -0.026114397 0.0015447882
000040 a8 4f f7 3d fa fc 5c bc f4 af 82 bc db 4c 23 3b
       0.1207574 -0.013488049 -0.015953042 0.0024917636
000050 15 52 2b 3d 65 70 34 bc 1b bb 39 3c a4 19 ca bc
       0.041826326 -0.011013125 0.011336113 -0.02467043
000060 2c 06 cf 3d 18 49 e5 3c eb 50 b0 bc a0 09 af 3c
       0.10108599 0.027988955 -0.02152296 0.021366894
000070 ae e8 51 ba 3b 66 10 3d 18 c8 84 bd 4e 26 6b 3d
       -0.0008007389 0.035253745 -0.06483477 0.057409577
000080 ce 06 7e 3d 05 f9 86 3d 3d 63 6c 3c c5 8d ba bb
       0.06201821 0.065904655 0.014427957 -0.00569317
000090 c8 fc fc 3d 53 ba 70 bc f2 f9 57 bc 12 cd 41 3d
       0.12352902 -0.014692861 -0.01318215 0.04731471
0000a0 ca 66 95 bd 7d cd 58 bc ef 68 ce bb be ca 4b 3d
       -0.07294996 -0.013232586 -0.00629913 0.049753897
0000b0 75 5b a4 3d e3 d3 8f 3d 54 92 06 bd ad 81 15 bc
       0.080252565 0.07022836 -0.032854393 -0.009125155
0000c0 6f a6 4b bd 3e c0 da bb c7 57 25 3b 4f e1 05 3c
       -0.04971927 -0.006675749 0.0025229321 0.008171394
0000d0 fc ab 89 3d 4e 12 40 bc e2 98 93 bc 5f 0d 19 3d
       0.067222565 -0.011723114 -0.018017236 0.037366267
0000e0 8a 26 03 3c 76 3e a7 3d 62 6f 22 3d 58 8f ee 3c
       0.008004794 0.0816621 0.039657004 0.029121086
0000f0 92 43 96 bc a5 1d 30 bd 69 29 40 3c c7 a8 8c 3d
       -0.018342767 -0.04299702 0.011728623 0.06868129
000100 2d ad d8 bb 28 73 68 bc 02 cb 89 bc f7 b3 c2 bc
       -0.006612441 -0.014187612 -0.016820434 -0.023767455
000110 26 92 2a 3d bf d1 bf 3d e3 49 a5 bc 88 d0 83 3c
       0.041643284 0.09366178 -0.020176833 0.016090646
000120 16 8c 35 3b 03 74 83 ba 52 0b 68 bb 19 30 6e bd
       0.0027701906 -0.0010029081 -0.0035407138 -0.05815134
000130 4c 51 a2 bc 7e 94 87 3d 34 01 eb 3b a2 7d 48 3c
       -0.019814156 0.066201195 0.0071717743 0.012236984
000140 9f 13 b1 bc 0d 9d 66 ba 52 0f be 3d 46 65 c1 3c
       -0.021615801 -0.0008797206 0.09280266 0.023607861
000150 f4 c3 cf 3a eb 0b ba bc 34 6c 22 bd 41 93 87 bd
       0.0015851245 -0.022710761 -0.03965397 -0.06619883
000160 ee 23 e3 bc 5f 59 e6 3b 45 32 10 3d ce c1 55 3d
       -0.027727094 0.007029697 0.03520419 0.05218678
000170 2a 1f e4 bc fd ba 74 3d 52 97 a6 bc f2 e2 6c bd
       -0.027846891 0.05974864 -0.020335827 -0.05783362
000180 c6 04 46 bd 5f bd ca 3d 39 1f a5 bc cf 4e 2a 3d
       -0.048344396 0.09899401 -0.02015649 0.041579064
000190 20 01 6b bc 8e ef cb 3c 4c f5 8b bb 7b 8f 4b 3b
       -0.01434353 0.024894502 -0.004271185 0.0031060863
0001a0 c1 e7 d7 3c c8 49 73 3a 49 e0 09 bc 38 7e 1b 3c
       0.026355626 0.00092807086 -0.00841529 0.009490542
0001b0 ab bc 34 bc 40 7b 89 bc fc da 40 3c c2 08 59 3c
       -0.01103131 -0.016782403 0.01177096 0.013246717
0001c0 e9 2c 45 3b f7 bc 13 3d 1a 39 e7 bc 28 93 96 3c
       0.0030086583 0.036068883 -0.02822547 0.018380716
0001d0 2b e9 c8 3d 44 62 82 bc 8a 52 29 bd 72 df 89 bb
       0.09810098 -0.015915997 -0.04133848 -0.004207545
0001e0 2c 95 a5 bd 2c 77 a0 3d 5b dc f2 bb a8 40 98 3d
       -0.08085093 0.0783523 -0.0074115223 0.07434207
0001f0 6a fd da bc 38 0a 92 bd 57 48 a4 3d 95 b5 ef 3c
       -0.026732165 -0.07130855 0.0802161 0.02926139
000200 ae d5 a3 3c 41 72 d2 3b 14 a1 d7 3b ec a3 9f 3d
       0.019999351 0.0064223115 0.0065804813 0.077949375
000210 f4 b9 cc bc 01 a8 70 bd 23 78 16 3d 1a f2 45 3d
       -0.024991013 -0.05875397 0.036735665 0.04832659
000220 46 99 5c 3b 91 1f b5 bb 90 f3 e4 3c 58 35 d3 bc
       0.0033660694 -0.0055274446 0.02794817 -0.025782272
000230 a3 85 f3 bc 60 f1 0a 3d e1 be 2d 3d 9f 6f cd bb
       -0.029726809 0.0339216 0.042418364 -0.00626941
000240 7d a3 32 3d 22 08 57 38 61 55 0f bd e1 50 10 bd
       0.043612946 5.126757e-05 -0.034993533 -0.035233382
000250 6c 67 62 3d 5f 63 ff 39 e9 ea a0 3c 4d 35 e1 bc
       0.055274412 0.00048711427 0.019643264 -0.027491236
000260 38 6e 1d bc 0a 6e 1b 3d f5 b4 d0 3d 8f 05 1a bd
       -0.009608798 0.03794674 0.10190765 -0.037602957
000270 af ac f7 3c 95 a0 7d bd 48 da e7 3b 41 b9 5d bd
       0.03023371 -0.06192072 0.0070755817 -0.05413175
000280 e5 3b bd bc cd 61 54 3d 7c 2c 15 3d 45 ca 58 bd
       -0.023099849 0.051851083 0.036419377 -0.052927274
000290 93 36 3f 3d b4 a6 44 3d ae 4a 7b 3c 6f 11 a6 3b
       0.046682905 0.048010543 0.015337629 0.005067996
0002a0 9a 74 47 3d 19 54 d2 bc be 79 a5 3d 99 89 d9 3b
       0.048695184 -0.025674867 0.08079861 0.0066387174
0002b0 68 08 56 3b f3 50 07 bc 73 03 1e 3c 3a 90 57 bd
       0.003265882 -0.008259046 0.009644377 -0.05262778
0002c0 65 7a fd bb 70 b4 20 3d 3b 5f 65 3d 5a 11 44 3d
       -0.007735538 0.03923458 0.055999022 0.04786811
0002d0 79 93 e0 3b 5c d2 45 3c 3e b9 e2 3c a3 02 ee 3c
       0.0068535176 0.012074079 0.027676221 0.029053992
0002e0 41 60 d5 bc aa b7 8e 3d 32 c5 47 bd fc cb a0 3b
       -0.026046874 0.06968625 -0.048772044 0.0049071293
0002f0 b3 e5 42 bd 9d e3 1f 3c f5 81 aa bc d4 e5 91 3d
       -0.04758234 0.009758857 -0.020813921 0.07123914
000300 a7 a3 93 3d a1 18 75 bc 61 14 14 bc 62 57 c4 3c
       0.072089486 -0.014959485 -0.009038062 0.023967449
000310 47 4c 7d 3c 3c 0d 83 bc 4a 8b 8c 3c 29 fb d5 3d
       0.0154600805 -0.015997522 0.017156262 0.104482956
000320 19 e1 87 bc ee 82 aa bd 54 7e d9 3b 92 0e 88 3d
       -0.016586827 -0.08325754 0.006637374 0.06643404
000330 42 66 b8 bc 64 73 19 3d a0 12 6b 3c d8 08 00 bd
       -0.022509698 0.03746356 0.014347702 -0.031258434
000340 a6 a3 a4 bc 2b 83 36 3c 68 01 97 bc 6b b2 d3 39
       -0.020097565 0.011139671 -0.018433288 0.00040377988
000350 b6 76 53 3d 7e 9e 4e bd 28 00 1b 3d de 9b a1 3c
       0.051626883 -0.05044412 0.037841946 0.019727644
000360 5f fa 4b bd 58 90 ea bb 69 ae b6 3c f9 ac 29 bc
       -0.04979932 -0.0071583204 0.022299962 -0.010356181
000370 60 b6 75 bb 29 db 17 bd 30 51 15 bc 13 82 35 3c
       -0.0037492737 -0.03707424 -0.009113595 0.011078375
000380 10 ed 30 3d a4 3d 6e 3a 4c 8f 58 3d 6c e0 67 3d
       0.04319483 0.00090881647 0.052871034 0.05661051
000390 27 c1 b6 3d f7 78 4c 3d 86 f5 79 3d 6c 6d 24 3d
       0.0892356 0.04992005 0.061025165 0.040143415
0003a0 00 57 31 bd 54 fb 54 3d 71 23 4b bd 90 d8 f2 3c
       -0.04329586 0.051997498 -0.049594346 0.02964428
0003b0 f6 88 33 bb 02 ce 24 3d 9b 52 d1 bc c5 63 67 3d
       -0.0027394868 0.040235527 -0.025552085 0.056491632
0003c0 8c c1 78 3d 83 b9 27 3d 89 2c 3b 3d 9e 2e f8 ba
       0.060731456 0.040948402 0.04569677 -0.0018934791
0003d0 b8 20 8d 3d 8f 0c a0 bd 22 1c 9d bc b0 b9 83 bd
       0.06891006 -0.07814895 -0.019178454 -0.064319015
0003e0 8e eb 13 3d 66 0f b3 bc e2 fe f2 3b 8a 6d d7 bc
       0.036113314 -0.021857928 0.0074156383 -0.02629735
0003f0 fb 0d 54 bd 05 bf fb 3c b4 13 b8 3d 8b 6d 01 3d
       -0.051771145 0.030730734 0.08988133 0.03159861

sequential_2/dense_5/BiasAdd/ReadVariableOp/resource f4 [11]
000000 74 57 58 be 01 a7 f7 bd 83 7b 28 be 56 70 d9 bd
       -0.2112711 -0.120924 -0.16453366 -0.106171295
000010 0c dd 18 be 1a 17 f0 bd 1b 96 35 be b5 72 16 be
       -0.14928073 -0.11723156 -0.17733042 -0.14692195
000020 9a ab 12 be 34 e3 cd bd 1d 4c 42 bd
       -0.14323273 -0.10053101 -0.04743587

sequential_2/batch_normalization_2/FusedBatchNormV3 f4 [3]
000000 41 e7 03 c0 3a 8f 07 c0 46 ac cd bf
       -2.0609896 -2.1181169 -1.6068199

sequential_2/batch_normalization_2/FusedBatchNormV31 f4 [3]
000000 91 97 7e 3c 47 b9 8f 3c a1 51 5c 3c
       0.015539066 0.017544402 0.013447196

sequential_2/dense_4/MatMul f4 [256, 256]
000000 1b 5f 5a 3d b5 9c 13 3e 53 12 90 bd fc 07 26 3d
       0.053313356 0.14415248 -0.07034745 0.04053496
000010 f9 a0 b4 bd 34 99 c4 bd 53 18 e1 bd 09 e4 f5 3c
       -0.088197656 -0.09599534 -0.109909676 0.030015962
000020 60 f6 b6 3d fb 20 1c 3d 44 1d e6 3c 0f b3 2e 3d
       0.08933711 0.03811739 0.028090127 0.042651232
000030 08 04 77 3d c2 ab 6f 3c ce ef cd 3c 74 b6 92 3d
       0.06030658 0.014628353 0.025138762 0.071637064
000040 8b 36 39 3c 67 8b 1d bc 5d 63 59 3c 3d 74 38 3d
       0.011304508 -0.009615756 0.013268319 0.04503273
000050 fb d3 92 3d 77 60 42 3d 93 96 53 3d 71 dc c8 bd
       0.07169338 0.047455277 0.05165727 -0.09807671
000060 72 e5 76 3c 37 17 61 3d 92 e9 d7 3d 59 47 15 3d
       0.015069352 0.05495378 0.10542597 0.036444996
000070 3f e4 10 bd ec ae b8 3d f0 4a 06 3e 19 61 0c 3d
       -0.035373922 0.09017739 0.13114524 0.034272287
000080 34 b8 fb 3b 46 11 ca bd 3e fc 55 bd da 47 d2 bd
       0.007681871 -0.09866576 -0.05224251 -0.10267611
000090 87 0a d7 bc ec d0 28 bd 44 21 e4 bd b2 ab 04 3b
       -0.026250137 -0.04121487 -0.111391574 0.002024394
0000a0 6e af f2 3d fa 24 b4 3b 4d 6b c9 3d 64 c0 a0 bd
       0.11849867 0.005497572 0.09834919 -0.078491956
0000b0 19 7a 97 3d 67 dd 07 3d c4 36 7e bd 5c f9 ee 39
       0.07396335 0.03317013 -0.062063947 0.00045580685
0000c0 e0 c6 10 3e dd b4 82 3c d7 59 96 3c a1 fe c3 bd
       0.14138365 0.015955383 0.018353386 -0.09570051
0000d0 14 8a c2 3c 84 ea 12 be b1 b0 43 be 94 87 ba bb
       0.023747481 -0.14347273 -0.19110371 -0.0056924317
0000e0 0d 23 ac 3d 14 6e bd 3b 7a 42 6e bb 98 e1 48 bb
       0.08405123 0.0057809446 -0.003635554 -0.0030652042
0000f0 ac 41 9e bd e6 5b 8f bd d9 d7 66 3d 03 d3 37 3b
       -0.0772737 -0.0699995 0.056358192 0.0028049357
000100 8e 2f c6 3b 5d 85 59 bd 8d 22 b2 bd 28 17 8f bd
       0.0060481494 -0.0531057 -0.08697996 -0.069868386
000110 b7 39 05 3d 39 f1 29 bd b4 3c 21 3e f6 be fa 3c
       0.032525744 -0.041489813 0.15745813 0.030608635
000120 ee f5 c5 3c a3 10 d6 bd e0 d3 67 bd 9c 59 6b 3d
       0.02416512 -0.10452392 -0.056598544 0.057458505
000130 94 41 37 bd 36 85 da 3c 95 48 01 3c 27 e4 25 3b
       -0.044740275 0.026674848 0.00789084 0.0025312991
000140 9b 7c 4e 3d 27 7c 1a be 7c e8 2f 3c d8 8d b9 bb
       0.0504118 -0.15086423 0.010736581 -0.005662661
000150 30 ff c6 3d de 8c de 3d dd 2c 3c 3d 32 10 56 3d
       0.09716642 0.10866712 0.045941222 0.05226154
000160 b5 2b f3 3d e5 9c 6f 3d 33 3d 1e 3d 2b 77 83 bd
       0.11873571 0.058499236 0.038632583 -0.06419214
000170 86 33 80 bd 41 34 c9 bd 3d bf 7e bd 09 03 3b bd
       -0.06259827 -0.0982442 -0.062194098 -0.04565719
000180 41 eb e0 bd 22 7a 04 be 27 cf 44 b9 0d eb 32 bd
       -0.10982371 -0.12937215 -0.00018769187 -0.043681193
000190 f5 f7 fa bd 9c cb 1f 3c ee c8 83 3c 8c 6a ae bd
       -0.12254325 0.009753134 0.016087022 -0.08516416
0001a0 ed 27 18 3c 26 80 1e 3e df 3a 8f bd bf 86 b0 bd
       0.009286863 0.15478572 -0.06993651 -0.08619451
0001b0 64 4e 3a be 83 c4 82 bb da 04 15 bd 4b fa 9e bd
       -0.18193966 -0.003990711 -0.03638158 -0.07762583
0001c0 fa ab c5 3d a3 23 3a 3b fb 84 0a 3e 72 b7 3e 3c
       0.096519426 0.0028402589 0.1352729 0.011640416
0001d0 dd 98 82 3d ee 2c 79 bd 62 1d 05 3e d6 87 3d 3d
       0.063768126 -0.060833864 0.1299949 0.04627212
0001e0 05 18 77 3d 46 a5 94 3d a9 b6 81 bd b7 f9 27 bd
       0.06032564 0.07258086 -0.06333668 -0.04100963
0001f0 6d 3b b6 3d 98 61 b6 bd f5 c9 d0 bb 9a 25 8d 3d
       0.08898053 -0.08905333 -0.0063717314 0.068919376
000200 9c cc 07 bd c0 ee 7b bd 97 57 59 bd 38 a1 00 3d
       -0.033154115 -0.061506987 -0.053062048 0.03140375
000210 8a 07 af 3d 08 7e 05 be 47 11 af 3d 65 65 6b bd
       0.0854636 -0.13036358 0.08548217 -0.057469744
000220 b2 6c 71 bd 66 da 5b 3d 62 64 29 bb c7 b8 32 3e
       -0.05894155 0.053675078 -0.0025847186 0.174533
000230 43 42 74 bc e6 ab bb 3d 88 4e 23 bd 92 40 90 bd
       -0.014908376 0.091636464 -0.039869815 -0.07043566
000240 08 b6 84 3d 0d 20 19 3e 75 a2 3e be 28 02 c4 3c
       0.06480032 0.14953633 -0.1861666 0.02392681
000250 3d e0 9d bd f2 09 92 bc f7 82 bb 3b 00 46 f4 3d
       -0.07708786 -0.017827008 0.0057223993 0.11927414
000260 03 55 09 be 83 f6 33 3d c0 6d 27 3d d4 4e b5 bd
       -0.13411336 0.043936264 0.04087615 -0.08852926
000270 f3 74 cb bd 8a 9c df 3d 3b f4 cc bd 8e 4b 64 3c
       -0.09934416 0.10918529 -0.10007521 0.013934029
000280 66 5d d0 bc b8 db 28 3d 2e 49 ac 3c ea d1 e8 bd
       -0.02543516 0.041225165 0.021030989 -0.11368163
000290 5e 00 41 3d 87 a0 38 3e d4 73 3b bc 37 7f a7 bc
       0.04711949 0.18029986 -0.01144119 -0.020446403
0002a0 59 93 68 be 94 67 84 3d 28 ba 29 3e 9e 31 cf bd
       -0.22712459 0.064650685 0.16574919 -0.101168856
0002b0 76 10 12 3d a2 ce 36 bd 33 43 a8 3d 04 f0 91 bd
       0.03566023 -0.044630654 0.08215942 -0.071258575
0002c0 6a bb e3 3d ca e3 22 bd 6d bc 42 3d 43 38 3d 3e
       0.11119731 -0.039768018 0.047542978 0.18478493
0002d0 5f fc 80 bd d7 70 47 3c 88 17 ac bd d3 c1 95 3c
       -0.06298136 0.012172899 -0.08402926 0.0182809
0002e0 1c 52 39 3d 6b a0 85 bc a3 82 45 3e 86 47 b3 3d
       0.04524432 -0.016311845 0.19288115 0.087538764
0002f0 1c dd ac bc 1b d7 78 3e b7 68 c8 bc e6 3f 93 bc
       -0.021101527 0.24300806 -0.024463994 -0.017974805
000300 09 b8 be bc aa 95 fd 39 7a 21 d9 bd f4 c3 c3 3d
       -0.023281114 0.0004836743 -0.10602088 0.095588595
000310 23 02 5f 3c fc b9 a3 bd ad bd 22 be 18 0f 43 3d
       0.013611349 -0.07994458 -0.15892668 0.047621816
000320 98 6a 6b 3d c7 b2 57 bd ef 52 8b 3c 8b a2 bf bd
       0.057474703 -0.05266073 0.01700732 -0.093571745
000330 28 ca 60 3d 29 12 34 be 1d 7c 62 3d 7d 82 b3 bd
       0.05488029 -0.17585053 0.055294145 -0.08765123
000340 f9 05 9b bc a2 3c de 3d 25 e0 7e bd 6d a6 9e 3c
       -0.018923746 0.108514085 -0.06222548 0.019366467
000350 26 ad cf bd 8e c3 23 bd d8 22 99 bc 10 5b 45 3c
       -0.10140447 -0.039981417 -0.018693373 0.012045637
000360 2f a6 be 3d 12 af cd 3d d6 88 2c 3d 8a a9 67 3d
       0.09309041 0.10043158 0.042122684 0.05655817
000370 84 1f 44 3d 7b da 85 bd bd dc 6f bd 36 2a 9e 3c
       0.04788162 -0.065358125 -0.05856012 0.019307237
000380 95 6c a8 3d be d8 99 3d 3b 71 c9 3d e4 4c bd 3d
       0.082238354 0.075120434 0.0983605 0.09243181
000390 ce 6f 64 3c b3 c5 5e 3c 35 b1 03 bd 92 39 ac 3c
       0.013942672 0.01359694 -0.03215142 0.021023545
0003a0 44 37 c6 bd 03 06 18 bd 57 19 9b bb 7b dc a0 bb
       -0.0967851 -0.03711511 -0.0047332454 -0.004909096
0003b0 8e 12 27 bd 22 f8 05 be d5 d1 52 bd 12 0e 6b bd
       -0.04078918 -0.13082936 -0.051469643 -0.057386465
0003c0 f2 6b 13 bd c6 c7 09 be 33 45 46 be e3 b0 71 3b
       -0.035991617 -0.13455114 -0.19362335 0.0036879114
0003d0 a9 5c dd bc 55 0e 16 3d 36 d3 94 bd e3 54 1b 3c
       -0.027021723 0.03663476 -0.07266848 0.009480688
0003e0 4c e5 21 bb 7e 8f da 3b ce 78 05 3e ac 0f eb 3c
       -0.0024703322 0.0066699376 0.13034365 0.028693996
0003f0 95 39 21 bd 23 e2 0a bc a2 59 d6 bb 7c 5e 67 3c
       -0.039361555 -0.008476767 -0.006541447 0.014121648

sequential_2/dense_5/MatMul f4 [11, 256]
000000 b0 fd 90 bd 25 4f af bd b4 1d a0 bd aa 24 b0 3c
       -0.07079637 -0.085600175 -0.078181654 0.021501858
000010 b7 e2 25 bc f2 16 90 bd 8a d3 9f be 6c 2b 0a be
       -0.010124854 -0.070356265 -0.3121608 -0.13493127
000020 d2 95 b5 be e6 22 08 be 48 16 73 be 27 8c 73 be
       -0.35465866 -0.13294563 -0.23738968 -0.23783933
000030 84 e2 b6 bd 09 6b ba bc b3 b0 12 be 91 7c f2 bd
       -0.08929923 -0.022756116 -0.14325218 -0.118401654
000040 f7 73 de be b8 c9 8b bd 41 a4 af 3d c6 77 0b be
       -0.4344785 -0.06825584 0.08576251 -0.13619909
000050 76 09 6a bd 09 35 c9 bd 9a b6 6e bd e8 af 9f bd
       -0.05713793 -0.09824569 -0.05827961 -0.07797223
000060 19 8e ef be 1c 78 f1 bc 27 82 d7 bd 74 eb 76 be
       -0.467881 -0.029476218 -0.105228715 -0.24113256
000070 d0 e6 a7 be 11 5a 1d be bf ed ad 3d a2 25 a1 be
       -0.32793283 -0.15366389 0.08492612 -0.31474024
000080 61 26 e5 bd ab 84 b3 be ad 70 9b be 1b 6f df bd
       -0.11188961 -0.35062155 -0.30359402 -0.109098636
000090 87 dd 4c be 1b f1 84 3c 73 14 a9 3d f8 af 0b 3d
       -0.20006381 0.01622825 0.082558535 0.034103364
0000a0 3e bd 22 3d 44 0d 09 3d 4f 5e 4f bd fa 1a e0 be
       0.039731257 0.033459917 -0.05062705 -0.4377058
0000b0 f1 e0 a2 be 85 44 87 be 8a 00 17 3d 3d 7e 8b 3d
       -0.31812242 -0.26419464 0.03686575 0.068111874
0000c0 e5 59 61 be ca e5 87 bd 72 56 cd 3d 20 76 99 bd
       -0.22006948 -0.06635626 0.10026254 -0.07493234
0000d0 89 f9 87 bd fb 52 e7 bc cd 12 36 bd d6 d3 0a be
       -0.06639392 -0.02823781 -0.044451524 -0.13557371
0000e0 9b a6 6e be 28 9f bd be 7e b1 78 be 75 f4 fc bd
       -0.23305742 -0.3703549 -0.24286458 -0.12351314
0000f0 99 77 ce bd 8a d7 47 bd 61 48 17 bd 90 d0 bf bc
       -0.10081405 -0.04878954 -0.03693426 -0.02341488
000100 c6 83 da bc ad 71 1b be 3e 86 10 3e 60 43 56 bc
       -0.026674163 -0.15180083 0.1411371 -0.013077587
000110 3d b0 92 be b7 9a 80 be a0 fe 8f 3d 1b 71 79 be
       -0.28650084 -0.25118038 0.07030988 -0.24359553
000120 97 d0 e8 bd e5 af 4a bd 76 87 3a be e0 4d c9 3c
       -0.1136791 -0.049484152 -0.18215737 0.024573267
000130 50 4f ba 3d 82 cc ab be 43 5c 74 bb 4d ab 73 be
       0.09097159 -0.33554465 -0.0037286438 -0.23795815
000140 14 7b 21 3d a8 c7 2f bd 17 ec bc be d3 e1 aa be
       0.039424017 -0.042915016 -0.36898872 -0.33375415
000150 f3 10 6d bd 25 01 d9 3d 4e 3b 1f be de 77 c2 3d
       -0.057877492 0.105959214 -0.15549967 0.09495519
000160 01 c7 83 be 3f 50 b1 be 44 a6 51 be 71 9b 01 bf
       -0.25737765 -0.34631535 -0.20473582 -0.5062781
000170 ce 40 33 3d 90 f4 d2 be bd 36 9e be 16 85 cc 3d
       0.043762974 -0.4120221 -0.30901137 0.09986322
000180 aa c2 0a be bf 86 9a be 91 5e ae be 9d d0 ae be
       -0.13550821 -0.30180928 -0.34056523 -0.34143534
000190 c4 11 ea bd e4 9e 5a bd 71 fc 35 3d 22 82 9d bd
       -0.1142917 -0.053374186 0.0444302 -0.076908365
0001a0 ba 7f 4c bc d6 7d 82 3b b7 31 5a 3d 05 df dc bd
       -0.012481624 0.003982286 0.053270068 -0.10784725
0001b0 5c f3 0c be 4b 31 27 3c 56 35 ee 3d 62 bf 2d be
       -0.13764709 0.010204623 0.11631267 -0.16967538
0001c0 28 32 66 3d 2d 6d 76 be 4c 6c 09 be a3 de 88 be
       0.056200176 -0.24065085 -0.13420218 -0.26732358
0001d0 80 ff b1 be cb eb 51 be 65 19 4d be f8 75 5b be
       -0.34765244 -0.20500104 -0.20029218 -0.2143172
0001e0 9b 55 7f 3d 8c 40 c2 be e9 2a a7 bd 9d 96 e4 bc
       0.0623375 -0.3793987 -0.08162481 -0.02790385
0001f0 ce d8 cc bc 59 82 de bc 8d 26 9f be 1a cb e9 be
       -0.025005724 -0.027161764 -0.310841 -0.45662767
000200 0f 6c d4 be e5 7a 40 be 8c 69 6b be 66 22 08 be
       -0.41488692 -0.1879688 -0.22989482 -0.13294372
000210 95 c7 a3 3c 37 69 66 3d a0 fc 5a be 54 cd 14 bc
       0.019992629 0.056252684 -0.21385431 -0.009082157
000220 74 79 82 be f2 5a 1b 3d 89 f3 b7 3c ba 80 4a bd
       -0.25483286 0.03792853 0.022454994 -0.04943917
000230 52 78 ac 3c b7 3c 7d be f3 5e ce be da 0b e6 3d
       0.021053467 -0.24730192 -0.40306816 0.11232729
000240 79 20 8d bd 44 0d a4 ba 67 c9 80 be 4f 7c 8b bd
       -0.06890959 -0.001251616 -0.25153658 -0.06810819
000250 7a 6e 4f be bf 3a 55 bc 5c 3f 11 be 04 37 2c 3d
       -0.20256987 -0.013014494 -0.14184326 0.042044654
000260 78 1e 7c bc de 9c 34 be 7d f6 6a be db f4 75 3c
       -0.015388124 -0.17637965 -0.2294559 0.015011991
000270 e3 e0 98 be ae fb c1 bc 10 d0 3f bd c8 28 1d be
       -0.29859075 -0.02367958 -0.046829283 -0.15347588
000280 71 30 81 bd d5 44 f9 bd e7 7b 26 be f8 5a 84 bd
       -0.063080676 -0.12171332 -0.16258202 -0.064626634
000290 0c 69 f7 bd ec 06 ad be 57 13 2e be bb 18 8e be
       -0.12080583 -0.33794343 -0.16999565 -0.27753243
0002a0 b4 82 a3 be ce f2 3b 3d fb aa 97 be 34 6c 97 be
       -0.31935656 0.045885853 -0.29622635 -0.2957474
0002b0 30 54 82 3d 27 59 db 3b 9a 20 81 be 7d fb 9c be
       0.06363714 0.0066939774 -0.25220186 -0.3066062
0002c0 85 b8 21 3c 68 ac 5f bd 69 45 51 be f7 13 b4 be
       0.009870653 -0.05460778 -0.20436634 -0.35171482
0002d0 3e 60 a4 be b5 23 4f be 63 be 75 be d3 e7 5b bd
       -0.32104677 -0.20228465 -0.23998408 -0.05368788
0002e0 a8 03 56 be 86 3b 59 be cf 4f 40 bd 98 30 5f be
       -0.20899832 -0.21214113 -0.04695111 -0.21795881
0002f0 f4 aa b0 be 37 c2 58 bd f2 6f 3c bd a4 89 e3 be
       -0.34505427 -0.052919593 -0.046005197 -0.4444095
000300 bb 8a d5 3b 18 a0 ab 3d ea e8 00 be 18 91 aa be
       0.006516782 0.08380145 -0.1258885 -0.33313823
000310 15 ec b2 3d af d8 88 be b6 f2 8d bd a4 f8 30 be
       0.08736435 -0.26727816 -0.06931059 -0.17282349
000320 f5 e7 45 3c f6 ea 35 be 98 9f 3f be 2a 93 c9 be
       0.012079229 -0.17765412 -0.18713224 -0.3937009
000330 99 f1 cf bd 72 b0 f3 bd 80 10 c7 be c5 56 c6 bd
       -0.10153503 -0.11898889 -0.38879776 -0.09684519
000340 e1 f0 3a 3c ee 2b 95 bd 05 c0 06 be 04 53 54 bd
       0.011409969 -0.072837695 -0.13159187 -0.051836982
000350 0a 23 17 be c9 bc 26 be 92 f7 f9 3c c8 b6 1f bd
       -0.1475946 -0.16282953 0.030513559 -0.038992673
000360 88 1a 16 bd ae ff 2b be 59 c5 4f be 7d 0c 6c bc
       -0.036646396 -0.16796753 -0.20290126 -0.014407274
000370 b4 98 1a bc b8 62 01 3e be 13 bc 3d 0a 71 e3 3d
       -0.009435821 0.12635314 0.09183453 0.11105545
000380 28 20 e3 3b 81 5a 86 3d 27 b3 7b be 72 c1 b8 be
       0.0069313236 0.06560231 -0.2458006 -0.36085087
000390 2a ff 82 be f7 46 ac be 5b 54 95 be 68 6f 37 be
       -0.255853 -0.33647892 -0.2916592 -0.17913592
0003a0 71 ed e4 bc dd bf 4b be 03 36 98 3c a3 83 ec 3c
       -0.027945252 -0.19897409 0.018580442 0.028871363
0003b0 16 31 72 be 50 12 a1 be 1a 65 41 be f7 c3 7b be
       -0.23651537 -0.31459284 -0.18886223 -0.24586473
0003c0 e8 10 8f be 77 ee 66 be 37 a0 72 be b8 f2 7f 3d
       -0.27942586 -0.22551905 -0.2369393 0.062487334
0003d0 b0 ec a2 bd 56 89 e0 bc 13 64 f5 bd 60 32 ca 3c
       -0.07955301 -0.027409237 -0.11981978 0.024682224
0003e0 5b 4d b3 be 90 0c d7 3d 85 9c 8a bd af db f2 3c
       -0.35019955 0.10500443 -0.06768135 0.029645769
0003f0 57 7c c7 bd b4 60 c8 be 5d 14 0c be 8f ae 8d be
       -0.09740513 -0.3913628 -0.13679643 -0.2767224

sequential_2/conv2d_6/Conv2D f4 [32, 3, 3, 3]
000000 c2 41 2d 3d 96 1b 31 bd cc 87 16 bd 3a ac bd bd
       0.04229904 -0.0432392 -0.0367506 -0.09261365
000010 73 25 d6 bd f6 c3 77 3c e9 27 01 be 14 62 f2 bd
       -0.104563616 0.015122404 -0.12612881 -0.11835113
000020 5c 10 11 3d 7c 2d 2d 3d d7 bb 25 be 46 af b9 bc
       0.035415992 0.042279705 -0.16184936 -0.022666585
000030 4e 8d 90 bd 7c 27 e5 3d f7 a5 89 3d 5e bf b0 3d
       -0.07058202 0.11189172 0.067211084 0.086302504
000040 c1 ac 53 3d 99 ec e5 3d 8f 4b 65 bc 67 ee 0f be
       0.051678423 0.11226768 -0.013995065 -0.14055787
000050 1d b2 e8 bd 13 db e9 3d d7 f8 10 3d 71 40 c3 3d
       -0.113620974 0.11418738 0.035393562 0.095337756
000060 7c 34 5d 3d a8 c5 70 3d d0 2f 04 3e 1b 1a 90 bd
       0.05400513 0.05878225 0.12908864 -0.07036229
000070 13 80 ad bd f4 c9 48 3e c2 12 06 be 40 5f 95 3d
       -0.08471694 0.19608289 -0.13093093 0.07293558
000080 5e f2 52 be eb 54 20 bc 9d 8d ab 3d f1 f9 5f bd
       -0.20600268 -0.009785871 0.0837662 -0.054681722
000090 b8 79 0a 3e aa 6e 9e 3d 5f 9c 9e 3d 62 ce 8e bd
       0.13522995 0.07735951 0.07744669 -0.06972958
0000a0 33 1e 10 be e2 c4 e7 bd 20 62 81 3d e8 3e 3f 3d
       -0.1407402 -0.11316849 0.06317544 0.04669085
0000b0 84 2c 88 bd 8e 82 20 be 13 c4 a2 bd 1f ad 65 bd
       -0.06649116 -0.15674803 -0.079475544 -0.056073304
0000c0 ea 36 bd bc 26 db 21 be 9f dc 4e 3b 37 9d 54 3e
       -0.023097474 -0.15806255 0.0031564606 0.20763098
0000d0 fe a5 20 3e 36 26 22 3e f0 d3 0c be 8e b6 1c be
       0.15688321 0.15834889 -0.13752723 -0.15304014
0000e0 3f 16 0e be a3 67 f0 3d 68 7f 3c 3e b0 1a cf 3d
       -0.13875674 0.11738517 0.18407977 0.10112512
0000f0 82 42 dd bb a8 08 b4 bc 80 69 08 3e 1c 1e a1 3c
       -0.006752313 -0.021976784 0.13321495 0.019667678
000100 50 df 64 bd 6a 9a cd bd 7b 5a 0d 3e c4 81 f2 bc
       -0.05587703 -0.10039218 0.13804047 -0.029602893
000110 f0 3a 9a 3d 6b dc fe bd c1 10 f8 3d a9 ba a4 3d
       0.07530773 -0.12444385 0.121125706 0.08043415
000120 f6 2b 4f 3e 70 d7 9c 3c e2 91 25 bd e8 b7 f2 bd
       0.20231614 0.019145697 -0.040422328 -0.118514836
000130 5c 36 b5 3d 8f 08 ea 3d 41 e8 aa bd f1 de 1a be
       0.08848259 0.11427414 -0.0834508 -0.15124108
000140 9d 92 26 be 72 9c 8e 3c b9 40 66 3e cf 9a 04 3e
       -0.16266866 0.017408583 0.22485627 0.1294968
000150 d5 3d ef ba ab 2b 17 3e df c6 59 3e 34 2d 46 3e
       -0.001825268 0.14762752 0.2126727 0.19353181
000160 42 0f 28 3e e6 f8 1a 3e 8d 58 3b 3c e8 74 e6 bd
       0.1641207 0.1513401 0.011434686 -0.11252767
000170 85 6d 37 be 69 43 e6 bd cc b3 0e be d8 20 25 bd
       -0.17912872 -0.11243326 -0.13935775 -0.040314525
000180 ca a9 2b 3d 80 de 08 bd 3b a2 8a 3d 28 06 10 3d
       0.04190997 -0.033415318 0.06769224 0.03516212
000190 13 33 4f be 14 0b 22 be 5b 79 44 bd 5d ec b1 3a
       -0.20234327 -0.15824538 -0.047967296 0.001357447
0001a0 51 11 59 bc b4 84 96 3c 45 f5 6b be 10 6b 05 be
       -0.013248757 0.018373825 -0.23042782 -0.13029122
0001b0 19 e6 c7 bd 95 70 32 bc 8f 3d 27 bd b5 f1 e7 3d
       -0.097606845 -0.010891099 -0.04083019 0.11325399
0001c0 f3 77 8e 3c 55 18 7b 3d 5a d2 04 3d 0d 15 ae bd
       0.01739118 0.0613025 0.03242717 -0.08500109
0001d0 b1 16 cb 3d b8 97 5b bd b9 69 3c bd 92 b8 d5 bd
       0.099164374 -0.053611487 -0.045999262 -0.104355946
0001e0 e9 27 79 bd 17 ed d5 bd fd 31 18 be 2b 08 a8 bd
       -0.060829077 -0.10445612 -0.14862819 -0.08204683
0001f0 49 32 91 be 58 a1 33 be ae 85 33 3d 36 77 51 3e
       -0.28358677 -0.17542017 0.04382866 0.20455632
000200 65 fe ed 3d 7f db 9c 3d 4f 3e d3 3d f3 ab fc 3d
       0.116207875 0.07659053 0.10314619 0.12337484
000210 ba 59 42 3c 50 82 97 bc 8b ff 0e be c3 c7 69 3e
       0.011862213 -0.018494755 -0.1396467 0.2283011
000220 84 60 43 3e 53 06 0a 3e ca f0 1a 3e ec 04 60 3e
       0.19079787 0.13478975 0.15130916 0.21876878
000230 75 94 74 3e 84 e6 0b bc 9a 41 1c 3c 21 d6 0f 3d
       0.23884757 -0.008538846 0.009537125 0.03511632
000240 86 b7 f5 3d 95 60 f4 bc c6 51 22 3e 3d 6e 04 bd
       0.11997895 -0.02983121 0.15851507 -0.032331694
000250 6d 3b a2 bc 88 2c 12 be b4 76 01 bd 33 64 90 bc
       -0.019803727 -0.142748 -0.031607345 -0.017625904
000260 23 d0 06 be 0e 8c 5c be 4b 40 cf bd 33 36 59 be
       -0.13165335 -0.21537802 -0.10119685 -0.21212082
000270 83 6c 1c be f9 c2 35 be c8 4a 12 be 5e f6 a9 3d
       -0.15275769 -0.17750157 -0.1428634 0.08298944
000280 e0 30 a6 bc 4e 7a 0e 3d 6b be 28 bd 6d 0d c8 3c
       -0.020286977 0.034784608 -0.04119722 0.024420464
000290 73 49 eb bd c2 85 0d 3e c7 ab 13 3c 06 42 03 3e
       -0.11488619 0.13820556 0.009013123 0.12818155
0002a0 db 09 70 3d 12 c4 34 bd 57 6f 12 3e dc 22 03 3d
       0.05860315 -0.0441323 0.14300285 0.032015666
0002b0 e8 4b 11 3e ad 0e 39 bd 78 1f f6 bc d0 80 52 3e
       0.14189112 -0.04518001 -0.030044302 0.2055695
0002c0 25 56 19 3e c1 71 65 3d 4a 0d 97 3b 3f d9 56 3d
       0.14974268 0.056016687 0.0046097385 0.052453276
0002d0 36 b2 cf 3d 7d 61 d2 bd ce b3 27 3d f4 a5 2f bd
       0.10141413 -0.10272501 0.04094296 -0.042882875
0002e0 bd 32 af bd 7d 94 3e 3d 06 fe 2e be 7d 2f 31 be
       -0.085545994 0.04652833 -0.1708909 -0.17303272
0002f0 2b 02 f2 bd 34 60 74 bd 34 de 62 be 27 b9 31 be
       -0.1181682 -0.05966206 -0.22155076 -0.17355786
000300 68 c7 be bc 08 9c 25 3e e0 a0 89 3d 11 e0 f1 3d
       -0.023288444 0.16172802 0.067201376 0.118103154
000310 7d 42 30 3e 6e 0c f5 3d 18 19 32 be ed 5d 2d 3d
       0.17212863 0.119652614 -0.17392385 0.042325903
000320 c8 fb 7b bd a4 ce e7 bd 12 23 ae 3c 33 4d 28 be
       -0.061519414 -0.113187104 0.021256957 -0.16435699
000330 6c 67 21 be 62 1f 81 bd b8 6e cc bd 6e 14 af 3d
       -0.15762109 -0.06304814 -0.099820554 0.085488185
000340 86 9f 46 3e 58 e6 01 3e 45 83 b0 bd 78 b7 e6 3d
       0.19396791 0.12685525 -0.08618788 0.11265463
000350 ff ef 01 3b 33 b1 a1 bd 65 2b 37 bd 6f e6 fa bd
       0.0019826887 -0.07895126 -0.04471912 -0.12250983
000360 c0 71 1b 3e 05 11 ae bd e3 b7 99 bd 7d fc 21 3e
       0.15180111 -0.0849934 -0.07505777 0.15818973
000370 77 32 b1 3d 4d c7 21 be 23 f9 12 3d c0 ea 81 bd
       0.086522035 -0.15798683 0.035882127 -0.06343603
000380 66 ec 30 be 0d 33 dc bc a8 09 be bd 4b 67 b7 bd
       -0.17277679 -0.026879812 -0.092791855 -0.089552484
000390 5a 47 2e 3e bd e0 38 bd 35 c5 db bd 11 df 06 3e
       0.17019406 -0.045136202 -0.10730974 0.1317103
0003a0 6a a6 86 3d 17 40 ca bc 01 35 0a bd a9 71 32 3d
       0.0657471 -0.024688764 -0.033741955 0.043565426
0003b0 63 a8 8d bd 1e a7 08 3e 0c 85 e9 bd bc be 55 bd
       -0.06916883 0.13345 -0.1140233 -0.05218385
0003c0 81 c3 33 3e d4 ab 12 3e 2e 8f 3b 3d 2d 27 43 3d
       0.17555048 0.1432336 0.045790844 0.047644783
0003d0 81 be 8d 3c d5 58 71 bd c9 f4 d1 bd c8 b2 64 be
       0.017302753 -0.058922607 -0.10251767 -0.22333825
0003e0 d2 da 8c bc 10 da 9a bd 40 05 78 3c 4c 16 67 be
       -0.017194185 -0.07561123 0.01513797 -0.225671
0003f0 a5 57 d0 bd 3f 97 d0 bd 72 72 28 be 89 36 89 3d
       -0.10172967 -0.10185098 -0.16449907 0.06699855

sequential_2/conv2d_7/Conv2D f4 [32, 3, 3, 32]
000000 75 74 8e 3d c1 dc f2 bc e4 93 2d 3d b9 76 2c 3c
       0.06955806 -0.02964628 0.042377368 0.010526353
000010 09 9b 74 3b 34 7f 4c 3e 85 54 86 3d e0 b7 f7 bc
       0.0037323853 0.19970399 0.065590896 -0.030239046
000020 bf d0 2e 3c 0d 1a fa 3c 04 e5 e7 3d 98 a6 10 bd
       0.010669886 0.03053 0.11322978 -0.035315126
000030 b1 e3 b2 bd a6 55 d4 bd 29 0d 30 be 79 a2 55 3e
       -0.08734835 -0.10367899 -0.1719252 0.2086276
000040 da 09 29 be 7b c3 6b 3e 64 82 67 3e ee 72 25 3e
       -0.16507664 0.23023789 0.22608334 0.16157123
000050 f4 8f d2 3d 06 ae 02 bd 25 c5 06 3d fa 93 ff 3d
       0.10281363 -0.031904243 0.032902855 0.12479396
000060 5f d2 28 bd 78 23 27 3d 04 32 5b bd a9 c3 00 be
       -0.04121625 0.04080531 -0.053514495 -0.12574638
000070 31 2f f1 3c 38 18 8d 3d e8 00 24 3d d2 b0 9e bc
       0.029441448 0.06889385 0.040039927 -0.019371424
000080 86 af 19 3e f7 34 ec bb 5a 91 fc 3c 0a 20 04 3c
       0.15008363 -0.0072084623 0.030831028 0.008064279
000090 12 3c ac bd 26 64 b8 3d 4f 27 03 3d 4b 1f 65 be
       -0.08409895 0.09003477 0.03201991 -0.22375219
0000a0 5e b0 3e 3e f3 d3 bd 3d d3 55 99 bd f7 9a c2 3c
       0.18621966 0.09268942 -0.07487073 0.023755534
0000b0 8e a7 98 bc 67 99 03 bd 15 2b 91 3d ff 78 35 3e
       -0.018634584 -0.032128718 0.07088295 0.17721938
0000c0 1d b4 f7 3c fc 82 19 3d 92 7d 3c 3d dd 84 ae bd
       0.030237252 0.037478432 0.04601819 -0.085214354
0000d0 18 8e da bd ba cb bb bd a1 c3 f1 3d 26 15 a1 bd
       -0.106716335 -0.09169717 0.118048914 -0.07865362
0000e0 30 6c 86 bb 6f 6b 23 be 4c 86 ad 3d 86 64 36 3d
       -0.0041022524 -0.15958951 0.08472881 0.04452946
0000f0 98 90 d2 bc d1 7f 00 3e e1 89 28 bb 2a 1b fb 3d
       -0.025703713 0.12548758 -0.0025716948 0.122610405
000100 c5 87 4d 3e b8 69 fe 3d b2 b0 3a 3d cf 0f 1a be
       0.20071323 0.12422508 0.045578666 -0.15045093
000110 fd b6 08 bc 33 64 5e 3d 0a cf 8a 3c b6 1a b6 3d
       -0.008344409 0.054294776 0.016944427 0.088918135
000120 40 8a 6f bd f1 d9 8d 3c 5f 6b 8d bd 8b 36 9e 3d
       -0.058481455 0.017315837 -0.06905245 0.07725247
000130 ff 35 90 3d ef 76 1b ba 06 5d 50 3d 63 42 0d be
       0.07041549 -0.0005930503 0.050869964 -0.13794856
000140 3d 95 5b 3d 6d dd 17 be 77 9c 35 be e3 3e 4e bd
       0.05360912 -0.14830561 -0.17735468 -0.050352942
000150 cb a2 fa 3c 23 fc 3f 3e cd 3a c2 bd 20 7d 90 bd
       0.030595204 0.18748526 -0.094838716 -0.07055116
000160 c7 49 3a 3e 92 cb b5 3d f4 26 5c 3d 98 35 c0 3d
       0.18192206 0.088767186 0.053748086 0.09385222
000170 71 c6 28 bc a0 06 a2 3c 27 fd 99 3d f9 33 bb 3b
       -0.010301218 0.01977855 0.07518988 0.0057129827
000180 c9 2f 2d bd 44 90 ee 3c 27 f9 e2 3c ce c8 14 bd
       -0.0422819 0.029121526 0.027706696 -0.036324315
000190 3e 70 7c bb ca cc a9 3e 43 9a 0b 3e 47 da 17 bd
       -0.003851905 0.33164054 0.13633065 -0.0370734
0001a0 89 b4 00 3e 6a af 23 be 3f a2 f7 3d 23 be 9b bc
       0.12568869 -0.15984884 0.12091493 -0.019011563
0001b0 cb d6 48 be e8 78 37 bd cb 5e 83 bd af c0 65 3e
       -0.19613187 -0.04479304 -0.06414565 0.22436784
0001c0 51 f5 48 be 01 b3 3a 3e ad a3 ed 3d 04 d7 49 3e
       -0.19624831 0.18232347 0.11603484 0.19710928
0001d0 69 22 48 be 5d f5 c4 bd 82 09 00 3e 51 f6 1f 3e
       -0.19544376 -0.09617112 0.12503627 0.15621306
0001e0 a3 da 3d be d3 06 34 be 11 59 50 3d 03 2f a1 3d
       -0.18540435 -0.17580728 0.05086619 0.07870295
0001f0 c5 52 20 be ee e0 ab 3d 0f eb bf bb 63 c5 4d bd
       -0.15656574 0.08392511 -0.0058568786 -0.05023707
000200 d9 d2 2d 3e e0 71 de 3b fe cb 14 3e 81 5e 0d be
       0.16974963 0.0067884773 0.14530942 -0.13805582
000210 27 7b aa 3b c9 a5 41 bc cb b7 6d be 9d f4 12 3d
       0.005202669 -0.011819311 -0.23214643 0.035877813
000220 a1 71 bb 3d 37 b4 6f 3d 3f cb 5a be ff 2e 9e 3d
       0.09152532 0.058521476 -0.21366595 0.077238075
000230 37 01 94 bc 22 6e 95 bd 9c 15 1c bd 61 b2 b4 3d
       -0.018066986 -0.07296397 -0.038106546 0.088230856
000240 c0 94 2a 3d 78 16 2d 3d 7f 14 30 3e 52 86 4a be
       0.041645765 0.042257756 0.17195319 -0.19777802
000250 0d 99 8d be fe fa 40 be 94 61 ba 3d 56 7f 19 be
       -0.2765583 -0.18845746 0.09100643 -0.14989981
000260 4c 57 3a 3d 38 2d 3d bc a5 d6 67 bc d0 7d e0 3d
       0.04549341 -0.0115464255 -0.014150296 0.10961497
000270 dc d1 15 be e9 a9 a2 bd e9 47 96 bd fc ba 0d 3e
       -0.14630836 -0.07942564 -0.073379345 0.1384086
000280 ed b6 1c 3e e9 dd 34 bc ee 14 ba 3d e3 cc 1c be
       0.15304156 -0.011039236 0.09086023 -0.15312533
000290 d8 c0 a5 bc 75 4d 64 be 9c ab 54 3d 62 29 a3 bc
       -0.020233557 -0.22295173 0.051921472 -0.019917194
0002a0 1e c1 1b bd a9 39 c5 bd 3a 7a 68 be de 58 34 3c
       -0.038025968 -0.096301384 -0.22702876 0.011007516
0002b0 29 4e 4c bd 2f 91 c6 3d 6d 84 d6 bb 22 6f 07 be
       -0.049879227 0.0969566 -0.006546548 -0.13225988
0002c0 ac 74 c2 3c 14 e3 d0 3d 06 af 3a bd f3 29 e0 bd
       0.023737274 0.10199562 -0.04557707 -0.10945501
0002d0 fd dc 8d 3d 21 ea a1 3d 5f 63 c3 bd 26 2c 92 bc
       0.06926916 0.07905985 -0.09540438 -0.017843317
0002e0 62 56 63 3d 6c ad 55 bd bd ef dc bc 7f f3 9d 3d
       0.055502303 -0.05216734 -0.026969785 0.07712459
0002f0 70 bc d0 bd e3 59 fa 3d 89 7c 0f bd 3f d9 85 3d
       -0.101921916 0.12224176 -0.035030875 0.06535577
000300 95 c5 d4 3b bd 89 61 3e 5d 6d 09 be 0e 69 21 3e
       0.00649328 0.22025199 -0.13420625 0.15762731
000310 7f 73 34 3e bd a2 53 3e 06 1c d6 3c 49 c4 75 3d
       0.17622183 0.20667548 0.02613641 0.060001645
000320 4f 7d 28 3e cc fe 1b 3e 04 4f 18 3d 62 9a af 3d
       0.16454051 0.15233916 0.03718473 0.08574368
000330 1b 30 84 bd ad 7f e0 3c 31 9b d9 3b e1 68 6a bd
       -0.06454488 0.02740463 0.0066408147 -0.057228927
000340 90 55 47 3d d5 1f 0e 3e da ae db bd af ef 49 3e
       0.048665583 0.1387933 -0.1072671 0.19720338
000350 d3 6c 09 be e3 84 45 be 4c 8a 49 bd ca ad 8a 3e
       -0.1342042 -0.19288974 -0.049204156 0.27085716
000360 60 af b8 3c 51 74 d6 3d 60 40 9b 3d 82 28 d4 bd
       0.022544563 0.10471404 0.07580638 -0.10359289
000370 dc 99 b4 3b 0b da 8c 3d 37 e7 dc 3d df 5e 19 3d
       0.0055115055 0.06877526 0.10786288 0.03744399
000380 e7 f7 13 3e d8 bb 3a bd 51 34 f0 bc cf 63 18 be
       0.14450036 -0.045589298 -0.029321821 -0.14881824
000390 20 f7 41 be fd 27 32 be 21 71 3b be f7 09 40 be
       -0.18941927 -0.17398067 -0.18304874 -0.18753801
0003a0 9d 12 b2 3d c4 83 a1 3d 1d c1 3f bd de 28 48 3e
       0.086949565 0.078864604 -0.046815027 0.1954684
0003b0 a6 c2 05 bd 6f cb 02 3e c4 ee 96 3b 87 de a5 3d
       -0.032656334 0.12772916 0.0046061 0.08099084
0003c0 e7 9d c2 bd f4 d2 ae bd 9f ca ed 3d c4 73 fd bc
       -0.09502774 -0.0853633 0.116109125 -0.03093899
0003d0 89 bf 41 be da d7 e5 bd 87 3f 3d bd c1 e2 8e bd
       -0.18920721 -0.11222811 -0.046203163 -0.069768436
0003e0 f6 26 cb 3c b1 58 c5 bc 02 19 20 bd 16 45 bb 3c
       0.024798851 -0.024090143 -0.03908635 0.022860091
0003f0 fe 4e 84 be 10 51 32 be 7b c0 f2 bc db e7 d2 3d
       -0.25841516 -0.17413735 -0.029632797 0.10298129

sequential_2/conv2d_8/Conv2D f4 [32, 3, 3, 32]
000000 10 ce ba bb 1c 9f 5c bd 99 8b 61 bd 65 45 3c 3d
       -0.005700834 -0.053862676 -0.05506477 0.045964617
000010 80 db dd 3c 61 1e 1c 3d 7b a2 17 3d 5b 4b 0d 3b
       0.027082205 0.03811491 0.037020188 0.0021559808
000020 ae a4 8e bd 46 03 db bb 73 00 67 3d f6 f5 88 bd
       -0.06965004 -0.00668374 0.056396913 -0.06687538
000030 a4 46 32 3e 1b 7b 93 3d 7f 55 3e bd d5 91 51 3d
       0.1740976 0.07201215 -0.046468254 0.051164467
000040 3b bc bd bc 37 35 c4 bc b7 5a 3b bd b0 1e 04 be
       -0.023161044 -0.023951156 -0.04574081 -0.12902331
000050 66 52 17 3e ca d2 24 3d 10 c5 7a 3d ba 51 9d bd
       0.14777526 0.040240087 0.06122309 -0.07681604
000060 97 5e 02 be 71 c7 56 3d e5 37 ed bd d3 95 86 bb
       -0.12731396 0.052436296 -0.11582927 -0.004107216
000070 84 db e1 bc 55 b7 db 3d ac 56 dc bd 10 03 b2 3c
       -0.027570494 0.10728327 -0.10758719 0.021729976
000080 cd 4c 0c 3e 41 65 87 bd 24 5c 0b 3d 15 c6 40 3e
       0.13701172 -0.066111095 0.03402342 0.18825562
000090 e7 ab 66 bd 24 74 11 3d 7c 63 c5 bd 56 e2 9d 3d
       -0.056316283 0.03551115 -0.09638116 0.07709186
0000a0 2c 7a fa 3d a8 59 3c 3d c5 0f 52 bd 73 22 11 3d
       0.12230334 0.04598394 -0.05128457 0.035433244
0000b0 ac b5 d2 3c 66 b2 bd 3d ce 5c 88 bc cf 34 82 bd
       0.025721394 0.092625424 -0.016645815 -0.06357729
0000c0 c1 48 51 3d 89 c9 fb bd 74 63 45 bc 57 47 a8 3d
       0.051094774 -0.12294299 -0.012047637 0.08216732
0000d0 80 c4 fe 3d 7f 87 20 3e 2a 0b 70 bc 43 d2 d1 3d
       0.12439823 0.15676688 -0.014651099 0.10245182
0000e0 c7 5a e3 bc c8 00 ca bd 62 61 0d be 50 28 8c 3d
       -0.027753247 -0.0986343 -0.1380668 0.068436265
0000f0 c1 5f 24 3c e8 5d 48 bd 43 4b c5 bb f1 55 1b 3d
       0.010032595 -0.04891768 -0.006020935 0.037923757
000100 df 58 06 3e cf 53 be bc b7 4c 38 3e 5d 45 3d 3c
       0.13119839 -0.023233322 0.17998014 0.011552182
000110 3e 69 c4 bd 63 fb 19 bd 8a 5d 2a 3e 5a 7a f5 bb
       -0.09590386 -0.037593257 0.16637245 -0.007491392
000120 13 87 05 3c bd de 04 3d 42 5c 72 3e a5 82 6d 3d
       0.00814988 0.032438982 0.23668006 0.05798592
000130 f5 0e 6b 3d cb e4 a8 bc 2e 35 99 3d 55 38 ea 3d
       0.05738731 -0.02061691 0.07480846 0.11436526
000140 cd 3f 96 bc 23 a8 17 be e8 c6 bb bc 74 77 9f bc
       -0.01834097 -0.14810233 -0.022921994 -0.01946614
000150 1b 8b b9 bc ad d7 88 bd 19 61 ea 3b 5f 87 8e bc
       -0.022649338 -0.06681762 0.007152688 -0.017398534
000160 93 98 70 bd 75 6a e2 3d 8d 21 31 be 71 d1 bb 3d
       -0.058739256 0.11055461 -0.17297955 0.09170807
000170 cf ef 65 bc 9d 78 cf 3c 6c 5a b3 3d 76 ac f5 bd
       -0.014034226 0.025326068 0.08757481 -0.11995785
000180 81 9e 43 bc 1b 2c 1e bb 89 f5 cb bd 5d cd d4 bd
       -0.011939646 -0.0024135176 -0.099589415 -0.103907324
000190 91 fb 93 bd 73 b3 42 be 7f b4 32 bd c1 0e 8b 3d
       -0.07225717 -0.19013767 -0.043629166 0.067899235
0001a0 2e 81 48 bd aa c9 d4 3c ba 05 e1 3d 81 d7 09 be
       -0.04895132 0.025975067 0.109874204 -0.13461114
0001b0 80 0e 3e be 00 01 c9 3c dd bd cd bd b4 8b d4 3c
       -0.18560219 0.02453661 -0.10045979 0.025945522
0001c0 6c 16 b0 bc bd 58 f4 bc 79 a8 3d bd 4b 19 c0 3c
       -0.021495067 -0.02982747 -0.046303246 0.02344956
0001d0 7d 85 cb bd 43 1c 94 bc aa 3e f1 bc 58 da db 3c
       -0.0993757 -0.018079882 -0.029448826 0.026837513
0001e0 c8 d0 9a bd 4f 14 a0 bd 06 09 72 3d 23 c5 24 3e
       -0.07559353 -0.078163736 0.059090637 0.16090827
0001f0 7a 4b c9 3c eb ed c7 3a eb 2a 4e bd 58 90 12 3d
       0.024572123 0.00152534 -0.0503339 0.03578219
000200 ee d5 84 3c 2f 90 c9 bd c9 c9 60 bd d9 2c b9 3c
       0.01621529 -0.09841954 -0.054879937 0.022604393
000210 f1 ae 0e 3d 1c 47 db bd e4 74 87 be 33 0f 90 3d
       0.034834806 -0.107069224 -0.26456368 0.07034149
000220 49 0e 31 3d e7 39 1d 3d 06 c5 ef bd b4 e3 73 bd
       0.043226514 0.038385298 -0.11707501 -0.059543326
000230 cb ca 29 be 0a 27 04 3d 14 f1 0d 3d 58 07 01 be
       -0.16581266 0.032263793 0.03465374 -0.12600458
000240 b7 61 f3 bc 19 a3 05 bd 42 ea 0e be 39 1f c3 3c
       -0.02970968 -0.032626245 -0.1395655 0.023818599
000250 a7 fa d2 bd de ce 23 3e 3f a2 10 3d 43 5e 2f be
       -0.103017144 0.15996882 0.03531098 -0.17125802
000260 ef c6 d6 3d 29 d3 e1 bd 3b 7a 41 3d 3f 3e 60 3d
       0.10487162 -0.11026604 0.04723571 0.054746863
000270 90 9f 8a 3d f9 68 f4 3b 42 18 1d be 3d 9b 59 be
       0.067687154 0.007458803 -0.15341285 -0.21250625
000280 88 b0 d0 3d 6a e1 8c 39 03 2f 24 bd c3 82 a1 bd
       0.10189921 0.00026870827 -0.040083896 -0.07886269
000290 d9 38 9f 3d 78 5d 92 bc 81 10 72 be 58 eb 1a 3d
       0.07774515 -0.017866835 -0.23639108 0.037822098
0002a0 bd 7c 5a 3c 8d dc b7 3d a1 f5 35 be d4 4b 2f bd
       0.013335404 0.089776136 -0.17769481 -0.042796925
0002b0 d3 c8 8f bd a4 4c 79 bd 17 d9 97 3c 48 f3 39 be
       -0.07020726 -0.060864106 0.018536134 -0.1815921
0002c0 1f 47 fa bc af c7 89 bc 6c 94 a2 bc 34 00 c8 3c
       -0.030551491 -0.01681885 -0.019846164 0.02441416
0002d0 33 ae 83 bd 3c fa 3f 3e 35 a0 e3 bd 4e 79 38 3d
       -0.0642971 0.187478 -0.111145414 0.04503756
0002e0 aa 43 07 be 88 9b 15 be 9d 86 b6 3d ac bb cb 3c
       -0.13209406 -0.14610112 0.08912394 0.024869762
0002f0 25 5f de bc 1b 06 ac bd 07 48 e6 bd 3a f8 45 bd
       -0.027144978 -0.08399602 -0.11244207 -0.04833243
000300 f7 17 fb bd a6 cc 4f be f1 e3 f7 bc 59 ff f2 3d
       -0.1226043 -0.20292911 -0.030260058 0.1186511
000310 07 d4 bc bd f4 a7 b7 b9 dc 18 7e 3d 41 09 92 3d
       -0.092201285 -0.00035029615 0.062035426 0.07130671
000320 fd 25 aa 3d d2 b5 8a 3d 9d 8e d5 3c 18 4e a0 be
       0.08308027 0.06772961 0.02606898 -0.3130958
000330 8d cb 11 be c8 b0 00 bc 66 4b 94 bc cf 7b 72 bc
       -0.14237805 -0.007854648 -0.018102359 -0.014800026
000340 f0 38 fb 3c 18 56 47 3d 25 32 2e 3b da 7d e1 bb
       0.030666798 0.04866609 0.0026580181 -0.0068814578
000350 8e 2f 45 bd 28 bc 31 bd 89 fc 23 3e 46 05 c7 bd
       -0.048141055 -0.04339233 0.16014303 -0.09717803
000360 da 3f a1 3d 41 95 d6 3d 96 c2 ba bd d3 cb 3d 3d
       0.07873507 0.10477687 -0.091191456 0.04633696
000370 e4 c7 3f be 47 df 07 3e 9f 41 df bc 4e cd 49 bb
       -0.18728596 0.13268767 -0.02725297 -0.0030792537
000380 1d 75 3f 3d b7 d6 65 bd 44 98 c6 bc c4 a4 cc 3d
       0.046742547 -0.05611297 -0.024242528 0.09992364
000390 17 6f 89 3d 21 47 ca bb 49 c2 79 3d fe 09 bd bd
       0.06710642 -0.00617303 0.0609763 -0.092304215
0003a0 19 65 2b 3d 67 95 ab 3d ad 54 0f bb 1a 56 1a be
       0.04184446 0.083781056 -0.002187054 -0.15071908
0003b0 4b e1 25 bd ae 46 9f 3d 11 15 a8 ba 73 cd 06 3b
       -0.04049806 0.07777153 -0.0012823661 0.0020569235
0003c0 0f ad 90 bd c1 72 21 3c e2 95 2f 3d 56 d1 52 3d
       -0.07064258 0.00985402 0.04286755 0.05146917
0003d0 9a 11 cf bd 28 3a 1d bd d7 1a a7 bc 85 0e 3a 3e
       -0.10110779 -0.03838554 -0.02039854 0.18169601
0003e0 d1 11 82 3e fc 88 f4 3c 26 16 aa 3d 76 25 d4 3c
       0.25404218 0.029850475 0.08305006 0.025896769
0003f0 07 5a 56 3c b1 15 bf bd 14 03 09 3e 91 77 64 3d
       0.013082988 -0.09330309 0.1338008 0.05577809
