a_output_actual/dig-s1.tflite (tflite, 766460 bytes, 12 tensors)

sequential_1/conv2d_3/BiasAdd/ReadVariableOp/resource f4 [32]
0	0xbd9b5d56	-0.07586162
1	0xbc508d3b	-0.0127289845
2	0xbd22e9e4	-0.039773837
3	0x3c82e86f	0.015979974
4	0x3d4ed346	0.050494455
5	0xbd8e759f	-0.06956028
6	0x3bf79db3	0.007556641
7	0xbd8e1e20	-0.0693934
8	0xbc786fcc	-0.015163373
9	0xbc28c7fd	-0.010301587
10	0xbb07e48e	-0.0020735594
11	0x3d0851f1	0.03328127
12	0xbe5f55fb	-0.21810143
13	0xbdbca381	-0.092108734
14	0xbc309c4c	-0.010779452
15	0xbdcce0b6	-0.10003798
16	0xbcdc7000	-0.026908875
17	0xbdd7f14f	-0.10544073
18	0xbd0e877e	-0.034797184
19	0xbbcb71dd	-0.006208642
20	0xbc1d1d24	-0.009589467
21	0xbdcccb00	-0.09999657
22	0x3dbe943d	0.09305618
23	0xbd1cf1ba	-0.038316466
24	0xbd399c07	-0.045314815
25	0xbd5336ca	-0.051565923
26	0xbd890ae6	-0.06691532
27	0xbd819cbe	-0.06328724
28	0xbd4c4eff	-0.049880024
29	0xbdae2fdb	-0.085052215
30	0xbd2e39d4	-0.042535618
31	0xbd027db6	-0.03185817

sequential_1/conv2d_4/BiasAdd/ReadVariableOp/resource f4 [64]
0	0xbda3a600	-0.07990646
1	0x3cff926b	0.031197747
2	0xbced1f13	-0.028945481
3	0xbd3d0550	-0.046147645
4	0xbdf01c77	-0.11724179
5	0xbc2a37be	-0.010389267
6	0xbda55938	-0.08073658
7	0x3d4fe7aa	0.05075804
8	0xbdcedb28	-0.101003945
9	0xbd75f3cd	-0.06004696
10	0x3e27203d	0.16320892
11	0xbd81eb75	-0.06343738
12	0xbdd81505	-0.10550884
13	0xbc4ca4a9	-0.01249043
14	0x3de70eed	0.11282144
15	0xbda7a66b	-0.081860386
16	0x3c861655	0.01636807
17	0xbdeee4d1	-0.11664737
18	0xbd88ad5e	-0.06673692
19	0xbd2b92a8	-0.04188791
20	0xbe3b85d9	-0.18312778
21	0xbcf5ec55	-0.030019918
22	0xbd1a548d	-0.03767829
23	0xbd1adec1	-0.03781009
24	0xbd1d78c1	-0.038445238
25	0xbb86dc4b	-0.0041156164
26	0x3d55e854	0.05222352
27	0xbd26c318	-0.0407134
28	0x3d8506a1	0.06495405
29	0xbdb420fe	-0.08795355
30	0x3d9b7add	0.07591794
31	0xbe439d19	-0.19102897
32	0xbd96df63	-0.073668264
33	0x3dc487c0	0.09596205
34	0xbd4ef615	-0.05052765
35	0xbbe6b57c	-0.0070406776
36	0x3ca1c52c	0.01974734
37	0x3ceb426c	0.028718196
38	0x3cd81d86	0.026381265
39	0xbcb94656	-0.022616547
40	0x3b3cc9ae	0.0028806734
41	0x3b975cd3	0.00461922
42	0x3d817463	0.06321027
43	0x3c9228f4	0.017841794
44	0x3d448ecd	0.047987748
45	0xbc842d0d	-0.016134763
46	0x3d085b71	0.03329033
47	0x3d4a5f2c	0.04940717
48	0xbdec8be6	-0.11550121
49	0x3dc3e9ae	0.09566055
50	0x3cb2aca4	0.021810837
51	0x3d0c4320	0.034243703
52	0x3cb78e01	0.02240658
53	0xbdc57860	-0.096421
54	0x3da1031c	0.07861921
55	0xbd681e9f	-0.056669828
56	0x3dabf21e	0.083957896
57	0xbdad74fa	-0.08469577
58	0xbd1916b4	-0.037375167
59	0xbc84c3d1	-0.016206654
60	0xbd87f322	-0.06638171
61	0x3d83ca06	0.06435017
62	0xbde215c8	-0.11039311
63	0xbc966380	-0.018357992

sequential_1/conv2d_5/BiasAdd/ReadVariableOp/resource f4 [64]
0	0xbe415433	-0.18879776
1	0xbe00f667	-0.12593995
2	0x3ce931cc	0.028466128
3	0xbc2fd2cf	-0.010731413
4	0xbc609587	-0.013707525
5	0xbd9fa13f	-0.07794427
6	0xbd292667	-0.04129639
7	0xbd1bdde5	-0.038053412
8	0x3da6dd0f	0.08147632
9	0x3c0f97bc	0.008764204
10	0xbcb5fa99	-0.02221422
11	0xbd55381e	-0.05205547
12	0xbda5d870	-0.08097923
13	0x3d234434	0.039859965
14	0x3becfa63	0.007231997
15	0x3cddcc56	0.027074974
16	0x3d3dcf32	0.046340175
17	0xbced871f	-0.028995095
18	0xbde5d5f6	-0.112224504
19	0xbdd2b485	-0.102883376
20	0xbd3e4173	-0.046449136
21	0xbd0cd071	-0.034378473
22	0xbc8b65f1	-0.017016383
23	0xbc117769	-0.008878567
24	0xbd1d9fb0	-0.038482368
25	0xbc7edfba	-0.01555627
26	0xbdac1e42	-0.08404209
27	0xbddb6b07	-0.10713773
28	0xbcc8e616	-0.024523776
29	0xbd7069f7	-0.058694806
30	0xbdf089a7	-0.11745005
31	0xbd0ed9db	-0.034875732
32	0x3d2319b2	0.039819427
33	0xbd0ece2a	-0.034864582
34	0xbd66e57d	-0.0563712
35	0xbdc5da22	-0.09660746
36	0xbd89c4bb	-0.067269765
37	0xbdb52639	-0.08845181
38	0x3d3cbe11	0.0460797
39	0xbc8e3613	-0.017359769
40	0xbd8d3d45	-0.06896452
41	0xbcd52e23	-0.026022976
42	0xbcfce76e	-0.030872073
43	0x3d1a9643	0.037740957
44	0x3ce2182d	0.027599419
45	0x3af56bbd	0.0018724125
46	0xbab52702	-0.0013820829
47	0xbd59e89f	-0.05320036
48	0xbcb613df	-0.022226272
49	0xbda8fc5c	-0.08251259
50	0xbc7fe61c	-0.015618827
51	0x3da33a0d	0.07970057
52	0xbc9356eb	-0.017985782
53	0x3c87f9d6	0.016598623
54	0xba4a0320	-0.0007706154
55	0xbc54ee5b	-0.0129962815
56	0xbd955ddf	-0.07293295
57	0xbd1437a8	-0.03618589
58	0x3ccecf14	0.025245227
59	0xbe21ef28	-0.15813887
60	0xbdaa4262	-0.08313443
61	0xbcdd5bff	-0.027021406
62	0xbcf432a6	-0.029809307
63	0x3da1308a	0.07870586

sequential_1/dense_2/BiasAdd/ReadVariableOp/resource f4 [256]
0	0xbbfdd280	-0.007746041
1	0x3d5dfadf	0.054194327
2	0xb99e73ab	-0.00030222288
3	0xbc8b104b	-0.016975543
4	0x3cb47dc9	0.022032635
5	0xbd50eab1	-0.05100507
6	0xbcfdf3cc	-0.03100004
7	0xbcaed8f6	-0.02134369
8	0x3d404b42	0.04694677
9	0x3c87e63d	0.016589278
10	0x3ccd31d2	0.02504817
11	0xbc971bfb	-0.01844596
12	0x3d904645	0.07044653
13	0xbccd7017	-0.025077863
14	0x3c1e700c	0.009670269
15	0xbd490575	-0.04907747
16	0xb80b648b	-3.323382e-05
17	0x3d997f59	0.07494993
18	0xbd1abd57	-0.037778225
19	0xbc96e85f	-0.01842135
20	0xbc8c2f8d	-0.017112518
21	0x3d2fc1a7	0.04290929
22	0xbc9fc9b5	-0.019505361
23	0xbd02059d	-0.031743634
24	0x3d432390	0.047641337
25	0x3c815781	0.015788795
26	0x3d2d3cce	0.042294316
27	0x3c9f7f70	0.019469947
28	0x3cedd683	0.029032951
29	0x3c4082ef	0.011749967
30	0xbcbba1d0	-0.022904307
31	0xbd3ed8c5	-0.046593446
32	0xbcbae23e	-0.022812959
33	0x3cd85ca5	0.026411364
34	0xbd9bdad4	-0.076100975
35	0xbdbd0a6c	-0.092305034
36	0x3c513a88	0.012770303
37	0xbc9d2b36	-0.019185644
38	0xbd2da2e3	-0.04239167
39	0xbcba6bbf	-0.022756455
40	0x3d95a71b	0.073072635
41	0xbc73b352	-0.014874296
42	0x3d4a7f6b	0.04943792
43	0xbc501765	-0.01270089
44	0x3a7a9eef	0.0009560426
45	0xbca41ed2	-0.020034228
46	0xbbb66d08	-0.0055671968
47	0x3cb612be	0.022225734
48	0xbc955b37	-0.018231971
49	0x3c3003e2	0.010743113
50	0x3d3eaeb1	0.046553317
51	0xbc05e217	-0.00817158
52	0xbd32bded	-0.04363816
53	0x3bfb2ced	0.0076652677
54	0xbcbd13f5	-0.023080805
55	0x3d48d83e	0.04903435
56	0xbcd97b28	-0.026547983
57	0xbb1ad872	-0.0023627547
58	0x3c02d6d7	0.007985792
59	0xbd7cb907	-0.061699893
60	0xbba517b1	-0.0050382246
61	0x3d10229d	0.03518926
62	0x3d9912c6	0.07474284
63	0x3d605043	0.054764044
64	0xbcb18127	-0.02166803
65	0x3cb46761	0.022021951
66	0xbca0ef57	-0.019645376
67	0xbb9054d0	-0.0044046417
68	0xbc03fdd0	-0.008056119
69	0xbd9f5e4a	-0.07781656
70	0x3d84fa18	0.06493014
71	0x3d256f4e	0.04038935
72	0xbd0a67f2	-0.033790536
73	0xbce7e043	-0.028305179
74	0x3d216c72	0.039410062
75	0xbcb540ef	-0.02212569
76	0x3d0a226f	0.033724245
77	0x3d62850e	0.055302672
78	0x3c8721b5	0.016495565
79	0x3bd22f06	0.006414297
80	0x3a6bcfa2	0.0008995478
81	0x3c2f6b8f	0.010706796
82	0xbd1ae769	-0.037818346
83	0xbbb870f7	-0.005628701
84	0xbcc6684e	-0.024219658
85	0x3cd04eb9	0.025428163
86	0xbc880c13	-0.01660732
87	0xbcfefe44	-0.031127103
88	0xbc34b56e	-0.011029584
89	0x3c1bf236	0.009518197
90	0xbd314f55	-0.043288548
91	0x3c7516b4	0.014959026
92	0xbc5a0697	-0.013307235
93	0xbafc2ab2	-0.0019238798
94	0x393e2112	0.00018132132
95	0xbcec66b3	-0.028857565
96	0xbbd1b7fb	-0.006400106
97	0xbc78ada7	-0.015178121
98	0x3dab539f	0.08365559
99	0xbd8c092c	-0.06837687
100	0x3d3441a1	0.0440079
101	0x3d4482aa	0.047976173
102	0xbd0bdcff	-0.034146305
103	0x3d3e664e	0.046484284
104	0xbd2adad0	-0.041712582
105	0x3d3f5ad3	0.046717476
106	0x3da234f0	0.07920253
107	0x3d0cec06	0.034404777
108	0xbc575eca	-0.013145158
109	0xbd28732a	-0.041125454
110	0x3cea57ca	0.028606314
111	0x3d2b7431	0.041858856
112	0xbcf3beab	-0.029754004
113	0x3bac4cb9	0.0052581695
114	0xbd405d0a	-0.04696373
115	0x3d3ada91	0.045618597
116	0xbcf7dda4	-0.030257054
117	0x3d82c015	0.06384293
118	0x3c9f6968	0.019459441
119	0x3b58e20c	0.0033093719
120	0x3d1885bd	0.037236918
121	0xbd1ea1db	-0.038728576
122	0x3ce67011	0.02812961
123	0x3c3224c7	0.010873026
124	0xbc278cc9	-0.010226437
125	0xbc95758b	-0.018244525
126	0xbcccd751	-0.025005015
127	0x3d126b88	0.03574708
128	0x3d4a2890	0.04935509
129	0x3c223762	0.0099009
130	0x3d1bc471	0.038029138
131	0xbc8e9482	-0.017404798
132	0x3ca73207	0.020409597
133	0x3c6c66c2	0.014428796
134	0xbd1f5fd8	-0.038909763
135	0x3d671dae	0.05642479
136	0x3d8c7aaa	0.06859334
137	0xbc2b5f7b	-0.010459776
138	0x3d08b151	0.033372227
139	0x3ba41285	0.0050070905
140	0x3c046c56	0.00808247
141	0xbd21f552	-0.039540596
142	0x3d63f824	0.055656567
143	0xbd524d1a	-0.05134306
144	0xbc8dd368	-0.01731272
145	0xbb9f591c	-0.0048629176
146	0x3b40b4d0	0.0029404648
147	0x3bfb227e	0.007664024
148	0x3d3b2495	0.045689184
149	0x3d4d2635	0.050085265
150	0x3cf89cfc	0.030348293
151	0xbcf7d293	-0.030251777
152	0x3cfe53bc	0.031045787
153	0x3b7f8857	0.0038991177
154	0x3cab56a9	0.020915346
155	0xbcc2272a	-0.023700316
156	0xbc955eb6	-0.018233638
157	0x3cf74627	0.030184818
158	0xbcb1a16c	-0.021683417
159	0x399b5099	0.00029623954
160	0xbcf5997c	-0.029980414
161	0xbc97dd7f	-0.018538235
162	0x3c238e45	0.00998265
163	0xbd31ec79	-0.04343841
164	0x3c971638	0.018443212
165	0x3aa73391	0.0012756457
166	0x3acb3069	0.0015502098
167	0x3a359599	0.0006926894
168	0x3d419dbb	0.047269564
169	0xbc8fe360	-0.017564476
170	0x3d27955d	0.04091393
171	0x3bca5c0a	0.0061755227
172	0x3c2af6bf	0.010434805
173	0xbc0ef721	-0.008725912
174	0x3d29ad52	0.041425057
175	0x3d1bf670	0.038076818
176	0xbc13a873	-0.009012329
177	0x3d46b18c	0.048509166
178	0x3ce7fec8	0.028319731
179	0xba138980	-0.0005628094
180	0x3bb99fbb	0.0056647933
181	0xbc9bf21e	-0.019036349
182	0xbc48189c	-0.012212899
183	0x3d957120	0.072969675
184	0xbb34b455	-0.0027573307
185	0xbbc3e9d2	-0.0059788013
186	0xbaa537d8	-0.0012605144
187	0x3b0c168c	0.0021375744
188	0xbca46246	-0.020066392
189	0x3d1cf2ca	0.03831748
190	0xbd316f6d	-0.043319155
191	0xbc44fe88	-0.012023576
192	0xbccb21fe	-0.024796482
193	0xbcbdb6a1	-0.023158373
194	0xbbcf4bc9	-0.006326173
195	0x3c35ceb1	0.011096642
196	0x3d4622cc	0.04837303
197	0x3dc155fb	0.094402276
198	0xbce4cb4f	-0.027928976
199	0x3d41608a	0.047211207
200	0x3c9c3cd7	0.01907198
201	0xbc2a9a13	-0.010412711
202	0xbc5ff88f	-0.013670101
203	0x3c8f4f13	0.01749376
204	0xbc456b85	-0.01204956
205	0xbbf69d30	-0.0075260624
206	0xbc8a964e	-0.016917374
207	0xbc13ba02	-0.009016516
208	0xbb3a242c	-0.0028402908
209	0xbb8800ba	-0.0041504772
210	0xbc3672d4	-0.011135776
211	0x3d4563af	0.04819077
212	0xbc9ff871	-0.019527646
213	0x3d8e73be	0.0695567
214	0xbcd011b8	-0.025399074
215	0xbdd6cc45	-0.1048818
216	0x3cf1e6bb	0.029528966
217	0x3c89657b	0.016772022
218	0xbc7b5753	-0.015340644
219	0xbca0736c	-0.019586287
220	0x3bf56305	0.0074886107
221	0xbca2c7e1	-0.0198707
222	0xbcb7b7c2	-0.02242649
223	0xbc962e03	-0.018332487
224	0xbc81db2d	-0.015851581
225	0xbc970f66	-0.01843996
226	0xbcac16f0	-0.021007031
227	0xbc6d7152	-0.01449235
228	0xbc9bbc87	-0.019010795
229	0x3da8d975	0.08244602
230	0x3c02e391	0.007988826
231	0xbc1d35d3	-0.009595352
232	0xbd5fd95b	-0.054650646
233	0xbcb430c0	-0.021995902
234	0x3b75aa26	0.003748545
235	0xbcf1e02d	-0.02952584
236	0x3bb9e56b	0.0056731007
237	0xbca5320d	-0.020165468
238	0x3d03f759	0.03221831
239	0xbd30e7c6	-0.043189786
240	0x3d4ff414	0.05076988
241	0x3c703ba0	0.014662653
242	0xbb8397df	-0.004015907
243	0x3d8bcf20	0.06826615
244	0xbcdaf403	-0.026727682
245	0xbd553ffa	-0.052062966
246	0xbd05f0f4	-0.032700494
247	0xbd13f584	-0.036122814
248	0xbb206d77	-0.0024479309
249	0xbc76faf4	-0.01507448
250	0xbc0ce492	-0.008599417
251	0xbd0690c8	-0.032852918
252	0xbcf66e3e	-0.030081864
253	0x3bef1a21	0.007296816
254	0xbb20d0c9	-0.0024538508
255	0xbc44add0	-0.012004331

sequential_1/dense_3/BiasAdd/ReadVariableOp/resource f4 [11]
0	0xbe12e257	-0.14344154
1	0xbdc8e484	-0.09809211
2	0xbe23722d	-0.15961523
3	0xbdb746b0	-0.089490294
4	0xbddab6fe	-0.10679434
5	0xbdeb98da	-0.115037635
6	0xbe3b3e84	-0.18285567
7	0xbe0bcad5	-0.13651593
8	0xbe021aed	-0.12705584
9	0xbd9455ab	-0.07242902
10	0xbd812700	-0.06306267

sequential_1/batch_normalization_1/FusedBatchNormV3 f4 [3]
0	0xc001d25e	-2.0284648
1	0xc00fcf58	-2.2470303
2	0xbfd57e9f	-1.6679267

sequential_1/batch_normalization_1/FusedBatchNormV31 f4 [3]
0	0x3c81341d	0.01577192
1	0x3c8c1d71	0.017103883
2	0x3c522096	0.012825152

sequential_1/dense_2/MatMul f4 [256, 512]
0	0x3d03a701	0.03214169
1	0xbc37ce0a	-0.011218557
2	0x3c8992a5	0.016793558
3	0x3d29c5ee	0.041448526
4	0xbdeab2d3	-0.11459889
5	0xbcce136d	-0.025155747
6	0x3d29d515	0.041462976
7	0x3d92d850	0.071701646
8	0xbd0ab350	-0.033862412
9	0x3d55f671	0.052236978
10	0xbdd06a9c	-0.10176584
11	0x3d9d477a	0.07679649
12	0xbdbfb64a	-0.09360941
13	0x3c909c1a	0.01765256
14	0xbd8de39c	-0.06928179
15	0xbcd0915e	-0.025459941
16	0xbc28f9a0	-0.0103134215
17	0xbd3d0e3d	-0.046156157
18	0xbd182f67	-0.03715458
19	0x3daeb9db	0.08531543
20	0xbccdaf6e	-0.025108065
21	0xbdad37f7	-0.0845794
22	0x3c0acf22	0.008472236
23	0xbd7cad5d	-0.06168877
24	0xb88197f9	-6.1795065e-05
25	0xbd0b48ee	-0.034005098
26	0x3c38fb31	0.011290357
27	0xbd9312d9	-0.07181329
28	0x3c734972	0.014849054
29	0xbc4fe960	-0.012689918
30	0xbdce8aac	-0.10085043
31	0xbcbbf26e	-0.022942748
32	0x3d3da891	0.046303336
33	0xbda8dc70	-0.0824517
34	0x3ce09e3e	0.027419206
35	0x3b92bccf	0.004478074
36	0x3d955091	0.072907574
37	0x3d80e7d0	0.06294215
38	0xbdbd9779	-0.09257407
39	0xbd00787a	-0.031364895
40	0x3d52239f	0.051303502
41	0xbbadc9d3	-0.0053036003
42	0xbcf87299	-0.030328082
43	0xbce14895	-0.02750043
44	0xbd8ba3bb	-0.068183385
45	0xbe26507c	-0.1624164
46	0xbe16777a	-0.14694014
47	0xbcfb99c0	-0.030712962
48	0xbc9b36fb	-0.018947115
49	0x3dda3752	0.10655083
50	0x3d5621fa	0.052278496
51	0xbdb8ee97	-0.090298824
52	0xbc21d31c	-0.009876993
53	0xbdb8bcd5	-0.09020392
54	0xbdbdb509	-0.09263045
55	0x3d14dfbb	0.03634618
56	0xbd8c796a	-0.068590954
57	0x3c8e059e	0.017336663
58	0xbd212c43	-0.039348852
59	0xbcbcad4a	-0.02303185
60	0xbde06bbd	-0.109580494
61	0xbd37d492	-0.044880457
62	0xbda3b0cd	-0.079927064
63	0x3bd567e8	0.0065126307
64	0xbdbafa71	-0.09129799
65	0x3c69fed0	0.014281943
66	0xbd6a3d82	-0.057187565
67	0x3cdc31c6	0.026879203
68	0x3d22b81f	0.039726373
69	0xbd6790ba	-0.056534506
70	0x3d2ca7a7	0.042152073
71	0x3c1a0b11	0.0094020525
72	0x3d533c93	0.05157144
73	0xbdd34fd0	-0.103179574
74	0x3d66801b	0.056274515
75	0xbbfc669f	-0.007702663
76	0x3d64807a	0.055786587
77	0xbdc5ae0c	-0.096523374
78	0x3d88300e	0.06649791
79	0xbe0bec3c	-0.13664335
80	0xbd8a3416	-0.06748216
81	0xbc685945	-0.01418144
82	0x3e0ced1b	0.13762324
83	0x3dd53e3d	0.10412262
84	0xbca82356	-0.020524662
85	0xbcb14a4f	-0.021641878
86	0x3d933086	0.071869895
87	0x3c13d7df	0.009023636
88	0x3d36286a	0.044472136
89	0x3cb81af5	0.022473792
90	0xbe0dedea	-0.13860288
91	0x3d76a690	0.06021744
92	0xbd84e3db	-0.064887725
93	0xbd2f4234	-0.042787746
94	0xbd87991d	-0.06621001
95	0xbcd86147	-0.026413573
96	0xbdf1bb83	-0.11803343
97	0x3d130f99	0.035903547
98	0x3cca77c7	0.024715317
99	0x3dd89258	0.10574788
100	0x3d244497	0.040104475
101	0xbd87cd16	-0.06630914
102	0x3bd232f3	0.006414765
103	0x3bcd0c6b	0.006257584
104	0x3d9b4b3e	0.07582711
105	0xbdb98864	-0.090592176
106	0x3c88a62b	0.016680798
107	0xbd37784a	-0.04479245
108	0xbe065229	-0.13117279
109	0xbc9d8e26	-0.01923282
110	0xbdb3e521	-0.08783937
111	0x3dfadaba	0.1224875
112	0x3d873b85	0.06603149
113	0xbc270259	-0.010193431
114	0xbd87e785	-0.06635956
115	0xbd8edb1c	-0.069753855
116	0x3c11756e	0.008878095
117	0xbda57dbb	-0.08080622
118	0xbcc694ce	-0.024240877
119	0x3d29d7f5	0.04146572
120	0xbd8e3d50	-0.06945288
121	0xbde58d8c	-0.112086385
122	0x3d2b0e55	0.041761715
123	0x3d81ff0a	0.06347473
124	0x3d809d49	0.0628
125	0xbda3061f	-0.07960152
126	0x3d239aa4	0.0399424
127	0x3d54bff5	0.051940877
128	0x3dfa76d1	0.12229694
129	0xbd811a5a	-0.06303854
130	0xbd96489a	-0.073380664
131	0x3e1031ba	0.14081469
132	0x3b8cdd68	0.0042988546
133	0xbceb08ce	-0.028690722
134	0x3e297bf3	0.16551189
135	0xbd28191b	-0.041039567
136	0xbd0fc0af	-0.035095867
137	0x3d6df3f2	0.058093973
138	0x3cb22c3c	0.021749608
139	0x3d2d01c5	0.042238016
140	0x3cf12a61	0.029439153
141	0xbd6b937a	-0.05751369
142	0xbd800c11	-0.062523015
143	0xbd2842ab	-0.041079205
144	0xbcb7d819	-0.02244191
145	0x3de250c4	0.11050561
146	0x3cc673a5	0.024225065
147	0x3ce18eac	0.027533852
148	0x3ca9aa14	0.020710982
149	0xbda2aced	-0.07943139
150	0xbdc8e4ea	-0.09809287
151	0x3d7590b3	0.05995245
152	0xbc6dcea9	-0.014514604
153	0xbda863ab	-0.08222135
154	0x3c70fd90	0.0147088915
155	0x3d56a001	0.052398685
156	0xbd4fefdd	-0.05076586
157	0xbdb88df5	-0.09011451
158	0x3d1e6671	0.038671914
159	0xbd17b418	-0.037036985
160	0x3c27c3f2	0.010239588
161	0x3c2d74a8	0.010586895
162	0xbc67aec9	-0.014140793
163	0xbe219ab4	-0.15781671
164	0xbd39a175	-0.045319993
165	0x3dffd4b3	0.12491741
166	0xbb367660	-0.0027841553
167	0xbd393a86	-0.045221828
168	0x3cc0ddd6	0.02354328
169	0x3d423302	0.047411926
170	0xbced0c63	-0.02893657
171	0xbd927882	-0.07151891
172	0x3d55c8a5	0.052193303
173	0x3d9c2e26	0.076259896
174	0xbc912bf9	-0.017721163
175	0x3ccc277c	0.024921171
176	0x3e20627f	0.15662573
177	0xbdd0e0aa	-0.10199101
178	0x3d6b8a6b	0.057505053
179	0x3dfbe55f	0.122996084
180	0x3d9b3fca	0.07580526
181	0xbbd20961	-0.0064098095
182	0xbdd04c7b	-0.101708375
183	0xbd052f56	-0.032515846
184	0xbd8e92e2	-0.069616094
185	0xbc90d5e3	-0.017680114
186	0x3d3462d9	0.04403958
187	0xbdc056d4	-0.09391561
188	0xbd8878e0	-0.0666368
189	0xbd396d18	-0.045270056
190	0xbda002f1	-0.07813061
191	0x3d8936bc	0.06699893
192	0xbc884dbf	-0.016638635
193	0xbca65054	-0.020301975
194	0x3aaeb580	0.0013329238
195	0x3d858d9f	0.06521153
196	0x3c8a00e5	0.01684613
197	0x3d19e57b	0.037572365
198	0x3d1c5101	0.03816319
199	0xbd8af4d3	-0.06784978
200	0x3dfac9df	0.12245535
201	0x3c9dccba	0.01926266
202	0xbd990256	-0.07471149
203	0x3dd6b3f6	0.104835436
204	0x3dcb1a38	0.0991711
205	0x3d8ae5d9	0.06782121
206	0x3bde490c	0.00678361
207	0x3cae28d2	0.021259699
208	0x3d238bce	0.03992825
209	0x3e1c4405	0.15260322
210	0x3d0c90f3	0.03431792
211	0x3d24a7e4	0.040199175
212	0x3e648c3c	0.2231912
213	0xbd509f82	-0.05093337
214	0x3d1a6cb1	0.037701312
215	0x3d7e25af	0.062047657
216	0x3ca9e6cf	0.02073994
217	0x3d231f2f	0.03982466
218	0x3cc5a9d6	0.024128836
219	0x3e019636	0.12654957
220	0xbdaba708	-0.08381468
221	0xbdd09d4d	-0.10186253
222	0x3cca9fb5	0.024734357
223	0x3b83d8f3	0.004023665
224	0xbd53b61a	-0.051687337
225	0xbcc2f392	-0.023797784
226	0x3e057348	0.13032258
227	0xbdb10a72	-0.086445704
228	0xbdbbc281	-0.09167958
229	0x3daac295	0.08337895
230	0x3cdb2084	0.026748903
231	0x3d62b472	0.055347867
232	0x3d334a44	0.043771997
233	0xbbf94e90	-0.0076082423
234	0x3e2e2a0e	0.1700823
235	0xbd31c19f	-0.043397542
236	0x3ce29195	0.02765731
237	0x3b59c49d	0.0033228763
238	0xbda45f2b	-0.08025964
239	0xbd3482de	-0.044070117
240	0x3de2a802	0.11067201
241	0x3d4cba52	0.049982376
242	0x3d00c8f6	0.03144165
243	0x3e0bf5b6	0.1366795
244	0x3e2c03ff	0.167984
245	0xbd1a03d1	-0.037601296
246	0xbd9522c5	-0.072820224
247	0xbd478488	-0.048710376
248	0x3d6001b3	0.05468912
249	0x3db67c32	0.08910407
250	0x3c8d7302	0.017266754
251	0xbd90b8c9	-0.07066495
252	0xbb8e44ff	-0.004341721
253	0x3d016c2a	0.031597294
254	0x3cdc5d76	0.026900034
255	0x3d137a37	0.036005225

sequential_1/dense_3/MatMul f4 [11, 256]
0	0x3a27da87	0.00064031075
1	0xbd8bdfea	-0.068298176
2	0xbe430653	-0.19045381
3	0x3d57beac	0.052672073
4	0xbd65ac00	-0.056072235
5	0x3dfd0550	0.12354529
6	0xbdbe9821	-0.0930636
7	0xbe8cc2c7	-0.27492353
8	0xbe85ff74	-0.26171458
9	0xbe80be88	-0.25145364
10	0xbea2e8e3	-0.31818303
11	0x3dcf3f81	0.10119534
12	0xbe52d6cb	-0.2058975
13	0x3c44875a	0.011995161
14	0x3da97ec9	0.082761355
15	0xbd8e3825	-0.069443025
16	0xbe80524e	-0.25062793
17	0xbe80bb87	-0.25143072
18	0xbe45a206	-0.19300088
19	0x3c5c9780	0.013463855
20	0x3caf24f3	0.021379923
21	0xbcca722c	-0.024712645
22	0x3cb1a31a	0.021684218
23	0xbe00d84b	-0.12582509
24	0xbed978c9	-0.42474964
25	0xbdf5a502	-0.11994363
26	0xbe868455	-0.26272836
27	0xbe6e78bf	-0.23288248
28	0x3cc4ee50	0.024039418
29	0xbe5190aa	-0.20465341
30	0xbde96fc4	-0.11398271
31	0xbe948188	-0.29005075
32	0xbe3ba106	-0.18323144
33	0xbec434ee	-0.38321632
34	0xbd0bded3	-0.03414805
35	0x3d946c39	0.07247204
36	0x3db8263e	0.08991669
37	0xbc6c383c	-0.014417704
38	0xbdaad8df	-0.08342146
39	0xbd817af9	-0.06322283
40	0xbe444a6b	-0.19169013
41	0xbe8aef73	-0.2713581
42	0xbd487680	-0.048941135
43	0x3de3854d	0.111094095
44	0xbdf93591	-0.1216842
45	0x3d048356	0.032351814
46	0x3dabf83d	0.08396957
47	0xbec8a9a3	-0.39191923
48	0xbdacb79b	-0.084334575
49	0xbe04f4a1	-0.12983944
50	0x3d924da4	0.07143715
51	0xbd930e4b	-0.071804605
52	0xbd23f254	-0.040026024
53	0xbe6ea9b8	-0.2330693
54	0xbdc333b1	-0.09531344
55	0xbe84a665	-0.259082
56	0xbdd3800d	-0.10327158
57	0x39f5d3b9	0.00046887787
58	0xbe9eb811	-0.30999807
59	0x3d4637d4	0.048393086
60	0xbd9248fc	-0.07142827
61	0xbe284461	-0.16432334
62	0xbead6bbd	-0.3387126
63	0xbe1f3e6a	-0.15551153
64	0xbe1baeef	-0.1520345
65	0x3b5a67b9	0.0033325984
66	0xbd91bc05	-0.0711594
67	0xbe01ed90	-0.12688279
68	0xbd9752bb	-0.073888265
69	0x3d438642	0.04773546
70	0x3c8d2dfe	0.017233845
71	0xbeb33981	-0.3500481
72	0xbe80af80	-0.25133896
73	0x3ce8f5b0	0.028437465
74	0xbeb071bf	-0.3446178
75	0xbe3542c4	-0.1770125
76	0xbe9842e4	-0.29738533
77	0xbe627a90	-0.22117066
78	0xbe3008e8	-0.17190897
79	0xbe7c98ba	-0.24667636
80	0xbcc7292c	-0.024311624
81	0xbe0e73d8	-0.13911378
82	0x3da6206e	0.08111654
83	0x3cc6f0d3	0.024284756
84	0xbe0b6971	-0.13614441
85	0xbe0de295	-0.13855965
86	0xbd62f4eb	-0.055409353
87	0xbd9455b6	-0.072429106
88	0xbd369f74	-0.04458566
89	0xbd6bab15	-0.057536203
90	0xbe74cafa	-0.23905554
91	0xbe264556	-0.16237387
92	0xbc8ebca3	-0.017423933
93	0xbe1d92a9	-0.15387978
94	0xbd22f610	-0.039785445
95	0x3dd3efd2	0.103484765
96	0x3df1e5d7	0.118114166
97	0xbccc68ed	-0.024952376
98	0xbd82bea7	-0.0638402
99	0xbe6781ee	-0.22608158
100	0xbea541a2	-0.32276636
101	0xbd3ef24e	-0.0466178
102	0xbdba7a95	-0.09105412
103	0xbe89570c	-0.26824224
104	0xbd43b522	-0.047780164
105	0xbe8738d1	-0.26410535
106	0xbea812e8	-0.32826924
107	0xbe060604	-0.13088232
108	0x3ce12aab	0.027486166
109	0xbe1ea79b	-0.15493624
110	0xbea6c4db	-0.32572064
111	0xbe87ab0a	-0.2649768
112	0xbe29df63	-0.16589122
113	0xbe78fb2c	-0.24314564
114	0xbe7a37df	-0.24435376
115	0xbecb8139	-0.39747027
116	0xbccb65a7	-0.024828745
117	0xbe94988f	-0.29022643
118	0xbd00f424	-0.03148283
119	0xbda04e54	-0.0782744
120	0xbda4172c	-0.08012232
121	0xbdfe23e3	-0.124091886
122	0xbec68c23	-0.3877879
123	0xbdc9f40c	-0.09861001
124	0xbd49383f	-0.049125906
125	0x3d712bf8	0.058879822
126	0xbe52a953	-0.20572405
127	0xbecbab29	-0.39779022
128	0xbe8524cc	-0.26004636
129	0xbe354e39	-0.17705621
130	0xbde2dce9	-0.110772915
131	0x3d21c9b8	0.039499015
132	0xbe09cf0f	-0.13457893
133	0xbd05930b	-0.032610934
134	0xbd690ae9	-0.05689517
135	0xbeeb4efd	-0.459587
136	0xbde67f11	-0.11254705
137	0xbe0dd105	-0.13849266
138	0xbe968431	-0.2939773
139	0x3c0c561c	0.008565452
140	0x3d9094e4	0.07059649
141	0xbe8f1147	-0.2794287
142	0xbeb78ca8	-0.358495
143	0xbd9fa7b9	-0.077956624
144	0xbead3a49	-0.3383353
145	0xbe95c76b	-0.29253706
146	0xbe73d3f7	-0.23811327
147	0xbec6791c	-0.38764274
148	0xbde04859	-0.10951299
149	0xbea763da	-0.32693368
150	0xbea3c751	-0.31988004
151	0xbdeb8851	-0.1150061
152	0xbe8324da	-0.25614053
153	0xbd6f59c1	-0.058435205
154	0xbd95d8cc	-0.07316741
155	0xbc76672e	-0.015039248
156	0x3c02ecba	0.00799101
157	0xbec0944a	-0.37613136
158	0xbdfbadb4	-0.122889906
159	0xbce5e45d	-0.028062994
160	0x3e03478b	0.1282026
161	0x3dc06a48	0.093952715
162	0xbd9e01ab	-0.07715162
163	0xbdd98649	-0.10621316
164	0x3c939649	0.018015997
165	0xbd132712	-0.035925932
166	0xbe80a21b	-0.25123677
167	0x3d8df1f4	0.069309145
168	0xbeac4999	-0.336499
169	0x3d1bd4b2	0.03804464
170	0xbd832703	-0.06403925
171	0x3ce9d65c	0.028544597
172	0xbe1e837c	-0.15479845
173	0xbe382eb7	-0.1798657
174	0xbd83bf36	-0.06432955
175	0xbea94422	-0.33059794
176	0xbd8dee92	-0.06930269
177	0xbe8b89fe	-0.27253717
178	0xbe210566	-0.15724716
179	0x3d8248d2	0.063615456
180	0xbe1c6eec	-0.15276688
181	0xbe1ee391	-0.15516497
182	0xbe07c8b1	-0.13260151
183	0xbe5cfacd	-0.21580048
184	0x3dd0a1c7	0.101871066
185	0xbde6baaa	-0.11266072
186	0xbd936df5	-0.07198707
187	0xbd4e05b1	-0.050298396
188	0x3cb8e79b	0.022571376
189	0xbe271958	-0.16318262
190	0xbe07dce4	-0.13267857
191	0xbe0a0e90	-0.13482118
192	0xbcdc8469	-0.026918607
193	0xbea50555	-0.3223063
194	0xbbbe7160	-0.005811855
195	0xbd691480	-0.056904316
196	0xbdbd913b	-0.09256216
197	0xbe89fe85	-0.26951995
198	0xbc51feb7	-0.012817076
199	0xbe0506fe	-0.12990949
200	0xbe122848	-0.14273179
201	0xbe924c2c	-0.2857374
202	0xbdc32d0a	-0.09530075
203	0xbeb9f4e1	-0.3631964
204	0x3cbdf75e	0.023189243
205	0x3dc314cb	0.0952545
206	0x3d79f239	0.061022017
207	0xbc9d70db	-0.019218853
208	0xbcedcd12	-0.02902845
209	0xbe973597	-0.29533073
210	0xbe88bed3	-0.26708087
211	0x3d92597b	0.07145973
212	0xbd24fe3a	-0.04028151
213	0xbe0061e1	-0.12537338
214	0xbe76a980	-0.24088097
215	0x3e81b3ad	0.25332394
216	0xbed473cc	-0.41494596
217	0xbe0b3af8	-0.13596714
218	0xbe049872	-0.12948778
219	0xbddf4629	-0.10902054
220	0x3daa176b	0.08305248
221	0xbd751656	-0.059835754
222	0xbe18847c	-0.14894289
223	0xbc33ed8d	-0.0109819295
224	0xbe982a1d	-0.2971963
225	0xbdbb516b	-0.091463886
226	0x3d80df84	0.06292632
227	0x3ce2279f	0.027606783
228	0xbe77b1f2	-0.24188974
229	0xbede2efa	-0.43395215
230	0xbd0ad0e1	-0.03389061
231	0xbe4e07c9	-0.20120157
232	0x3c6909c5	0.014223521
233	0x3c08e2a9	0.008354821
234	0xbd44d7a4	-0.048057213
235	0xbde5eb01	-0.11226464
236	0xbdbcca5f	-0.09218287
237	0xbe10c63d	-0.14138122
238	0xbd70566a	-0.05867616
239	0xbd82ac43	-0.063805126
240	0xbe90e24f	-0.2829766
241	0xbdfeff4d	-0.124510385
242	0xbe2d3e56	-0.1691831
243	0xbd73b2f9	-0.059496854
244	0xbe2886a1	-0.16457607
245	0xbea41b74	-0.32052195
246	0xbe0b8e44	-0.13628489
247	0xbe973885	-0.29535308
248	0x3bab7ce4	0.005233394
249	0x3dc76ba8	0.09737331
250	0xbe140bd7	-0.14457642
251	0xbdd17e49	-0.10229165
252	0xbe0028bf	-0.12515543
253	0xbe8d42f2	-0.27590138
254	0xbe23f7bd	-0.16012473
255	0xbd423ee1	-0.047423247

sequential_1/conv2d_3/Conv2D f4 [32, 3, 3, 3]
0	0x3deef379	0.116675325
1	0x3e369685	0.17830856
2	0xbc93dc23	-0.018049305
3	0x3d996ff5	0.07492057
4	0x3e7116e4	0.23543888
5	0x3ca8c86b	0.02060338
6	0x3dcd5f65	0.10027961
7	0x3e2f4711	0.17116953
8	0x3e333777	0.17501627
9	0xbce7015f	-0.028198896
10	0x3e0055cd	0.1253273
11	0x3b84c23b	0.0040514744
12	0xbce69b70	-0.02815029
13	0xbdfa1afe	-0.122121796
14	0xbcd87088	-0.026420847
15	0xbe87dad7	-0.2653415
16	0xbe4689e1	-0.19388534
17	0xbe3d838f	-0.18507217
18	0xbd778c8a	-0.060436763
19	0xbe2d5912	-0.16928509
20	0x3d607798	0.054801553
21	0xbb9bec4d	-0.004758394
22	0xbc373ef5	-0.011184444
23	0xbe0cff21	-0.13769199
24	0xbd58b83b	-0.05291007
25	0xbd9cf2e6	-0.07663517
26	0xbe52c056	-0.20581183
27	0xbcd3d157	-0.025856657
28	0xbe15ddad	-0.14635344
29	0xbdb8f44b	-0.0903097
30	0xbd829183	-0.063754104
31	0x3ded2582	0.1157942
32	0x3dafc6ea	0.08582862
33	0x3da88d01	0.08230019
34	0x3e684cba	0.22685519
35	0x3e1928e7	0.1495701
36	0x3d9341e3	0.07190301
37	0x3ccef318	0.0252624
38	0x3e24fd2c	0.16112202
39	0x3d093ef1	0.03350729
40	0x3e2caa0d	0.16861744
41	0xbdc346db	-0.09534999
42	0x3c1db795	0.009626289
43	0x3db4a9db	0.0882146
44	0x3d6effb9	0.058349345
45	0x3c28f5e8	0.010312535
46	0x3dab7344	0.083715945
47	0x3cc5cf4f	0.024146704
48	0x3d5de60c	0.054174468
49	0xbb094086	-0.0020943
50	0xbc13796a	-0.009001115
51	0xbd82f76e	-0.0639485
52	0xbe8642ef	-0.2622294
53	0xbe80e21d	-0.2517251
54	0x3d175dec	0.036954805
55	0x3e1579e9	0.14597286
56	0x3dbfe76b	0.09370311
57	0x3da277ae	0.07932983
58	0x3e2481f6	0.16065201
59	0xbcf340de	-0.029694017
60	0xbccb0c33	-0.02478609
61	0xbe567c03	-0.20945744
62	0xbd94e41a	-0.072700694
63	0x3d575046	0.05256679
64	0xbda7d882	-0.081955925
65	0x3e06cebd	0.13164802
66	0xbb93f3ad	-0.0045151324
67	0x3e0eaa43	0.13932137
68	0x3db04843	0.08607533
69	0xbe8daf34	-0.27672732
70	0xbdca1dab	-0.0986894
71	0xbd1fb686	-0.038992427
72	0x3da4bd5d	0.08043931
73	0xbc95a2f1	-0.018266173
74	0x3dee8c00	0.11647797
75	0x3ce32f0d	0.027732396
76	0xbd293730	-0.041312397
77	0xbdb15c5b	-0.086601935
78	0x3ca95073	0.020668244
79	0xbde41898	-0.111375034
80	0xbd58efe2	-0.052963145
81	0xbdaa6855	-0.08320681
82	0x3cd57bc2	0.026059989
83	0x3d206e58	0.039167732
84	0x3dfb0b5a	0.122580245
85	0x3d013449	0.031544004
86	0x3d5ff133	0.054673385
87	0x3dd84473	0.10559931
88	0x3dc769b9	0.09736962
89	0x3dceeb86	0.10103516
90	0xbe39761a	-0.18111458
91	0xbdf767c6	-0.1208034
92	0xbdb1d90c	-0.086839765
93	0xbdbb2e58	-0.09139699
94	0xbc9305ea	-0.017947156
95	0x3d509160	0.05091989
96	0x3dceec27	0.10103636
97	0x3df54b6f	0.119772784
98	0xbcf28d50	-0.029608399
99	0xbe9493db	-0.29019055
100	0xbe2c5308	-0.16828549
101	0xbdcd2d19	-0.10018367
102	0xbd92b6c1	-0.07163764
103	0x3c83dc3f	0.016096232
104	0x3da77461	0.081764944
105	0x3d43ea60	0.04783094
106	0x3da42566	0.08014946
107	0x3df54d76	0.11977665
108	0xbe1e9256	-0.1548551
109	0xbd62ca68	-0.05536881
110	0xbdbc071f	-0.09181046
111	0xbc690c4b	-0.014224122
112	0x3e1f5a61	0.1556182
113	0x3d65f4e0	0.056141734
114	0x3da587c0	0.08082533
115	0x3b5d29a3	0.0033746741
116	0x3d9bcf9c	0.07607958
117	0xbde46c3a	-0.11153455
118	0xbd581e72	-0.05276341
119	0xbe10fcf7	-0.14158998
120	0x3cbe1a17	0.0232058
121	0x3d538fb6	0.051650725
122	0xbc9cc615	-0.019137422
123	0x3d83a0e6	0.06427173
124	0x3c0a13d8	0.008427583
125	0x3d45a7d3	0.048255753
126	0xbdbb34a3	-0.09140899
127	0xbe1efbf0	-0.15525794
128	0xbcaf0ce2	-0.021368448
129	0x3ccb3c31	0.024808975
130	0x3c6bd9c0	0.014395177
131	0xbd0cca4b	-0.03437261
132	0x3d6c5ea4	0.057707444
133	0x3e0c5dd3	0.13707666
134	0xbcaaf17e	-0.020867106
135	0x3d4694cc	0.048481748
136	0xbddd1489	-0.107949324
137	0x3de66015	0.11248795
138	0xbb24bef2	-0.0025138226
139	0x3df182b5	0.117925085
140	0x3c67888b	0.0141316755
141	0x3da99416	0.08280198
142	0x3d2119a5	0.039331097
143	0xbdf45e4e	-0.1193205
144	0xbdc25e54	-0.09490648
145	0xbdc521e9	-0.096256085
146	0xbe2fcac4	-0.17167193
147	0x3d7f020e	0.06225782
148	0x3dce1d86	0.10064225
149	0x3e04a022	0.12951711
150	0x3c9078e9	0.01763578
151	0xbcc9c927	-0.02463205
152	0x3cd3b979	0.025845276
153	0xbe25adf3	-0.16179638
154	0xbde079ba	-0.109607175
155	0xbe00d004	-0.12579352
156	0x3d3bc16f	0.04583877
157	0x3d52c954	0.051461533
158	0x3d53f5cb	0.05174808
159	0x3c788332	0.015167998
160	0x3c5270c4	0.012844268
161	0x3d7ae680	0.06125498
162	0x3ccd392e	0.02505168
163	0x3e0c642b	0.13710086
164	0x3e4a26cb	0.19741361
165	0x3b993942	0.004676015
166	0xbc7e7bae	-0.015532417
167	0xbdab2505	-0.0835667
168	0x3c2829db	0.010263885
169	0x3e0de46f	0.13856672
170	0xbce44e95	-0.027869502
171	0x3dcd4222	0.100223795
172	0x3ce7b629	0.028285103
173	0x3df8c9f1	0.12147892
174	0x3e1fe3e3	0.15614276
175	0xbe06a701	-0.13149644
176	0x3de47ed1	0.11157001
177	0xbe1e4b13	-0.15458326
178	0x3d1c59c8	0.03817156
179	0x3de22d94	0.110438496
180	0xbce24338	-0.027619943
181	0xbddfe674	-0.10932627
182	0x3e2e0e8c	0.16997737
183	0xbe28249c	-0.16420215
184	0x3d375ec9	0.04476813
185	0xbdd35f6c	-0.10320935
186	0xbe27812e	-0.16357872
187	0xbe46544f	-0.19368099
188	0x3d90ee93	0.070767544
189	0xbd3c7874	-0.04601331
190	0x3decc430	0.11560857
191	0x3dade00f	0.084900014
192	0xbcae646e	-0.021288123
193	0x3def4bf8	0.11684412
194	0xbd1c9800	-0.038230896
195	0x3e7390dc	0.23785728
196	0x3e7ed9e4	0.24887806
197	0x3df37581	0.118876465
198	0xbdebc94a	-0.11513002
199	0xbe1fd183	-0.15607266
200	0x3adef9b6	0.0017011676
201	0xbe09b285	-0.13447006
202	0xbe8f37f0	-0.27972364
203	0xbe2b6941	-0.1673937
204	0xbe20cd63	-0.15703349
205	0xbdfc13d2	-0.12308468
206	0x3d9fa6f7	0.07795518
207	0xbc20aa27	-0.0098061925
208	0x3c51bbdc	0.012801137
209	0x3cafee13	0.021475827
210	0xbd22c65b	-0.039739948
211	0x3e060fcd	0.13091965
212	0xbc7c3ea0	-0.01539579
213	0xbd02fd19	-0.031979654
214	0xbc0a8010	-0.008453384
215	0xbdafd595	-0.085856594
216	0x3e50e228	0.20398772
217	0x3d9941e0	0.07483268
218	0x3e3ed3e9	0.18635525
219	0x3c4029f0	0.011728749
220	0x3d049f2c	0.03237836
221	0x3d7abc58	0.061214775
222	0xbdabe13c	-0.083925694
223	0x3d307e70	0.04308933
224	0xbdc6892a	-0.09694131
225	0x3e1860a5	0.14880617
226	0x3ded2f44	0.11581281
227	0xbd35bf6c	-0.044372007
228	0x3c42a93b	0.011881168
229	0x3dc297bf	0.095015995
230	0x3c93c114	0.018036403
231	0xbdc31e6d	-0.09527288
232	0xbd5d1749	-0.053977285
233	0xbe4ae4eb	-0.19813888
234	0xbd2bd085	-0.041946907
235	0x3dae89f1	0.08522404
236	0x3e2bc33f	0.16773699
237	0xbe4fdffa	-0.20300284
238	0xbe3f03ed	-0.18653841
239	0xbce7d9f8	-0.028302178
240	0xbd750501	-0.059819225
241	0xbe609c51	-0.2193463
242	0xbd2ec54f	-0.042668637
243	0x3e45a0f2	0.19299677
244	0x3c6adb1f	0.014334469
245	0x3d9cd8b6	0.07658522
246	0xbdafd1d3	-0.08584943
247	0xbdd9ca92	-0.1063434
248	0x3d47fe87	0.04882672
249	0xbc95e561	-0.018297853
250	0xbde4de01	-0.111751564
251	0x3cdf965f	0.027293382
252	0x3c1ee68a	0.0096985195
253	0x3e4384af	0.19093584
254	0x3db6116c	0.08890042
255	0xbdcdec8a	-0.10054882

sequential_1/conv2d_4/Conv2D f4 [64, 3, 3, 32]
0	0x3cc14c08	0.023595825
1	0x3ca76c31	0.020437332
2	0x3dcf4ca8	0.10122043
3	0xbd713f5f	-0.058898326
4	0x3c19424a	0.009354183
5	0xbc8909d8	-0.016728327
6	0x3d81494e	0.0631281
7	0xbcb3afe7	-0.021934463
8	0x3cdf8667	0.027285768
9	0xbde8c9a8	-0.11366588
10	0x3d226f0b	0.03965668
11	0x3d3096c1	0.04311252
12	0xb959c822	-0.00020769288
13	0x3cb20f71	0.021735879
14	0xbdad6a20	-0.08467507
15	0xbd9d339d	-0.0767586
16	0x3dab1168	0.08352929
17	0x3ccbe1e5	0.024887988
18	0x3e0781e8	0.13233149
19	0x3d65c553	0.056096386
20	0xba4d18ef	-0.0007823845
21	0x3b05fc35	0.0020444517
22	0x3bd171fa	0.006391761
23	0xbd6d5308	-0.057940513
24	0xbd26ded2	-0.04073984
25	0xbcb7cdcd	-0.022437
26	0xbd5f6f61	-0.05454958
27	0x3e1619ee	0.14658329
28	0x3d94cb41	0.0726533
29	0x3d907ad8	0.070546806
30	0x3e1daef4	0.1539877
31	0xbd5401c8	-0.05175951
32	0xbd995157	-0.074862175
33	0xbb83c9a5	-0.0040218406
34	0x3d5c3746	0.05376365
35	0x3d9f579f	0.07780384
36	0xbdbb2827	-0.09138518
37	0x3d1a1334	0.03761597
38	0xbd9aa4b1	-0.07550944
39	0x3dca5d28	0.098810494
40	0x3da98fae	0.08279358
41	0x3d6933c3	0.05693413
42	0x3d3f2607	0.046667125
43	0xbd298416	-0.041385733
44	0xbaa06e2b	-0.0012239864
45	0xbc22552d	-0.009908003
46	0x3c3b6f47	0.011440105
47	0x3dfebe56	0.124386474
48	0x3d5a3bba	0.053279616
49	0xbc225334	-0.0099075325
50	0xbc382f40	-0.011241734
51	0x3d06b66b	0.03288881
52	0xbd50127d	-0.05079888
53	0x395e8f47	0.00021224945
54	0xbda65b03	-0.08122828
55	0x3dba3063	0.0909126
56	0x3d02f2de	0.031969897
57	0xbd4a1abb	-0.0493419
58	0xbd1a8e91	-0.03773362
59	0x3dacef47	0.08444076
60	0x3ce27e66	0.027648162
61	0xbb375bd0	-0.0027978308
62	0xbd12cdfb	-0.03584097
63	0xbd142ae8	-0.03617373
64	0x3cb80838	0.022464857
65	0xbe25bf07	-0.16186152
66	0xbdba2865	-0.09089736
67	0x3e1ffc06	0.15623483
68	0x3d2913ed	0.04127877
69	0xbd582f39	-0.05277941
70	0xbdc4fa44	-0.09618047
71	0x3e2de455	0.16981633
72	0x3cb01dad	0.021498526
73	0x3d954369	0.07288248
74	0x3d862a7b	0.06551071
75	0x3ded4b0d	0.115865804
76	0xbe03aa26	-0.12857875
77	0x3e8fc4d6	0.2807986
78	0x3c3786e9	0.011201599
79	0xbd3aabaa	-0.045573868
80	0x3de0a85d	0.10969613
81	0xbd362ff9	-0.044479344
82	0xbcc74156	-0.024323147
83	0xbe121aae	-0.1426799
84	0x3dd5a865	0.10432509
85	0xbd532065	-0.051544566
86	0x3d9a9765	0.075484075
87	0xbde9a7b8	-0.11408943
88	0xbe52ee1e	-0.20598647
89	0xbc6347df	-0.013872116
90	0x3d11551e	0.035481565
91	0x3d29ed60	0.041486144
92	0x3cde4741	0.027133586
93	0xbdeb1e6a	-0.114804104
94	0xbdf92f6a	-0.12167247
95	0xbc9ffe4b	-0.019530436
96	0xbd72aa1f	-0.05924427
97	0xbd8d1acb	-0.06889876
98	0x3e2357e2	0.15951493
99	0xbe16072a	-0.1465117
100	0xbd56c8cd	-0.052437592
101	0xbd160cf6	-0.036633454
102	0xbe0189dc	-0.12650245
103	0xbdc0e0ba	-0.09417863
104	0xbcd9cbc7	-0.026586426
105	0x3c182892	0.0092870165
106	0xbdea1c2f	-0.11431157
107	0xbdd220d0	-0.10260165
108	0x3d4159d2	0.0472048
109	0xbdba0b44	-0.0908418
110	0xbd8d808a	-0.069092825
111	0xbdcb6526	-0.09931402
112	0x3de4c993	0.1117126
113	0x3dec70e5	0.115449704
114	0x3d66726a	0.056261458
115	0x3e4bdffe	0.19909665
116	0xbd73c4c7	-0.059513833
117	0x3e2ccb6e	0.16874477
118	0xbbbd0d09	-0.005769376
119	0x3e1e4ea3	0.15459685
120	0xbdcc6fe6	-0.099822804
121	0xbe10e1bc	-0.14148611
122	0x3c680f48	0.0141638
123	0x3c8b3864	0.016994663
124	0x3e975363	0.29555807
125	0xb99b53da	-0.00029626378
126	0x3ce3578e	0.02775171
127	0xbda959b0	-0.0826906
128	0xbe23cde9	-0.15996517
129	0xbe2692f3	-0.16266994
130	0x3d5bf52a	0.053700604
131	0xbdfe42fd	-0.12415121
132	0xbd98168e	-0.07426177
133	0x3d883553	0.06650796
134	0xbdb13221	-0.086521395
135	0x3e0aaa67	0.13541566
136	0xbd48d684	-0.049032703
137	0x3c71be0b	0.014754782
138	0x3d77d232	0.060503192
139	0xbe2c457a	-0.16823378
140	0x3c35720f	0.011074557
141	0xbd3aa824	-0.045570508
142	0xbe209c8b	-0.15684716
143	0xbe5d5f0c	-0.21618289
144	0x3dfca5ac	0.12336287
145	0xba45eccf	-0.0007550241
146	0x3dc4657a	0.095896676
147	0x3d49de14	0.049284056
148	0xbd410c9f	-0.047131177
149	0x3d1bfbe1	0.038082007
150	0xbd1ae94e	-0.037820153
151	0xbe1f8fc0	-0.1558218
152	0xbe07136c	-0.13191003
153	0xbc8e3992	-0.017361436
154	0xbe8415cf	-0.2579789
155	0x3dfc4b49	0.12319047
156	0x3d8f95a3	0.07010963
157	0xbd8af7a8	-0.06785518
158	0x3db0eda6	0.08639078
159	0xbe0fc82a	-0.140412
160	0x3d518ffe	0.051162712
161	0xbca74b6b	-0.020421704
162	0x3cecd61c	0.028910689
163	0x3d43bdd4	0.047788456
164	0x3d8bfe6a	0.06835635
165	0x3dae9692	0.08524813
166	0x3d843256	0.06454913
167	0x3e0a900b	0.1353151
168	0x3e2db77e	0.16964528
169	0x3e2c3766	0.16818008
170	0x3a8fab00	0.0010960996
171	0x3e1da860	0.15396261
172	0xba7f0cfc	-0.0009729413
173	0x3df093ad	0.11746917
174	0xbd047dad	-0.032346416
175	0xbc97ce9c	-0.018531136
176	0x3e8158d9	0.25263098
177	0xbcf85b1e	-0.030316886
178	0x3e7cce2d	0.24688025
179	0xbd8b8e2c	-0.068142265
180	0x3d957c22	0.07299067
181	0xbd04f0c5	-0.03245618
182	0xbd30445a	-0.043033935
183	0xbda24a74	-0.07924357
184	0xbd77340c	-0.06035237
185	0x3dbb5465	0.09146956
186	0xbe1b4714	-0.15163833
187	0xbd1aa34a	-0.03775338
188	0x3cb72b76	0.022359591
189	0x3d58a6d0	0.05289346
190	0x3dc1df04	0.09466365
191	0x3d4ad937	0.04952356
192	0xbd9c16a0	-0.07621503
193	0xbd455e3a	-0.048185565
194	0xbbac4ea7	-0.0052583995
195	0x3cb74dcc	0.022375964
196	0x3d0bce64	0.034132376
197	0x3d990d31	0.07473219
198	0xbd2872d0	-0.04112512
199	0xbd7d669d	-0.061865438
200	0xbdaec763	-0.08534124
201	0xbe119090	-0.14215302
202	0xbdca749d	-0.098855235
203	0x3dbdd62e	0.09269367
204	0x3d3955fb	0.045248013
205	0x3d209bb8	0.039211005
206	0x3df9a634	0.12189904
207	0x3dfb4783	0.12269499
208	0xbe104d60	-0.14092016
209	0xbdb52060	-0.08844066
210	0xbe281340	-0.16413593
211	0xbc816c52	-0.015798721
212	0xbc480d20	-0.0122101605
213	0xbc9fa45c	-0.019487552
214	0xbc16064c	-0.009156775
215	0x3da3216e	0.079653606
216	0xbd4b564a	-0.04964284
217	0xbe1f1aa2	-0.15537503
218	0x3d4c11f6	0.049821816
219	0xbdde947a	-0.108681634
220	0x3da1aee1	0.07894684
221	0x3ccac682	0.024752859
222	0xbe4dea6d	-0.20108958
223	0x3d17ac8b	0.037029784
224	0xbe06490a	-0.131138
225	0xbc562390	-0.013070002
226	0xbc7f5c91	-0.015586034
227	0xbdd6c0fe	-0.10486029
228	0xbcac560c	-0.021037124
229	0xbc9864a9	-0.018602686
230	0xbd172eb5	-0.036909778
231	0xbdff0610	-0.12452328
232	0xbe184da9	-0.14873375
233	0xbdb4260e	-0.08796321
234	0xbe5ab2fa	-0.21357337
235	0xbded4922	-0.115862146
236	0xbcd4fec4	-0.026000388
237	0xbe46f32a	-0.19428697
238	0x3da6d0d3	0.08145299
239	0x3c468592	0.012116807
240	0xbdb95ea1	-0.09051252
241	0x3dbd0231	0.092289336
242	0x3d2b96f8	0.041892022
243	0x3d8b9d0d	0.068170644
244	0xbe3a9048	-0.18219101
245	0xbc5ebb3d	-0.013594446
246	0x3d7944e6	0.060856722
247	0x3e0ab0fc	0.13544077
248	0xbd8f055b	-0.06983443
249	0x3d5d39b1	0.054010097
250	0xbd20cd91	-0.039258543
251	0x3dff54e4	0.124673635
252	0xbd46639d	-0.048434842
253	0xbcaef79c	-0.021358304
254	0xbdd3dd5a	-0.10344954
255	0xbc8f166c	-0.017466746

sequential_1/conv2d_5/Conv2D f4 [64, 3, 3, 64]
0	0xbc10a6a6	-0.008828795
1	0x3d8ef317	0.069799595
2	0x3ce4999f	0.027905283
3	0x3d19f899	0.037590597
4	0x3d743ab7	0.059626307
5	0xbda390b2	-0.07986583
6	0x3de2cc10	0.11074078
7	0xbc78b9ac	-0.015180986
8	0x3cd2ee2d	0.025748337
9	0x3c8452ed	0.016152823
10	0xbd536ea0	-0.051619172
11	0xbd0aa592	-0.033849306
12	0xbd18955e	-0.037251823
13	0x3b0b6f1a	0.0021275938
14	0x3d5ccadd	0.053904403
15	0xbd173e9a	-0.036924936
16	0xbdc90be0	-0.09816718
17	0x3dd1af8a	0.102385595
18	0xbca10414	-0.019655265
19	0x3c195b94	0.009360213
20	0xbd10d69a	-0.03536091
21	0x3d322a14	0.04349716
22	0xbc7cd10d	-0.015430701
23	0xbba2045b	-0.004944367
24	0x3c5dc76f	0.013536318
25	0xbd37176c	-0.04470007
26	0xbc4fdbbb	-0.012686665
27	0x3b2f56af	0.0026754548
28	0x3c20b496	0.00980868
29	0x3d9fbfd3	0.078002594
30	0xbd8b0e8c	-0.06789884
31	0xbe10bd25	-0.14134653
32	0xbc05d86d	-0.008169276
33	0xbc9bc313	-0.019013917
34	0xbd9a1a22	-0.07524516
35	0x3d95bfac	0.07311949
36	0xbd5c1274	-0.053728536
37	0xbd727e74	-0.059202626
38	0xbc1e9c02	-0.00968075
39	0x3d95b1fa	0.07309337
40	0xbd81ab33	-0.06331482
41	0xbbf3b0e0	-0.0074368566
42	0x3e379406	0.1792756
43	0xbc875fb9	-0.016525136
44	0x3dd9fe61	0.10644222
45	0xbc4bf42e	-0.012448354
46	0xbda60cba	-0.08107896
47	0x3d82b742	0.0638261
48	0xbdc6d7c4	-0.09709123
49	0x3bf2138f	0.0073875855
50	0x3d3c9287	0.046038177
51	0x3d951a92	0.072804585
52	0xbc3f9edc	-0.01169559
53	0xbd984237	-0.074345045
54	0x3da8b52d	0.082376815
55	0xbdb0f7ab	-0.08640989
56	0xbd9d4747	-0.07679611
57	0x3dc918a3	0.09819152
58	0xbda7c5b0	-0.08192003
59	0xbe048d39	-0.12944497
60	0xbc8af211	-0.01696113
61	0xbc946339	-0.01811372
62	0x3d21244c	0.039341256
63	0x3c161b75	0.00916182
64	0x3dc55548	0.09635407
65	0x3de4eebe	0.11178349
66	0x3e358d53	0.17729692
67	0x3d2e6ec5	0.042586107
68	0x3dd14ae8	0.10219365
69	0x3db2effe	0.08737181
70	0xbdb099d7	-0.086230926
71	0xbe0d090e	-0.13772985
72	0xbd957af4	-0.07298842
73	0xbd6f683c	-0.058449015
74	0xbd6e0ca0	-0.05811751
75	0xbe414a0a	-0.188759
76	0xbde0674c	-0.10957202
77	0xbcf440b8	-0.029816017
78	0xbd11bd57	-0.03558096
79	0x3df04250	0.11731398
80	0x3d279f5f	0.040923472
81	0xbd4612fc	-0.04835795
82	0x3da65053	0.081207894
83	0xbdee71f9	-0.11642832
84	0xbc47ca94	-0.0121942945
85	0xbd063eee	-0.03277486
86	0xbd238043	-0.03991724
87	0x3c694e3b	0.014239843
88	0xbd618ed3	-0.05506785
89	0x3d880455	0.06641451
90	0x3df216ae	0.11820732
91	0xbd835d8c	-0.06414327
92	0xbd131719	-0.0359107
93	0x3c7b7aad	0.015349072
94	0xbc34a6ef	-0.011026128
95	0xbe2c50c1	-0.1682768
96	0xbe56d2b5	-0.20978816
97	0xbca64950	-0.02029863
98	0x3da31ba3	0.07964256
99	0x3ddfba90	0.10924256
100	0xbe6b4c2b	-0.22978275
101	0xbdba27ab	-0.09089597
102	0xbe1b0098	-0.15136945
103	0xbd2f6e73	-0.042829942
104	0xbb9ddd6e	-0.0048176562
105	0xbbdc5bb4	-0.006724799
106	0x3d76cf18	0.060256094
107	0x3da7b94b	0.08189639
108	0x3d96e724	0.07368305
109	0x3dff6b7d	0.12471674
110	0xbd41688a	-0.047218837
111	0xbd394675	-0.04523321
112	0xbe3d7d26	-0.18504772
113	0x3d261f11	0.04055697
114	0xbdb39bf6	-0.087699816
115	0xbdd22aea	-0.102620915
116	0xbe28f592	-0.16499928
117	0xbdc31973	-0.095263384
118	0x3e22f779	0.15914716
119	0x3d1a5b6b	0.03768484
120	0x3cddaad5	0.027058998
121	0x3b936072	0.004497581
122	0x3d777c5c	0.060421333
123	0x3ccbb85b	0.024868181
124	0xbe36f7a9	-0.17867912
125	0xbbaa7666	-0.0052021025
126	0x3d43fdc6	0.04784944
127	0x3d0b5d86	0.034024738
128	0x3d94b582	0.07261182
129	0x3e183fe3	0.14868121
130	0x3d2f6707	0.042822864
131	0x3c218322	0.009857925
132	0x3e539c12	0.20665005
133	0x3e010795	0.12600549
134	0x3d5c44dc	0.053776607
135	0x3bf6d55e	0.0075327596
136	0xbd112556	-0.035435997
137	0xbda0e0de	-0.0785539
138	0xbd300e35	-0.0429823
139	0xbbcc8644	-0.0062415916
140	0xbd35d78d	-0.04439502
141	0xbcc89f0b	-0.0244899
142	0xbdc11175	-0.09427158
143	0x3e1a935d	0.15095277
144	0x3d13f730	0.03612441
145	0xbd8ab51e	-0.067728266
146	0xbc8cb9ca	-0.017178435
147	0x3c2efb7f	0.0106800785
148	0x3dcbd5c6	0.099528834
149	0xbd616638	-0.055029124
150	0x3cef6233	0.02922163
151	0xbe00e7f8	-0.12588489
152	0x3d81ff30	0.06347501
153	0xbc8dcdb0	-0.017309994
154	0xbd8be3b6	-0.06830542
155	0x3cebc40a	0.028780002
156	0xbdad4d2d	-0.08461986
157	0xbb280fe0	-0.0025644228
158	0x3d177bde	0.036983363
159	0x3dd3c659	0.10340566
160	0xbe4c4d75	-0.19951423
161	0xbd0aadcb	-0.03385715
162	0x3de53483	0.111916564
163	0x3de84587	0.11341386
164	0x3cade04c	0.021225117
165	0xbd0676e7	-0.032828238
166	0x3dd5009b	0.10400506
167	0xbe222a93	-0.15836553
168	0x3d224bf5	0.03962322
169	0x3cf61e9b	0.03004389
170	0x3d85621c	0.065128535
171	0x3de38dff	0.11111068
172	0x3da3b06e	0.07992636
173	0xbdaceb56	-0.08443324
174	0x3d68a25f	0.056795474
175	0xbd56a230	-0.052400768
176	0x3d26cd0a	0.040722884
177	0x3db4a844	0.088211566
178	0x3cadc499	0.02121191
179	0xbd8c459f	-0.06849217
180	0x3c32fccc	0.010924529
181	0x3e0827dd	0.13296457
182	0xbc9ee397	-0.019395633
183	0x3c6509b1	0.013979361
184	0x3d417f3a	0.047240473
185	0x3d86b4f9	0.065774865
186	0x3e3a3813	0.18185453
187	0x3d8ebe5f	0.06969904
188	0x3c55f78b	0.013059507
189	0x3d29399c	0.041314706
190	0x3d876796	0.06611554
191	0x3cf61550	0.03003946
192	0x3c0d41d9	0.008621656
193	0x3da6c314	0.08142677
194	0x3d2e05b3	0.042485904
195	0x3c4579e1	0.012052984
196	0x3d67122c	0.056413814
197	0x3d09aa67	0.033609774
198	0x3d6a594c	0.057214066
199	0xbbc05494	-0.0058694575
200	0xbd01fca5	-0.03173508
201	0x3d88924d	0.0666853
202	0x3cc1168c	0.023570322
203	0x3cad14e7	0.021128131
204	0xbd3faa2a	-0.04679314
205	0xbd56e074	-0.05246015
206	0xbc9fd6ba	-0.01951157
207	0x3c84098f	0.01611784
208	0x3d25f416	0.04051598
209	0xbe031b1b	-0.12803309
210	0xbd3c67bf	-0.045997377
211	0xbce0b5f7	-0.027430518
212	0x3d84d47a	0.06485839
213	0x3d00ffb9	0.031493876
214	0xbcd49f1e	-0.02595478
215	0xbd106740	-0.035254717
216	0x3d4f77ff	0.050651547
217	0xbd6ad5cd	-0.057332803
218	0xbd9cbe72	-0.07653512
219	0xbdaf3cbb	-0.08556505
220	0xbd5e0c9b	-0.05421124
221	0x3d6ca4c3	0.057774317
222	0x3d4fc08b	0.050720733
223	0xbdb24e85	-0.08706383
224	0x3d748bcf	0.059703644
225	0xbbf46bd5	-0.0074591436
226	0xbdaa82db	-0.0832574
227	0xbbb386e8	-0.0054787286
228	0xbe062199	-0.13098754
229	0xbd4f0864	-0.05054511
230	0xbc09486a	-0.008379081
231	0xbd84b550	-0.06479895
232	0xbc615d44	-0.013755146
233	0xbdff6b27	-0.124716096
234	0xbd7ae386	-0.06125214
235	0x3d372dc7	0.04472139
236	0xbc86e7c2	-0.016467933
237	0x3e00869a	0.12551346
238	0xbb2e939e	-0.002663828
239	0x3d2849a0	0.04108584
240	0xbd964c1f	-0.07338738
241	0x3c28d69c	0.010305073
242	0xbdc58ee8	-0.09646398
243	0xbdd5cd78	-0.10439581
244	0xbd8b4713	-0.06800666
245	0xbd1b4da9	-0.03791586
246	0x3e004534	0.12526399
247	0x3caca318	0.021073863
248	0x3d871095	0.0659496
249	0xbd927612	-0.071514264
250	0x3d0b4cbb	0.034008723
251	0xbdde152c	-0.10843882
252	0xbda53e5b	-0.08068534
253	0x3c5d6948	0.013513871
254	0x3d5ca8ba	0.053871848
255	0xbc8a5340	-0.0168854
