a_output_actual/dig-s1-q.tflite (tflite, 203232 bytes, 5 tensors)

sequential_1/dense_2/MatMul i1 [256, 512] scale=0.0027587202 zero_point=0
00000000: 0cfc 060f d6f7 0f1a f413 db1c de06 e7f7
00000010: fcef f31f f7e1 03ea 00f4 04e6 05fb dbf8
00000020: 11e2 0a02 1a17 def5 13fe f5f6 e7c5 cbf5
00000030: f927 13df fcdf de0d e706 f2f8 d8f0 e302
00000040: df05 eb0a 0eec 0f03 13db 14fd 14dd 18ce
00000050: e8fb 3226 f9f8 1a03 1008 ce16 e8f0 e8f6
00000060: d50d 0926 0fe8 0202 1bdf 06f0 d0f9 e02c
00000070: 18fc e8e7 03e3 f70f e7d7 0f17 17e3 0e13
00000080: 2ce9 e533 02f6 3cf1 f315 080f 0beb e9f1
00000090: f828 090a 08e3 dc16 fbe2 0513 eedf 0ef3
000000a0: 0404 fbc7 f02d fff0 0911 f6e6 131c fa09
000000b0: 39db 152d 1bfe dbf4 e7fa 10de e8f0 e418
000000c0: faf9 0018 060e 0ee7 2c07 e526 2419 0208
000000d0: 0e37 0c0f 51ee 0e16 080e 092e e2db 0901
000000e0: edf7 2fe1 df1e 0a14 10fd 3ef0 0a01 e3f0
000000f0: 2812 0b32 3df2 e6ee 1420 06e6 fe0b 0a0d
0.033104643 -0.011034881 0.016552322 0.041380804 -0.11586625 -0.024828482 0.041380804 0.071726725
-0.033104643 0.052415684 -0.10207265 0.07724416 -0.093796484 0.016552322 -0.068968005 -0.024828482
-0.011034881 -0.046898242 -0.035863362 0.08552033 -0.024828482 -0.08552033 0.008276161 -0.060691845
0.0 -0.033104643 0.011034881 -0.071726725 0.013793601 -0.013793601 -0.10207265 -0.022069762
0.046898242 -0.08276161 0.027587201 0.0055174404 0.071726725 0.06345057 -0.093796484 -0.030345922
0.052415684 -0.0055174404 -0.030345922 -0.027587201 -0.068968005 -0.16276449 -0.14621218 -0.030345922
-0.01931104 0.10759009 0.052415684 -0.091037765 -0.011034881 -0.091037765 -0.093796484 0.035863362
-0.068968005 0.016552322 -0.03862208 -0.022069762 -0.110348806 -0.044139523 -0.08000289 0.0055174404
-0.091037765 0.013793601 -0.057933126 0.027587201 0.03862208 -0.055174403 0.041380804 0.008276161
0.052415684 -0.10207265 0.055174403 -0.008276161 0.055174403 -0.0965552 0.06620929 -0.13793601
-0.06620929 -0.013793601 0.13793601 0.10483137 -0.01931104 -0.022069762 0.071726725 0.008276161
0.044139523 0.022069762 -0.13793601 0.060691845 -0.06620929 -0.044139523 -0.06620929 -0.027587201
-0.11862497 0.035863362 0.024828482 0.10483137 0.041380804 -0.06620929 0.0055174404 0.0055174404
0.07448544 -0.091037765 0.016552322 -0.044139523 -0.13241857 -0.01931104 -0.088279046 0.12138369
0.06620929 -0.011034881 -0.06620929 -0.068968005 0.008276161 -0.08000289 -0.024828482 0.041380804
-0.068968005 -0.113107525 0.041380804 0.06345057 0.06345057 -0.08000289 0.03862208 0.052415684
0.12138369 -0.06345057 -0.07448544 0.14069472 0.0055174404 -0.027587201 0.16552322 -0.041380804
-0.035863362 0.057933126 0.022069762 0.041380804 0.030345922 -0.057933126 -0.06345057 -0.041380804
-0.022069762 0.110348806 0.024828482 0.027587201 0.022069762 -0.08000289 -0.09931393 0.060691845
-0.013793601 -0.08276161 0.013793601 0.052415684 -0.049656965 -0.091037765 0.03862208 -0.035863362
0.011034881 0.011034881 -0.013793601 -0.15724705 -0.044139523 0.12414241 -0.0027587202 -0.044139523
0.024828482 0.046898242 -0.027587201 -0.071726725 0.052415684 0.07724416 -0.016552322 0.024828482
0.15724705 -0.10207265 0.057933126 0.12414241 0.07448544 -0.0055174404 -0.10207265 -0.033104643
-0.068968005 -0.016552322 0.044139523 -0.093796484 -0.06620929 -0.044139523 -0.07724416 0.06620929
-0.016552322 -0.01931104 0.0 0.06620929 0.016552322 0.03862208 0.03862208 -0.068968005
0.12138369 0.01931104 -0.07448544 0.10483137 0.09931393 0.068968005 0.0055174404 0.022069762
0.03862208 0.15172961 0.033104643 0.041380804 0.22345634 -0.049656965 0.03862208 0.060691845
0.022069762 0.03862208 0.024828482 0.12690113 -0.08276161 -0.10207265 0.024828482 0.0027587202
-0.052415684 -0.024828482 0.12965985 -0.08552033 -0.091037765 0.08276161 0.027587201 0.055174403
0.044139523 -0.008276161 0.17104065 -0.044139523 0.027587201 0.0027587202 -0.08000289 -0.044139523
0.110348806 0.049656965 0.030345922 0.13793601 0.16828193 -0.03862208 -0.071726725 -0.049656965
0.055174403 0.088279046 0.016552322 -0.071726725 -0.0055174404 0.030345922 0.027587201 0.035863362

sequential_1/dense_3/MatMul i1 [11, 256] scale=0.0040957625 zero_point=0
00000000: 00ef d10d f21e e9bd c0c3 b219 ce03 14ef
00000010: c3c3 d103 05fa 05e1 98e3 c0c7 06ce e4b9
00000020: d3a2 f812 16fc ecf1 d1be f41b e208 15a0
00000030: ebe0 11ee f6c7 e9c1 e700 b40c efd8 adda
00000040: db01 efe1 ee0c 04ab c307 acd5 b7ca d6c4
00000050: fade 1406 dfde f2ee f5f2 c6d8 fcda f619
00000060: 1dfa f0c9 b1f5 eabf f4c0 b0e0 07da b0bf
00000070: d7c5 c49f fab9 f8ed ece2 a1e8 f40e ce9f
00000080: c1d5 e50a dff8 f290 e5de b802 11bc a8ed
00000090: adb9 c6a1 e5b0 b2e4 c1f2 eefc 02a4 e2f9
000000a0: 1f17 ede6 04f7 c311 ae09 f007 dad4 f0af
000000b0: efbd da10 dbda e0cb 19e4 eef4 06d8 e0df
000000c0: f9b1 fff2 e9be fde0 ddba e9a7 0617 0ffb
000000d0: f9b8 bf11 f6e1 c53e 9bdf e0e5 14f1 dcfd
000000e0: b7ea 0f07 c596 f8cf 0302 f4e5 e9dd f2f0
000000f0: bbe2 d7f1 d8b2 dfb8 0118 dde7 e1bd d9f4
0.0 -0.06962796 -0.19250084 0.05324491 -0.057340674 0.122872874 -0.09420254 -0.2744161
-0.2621288 -0.24984151 -0.31946948 0.10239406 -0.20478812 0.012287287 0.08191525 -0.06962796
-0.24984151 -0.24984151 -0.19250084 0.012287287 0.020478813 -0.024574574 0.020478813 -0.12696864
-0.4259593 -0.11877711 -0.2621288 -0.23345846 0.024574574 -0.20478812 -0.11468135 -0.29079914
-0.18430932 -0.3850017 -0.0327661 0.073723726 0.09010678 -0.01638305 -0.08191525 -0.061436437
-0.19250084 -0.27032033 -0.04914915 0.110585585 -0.122872874 0.0327661 0.086011015 -0.3931932
-0.086011015 -0.1310644 0.06962796 -0.073723726 -0.040957626 -0.23345846 -0.09420254 -0.25803304
-0.10239406 0.0 -0.31127796 0.04914915 -0.06962796 -0.1638305 -0.3399483 -0.15563898
-0.15154321 0.0040957625 -0.06962796 -0.12696864 -0.073723726 0.04914915 0.01638305 -0.34813982
-0.24984151 0.028670337 -0.34404406 -0.1761178 -0.29899067 -0.22117117 -0.17202203 -0.24574575
-0.024574574 -0.13925593 0.08191525 0.024574574 -0.13516016 -0.13925593 -0.057340674 -0.073723726
-0.04505339 -0.057340674 -0.23755422 -0.1638305 -0.01638305 -0.15563898 -0.040957626 0.10239406
0.11877711 -0.024574574 -0.0655322 -0.22526693 -0.32356524 -0.04505339 -0.09010678 -0.26622456
-0.04914915 -0.2621288 -0.327661 -0.1310644 0.028670337 -0.15563898 -0.327661 -0.26622456
-0.16792627 -0.24164999 -0.24574575 -0.39728895 -0.024574574 -0.29079914 -0.0327661 -0.07781949
-0.08191525 -0.122872874 -0.38909745 -0.0982983 -0.04914915 0.057340674 -0.20478812 -0.39728895
-0.25803304 -0.1761178 -0.110585585 0.040957626 -0.13516016 -0.0327661 -0.057340674 -0.4587254
-0.110585585 -0.13925593 -0.2948949 0.008191525 0.06962796 -0.27851185 -0.3604271 -0.07781949
-0.3399483 -0.29079914 -0.23755422 -0.38909745 -0.110585585 -0.327661 -0.31946948 -0.11468135
-0.25803304 -0.057340674 -0.073723726 -0.01638305 0.008191525 -0.37681016 -0.122872874 -0.028670337
0.12696864 0.09420254 -0.07781949 -0.10648982 0.01638305 -0.036861863 -0.24984151 0.06962796
-0.33585253 0.036861863 -0.0655322 0.028670337 -0.15563898 -0.18021356 -0.0655322 -0.33175677
-0.06962796 -0.2744161 -0.15563898 0.0655322 -0.15154321 -0.15563898 -0.1310644 -0.21707541
0.10239406 -0.11468135 -0.073723726 -0.04914915 0.024574574 -0.1638305 -0.1310644 -0.13516016
-0.028670337 -0.32356524 -0.0040957625 -0.057340674 -0.09420254 -0.27032033 -0.012287287 -0.1310644
-0.14335169 -0.28670338 -0.09420254 -0.36452287 0.024574574 0.09420254 0.061436437 -0.020478813
-0.028670337 -0.2948949 -0.26622456 0.06962796 -0.040957626 -0.12696864 -0.24164999 0.25393727
-0.413672 -0.13516016 -0.1310644 -0.110585585 0.08191525 -0.061436437 -0.14744745 -0.012287287
-0.29899067 -0.09010678 0.061436437 0.028670337 -0.24164999 -0.43415082 -0.0327661 -0.20069236
0.012287287 0.008191525 -0.04914915 -0.110585585 -0.09420254 -0.14335169 -0.057340674 -0.0655322
-0.28260761 -0.122872874 -0.16792627 -0.061436437 -0.1638305 -0.31946948 -0.13516016 -0.2948949
0.0040957625 0.0982983 -0.14335169 -0.10239406 -0.12696864 -0.2744161 -0.15973474 -0.04914915

sequential_1/conv2d_3/Conv2D i1 [32, 3, 3, 3]
00000000: 3855 f724 710a 3052 54f3 3c02 f3c6 f381
00000010: a3a7 e3af 1afe fbbe e7db 9df3 b9d4 e138
00000020: 2a28 6e48 230c 4e10 52d2 052b 1c05 290c
00000030: 1aff fce1 8186 1143 2b24 4af2 f5a0 df18
00000040: da3c fe40 2881 d3ee 25f8 350d edd8 09cd
00000050: e8dc 0b11 360e 182e 2b2c b1cb dad8 f816
00000060: 2c34 f381 b6d4 e107 2415 2334 82d3 b5f4
00000070: 7f2e 4203 3ea5 d58c 132a f034 0727 b581
00000080: ef14 0ce4 2f70 ef24 b053 fe57 0a3d 1da8
00000090: bab9 812e 4a60 0dee 1388 afa3 2226 260b
000000a0: 0a2d 1058 7f03 f6ca 0759 ee40 124e 64ab
000000b0: 489d 1947 eeba 6d96 1dbe 9783 2eeb 3427
000000c0: f635 ef6c 7136 ccb9 01c3 81b4 b9c8 23fc
000000d0: 060a ee3b f9f1 fcd9 762b 6c07 1323 cf19
000000e0: c856 43e6 0737 0ac9 e18d e831 618a 94f0
000000f0: dd81 e759 0723 d8cf 17f8 cc0d 0458 29d2
56 85 -9 36 113 10 48 82
84 -13 60 2 -13 -58 -13 -127
-93 -89 -29 -81 26 -2 -5 -66
-25 -37 -99 -13 -71 -44 -31 56
42 40 110 72 35 12 78 16
82 -46 5 43 28 5 41 12
26 -1 -4 -31 -127 -122 17 67
43 36 74 -14 -11 -96 -33 24
-38 60 -2 64 40 -127 -45 -18
37 -8 53 13 -19 -40 9 -51
-24 -36 11 17 54 14 24 46
43 44 -79 -53 -38 -40 -8 22
44 52 -13 -127 -74 -44 -31 7
36 21 35 52 -126 -45 -75 -12
127 46 66 3 62 -91 -43 -116
19 42 -16 52 7 39 -75 -127
-17 20 12 -28 47 112 -17 36
-80 83 -2 87 10 61 29 -88
-70 -71 -127 46 74 96 13 -18
19 -120 -81 -93 34 38 38 11
10 45 16 88 127 3 -10 -54
7 89 -18 64 18 78 100 -85
72 -99 25 71 -18 -70 109 -106
29 -66 -105 -125 46 -21 52 39
-10 53 -17 108 113 54 -52 -71
1 -61 -127 -76 -71 -56 35 -4
6 10 -18 59 -7 -15 -4 -39
118 43 108 7 19 35 -49 25
-56 86 67 -26 7 55 10 -55
-31 -115 -24 49 97 -118 -108 -16
-35 -127 -25 89 7 35 -40 -49
23 -8 -52 13 4 88 41 -46

sequential_1/conv2d_4/Conv2D i1 [64, 3, 3, 32]
00000000: 0a09 2be7 04f9 1bf7 0ccf 1113 0009 dcdf
00000010: 240b 3918 0001 03e7 eef6 e93f 1f1e 42ea
00000020: e0fe 1721 d910 e02a 2418 14ee fffc 0535
00000030: 17fc fb0e ea00 dd27 0eeb f024 0cff f1f0
00000040: 0aba d943 12e9 d749 091f 1c32 c979 05ec
00000050: 2fed f6c3 2dea 20cf a7fa 0f12 0ccf ccf8
00000060: e7e2 45c1 e9f0 cad8 f504 cfd4 14d9 e2d5
00000070: 3032 1856 e649 fe42 d5c3 0607 7f00 0cdc
00000080: bbba 17cb e01d db3a eb06 1ab8 05ec bda3
00000090: 3500 2915 ec10 f0bd c7f9 9135 1ee3 25c4
000000a0: 16f7 0c15 1d25 1c3a 4948 0042 0032 f2f8
000000b0: 6df3 6ae3 1ff2 eede e627 bff0 0a17 2915
000000c0: dfeb fe0a 0f20 eee5 dbc3 d628 1311 3435
000000d0: c3da b9f9 fbf8 fc22 ebbd 15d1 220b aa10
000000e0: c8fa f9d3 f7f8 f0ca c0da a4ce f5ad 2305
000000f0: d928 121d b2fa 1a3a e217 ef36 ebf7 d4f8
10 9 43 -25 4 -7 27 -9
12 -49 17 19 0 9 -36 -33
36 11 57 24 0 1 3 -25
-18 -10 -23 63 31 30 66 -22
-32 -2 23 33 -39 16 -32 42
36 24 20 -18 -1 -4 5 53
23 -4 -5 14 -22 0 -35 39
14 -21 -16 36 12 -1 -15 -16
10 -70 -39 67 18 -23 -41 73
9 31 28 50 -55 121 5 -20
47 -19 -10 -61 45 -22 32 -49
-89 -6 15 18 12 -49 -52 -8
-25 -30 69 -63 -23 -16 -54 -40
-11 4 -49 -44 20 -39 -30 -43
48 50 24 86 -26 73 -2 66
-43 -61 6 7 127 0 12 -36
-69 -70 23 -53 -32 29 -37 58
-21 6 26 -72 5 -20 -67 -93
53 0 41 21 -20 16 -16 -67
-57 -7 -111 53 30 -29 37 -60
22 -9 12 21 29 37 28 58
73 72 0 66 0 50 -14 -8
109 -13 106 -29 31 -14 -18 -34
-26 39 -65 -16 10 23 41 21
-33 -21 -2 10 15 32 -18 -27
-37 -61 -42 40 19 17 52 53
-61 -38 -71 -7 -5 -8 -4 34
-21 -67 21 -47 34 11 -86 16
-56 -6 -7 -45 -9 -8 -16 -54
-64 -38 -92 -50 -11 -83 35 5
-39 40 18 29 -78 -6 26 58
-30 23 -17 54 -21 -9 -44 -8

sequential_1/conv2d_5/Conv2D i1 [64, 3, 3, 64]
00000000: fb27 0f15 21d4 3df8 0e09 e3ed eb01 1eec
00000010: ca39 f505 ec18 f7fd 07e7 f901 052b dab2
00000020: fbf5 d628 e2df fb28 ddfc 63f7 3bf9 d323
00000030: ca04 1928 fad7 2ed0 d636 d3b8 f7f6 1605
00000040: 353e 6218 3830 d0b4 d8e0 e098 c3f0 ec41
00000050: 17e5 2dc0 f9ee ea08 e225 41dd ec08 faa3
00000060: 8cf5 2c3c 81ce ace8 fdfc 212d 2945 e6e7
00000070: 9a16 d0c7 a5cb 5815 0f02 210e 9dfd 1a13
00000080: 2852 1805 7246 1e04 ecd5 e8fd e7f2 cc53
00000090: 14db f706 37e2 10ba 23f6 da10 d1ff 1439
000000a0: 92ed 3e3f 0cee 39a8 1611 243d 2cd1 1fe3
000000b0: 1731 0cda 0649 f508 1a24 6527 0717 2511
000000c0: 052d 1707 1f13 20fd ee25 0d0c e6e3 f509
000000d0: 16b9 e7f1 2411 f2ed 1ce0 d6d1 e220 1cd0
000000e0: 21fc d2fd b8e4 fbdc f8bb de19 f745 ff17
000000f0: d706 cbc6 daeb 450c 24d8 13c4 d307 1ef7
-5 39 15 21 33 -44 61 -8
14 9 -29 -19 -21 1 30 -20
-54 57 -11 5 -20 24 -9 -3
7 -25 -7 1 5 43 -38 -78
-5 -11 -42 40 -30 -33 -5 40
-35 -4 99 -9 59 -7 -45 35
-54 4 25 40 -6 -41 46 -48
-42 54 -45 -72 -9 -10 22 5
53 62 98 24 56 48 -48 -76
-40 -32 -32 -104 -61 -16 -20 65
23 -27 45 -64 -7 -18 -22 8
-30 37 65 -35 -20 8 -6 -93
-116 -11 44 60 -127 -50 -84 -24
-3 -4 33 45 41 69 -26 -25
-102 22 -48 -57 -91 -53 88 21
15 2 33 14 -99 -3 26 19
40 82 24 5 114 70 30 4
-20 -43 -24 -3 -25 -14 -52 83
20 -37 -9 6 55 -30 16 -70
35 -10 -38 16 -47 -1 20 57
-110 -19 62 63 12 -18 57 -88
22 17 36 61 44 -47 31 -29
23 49 12 -38 6 73 -11 8
26 36 101 39 7 23 37 17
5 45 23 7 31 19 32 -3
-18 37 13 12 -26 -29 -11 9
22 -71 -25 -15 36 17 -14 -19
28 -32 -42 -47 -30 32 28 -48
33 -4 -46 -3 -72 -28 -5 -36
-8 -69 -34 25 -9 69 -1 23
-41 6 -53 -58 -38 -21 69 12
36 -40 19 -60 -45 7 30 -9
