a_output_actual/dig-s3-q.tflite (tflite, 63872 bytes, 5 tensors)

sequential_3/dense_6/MatMul i1 [128, 256] scale=0.003627109 zero_point=0
0	0xfc	-0.014508436
1	0x10	0.058033746
2	0x1b	0.097931944
3	0x3d	0.22125365
4	0xe4	-0.10155906
5	0xe6	-0.09430484
6	0x1a	0.09430484
7	0x0a	0.03627109
8	0x49	0.26477897
9	0xdf	-0.1196946
10	0xe8	-0.08705062
11	0xee	-0.06528796
12	0x3c	0.21762654
13	0xef	-0.061660856
14	0xf0	-0.058033746
15	0xfa	-0.021762654
16	0xd9	-0.14145726
17	0xea	-0.0797964
18	0xf5	-0.0398982
19	0x0b	0.0398982
20	0x05	0.018135546
21	0xfc	-0.014508436
22	0x07	0.025389764
23	0xd9	-0.14145726
24	0xfc	-0.014508436
25	0x27	0.14145726
26	0xf1	-0.054406635
27	0xf4	-0.04352531
28	0x1a	0.09430484
29	0x1d	0.105186164
30	0xe5	-0.097931944
31	0xd1	-0.17047413
32	0xf3	-0.04715242
33	0xe2	-0.10881327
34	0x13	0.06891508
35	0x11	0.061660856
36	0x00	0.0
37	0x22	0.12332171
38	0x1a	0.09430484
39	0xf3	-0.04715242
40	0x03	0.010881327
41	0x0a	0.03627109
42	0xf6	-0.03627109
43	0x06	0.021762654
44	0x2d	0.16321991
45	0x0a	0.03627109
46	0x05	0.018135546
47	0x12	0.06528796
48	0xff	-0.003627109
49	0xf8	-0.029016873
50	0x23	0.12694882
51	0xfe	-0.007254218
52	0x1d	0.105186164
53	0xe8	-0.08705062
54	0x09	0.03264398
55	0x13	0.06891508
56	0x0c	0.04352531
57	0xfd	-0.010881327
58	0x0b	0.0398982
59	0x1a	0.09430484
60	0x16	0.0797964
61	0xf9	-0.025389764
62	0x49	0.26477897
63	0x0e	0.05077953
64	0x41	0.23576209
65	0xf8	-0.029016873
66	0x20	0.11606749
67	0x1e	0.10881327
68	0xf6	-0.03627109
69	0x2b	0.15596569
70	0xdd	-0.12694882
71	0xfc	-0.014508436
72	0xee	-0.06528796
73	0x2c	0.1595928
74	0x08	0.029016873
75	0x0e	0.05077953
76	0x04	0.014508436
77	0x0d	0.04715242
78	0xc2	-0.22488077
79	0xe5	-0.097931944
80	0x0b	0.0398982
81	0x02	0.007254218
82	0x07	0.025389764
83	0x2c	0.1595928
84	0xe3	-0.105186164
85	0xdd	-0.12694882
86	0x17	0.08342351
87	0x02	0.007254218
88	0xcf	-0.17772834
89	0x10	0.058033746
90	0x14	0.07254218
91	0x37	0.199491
92	0x11	0.061660856
93	0x4a	0.26840606
94	0xc8	-0.20311812
95	0xf8	-0.029016873
96	0x02	0.007254218
97	0x00	0.0
98	0x1c	0.10155906
99	0x6a	0.38447356
100	0xd1	-0.17047413
101	0x24	0.13057593
102	0x2a	0.15233858
103	0x0a	0.03627109
104	0xed	-0.06891508
105	0x19	0.09067773
106	0xf2	-0.05077953
107	0xf8	-0.029016873
108	0x25	0.13420303
109	0xef	-0.061660856
110	0x19	0.09067773
111	0xe3	-0.105186164
112	0x27	0.14145726
113	0xf3	-0.04715242
114	0xe0	-0.11606749
115	0xea	-0.0797964
116	0xe8	-0.08705062
117	0x01	0.003627109
118	0xea	-0.0797964
119	0x24	0.13057593
120	0x04	0.014508436
121	0xf4	-0.04352531
122	0x1c	0.10155906
123	0xe9	-0.08342351
124	0x08	0.029016873
125	0xf5	-0.0398982
126	0x58	0.3191856
127	0x2f	0.17047413
128	0xde	-0.12332171
129	0x0e	0.05077953
130	0xdd	-0.12694882
131	0xdc	-0.13057593
132	0x1d	0.105186164
133	0x1a	0.09430484
134	0xe7	-0.09067773
135	0x30	0.17410123
136	0x1b	0.097931944
137	0x0b	0.0398982
138	0x08	0.029016873
139	0x27	0.14145726
140	0x31	0.17772834
141	0x06	0.021762654
142	0x2d	0.16321991
143	0x22	0.12332171
144	0x0e	0.05077953
145	0x33	0.18498257
146	0x19	0.09067773
147	0x1a	0.09430484
148	0x30	0.17410123
149	0x0e	0.05077953
150	0x3f	0.22850788
151	0xdb	-0.13420303
152	0x30	0.17410123
153	0x13	0.06891508
154	0xf8	-0.029016873
155	0x09	0.03264398
156	0xf2	-0.05077953
157	0xc4	-0.21762654
158	0xfc	-0.014508436
159	0x12	0.06528796
160	0xf7	-0.03264398
161	0x07	0.025389764
162	0xff	-0.003627109
163	0xcd	-0.18498257
164	0xf1	-0.054406635
165	0x30	0.17410123
166	0x06	0.021762654
167	0x14	0.07254218
168	0x0a	0.03627109
169	0xd9	-0.14145726
170	0x03	0.010881327
171	0xd5	-0.15596569
172	0xfe	-0.007254218
173	0x3c	0.21762654
174	0xf7	-0.03264398
175	0x00	0.0
176	0x10	0.058033746
177	0x17	0.08342351
178	0x29	0.14871147
179	0x14	0.07254218
180	0x0c	0.04352531
181	0x0b	0.0398982
182	0xf8	-0.029016873
183	0xcc	-0.18860967
184	0x1c	0.10155906
185	0x16	0.0797964
186	0xff	-0.003627109
187	0xe9	-0.08342351
188	0xf2	-0.05077953
189	0x0d	0.04715242
190	0x19	0.09067773
191	0x07	0.025389764
192	0x0e	0.05077953
193	0x1d	0.105186164
194	0x0b	0.0398982
195	0xe4	-0.10155906
196	0x11	0.061660856
197	0x07	0.025389764
198	0x23	0.12694882
199	0x19	0.09067773
200	0xe8	-0.08705062
201	0xcd	-0.18498257
202	0x1c	0.10155906
203	0x3d	0.22125365
204	0x01	0.003627109
205	0xfb	-0.018135546
206	0xea	-0.0797964
207	0xea	-0.0797964
208	0x27	0.14145726
209	0x3a	0.21037233
210	0xfe	-0.007254218
211	0x13	0.06891508
212	0x11	0.061660856
213	0x17	0.08342351
214	0x2e	0.16684702
215	0x01	0.003627109
216	0xe5	-0.097931944
217	0xff	-0.003627109
218	0xe4	-0.10155906
219	0xfb	-0.018135546
220	0x07	0.025389764
221	0x0d	0.04715242
222	0xdc	-0.13057593
223	0xeb	-0.07616929
224	0xe8	-0.08705062
225	0x0b	0.0398982
226	0x10	0.058033746
227	0xd0	-0.17410123
228	0x0e	0.05077953
229	0x1c	0.10155906
230	0x26	0.13783015
231	0xf6	-0.03627109
232	0xed	-0.06891508
233	0x1c	0.10155906
234	0x1d	0.105186164
235	0x04	0.014508436
236	0xfd	-0.010881327
237	0x06	0.021762654
238	0x29	0.14871147
239	0x22	0.12332171
240	0x11	0.061660856
241	0x09	0.03264398
242	0xef	-0.061660856
243	0x1f	0.112440385
244	0xe7	-0.09067773
245	0x12	0.06528796
246	0xf1	-0.054406635
247	0x00	0.0
248	0xe9	-0.08342351
249	0x08	0.029016873
250	0xec	-0.07254218
251	0xe2	-0.10881327
252	0x1c	0.10155906
253	0x06	0.021762654
254	0xfa	-0.021762654
255	0x16	0.0797964

sequential_3/dense_7/MatMul i1 [11, 128] scale=0.005598299 zero_point=0
0	0x00	0.0
1	0xbb	-0.38628265
2	0xbf	-0.36388946
3	0xd0	-0.26871836
4	0xc7	-0.31910306
5	0xd7	-0.22953027
6	0xa5	-0.50944525
7	0xf8	-0.044786394
8	0xb6	-0.41427416
9	0xab	-0.47585544
10	0x15	0.11756428
11	0x03	0.016794898
12	0xb4	-0.42547074
13	0xf6	-0.055982992
14	0xb5	-0.41987243
15	0x0a	0.055982992
16	0xc4	-0.33589795
17	0xbb	-0.38628265
18	0xb7	-0.40867585
19	0xa0	-0.5374367
20	0x98	-0.5822231
21	0xad	-0.46465883
22	0x0b	0.06158129
23	0xd9	-0.21833366
24	0xd9	-0.21833366
25	0xd1	-0.26312006
26	0xfd	-0.016794898
27	0xe1	-0.17354727
28	0xcd	-0.28551325
29	0x04	0.022393197
30	0xe9	-0.12876087
31	0xc2	-0.34709454
32	0xfb	-0.027991496
33	0x00	0.0
34	0xde	-0.19034217
35	0xd0	-0.26871836
36	0xe1	-0.17354727
37	0xd9	-0.21833366
38	0xf8	-0.044786394
39	0xb3	-0.43106905
40	0xe3	-0.16235068
41	0xf6	-0.055982992
42	0xe1	-0.17354727
43	0xd0	-0.26871836
44	0x04	0.022393197
45	0x01	0.005598299
46	0xf9	-0.039188094
47	0xcc	-0.29111156
48	0x9b	-0.5654282
49	0xcf	-0.27431667
50	0xa3	-0.5206418
51	0x08	0.044786394
52	0xc4	-0.33589795
53	0xf3	-0.07277789
54	0xb2	-0.43666732
55	0xf3	-0.07277789
56	0x01	0.005598299
57	0xb1	-0.44226563
58	0xdc	-0.20153877
59	0x29	0.22953027
60	0x01	0.005598299
61	0xb5	-0.41987243
62	0xad	-0.46465883
63	0xcb	-0.29670987
64	0x1c	0.15675238
65	0x07	0.039188094
66	0xf4	-0.06717959
67	0x9e	-0.54863334
68	0xc9	-0.30790645
69	0xc2	-0.34709454
70	0xd6	-0.23512857
71	0x9c	-0.55982995
72	0x03	0.016794898
73	0xdc	-0.20153877
74	0xeb	-0.11756428
75	0xf6	-0.055982992
76	0xd4	-0.24632517
77	0xcf	-0.27431667
78	0xff	-0.005598299
79	0xf4	-0.06717959
80	0xee	-0.100769386
81	0xe7	-0.13995749
82	0xfd	-0.016794898
83	0xf4	-0.06717959
84	0xad	-0.46465883
85	0xba	-0.39188093
86	0x01	0.005598299
87	0xe6	-0.14555578
88	0xe1	-0.17354727
89	0xf4	-0.06717959
90	0x0b	0.06158129
91	0xde	-0.19034217
92	0xba	-0.39188093
93	0x11	0.09517109
94	0x10	0.08957279
95	0xb1	-0.44226563
96	0xbf	-0.36388946
97	0xf5	-0.06158129
98	0xb7	-0.40867585
99	0xfd	-0.016794898
100	0xd3	-0.25192347
101	0xee	-0.100769386
102	0x19	0.13995749
103	0x19	0.13995749
104	0xe7	-0.13995749
105	0x9e	-0.54863334
106	0xd7	-0.22953027
107	0xe0	-0.17914557
108	0xf8	-0.044786394
109	0xbc	-0.38068435
110	0x0b	0.06158129
111	0x16	0.12316258
112	0xf7	-0.050384693
113	0x15	0.11756428
114	0xce	-0.27991498
115	0xd5	-0.24072686
116	0xd0	-0.26871836
117	0xe1	-0.17354727
118	0xd7	-0.22953027
119	0xdd	-0.19594046
120	0xc3	-0.34149626
121	0xeb	-0.11756428
122	0x00	0.0
123	0xf6	-0.055982992
124	0xb6	-0.41427416
125	0xb5	-0.41987243
126	0xce	-0.27991498
127	0xd1	-0.26312006
128	0xf5	-0.06158129
129	0x0d	0.07277789
130	0xf3	-0.07277789
131	0xcb	-0.29670987
132	0x01	0.005598299
133	0x1f	0.17354727
134	0xc8	-0.31350476
135	0xf3	-0.07277789
136	0xb8	-0.40307754
137	0x0f	0.08397449
138	0xda	-0.21273537
139	0xeb	-0.11756428
140	0x33	0.28551325
141	0xfa	-0.033589795
142	0xd7	-0.22953027
143	0xbe	-0.36948776
144	0x0b	0.06158129
145	0xa2	-0.5262401
146	0xfd	-0.016794898
147	0xc1	-0.35269284
148	0xdf	-0.18474388
149	0x18	0.13435918
150	0xcf	-0.27431667
151	0x1f	0.17354727
152	0xd0	-0.26871836
153	0xe3	-0.16235068
154	0xc0	-0.35829115
155	0xf8	-0.044786394
156	0xdf	-0.18474388
157	0xe5	-0.15115407
158	0xd7	-0.22953027
159	0xec	-0.111965984
160	0xc1	-0.35269284
161	0x00	0.0
162	0xb3	-0.43106905
163	0xfb	-0.027991496
164	0xc5	-0.33029965
165	0xaa	-0.48145372
166	0xbc	-0.38068435
167	0xbc	-0.38068435
168	0x19	0.13995749
169	0xda	-0.21273537
170	0xc4	-0.33589795
171	0xe1	-0.17354727
172	0xb5	-0.41987243
173	0xfd	-0.016794898
174	0xd0	-0.26871836
175	0xfe	-0.011196598
176	0xa8	-0.49265033
177	0xce	-0.27991498
178	0xcb	-0.29670987
179	0xf3	-0.07277789
180	0xc2	-0.34709454
181	0x19	0.13995749
182	0xc4	-0.33589795
183	0xa8	-0.49265033
184	0xe9	-0.12876087
185	0xf2	-0.07837619
186	0xc5	-0.33029965
187	0x17	0.12876087
188	0xf3	-0.07277789
189	0xf6	-0.055982992
190	0xec	-0.111965984
191	0xfe	-0.011196598
192	0xea	-0.12316258
193	0x10	0.08957279
194	0xe6	-0.14555578
195	0xde	-0.19034217
196	0xd1	-0.26312006
197	0x9d	-0.55423164
198	0xbc	-0.38068435
199	0x00	0.0
200	0xe0	-0.17914557
201	0xe9	-0.12876087
202	0xfe	-0.011196598
203	0xd0	-0.26871836
204	0x10	0.08957279
205	0xb2	-0.43666732
206	0xfd	-0.016794898
207	0xd9	-0.21833366
208	0x00	0.0
209	0xf0	-0.08957279
210	0xa6	-0.50384694
211	0x20	0.17914557
212	0x14	0.111965984
213	0x01	0.005598299
214	0xf9	-0.039188094
215	0xbb	-0.38628265
216	0xef	-0.09517109
217	0xe4	-0.15675238
218	0xe9	-0.12876087
219	0xf1	-0.08397449
220	0xcc	-0.29111156
221	0xde	-0.19034217
222	0xe0	-0.17914557
223	0x08	0.044786394
224	0xca	-0.30230814
225	0x22	0.19034217
226	0x21	0.18474388
227	0xaa	-0.48145372
228	0xfe	-0.011196598
229	0x08	0.044786394
230	0xb9	-0.39747924
231	0xfb	-0.027991496
232	0x11	0.09517109
233	0xf6	-0.055982992
234	0xaa	-0.48145372
235	0xfd	-0.016794898
236	0xd9	-0.21833366
237	0xc0	-0.35829115
238	0xf4	-0.06717959
239	0xce	-0.27991498
240	0xe1	-0.17354727
241	0xfe	-0.011196598
242	0xe1	-0.17354727
243	0xc6	-0.32470137
244	0xcc	-0.29111156
245	0xdc	-0.20153877
246	0xbe	-0.36948776
247	0xb0	-0.44786394
248	0xcc	-0.29111156
249	0xf2	-0.07837619
250	0xd4	-0.24632517
251	0xbe	-0.36948776
252	0xc5	-0.33029965
253	0xef	-0.09517109
254	0xae	-0.45906055
255	0xf8	-0.044786394

sequential_3/conv2d_9/Conv2D i1 [32, 3, 3, 3]
0	0x27	39
1	0x0f	15
2	0xe6	-26
3	0x04	4
4	0xcc	-52
5	0x42	66
6	0xb3	-77
7	0x0f	15
8	0x12	18
9	0x3e	62
10	0x7f	127
11	0x03	3
12	0x39	57
13	0xef	-17
14	0x04	4
15	0xda	-38
16	0xc9	-55
17	0xd0	-48
18	0x21	33
19	0x35	53
20	0x37	55
21	0xce	-50
22	0xbc	-68
23	0x07	7
24	0xc1	-63
25	0xcc	-52
26	0xfc	-4
27	0xd5	-43
28	0xec	-20
29	0x3d	61
30	0x11	17
31	0xf5	-11
32	0xf1	-15
33	0x81	-127
34	0x96	-106
35	0xa3	-93
36	0x66	102
37	0x2c	44
38	0x38	56
39	0x11	17
40	0x3f	63
41	0xb2	-78
42	0xbe	-66
43	0x97	-105
44	0x06	6
45	0x4d	77
46	0x72	114
47	0x12	18
48	0x4a	74
49	0x37	55
50	0x22	34
51	0xd2	-46
52	0x18	24
53	0xd5	-43
54	0x11	17
55	0x44	68
56	0x4f	79
57	0xfd	-3
58	0x78	120
59	0x30	48
60	0xdc	-36
61	0xae	-82
62	0xb8	-72
63	0xcf	-49
64	0xfe	-2
65	0x09	9
66	0x33	51
67	0xf3	-13
68	0x00	0
69	0xc3	-61
70	0xee	-18
71	0xae	-82
72	0xd7	-41
73	0x46	70
74	0x68	104
75	0x0c	12
76	0xdd	-35
77	0x81	-127
78	0x0f	15
79	0xb9	-71
80	0xb3	-77
81	0x0d	13
82	0x7f	127
83	0x64	100
84	0x40	64
85	0xf4	-12
86	0xe7	-25
87	0xef	-17
88	0xa3	-93
89	0x9e	-98
90	0x47	71
91	0x03	3
92	0x46	70
93	0xbd	-67
94	0x17	23
95	0x1a	26
96	0x07	7
97	0xac	-84
98	0xe8	-24
99	0xf0	-16
100	0x2f	47
101	0x1f	31
102	0xd4	-44
103	0xe1	-31
104	0xe2	-30
105	0x3a	58
106	0x23	35
107	0xe8	-24
108	0xbe	-66
109	0x18	24
110	0xe8	-24
111	0x40	64
112	0x64	100
113	0x65	101
114	0x24	36
115	0x7f	127
116	0x76	118
117	0xbe	-66
118	0xc2	-62
119	0xa4	-92
120	0xbf	-65
121	0xc2	-62
122	0xe2	-30
123	0x28	40
124	0xed	-19
125	0xea	-22
126	0xd9	-39
127	0xda	-38
128	0xbe	-66
129	0xeb	-21
130	0xcf	-49
131	0xcd	-51
132	0xf2	-14
133	0xfd	-3
134	0xc7	-57
135	0x1a	26
136	0xb8	-72
137	0x27	39
138	0x3b	59
139	0x5d	93
140	0x61	97
141	0x3b	59
142	0x61	97
143	0x77	119
144	0x09	9
145	0xb6	-74
146	0xd1	-47
147	0x97	-105
148	0xc8	-56
149	0x81	-127
150	0xbe	-66
151	0xa3	-93
152	0xa0	-96
153	0x1b	27
154	0x0c	12
155	0x10	16
156	0x10	16
157	0xb8	-72
158	0x57	87
159	0xf3	-13
160	0xf6	-10
161	0xe3	-29
162	0x04	4
163	0xd9	-39
164	0x32	50
165	0xb4	-76
166	0x7f	127
167	0x58	88
168	0x1b	27
169	0x47	71
170	0x18	24
171	0x43	67
172	0x0e	14
173	0xc4	-60
174	0x0e	14
175	0x2e	46
176	0xb5	-75
177	0x35	53
178	0x1f	31
179	0x13	19
180	0xd4	-44
181	0xe9	-23
182	0x26	38
183	0xcd	-51
184	0xbc	-68
185	0xd8	-40
186	0xbe	-66
187	0xa4	-92
188	0xf7	-9
189	0x0f	15
190	0x27	39
191	0x1c	28
192	0xbb	-69
193	0x0e	14
194	0x81	-127
195	0xd2	-46
196	0xa6	-90
197	0xef	-17
198	0x65	101
199	0x5f	95
200	0xf9	-7
201	0xe5	-27
202	0x2a	42
203	0xac	-84
204	0x17	23
205	0xf5	-11
206	0xc8	-56
207	0x1a	26
208	0x14	20
209	0x6e	110
210	0xf4	-12
211	0x3c	60
212	0x37	55
213	0xe6	-26
214	0xfd	-3
215	0x3b	59
216	0x43	67
217	0x3f	63
218	0x1b	27
219	0x36	54
220	0xea	-22
221	0x57	87
222	0xbb	-69
223	0xca	-54
224	0x1d	29
225	0x2d	45
226	0x35	53
227	0x6a	106
228	0x81	-127
229	0xa0	-96
230	0xfb	-5
231	0x0d	13
232	0xf8	-8
233	0x8a	-118
234	0x40	64
235	0xbe	-66
236	0x30	48
237	0x94	-108
238	0x96	-106
239	0x9e	-98
240	0x38	56
241	0x4b	75
242	0x3f	63
243	0xcf	-49
244	0x35	53
245	0x03	3
246	0x0a	10
247	0x9b	-101
248	0xf0	-16
249	0xd2	-46
250	0xca	-54
251	0xd7	-41
252	0xe2	-30
253	0xc3	-61
254	0xe2	-30
255	0xee	-18

sequential_3/conv2d_10/Conv2D i1 [32, 3, 3, 32]
0	0x35	53
1	0x60	96
2	0xed	-19
3	0x20	32
4	0xf2	-14
5	0x0a	10
6	0xe9	-23
7	0x4e	78
8	0x29	41
9	0xdc	-36
10	0x1f	31
11	0xff	-1
12	0x2d	45
13	0x2e	46
14	0x0a	10
15	0xea	-22
16	0xfe	-2
17	0x07	7
18	0xe5	-27
19	0x0f	15
20	0x0b	11
21	0xf3	-13
22	0x08	8
23	0xe1	-31
24	0x26	38
25	0x23	35
26	0x08	8
27	0xf4	-12
28	0x26	38
29	0xf7	-9
30	0x0a	10
31	0x30	48
32	0x31	49
33	0x46	70
34	0x0f	15
35	0x3a	58
36	0xe3	-29
37	0xd3	-45
38	0x05	5
39	0xe1	-31
40	0xf9	-7
41	0xd1	-47
42	0xfb	-5
43	0x16	22
44	0x1b	27
45	0xed	-19
46	0x1e	30
47	0xf7	-9
48	0x27	39
49	0x15	21
50	0x31	49
51	0xfc	-4
52	0xe2	-30
53	0x0f	15
54	0x0d	13
55	0xaf	-81
56	0xb7	-73
57	0xdc	-36
58	0x14	20
59	0x37	55
60	0x25	37
61	0xec	-20
62	0x3f	63
63	0xf1	-15
64	0x3d	61
65	0x09	9
66	0x06	6
67	0x20	32
68	0x0c	12
69	0x1d	29
70	0xf7	-9
71	0xf4	-12
72	0xfd	-3
73	0x2d	45
74	0xb4	-76
75	0xa0	-96
76	0xdd	-35
77	0x1a	26
78	0xef	-17
79	0xf1	-15
80	0xc8	-56
81	0xc7	-57
82	0xc5	-59
83	0xfa	-6
84	0x10	16
85	0xef	-17
86	0xfc	-4
87	0x25	37
88	0xd0	-48
89	0xb1	-79
90	0x45	69
91	0xdd	-35
92	0xeb	-21
93	0xc9	-55
94	0x16	22
95	0xf3	-13
96	0x19	25
97	0x2a	42
98	0xcd	-51
99	0xc0	-64
100	0x40	64
101	0x3e	62
102	0x0d	13
103	0x21	33
104	0xe8	-24
105	0xf5	-11
106	0x03	3
107	0xca	-54
108	0xea	-22
109	0x15	21
110	0xbb	-69
111	0xd8	-40
112	0xc9	-55
113	0xe5	-27
114	0xed	-19
115	0x12	18
116	0x0e	14
117	0x3f	63
118	0x14	20
119	0x46	70
120	0x60	96
121	0x1c	28
122	0xd2	-46
123	0x10	16
124	0x4f	79
125	0xee	-18
126	0x0f	15
127	0x1c	28
128	0xf4	-12
129	0x48	72
130	0xea	-22
131	0x24	36
132	0xf7	-9
133	0xb4	-76
134	0xcb	-53
135	0xfa	-6
136	0xd8	-40
137	0xba	-70
138	0x30	48
139	0x13	19
140	0x0b	11
141	0xec	-20
142	0x0e	14
143	0xf9	-7
144	0x28	40
145	0x1e	30
146	0xe2	-30
147	0xfe	-2
148	0xeb	-21
149	0x14	20
150	0x17	23
151	0xf9	-7
152	0x81	-127
153	0xe0	-32
154	0x1f	31
155	0x0d	13
156	0x91	-111
157	0xe6	-26
158	0xe4	-28
159	0x31	49
160	0x53	83
161	0x10	16
162	0x57	87
163	0x4b	75
164	0x06	6
165	0xf6	-10
166	0xb1	-79
167	0x05	5
168	0x1a	26
169	0xf2	-14
170	0xef	-17
171	0xe8	-24
172	0x51	81
173	0x2b	43
174	0x0e	14
175	0x10	16
176	0xdf	-33
177	0x06	6
178	0x12	18
179	0x2f	47
180	0xf3	-13
181	0xae	-82
182	0x28	40
183	0xf2	-14
184	0xc8	-56
185	0xeb	-21
186	0x20	32
187	0x0b	11
188	0xee	-18
189	0x14	20
190	0x13	19
191	0xe8	-24
192	0x15	21
193	0xe1	-31
194	0xf6	-10
195	0x01	1
196	0x27	39
197	0xfc	-4
198	0xe8	-24
199	0xe7	-25
200	0xe3	-29
201	0x1c	28
202	0x1a	26
203	0xff	-1
204	0xd5	-43
205	0x33	51
206	0xce	-50
207	0xc2	-62
208	0xb2	-78
209	0xd2	-46
210	0xc4	-60
211	0xb0	-80
212	0x2b	43
213	0x3a	58
214	0xbf	-65
215	0x12	18
216	0xf9	-7
217	0xbd	-67
218	0xd1	-47
219	0x90	-112
220	0xd8	-40
221	0x2b	43
222	0xb1	-79
223	0x55	85
224	0x1d	29
225	0x2e	46
226	0x1c	28
227	0xf8	-8
228	0xd8	-40
229	0xb1	-79
230	0xca	-54
231	0xfe	-2
232	0xa4	-92
233	0xe3	-29
234	0xf6	-10
235	0xff	-1
236	0x44	68
237	0xfb	-5
238	0xce	-50
239	0x9d	-99
240	0xd0	-48
241	0xd0	-48
242	0x1f	31
243	0xbf	-65
244	0x9f	-97
245	0x46	70
246	0xa8	-88
247	0x0f	15
248	0xd6	-42
249	0xf8	-8
250	0x09	9
251	0xc0	-64
252	0xd1	-47
253	0x10	16
254	0x1c	28
255	0x1f	31

sequential_3/conv2d_11/Conv2D i1 [32, 3, 3, 32]
0	0xef	-17
1	0x1f	31
2	0xe9	-23
3	0x07	7
4	0x43	67
5	0xed	-19
6	0x2b	43
7	0xc9	-55
8	0x32	50
9	0x03	3
10	0x2c	44
11	0x22	34
12	0xdc	-36
13	0x33	51
14	0x14	20
15	0x03	3
16	0x34	52
17	0x1d	29
18	0x1f	31
19	0x02	2
20	0x0b	11
21	0x13	19
22	0x1b	27
23	0xd7	-41
24	0x1b	27
25	0x08	8
26	0xdb	-37
27	0xf1	-15
28	0x18	24
29	0x24	36
30	0xf8	-8
31	0xed	-19
32	0x07	7
33	0x2b	43
34	0xed	-19
35	0xed	-19
36	0xde	-34
37	0xc9	-55
38	0xe2	-30
39	0xea	-22
40	0xff	-1
41	0xe7	-25
42	0xb0	-80
43	0xcf	-49
44	0x15	21
45	0x48	72
46	0xdc	-36
47	0x16	22
48	0xb8	-72
49	0xe4	-28
50	0x33	51
51	0x22	34
52	0xbf	-65
53	0xce	-50
54	0xf2	-14
55	0xf1	-15
56	0x71	113
57	0xf6	-10
58	0xe2	-30
59	0x9a	-102
60	0xca	-54
61	0xde	-34
62	0xcd	-51
63	0x99	-103
64	0x25	37
65	0x2c	44
66	0x2d	45
67	0xc0	-64
68	0xe5	-27
69	0xf0	-16
70	0xf9	-7
71	0x0e	14
72	0x18	24
73	0xfc	-4
74	0xef	-17
75	0xec	-20
76	0xde	-34
77	0x2f	47
78	0xda	-38
79	0x5e	94
80	0xd5	-43
81	0xe9	-23
82	0x2d	45
83	0x23	35
84	0x16	22
85	0x06	6
86	0x27	39
87	0x10	16
88	0x24	36
89	0xee	-18
90	0xfd	-3
91	0xf1	-15
92	0x33	51
93	0xf5	-11
94	0xe3	-29
95	0xc0	-64
96	0x1c	28
97	0x1a	26
98	0xdb	-37
99	0xc4	-60
100	0xee	-18
101	0x05	5
102	0xf8	-8
103	0xe3	-29
104	0xb8	-72
105	0x0d	13
106	0xc4	-60
107	0x0d	13
108	0xd0	-48
109	0xd0	-48
110	0x23	35
111	0xe8	-24
112	0x1d	29
113	0x1a	26
114	0xdc	-36
115	0xd7	-41
116	0xcd	-51
117	0xba	-70
118	0x1d	29
119	0x0c	12
120	0xa5	-91
121	0xc4	-60
122	0xd2	-46
123	0xa2	-94
124	0xef	-17
125	0x16	22
126	0x10	16
127	0xff	-1
128	0xdc	-36
129	0x3c	60
130	0xee	-18
131	0xb9	-71
132	0xe8	-24
133	0x1a	26
134	0xd7	-41
135	0xd1	-47
136	0xf0	-16
137	0x9a	-102
138	0x01	1
139	0xc6	-58
140	0x2d	45
141	0xc2	-62
142	0x1a	26
143	0xf1	-15
144	0x4d	77
145	0xdb	-37
146	0x08	8
147	0xd8	-40
148	0xc9	-55
149	0xb7	-73
150	0xe6	-26
151	0x6c	108
152	0x09	9
153	0xef	-17
154	0xb1	-79
155	0xe9	-23
156	0xc3	-61
157	0xd0	-48
158	0xa8	-88
159	0xc3	-61
160	0xfb	-5
161	0x15	21
162	0x00	0
163	0x2a	42
164	0x03	3
165	0xce	-50
166	0x2d	45
167	0x15	21
168	0xfc	-4
169	0xdc	-36
170	0x10	16
171	0x03	3
172	0x41	65
173	0x08	8
174	0xea	-22
175	0xfd	-3
176	0xe5	-27
177	0xd7	-41
178	0xee	-18
179	0x31	49
180	0x18	24
181	0xbe	-66
182	0xe3	-29
183	0x21	33
184	0x16	22
185	0x1f	31
186	0x41	65
187	0x0e	14
188	0xd6	-42
189	0x00	0
190	0x21	33
191	0xc0	-64
192	0xdd	-35
193	0xee	-18
194	0xdc	-36
195	0x02	2
196	0x05	5
197	0xa1	-95
198	0x18	24
199	0xfd	-3
200	0x0c	12
201	0xd5	-43
202	0x08	8
203	0x05	5
204	0xf9	-7
205	0xad	-83
206	0x38	56
207	0x06	6
208	0x21	33
209	0xaa	-86
210	0xc0	-64
211	0xe3	-29
212	0xc9	-55
213	0xec	-20
214	0x11	17
215	0x3c	60
216	0xf8	-8
217	0xf2	-14
218	0x08	8
219	0xff	-1
220	0xfd	-3
221	0xf8	-8
222	0x14	20
223	0xde	-34
224	0x2a	42
225	0xb6	-74
226	0x1a	26
227	0x1a	26
228	0xfe	-2
229	0xdd	-35
230	0xce	-50
231	0x2d	45
232	0xce	-50
233	0xe5	-27
234	0x09	9
235	0xc0	-64
236	0x29	41
237	0x0b	11
238	0x3d	61
239	0x40	64
240	0xdd	-35
241	0xea	-22
242	0xc8	-56
243	0x7f	127
244	0x24	36
245	0x0a	10
246	0x4f	79
247	0x13	19
248	0x1a	26
249	0xbf	-65
250	0x37	55
251	0xdb	-37
252	0xd5	-43
253	0xd9	-39
254	0xd4	-44
255	0x0b	11
