a_output_actual/dig-s3-q.tflite (tflite, 62224 bytes, 5 tensors)

sequential_3/conv2d_9/Conv2D i1 [32, 3, 3, 3]
26 7 -36 -5 -62 59 -81 9
20 58 127 -4 60 -18 4 -49
-56 -55 43 60 61 -55 -78 8
-72 -65 -6 -45 -15 68 12 -14
-14 -127 -104 -85 98 36 57 21
65 -80 -67 -113 16 67 101 0
76 47 33 -52 27 -36 26 82
84 0 127 48 -37 -79 -67 -50
-3 11 50 -3 -5 -54 -25 -80
-41 65 81 28 -20 -111 19 -57
-58 6 127 97 63 -14 -33 -22
-94 -104 61 8 73 -74 21 25
-8 -88 -31 -21 47 30 -46 -21
-26 48 34 -22 -57 32 -17 59
95 99 32 127 119 -63 -52 -82
-56 -50 -27 51 -3 -9 -46 -40
-63 -24 -60 -56 -4 0 -52 43
-75 39 70 88 99 74 106 127
24 -72 -43 -83 -52 -127 -68 -100
-95 30 -6 8 15 -81 85 -10
-22 -34 -4 -50 34 -80 127 84
24 79 20 70 11 -75 7 40
-96 63 44 15 -47 -25 42 -63
-72 -52 -78 -91 -16 16 37 29
-66 11 -127 -52 -90 -21 122 112
19 -37 42 -82 10 -18 -57 42
31 119 -8 60 51 -48 -17 50
73 76 33 68 3 92 -59 -38
33 26 39 93 -127 -84 -6 13
-1 -115 47 -73 34 -105 -102 -103
52 76 64 -44 56 -2 9 -109
-27 -32 -46 -33 -27 -64 -28 -20
00000000: 1a07 dcfb c23b af09 143a 7ffc 3cee 04cf
00000010: c8c9 2b3c 3dc9 b208 b8bf fad3 f144 0cf2
00000020: f281 98ab 6224 3915 41b0 bd8f 1043 6500
00000030: 4c2f 21cc 1bdc 1a52 5400 7f30 dbb1 bdce
00000040: fd0b 32fd fbca e7b0 d741 511c ec91 13c7
00000050: c606 7f61 3ff2 dfea a298 3d08 49b6 1519
00000060: f8a8 e1eb 2f1e d2eb e630 22ea c720 ef3b
00000070: 5f63 207f 77c1 ccae c8ce e533 fdf7 d2d8
00000080: c1e8 c4c8 fc00 cc2b b527 4658 634a 6a7f
00000090: 18b8 d5ad cc81 bc9c a11e fa08 0faf 55f6
000000a0: eade fcce 22b0 7f54 184f 1446 0bb5 0728
000000b0: a03f 2c0f d1e7 2ac1 b8cc b2a5 f010 251d
000000c0: be0b 81cc a6eb 7a70 13db 2aae 0aee c72a
000000d0: 1f77 f83c 33d0 ef32 494c 2144 035c c5da
000000e0: 211a 275d 81ac fa0d ff8d 2fb7 2297 9a99
000000f0: 344c 40d4 38fe 0993 e5e0 d2df e5c0 e4ec

sequential_3/conv2d_10/Conv2D i1 [32, 3, 3, 32]
43 75 -16 22 -15 12 -12 51
43 -33 43 -10 30 48 4 -18
-5 3 -22 17 19 -19 10 -31
38 29 -1 -7 38 -16 1 33
56 75 20 64 -29 -29 -1 -23
8 -35 -6 6 24 -26 45 8
33 30 43 17 -32 2 14 -94
-76 -44 31 62 32 -27 60 -35
55 9 -4 32 19 36 -15 -12
5 56 -61 -82 -41 11 -8 -15
-49 -36 -63 22 21 -13 11 41
-44 -70 65 -19 -30 -37 16 0
4 20 -63 -75 52 51 3 19
-22 -15 10 -47 -41 0 -73 -41
-61 -35 -34 13 5 62 10 65
81 23 -50 11 67 -25 1 29
7 87 -14 46 -11 -79 -57 -3
-35 -59 44 17 17 -30 25 0
33 40 -22 13 -26 16 29 -20
-127 -39 42 28 -108 -38 -23 33
103 29 87 85 22 -2 -69 8
41 -8 -26 -25 86 32 10 9
-44 7 27 62 0 -80 43 0
-46 -31 38 17 -7 24 28 -17
19 -23 -8 -11 42 -8 -29 -18
-39 26 22 8 -39 39 -36 -45
-64 -18 -62 -76 47 58 -53 19
-17 -55 -38 -88 -50 41 -70 80
40 52 29 -1 -22 -69 -39 7
-80 -33 -18 -1 64 7 -42 -85
-36 -30 26 -50 -75 60 -75 20
-43 0 12 -50 -47 2 37 29
00000000: 2b4b f016 f10c f433 2bdf 2bf6 1e30 04ee
00000010: fb03 ea11 13ed 0ae1 261d fff9 26f0 0121
00000020: 384b 1440 e3e3 ffe9 08dd fa06 18e6 2d08
00000030: 211e 2b11 e002 0ea2 b4d4 1f3e 20e5 3cdd
00000040: 3709 fc20 1324 f1f4 0538 c3ae d70b f8f1
00000050: cfdc c116 15f3 0b29 d4ba 41ed e2db 1000
00000060: 0414 c1b5 3433 0313 eaf1 0ad1 d700 b7d7
00000070: c3dd de0d 053e 0a41 5117 ce0b 43e7 011d
00000080: 0757 f22e f5b1 c7fd ddc5 2c11 11e2 1900
00000090: 2128 ea0d e610 1dec 81d9 2a1c 94da e921
000000a0: 671d 5755 16fe bb08 29f8 e6e7 5620 0a09
000000b0: d407 1b3e 00b0 2b00 d2e1 2611 f918 1cef
000000c0: 13e9 f8f5 2af8 e3ee d91a 1608 d927 dcd3
000000d0: c0ee c2b4 2f3a cb13 efc9 daa8 ce29 ba50
000000e0: 2834 1dff eabb d907 b0df eeff 4007 d6ab
000000f0: dce2 1ace b53c b514 d500 0cce d102 251d

sequential_3/conv2d_11/Conv2D i1 [32, 3, 3, 32]
-7 36 -27 -4 61 -11 37 -56
63 -1 33 33 -41 35 13 -1
44 28 38 -12 10 21 21 -29
24 13 -47 -16 27 42 -22 -7
10 35 -17 -30 -37 -54 -25 -29
-2 -22 -84 -49 8 66 -38 17
-81 -17 46 25 -55 -49 -17 -22
108 -14 -31 -106 -61 -28 -41 -113
37 54 29 -69 -10 -16 -11 8
24 -5 -29 -29 -33 41 -25 87
-39 -21 31 15 16 3 35 22
32 -18 -15 -15 42 -12 -28 -64
25 20 -26 -53 -19 9 -8 -32
-73 18 -48 13 -47 -43 35 -9
31 19 -34 -40 -51 -56 33 12
-87 -63 -36 -90 -13 16 -5 3
-45 64 -24 -59 -31 28 -44 -43
-12 -97 0 -64 52 -64 16 -25
62 -40 9 -32 -42 -87 -14 104
6 -16 -86 -22 -61 -41 -89 -72
-11 19 -14 25 -3 -48 40 18
-17 -50 9 2 63 4 -15 -2
-15 -33 -18 37 26 -61 -34 37
18 21 76 19 -55 -5 35 -78
-29 -18 -30 5 6 -98 24 0
18 -43 15 0 1 -75 44 22
35 -68 -53 -28 -50 -23 13 63
-3 -12 11 10 0 -11 4 -40
18 -76 20 26 -19 -39 -40 46
-40 -33 -3 -64 44 -8 51 55
-37 -37 -59 127 25 -4 69 27
31 -63 54 -37 -35 -35 -43 1
00000000: f924 e5fc 3df5 25c8 3fff 2121 d723 0dff
00000010: 2c1c 26f4 0a15 15e3 180d d1f0 1b2a eaf9
00000020: 0a23 efe2 dbca e7e3 feea accf 0842 da11
00000030: afef 2e19 c9cf efea 6cf2 e196 c3e4 d78f
00000040: 2536 1dbb f6f0 f508 18fb e3e3 df29 e757
00000050: d9eb 1f0f 1003 2316 20ee f1f1 2af4 e4c0
00000060: 1914 e6cb ed09 f8e0 b712 d00d d1d5 23f7
00000070: 1f13 ded8 cdc8 210c a9c1 dca6 f310 fb03
00000080: d340 e8c5 e11c d4d5 f49f 00c0 34c0 10e7
00000090: 3ed8 09e0 d6a9 f268 06f0 aaea c3d7 a7b8
000000a0: f513 f219 fdd0 2812 efce 0902 3f04 f1fe
000000b0: f1df ee25 1ac3 de25 1215 4c13 c9fb 23b2
000000c0: e3ee e205 069e 1800 12d5 0f00 01b5 2c16
000000d0: 23bc cbe4 cee9 0d3f fdf4 0b0a 00f5 04d8
000000e0: 12b4 141a edd9 d82e d8df fdc0 2cf8 3337
000000f0: dbdb c57f 19fc 451b 1fc1 36db dddd d501

sequential_3/dense_6/MatMul i1 [128, 256] scale=0.0037342675 zero_point=0
-0.026139872 0.01493707 0.09335669 0.18671338 -0.10082522 -0.112028025 0.09335669 0.018671338
0.26139873 -0.12323083 -0.09335669 -0.07095108 0.21658751 -0.063482545 -0.07095108 -0.011202803
-0.13443363 -0.07841962 -0.033608407 0.033608407 0.018671338 -0.01493707 0.033608407 -0.1605735
0.0 0.15683924 -0.033608407 -0.04854548 0.07468535 0.10455949 -0.12696509 -0.19044764
-0.07095108 -0.112028025 0.063482545 0.07841962 -0.007468535 0.112028025 0.112028025 -0.07468535
-0.0037342675 0.018671338 -0.052279744 0.018671338 0.17177631 0.052279744 0.022405606 0.052279744
0.007468535 -0.022405606 0.11949656 -0.01493707 0.085888155 -0.085888155 0.037342675 0.085888155
0.041076943 -0.01493707 0.04481121 0.07841962 0.085888155 -0.026139872 0.24272738 0.033608407
0.23899312 -0.026139872 0.13069937 0.12323083 -0.05974828 0.17177631 -0.11576229 -0.007468535
-0.04481121 0.17177631 0.022405606 0.04481121 0.011202803 0.018671338 -0.23899312 -0.085888155
0.026139872 0.018671338 0.04481121 0.16430777 -0.10829376 -0.12696509 0.11949656 -0.007468535
-0.17177631 0.06721681 0.08215389 0.20165044 0.07095108 0.28007007 -0.22405605 -0.033608407
0.0037342675 -0.018671338 0.12696509 0.3920981 -0.17177631 0.1381679 0.14563644 0.037342675
-0.04854548 0.085888155 -0.05974828 -0.007468535 0.1381679 -0.07468535 0.07841962 -0.11576229
0.15310498 -0.04481121 -0.11949656 -0.07468535 -0.09709096 0.0037342675 -0.08215389 0.14563644
0.007468535 -0.041076943 0.09335669 -0.09709096 0.018671338 -0.04481121 0.3248813 0.13443363
-0.13443363 0.04481121 -0.10082522 -0.15310498 0.10829376 0.10082522 -0.08962242 0.15310498
0.10082522 0.056014013 0.007468535 0.13069937 0.1605735 0.01493707 0.18671338 0.1493707
0.022405606 0.17924485 0.085888155 0.07841962 0.1829791 0.052279744 0.20538472 -0.13443363
0.1829791 0.063482545 -0.026139872 0.01493707 -0.063482545 -0.19044764 -0.026139872 0.052279744
-0.04481121 0.052279744 0.018671338 -0.16804203 -0.052279744 0.17177631 0.022405606 0.07095108
0.011202803 -0.12696509 0.0 -0.1605735 -0.0037342675 0.22405605 -0.033608407 -0.02987414
0.052279744 0.10829376 0.1493707 0.05974828 0.04481121 0.041076943 -0.05974828 -0.17924485
0.10829376 0.085888155 -0.01493707 -0.085888155 -0.063482545 0.056014013 0.085888155 0.022405606
0.02987414 0.10829376 0.037342675 -0.13443363 0.085888155 0.033608407 0.12323083 0.08215389
-0.08962242 -0.18671338 0.08215389 0.22032179 -0.011202803 -0.041076943 -0.08215389 -0.07095108
0.1381679 0.17924485 -0.011202803 0.056014013 0.06721681 0.08215389 0.16430777 0.011202803
-0.10455949 -0.0037342675 -0.10455949 -0.018671338 0.022405606 0.04481121 -0.14563644 -0.08962242
-0.10455949 0.056014013 0.06721681 -0.1493707 0.052279744 0.085888155 0.1605735 -0.04854548
-0.07095108 0.09709096 0.12696509 0.026139872 -0.02987414 0.04854548 0.1493707 0.13443363
0.052279744 0.037342675 -0.063482545 0.11576229 -0.06721681 0.06721681 -0.07468535 -0.026139872
-0.09709096 0.026139872 -0.08962242 -0.10455949 0.08962242 0.018671338 -0.022405606 0.07841962
00000000: f904 1932 e5e2 1905 46df e7ed 3aef edfd
00000010: dceb f709 05fc 09d5 002a f7f3 141c decd
00000020: ede2 1115 fe1e 1eec ff05 f205 2e0e 060e
00000030: 02fa 20fc 17e9 0a17 0bfc 0c15 17f9 4109
00000040: 40f9 2321 f02e e1fe f42e 060c 0305 c0e9
00000050: 0705 0c2c e3de 20fe d212 1636 134b c4f7
00000060: 01fb 2269 d225 270a f317 f0fe 25ec 15e1
00000070: 29f4 e0ec e601 ea27 02f5 19e6 05f4 5724
00000080: dc0c e5d7 1d1b e829 1b0f 0223 2b04 3228
00000090: 0630 1715 310e 37dc 3111 f904 efcd f90e
000000a0: f40e 05d3 f22e 0613 03de 00d5 ff3c f7f8
000000b0: 0e1d 2810 0c0b f0d0 1d17 fce9 ef0f 1706
000000c0: 081d 0adc 1709 2116 e8ce 163b fdf5 eaed
000000d0: 2530 fd0f 1216 2c03 e4ff e4fb 060c d9e8
000000e0: e40f 12d8 0e17 2bf3 ed1a 2207 f80d 2824
000000f0: 0e0a ef1f ee12 ecf9 e607 e8e4 1805 fa15

sequential_3/dense_7/MatMul i1 [11, 128] scale=0.0057675834 zero_point=0
-0.0057675834 -0.3864281 -0.36912534 -0.276844 -0.346055 -0.2422385 -0.5133149 -0.057675835
-0.42680117 -0.47294185 0.09804892 0.01730275 -0.43833634 -0.057675835 -0.43833634 0.046140667
-0.35182258 -0.39796326 -0.42680117 -0.5421528 -0.5940611 -0.47870943 0.063443415 -0.21916817
-0.22493576 -0.28837916 -0.023070334 -0.1730275 -0.3056819 0.01730275 -0.13265441 -0.36912534
-0.046140667 -0.0057675834 -0.19033025 -0.24800609 -0.18456267 -0.23070334 -0.063443415 -0.4498715
-0.16149233 -0.057675835 -0.19033025 -0.28261158 0.01730275 0.0057675834 -0.040373083 -0.3056819
-0.5825259 -0.28261158 -0.5248501 0.040373083 -0.33451983 -0.08074617 -0.43833634 -0.092281334
0.0057675834 -0.46140668 -0.207633 0.207633 -0.01730275 -0.43833634 -0.46717426 -0.3056819
0.15572475 0.040373083 -0.07497858 -0.553688 -0.32875225 -0.36912534 -0.24800609 -0.57099074
0.0057675834 -0.21340059 -0.11535167 -0.057675835 -0.26530883 -0.276844 -0.01730275 -0.08651375
-0.11535167 -0.138422 -0.023070334 -0.069211 -0.47870943 -0.4210336 0.0057675834 -0.14995717
-0.1730275 -0.07497858 0.040373083 -0.19033025 -0.415266 0.092281334 0.08651375 -0.4498715
-0.36912534 -0.057675835 -0.415266 -0.0346055 -0.25954124 -0.1038165 0.138422 0.138422
-0.12688683 -0.57099074 -0.24800609 -0.1730275 -0.063443415 -0.3806605 0.069211 0.11535167
-0.07497858 0.09804892 -0.28261158 -0.25954124 -0.26530883 -0.1730275 -0.24800609 -0.207633
-0.34028742 -0.12111925 -0.011535167 -0.08074617 -0.415266 -0.4498715 -0.28837916 -0.28837916
-0.08074617 0.05190825 -0.08074617 -0.29991433 -0.0057675834 0.16149233 -0.3114495 -0.08651375
-0.40373084 0.07497858 -0.23070334 -0.11535167 0.276844 -0.028837917 -0.24800609 -0.3864281
0.046140667 -0.5421528 -0.028837917 -0.36912534 -0.19033025 0.12688683 -0.28837916 0.1730275
-0.28261158 -0.16725992 -0.36912534 -0.040373083 -0.19609784 -0.1730275 -0.23070334 -0.13265441
-0.36912534 -0.011535167 -0.43256876 -0.05190825 -0.33451983 -0.50177974 -0.39219567 -0.39796326
0.138422 -0.21916817 -0.34028742 -0.18456267 -0.43256876 -0.028837917 -0.28261158 -0.011535167
-0.4902446 -0.28261158 -0.3114495 -0.08651375 -0.35182258 0.13265441 -0.34028742 -0.5075473
-0.12688683 -0.092281334 -0.34028742 0.12111925 -0.092281334 -0.069211 -0.11535167 -0.028837917
-0.12688683 0.08651375 -0.14418958 -0.20186542 -0.26530883 -0.5594556 -0.37489292 -0.0057675834
-0.19033025 -0.138422 -0.011535167 -0.26530883 0.08074617 -0.43833634 -0.028837917 -0.23647092
0.0057675834 -0.08074617 -0.5075473 0.17879508 0.1038165 -0.0057675834 -0.040373083 -0.39219567
-0.09804892 -0.16149233 -0.12688683 -0.092281334 -0.3114495 -0.18456267 -0.17879508 0.040373083
-0.32875225 0.19033025 0.17879508 -0.50177974 -0.01730275 0.046140667 -0.39796326 -0.023070334
0.08074617 -0.069211 -0.49601218 -0.01730275 -0.23647092 -0.36912534 -0.063443415 -0.28837916
-0.19609784 -0.023070334 -0.16149233 -0.34028742 -0.3056819 -0.20186542 -0.3864281 -0.46717426
-0.3056819 -0.08074617 -0.26530883 -0.3806605 -0.34028742 -0.1038165 -0.484477 -0.057675835
00000000: ffbd c0d0 c4d6 a7f6 b6ae 1103 b4f6 b408
00000010: c3bb b6a2 99ad 0bda d9ce fce2 cb03 e9c0
00000020: f8ff dfd5 e0d8 f5b2 e4f6 dfcf 0301 f9cb
00000030: 9bcf a507 c6f2 b4f0 01b0 dc24 fdb4 afcb
00000040: 1b07 f3a0 c7c0 d59d 01db ecf6 d2d0 fdf1
00000050: ece8 fcf4 adb7 01e6 e2f3 07df b810 0fb2
00000060: c0f6 b8fa d3ee 1818 ea9d d5e2 f5be 0c14
00000070: f311 cfd3 d2e2 d5dc c5eb fef2 b8b2 cece
00000080: f209 f2cc ff1c caf1 ba0d d8ec 30fb d5bd
00000090: 08a2 fbc0 df16 ce1e cfe3 c0f9 dee2 d8e9
000000a0: c0fe b5f7 c6a9 bcbb 18da c5e0 b5fb cffe
000000b0: abcf caf1 c317 c5a8 eaf0 c515 f0f4 ecfb
000000c0: ea0f e7dd d29f bfff dfe8 fed2 0eb4 fbd7
000000d0: 01f2 a81f 12ff f9bc efe4 eaf0 cae0 e107
000000e0: c721 1fa9 fd08 bbfc 0ef4 aafd d7c0 f5ce
000000f0: defc e4c5 cbdd bdaf cbf2 d2be c5ee acf6
