a_output_actual/dig-s2-q.tflite (tflite, 98560 bytes, 5 tensors)

sequential_2/dense_4/MatMul i1 [256, 256] scale=0.000889424 zero_point=0
-0.10495203 0.021346176 0.035576962 0.024903871 -0.08449528 -0.0889424 0.042692352 0.03112984
0.04002408 -0.086274125 0.072932765 -0.049807742 -0.05158659 -0.06403853 0.10673088 -0.041802928
-0.09072125 0.056033712 0.029350992 0.058701985 -0.034687538 -0.04002408 0.019567328 0.016899057
-0.069375075 0.023125025 -0.039134655 -0.07560104 0.014230784 -0.018677903 0.006225968 -0.006225968
0.07737989 -0.04002408 -0.03112984 -0.085384704 0.024903871 -0.036466382 0.024014449 0.072043344
0.08716355 -0.052476015 0.010673088 0.06225968 -0.04625005 0.07826931 -0.005336544 -0.08983182
-0.029350992 -0.070264496 -0.002668272 -0.06759623 0.035576962 -0.0889424 0.033798113 -0.002668272
0.020456752 0.09072125 -0.0088942405 -0.019567328 -0.028461568 -0.043581776 0.096947215 0.039134655
0.098726064 -0.025793295 -0.07915874 0.09427895 0.024014449 0.08093759 -0.054254863 0.006225968
-0.096057795 0.001778848 -0.072932765 0.048028897 0.06403853 0.0 0.009783664 -0.056923136
0.08182701 -0.039134655 0.04002408 0.03290869 -0.040913504 -0.06492795 -0.09072125 -0.085384704
-0.070264496 0.056923136 -0.07915874 0.08093759 -0.029350992 -0.023125025 -0.07649046 -0.009783664
0.018677903 -0.000889424 -0.011562512 0.085384704 -0.000889424 0.058701985 -0.04002408 0.03112984
0.10317318 0.0925001 0.014230784 0.07915874 -0.036466382 -0.036466382 -0.10317318 0.03290869
0.024903871 0.09516837 0.072932765 0.023125025 0.083605856 0.05158659 -0.009783664 0.069375075
0.040913504 0.023125025 -0.070264496 -0.04891832 -0.05781256 -0.042692352 -0.016009632 -0.07649046
-0.07826931 -0.05959141 0.09338952 -0.007115392 0.01334136 0.06403853 -0.03290869 -0.10495203
-0.086274125 0.072043344 -0.049807742 -0.04891832 0.04625005 0.09161067 -0.05781256 0.060480833
-0.07737989 0.060480833 0.08449528 -0.10139433 0.056033712 0.015120208 0.10050491 -0.10584146
0.10673088 -0.007115392 -0.030240417 -0.07737989 0.07382219 -0.08093759 0.023125025 0.010673088
0.04625005 0.011562512 0.000889424 -0.08004816 -0.05959141 -0.02668272 -0.06492795 0.000889424
0.040913504 -0.09783664 0.025793295 -0.082716435 -0.061370257 -0.10406261 -0.09072125 0.10139433
0.082716435 -0.055144288 -0.08004816 -0.01334136 -0.09161067 -0.061370257 0.039134655 -0.008004816
0.0631491 -0.005336544 -0.000889424 -0.005336544 -0.07737989 -0.09338952 -0.011562512 -0.070264496
0.09516837 0.03824523 0.043581776 0.0925001 -0.017788481 0.049807742 0.10317318 0.10317318
-0.016899057 0.06581738 0.10584146 0.001778848 -0.08093759 0.10050491 0.036466382 0.096947215
-0.043581776 -0.07737989 -0.0889424 -0.10584146 -0.055144288 0.086274125 -0.05336544 0.09783664
0.0667068 -0.036466382 0.07471161 -0.028461568 -0.07649046 0.042692352 0.049807742 0.0222356
-0.010673088 0.054254863 -0.10673088 -0.07471161 -0.050697166 0.035576962 -0.017788481 0.010673088
-0.027572144 -0.09427895 0.0631491 0.07649046 -0.042692352 -0.05158659 -0.08716355 -0.096057795
-0.024014449 -0.054254863 0.071153924 -0.01334136 0.005336544 -0.016009632 -0.06403853 0.096057795
-0.08805297 0.07382219 0.058701985 -0.058701985 0.10317318 0.037355807 -0.085384704 -0.040913504
00000000: 8a18 281c a19c 3023 2d9f 52c8 c6b8 78d1
00000010: 9a3f 2142 d9d3 1613 b21a d4ab 10eb 07f9
00000020: 57d3 dda0 1cd7 1b51 62c5 0c46 cc58 fa9b
00000030: dfb1 fdb4 289c 26fd 1766 f6ea e0cf 6d2c
00000040: 6fe3 a76a 1b5b c307 9402 ae36 4800 0bc0
00000050: 5cd4 2d25 d2b7 9aa0 b140 a75b dfe6 aaf5
00000060: 15ff f360 ff42 d323 7468 1059 d7d7 8c25
00000070: 1c6b 521a 5e3a f54e 2e1a b1c9 bfd0 eeaa
00000080: a8bd 69f8 0f48 db8a 9f51 c8c9 3467 bf44
00000090: a944 5f8e 3f11 7189 78f8 dea9 53a5 1a0c
000000a0: 340d 01a6 bde2 b701 2e92 1da3 bb8b 9a72
000000b0: 5dc2 a6f1 99bb 2cf7 47fa fffa a997 f3b1
000000c0: 6b2b 3168 ec38 7474 ed4a 7702 a571 296d
000000d0: cfa9 9c89 c261 c46e 4bd7 54e0 aa30 3819
000000e0: f43d 88ac c728 ec0c e196 4756 d0c6 9e94
000000f0: e5c3 50f1 06ee b86c 9d53 42be 742a a0d2

sequential_2/dense_5/MatMul i1 [11, 256] scale=0.0012153687 zero_point=0
0.09479876 0.05104549 0.09358339 -0.015799794 -0.120321505 -0.104521714 -0.10573708 0.10087561
-0.055906963 -0.044968642 0.14827499 0.072922125 -0.09358339 0.04739938 0.13125983 -0.021876637
-0.14341351 0.0194459 0.0583377 -0.021876637 0.14949036 0.026738113 0.11424466 -0.015799794
-0.0072922125 -0.120321505 -0.13369057 -0.052260857 -0.06684528 -0.097229496 0.07899897 0.10573708
0.010938318 -0.048614748 0.081429705 -0.05712233 -0.055906963 0.04010717 -0.11059856 -0.0583377
-0.1324752 0.07535286 0.10938319 -0.103306346 0.06806065 0.04010717 -0.08507581 -0.04010717
0.0583377 -0.012153687 -0.09966024 -0.02916885 -0.04983012 0.09966024 -0.120321505 0.104521714
-0.015799794 -0.12396761 -0.09844487 -0.05104549 -0.12639835 0.1324752 -0.12396761 -0.04983012
0.072922125 0.059553068 -0.12882909 0.020661268 0.11059856 0.14705962 -0.13369057 0.020661268
-0.00972295 0.14827499 0.061983805 -0.017015163 -0.09358339 -0.024307374 -0.1324752 0.05104549
-0.074137494 -0.1361213 0.14949036 -0.02916885 -0.14219815 -0.061983805 0.0583377 0.054691594
-0.08264507 0.1324752 -0.08750655 -0.0388918 -0.041322537 0.12153687 -0.05712233 -0.013369056
-0.13004446 -0.072922125 0.1361213 -0.12882909 -0.111813925 -0.07656823 0.05712233 -0.11059856
-0.088721916 -0.044968642 0.1324752 -0.111813925 -0.04618401 0.020661268 -0.06927602 0.021876637
-0.1324752 0.0072922125 -0.052260857 0.1324752 -0.012153687 0.008507581 0.014584425 0.103306346
0.00972295 0.08386044 -0.13490593 0.10816782 0.04010717 0.034030326 0.023092005 0.08507581
0.14462888 -0.0583377 -0.088721916 0.035245694 -0.09115265 -0.05712233 0.13733667 0.14219815
0.06806065 0.09844487 0.0 0.10087561 0.09479876 -0.0060768435 -0.06806065 -0.043753274
0.12761372 0.11302929 0.10573708 -0.09236802 -0.09844487 0.09966024 0.07170676 0.11546003
-0.13125983 -0.13733667 0.08750655 0.061983805 -0.025522744 -0.059553068 0.013369056 0.10209098
-0.14949036 -0.14219815 0.0036461062 0.1519211 0.020661268 0.11302929 0.13855204 -0.0036461062
0.034030326 0.05104549 -0.008507581 -0.1166754 -0.09358339 0.0036461062 -0.10695245 0.012153687
-0.12275224 0.034030326 -0.08750655 0.09358339 0.008507581 -0.13125983 0.041322537 -0.004861475
-0.14462888 -0.09115265 -0.13855204 -0.0012153687 -0.072922125 0.064414546 0.10209098 0.053476226
-0.12518299 0.0388918 0.13976741 -0.0024307375 0.09236802 -0.111813925 -0.0777836 -0.027953481
-0.111813925 0.008507581 0.14949036 -0.010938318 -0.0583377 -0.12396761 0.07899897 0.09601413
-0.120321505 0.043753274 0.13855204 0.11789077 0.044968642 0.042537905 0.120321505 -0.05104549
-0.08021434 -0.021876637 -0.060768437 0.13976741 0.010938318 0.08750655 -0.09479876 -0.10695245
0.010938318 0.04010717 -0.097229496 0.023092005 0.11059856 -0.09844487 0.04739938 -0.13004446
0.00972295 -0.12518299 -0.06319918 -0.10573708 -0.11424466 0.103306346 0.064414546 -0.09115265
0.07170676 -0.0024307375 -0.13369057 -0.14584425 0.072922125 -0.06806065 -0.08021434 -0.026738113
-0.10695245 -0.0777836 0.030384218 0.06806065 -0.061983805 0.088721916 -0.054691594 -0.05104549
00000000: 4e2a 4df3 9daa a953 d2db 7a3c b327 6cee
00000010: 8a10 30ee 7b16 5ef3 fa9d 92d5 c9b0 4157
00000020: 09d8 43d1 d221 a5d0 933e 5aab 3821 badf
00000030: 30f6 aee8 d752 9d56 f39a afd6 986d 9ad7
00000040: 3c31 9611 5b79 9211 f87a 33f2 b3ec 932a
00000050: c390 7be8 8bcd 302d bc6d b8e0 de64 d1f5
00000060: 95c4 7096 a4c1 2fa5 b7db 6da4 da11 c712
00000070: 9306 d56d f607 0c55 0845 9159 211c 1346
00000080: 77d0 b71d b5d1 7175 3851 0053 4efb c8dc
00000090: 695d 57b4 af52 3b5f 948f 4833 ebcf 0b54
000000a0: 858b 037d 115d 72fd 1c2a f9a0 b303 a80a
000000b0: 9b1c b84d 0794 22fc 89b5 8eff c435 542c
000000c0: 9920 73fe 4ca4 c0e9 a407 7bf7 d09a 414f
000000d0: 9d24 7261 2523 63d6 beee ce73 0948 b2a8
000000e0: 0921 b013 5baf 2795 0899 cca9 a255 35b5
000000f0: 3bfe 9288 3cc8 beea a8c0 1938 cd49 d3d6

sequential_2/conv2d_6/Conv2D i1 [32, 3, 3, 3]
-80 -67 -71 47 -123 71 30 -118
77 -67 -102 78 -26 -57 -65 -41
122 123 -127 22 50 44 -87 47
119 121 75 -94 74 -68 -31 123
127 -70 84 -127 114 -43 -46 29
40 9 -120 -29 -100 -65 81 -78
-106 -105 29 -73 -81 121 101 82
-84 -70 76 50 41 -71 -88 113
-41 98 61 54 3 119 -95 -83
110 -97 16 -85 94 15 -113 -127
-125 26 -94 -114 125 98 -32 46
107 95 -80 62 64 -44 112 53
-127 118 -107 -8 -97 46 103 -89
109 -98 70 -72 -127 89 103 45
117 85 -103 72 68 107 -106 -92
-110 -44 23 -113 32 -119 -14 -1
69 92 56 34 94 -33 53 -42
22 -81 -106 -127 -110 80 -112 26
-111 32 101 -50 52 97 -125 1
29 -35 -32 -37 5 31 -44 107
83 78 114 23 95 75 -61 -49
120 127 -17 -21 -86 98 73 -2
-93 -119 -118 15 -72 -74 27 -14
-111 81 102 -103 115 -68 -53 -51
84 -127 59 104 18 -100 75 -71
39 79 108 -118 -52 82 79 -80
-24 -28 53 -123 4 86 71 55
43 -100 98 9 38 111 93 127
-21 -16 -28 -61 10 -100 107 -33
-54 35 -67 -50 -82 9 20 -45
-98 -74 -5 -111 15 122 -30 44
62 -119 -45 102 -14 -125 -54 -106
00000000: b0bd b92f 8547 1e8a 4dbd 9a4e e6c7 bfd7
00000010: 7a7b 8116 322c a92f 7779 4ba2 4abc e17b
00000020: 7fba 5481 72d5 d21d 2809 88e3 9cbf 51b2
00000030: 9697 1db7 af79 6552 acba 4c32 29b9 a871
00000040: d762 3d36 0377 a1ad 6e9f 10ab 5e0f 8f81
00000050: 831a a28e 7d62 e02e 6b5f b03e 40d4 7035
00000060: 8176 95f8 9f2e 67a7 6d9e 46b8 8159 672d
00000070: 7555 9948 446b 96a4 92d4 178f 2089 f2ff
00000080: 455c 3822 5edf 35d6 16af 9681 9250 901a
00000090: 9120 65ce 3461 8301 1ddd e0db 051f d46b
000000a0: 534e 7217 5f4b c3cf 787f efeb aa62 49fe
000000b0: a389 8a0f b8b6 1bf2 9151 6699 73bc cbcd
000000c0: 5481 3b68 129c 4bb9 274f 6c8a cc52 4fb0
000000d0: e8e4 3585 0456 4737 2b9c 6209 266f 5d7f
000000e0: ebf0 e4c3 0a9c 6bdf ca23 bdce ae09 14d3
000000f0: 9eb6 fb91 0f7a e22c 3e89 d366 f283 ca96

sequential_2/conv2d_7/Conv2D i1 [32, 3, 3, 32]
122 -46 79 108 -77 -29 -126 -12
-15 98 66 -98 -31 75 5 -72
57 12 101 -13 109 58 31 67
77 36 30 -46 -84 -67 -119 -80
-72 -9 68 -112 2 98 -100 42
87 -14 -107 90 76 46 49 -34
-116 12 116 -85 -3 22 -29 10
59 73 -116 10 -98 -49 -119 -70
-10 14 -46 121 -107 -63 62 112
-18 -73 -53 62 118 -121 46 -30
-69 -88 -82 18 -88 107 70 -25
-59 -59 -122 -37 -117 -55 120 14
66 80 -127 -29 91 -69 -71 -27
47 -88 47 -3 47 -114 -71 -75
-103 21 95 22 43 -33 -84 -113
2 41 -107 -49 -70 88 -105 71
-119 -75 72 58 -51 -37 -68 -112
54 78 -95 81 -52 93 74 -63
-47 -40 73 55 114 27 28 -17
95 -24 -65 -114 -51 -12 -124 121
-84 -20 -53 -67 -82 -66 -106 119
-37 121 94 -92 68 -95 -75 26
-2 41 -41 -28 -98 36 -50 -6
61 -53 52 -80 -117 53 104 -105
-1 44 -48 -121 -57 -99 -68 12
-62 -81 105 81 24 -105 -12 -26
48 -97 44 48 -81 116 -106 -71
-75 42 -14 -49 4 -72 -25 15
7 42 -105 -39 -2 78 -105 -16
117 -103 101 -5 -14 -68 88 -117
107 95 -115 40 114 82 -7 64
31 96 52 32 -91 -117 -19 -118
00000000: 7ad2 4f6c b3e3 82f4 f162 429e e14b 05b8
00000010: 390c 65f3 6d3a 1f43 4d24 1ed2 acbd 89b0
00000020: b8f7 4490 0262 9c2a 57f2 955a 4c2e 31de
00000030: 8c0c 74ab fd16 e30a 3b49 8c0a 9ecf 89ba
00000040: f60e d279 95c1 3e70 eeb7 cb3e 7687 2ee2
00000050: bba8 ae12 a86b 46e7 c5c5 86db 8bc9 780e
00000060: 4250 81e3 5bbb b9e5 2fa8 2ffd 2f8e b9b5
00000070: 9915 5f16 2bdf ac8f 0229 95cf ba58 9747
00000080: 89b5 483a cddb bc90 364e a151 cc5d 4ac1
00000090: d1d8 4937 721b 1cef 5fe8 bf8e cdf4 8479
000000a0: acec cbbd aebe 9677 db79 5ea4 44a1 b51a
000000b0: fe29 d7e4 9e24 cefa 3dcb 34b0 8b35 6897
000000c0: ff2c d087 c79d bc0c c2af 6951 1897 f4e6
000000d0: 309f 2c30 af74 96b9 b52a f2cf 04b8 e70f
000000e0: 072a 97d9 fe4e 97f0 7599 65fb f2bc 588b
000000f0: 6b5f 8d28 7252 f940 1f60 3420 a58b ed8a

sequential_2/conv2d_8/Conv2D i1 [32, 3, 3, 32]
-108 -22 -64 -106 59 4 -2 -99
-94 115 24 10 -30 -70 14 9
6 -66 -81 116 32 -84 -53 -64
81 30 -72 -103 76 97 -40 -2
63 -30 115 -29 79 48 127 -78
-94 -86 -4 77 -30 45 -79 15
15 44 125 -20 -109 112 110 73
24 32 73 63 -35 -101 106 -67
-116 63 -41 14 -32 98 67 60
101 -117 22 75 6 -97 67 -73
19 104 47 101 42 65 57 -48
-32 -82 -91 90 -108 -23 10 -109
-33 19 -114 -62 24 109 38 -2
-11 13 10 -5 -21 -75 -86 77
-74 3 -43 55 -39 4 78 67
55 127 -46 96 109 27 2 -38
27 5 68 -34 -32 -111 72 110
-95 -69 40 -41 -103 46 -38 -86
-6 84 -28 109 -111 -42 -96 -77
-23 48 -106 89 -6 -68 30 -81
-70 122 105 59 86 -53 38 -64
-9 100 -33 97 -110 74 -80 -110
63 52 -32 -73 -11 1 -65 37
-33 50 -114 -78 -81 40 118 60
-38 73 -66 65 111 -29 38 -30
36 51 -80 -47 -38 -102 71 -108
-21 106 127 59 -31 79 -16 -111
-33 -70 -102 61 19 21 -75 -36
54 -88 -15 -105 -110 38 -80 45
-99 -68 -32 69 55 22 -81 -4
-81 -3 -45 110 38 75 -99 55
-46 75 96 20 -31 -41 -43 14
00000000: 94ea c096 3b04 fe9d a273 180a e2ba 0e09
00000010: 06be af74 20ac cbc0 511e b899 4c61 d8fe
00000020: 3fe2 73e3 4f30 7fb2 a2aa fc4d e22d b10f
00000030: 0f2c 7dec 9370 6e49 1820 493f dd9b 6abd
00000040: 8c3f d70e e062 433c 658b 164b 069f 43b7
00000050: 1368 2f65 2a41 39d0 e0ae a55a 94e9 0a93
00000060: df13 8ec2 186d 26fe f50d 0afb ebb5 aa4d
00000070: b603 d537 d904 4e43 377f d260 6d1b 02da
00000080: 1b05 44de e091 486e a1bb 28d7 992e daaa
00000090: fa54 e46d 91d6 a0b3 e930 9659 fabc 1eaf
000000a0: ba7a 693b 56cb 26c0 f764 df61 924a b092
000000b0: 3f34 e0b7 f501 bf25 df32 8eb2 af28 763c
000000c0: da49 be41 6fe3 26e2 2433 b0d1 da9a 4794
000000d0: eb6a 7f3b e14f f091 dfba 9a3d 1315 b5dc
000000e0: 36a8 f197 9226 b02d 9dbc e045 3716 affc
000000f0: affd d36e 264b 9d37 d24b 6014 e1d7 d50e
