a_output_actual/dig-s3.tflite (tflite, 219284 bytes, 12 tensors)

dense_7/bias f4 [11]
0	0xbe72be55	-0.23705418
1	0xbe30bdce	-0.17259905
2	0xbe4a0685	-0.1972905
3	0xbe0a454c	-0.13502997
4	0xbe3641e0	-0.17798567
5	0xbe44c0d8	-0.19214189
6	0xbe89f0ee	-0.26941627
7	0xbe3f2366	-0.18665847
8	0xbe530bf6	-0.20610031
9	0xbe382589	-0.17983069
10	0xbde864f3	-0.113473795

dense_6/bias f4 [128]
0	0xbc6728c0	-0.014108837
1	0xbd3fcea3	-0.046827924
2	0xbc03a954	-0.008035976
3	0x3d8d6e40	0.06905794
4	0x3db8c8b0	0.09022653
5	0xbd8d3dc6	-0.06896548
6	0x3c49b905	0.0123121785
7	0xbdb2cf8b	-0.08730992
8	0x3c63d2c1	0.013905228
9	0xbcdccfac	-0.026954494
10	0x3cb7a0e7	0.022415591
11	0xbcd13858	-0.025539562
12	0xbd23c0c3	-0.039978754
13	0xbc77df2d	-0.015128893
14	0x3d97b93a	0.07408376
15	0xbcadad01	-0.021200659
16	0x3d174844	0.036934152
17	0x3d22aba0	0.039714456
18	0xbcc4e875	-0.024036625
19	0x3c9fa3c8	0.019487277
20	0x3d362255	0.044466335
21	0x3cd411b0	0.02588734
22	0xbd18803f	-0.03723168
23	0xbcd3019e	-0.025757607
24	0x3d53fbb0	0.0517537
25	0xbc9c0455	-0.019045034
26	0x3acc5160	0.0015588216
27	0xbc3d936b	-0.011570792
28	0xbcb7f627	-0.022456242
29	0x3d235459	0.039875362
30	0x3c11914f	0.008884742
31	0xbcb9f5e5	-0.02270026
32	0xbc5b0c2c	-0.013369601
33	0xbcd66277	-0.026169999
34	0x3c2129b3	0.009836602
35	0xba9d0918	-0.001198086
36	0xbd82e1de	-0.06390737
37	0x3e084ae0	0.13309813
38	0x3b6050a0	0.0034227744
39	0x3d978351	0.073980935
40	0xbca5eb67	-0.02025385
41	0xbbe3196e	-0.0069305217
42	0xbb9e2228	-0.004825849
43	0xbaacdb21	-0.0013187864
44	0xbc705f03	-0.01467109
45	0xbbb91922	-0.005648748
46	0xbbef414a	-0.0073014842
47	0xbbed96f6	-0.007250662
48	0x3db9d1ca	0.09073217
49	0xbd255935	-0.040368278
50	0x3d55b6ea	0.052176394
51	0xbdc2eb11	-0.095174916
52	0x3a559d52	0.0008148748
53	0xbd533b95	-0.051570494
54	0x3de7ef03	0.11324885
55	0x3bfd4cdf	0.007730111
56	0xbd13881e	-0.036018483
57	0xbc98ac9d	-0.018636996
58	0x3cfb598a	0.030682344
59	0xbd65e776	-0.05612894
60	0xbdc4104b	-0.0957342
61	0x3d1f1ca6	0.03884568
62	0xbd491655	-0.049093563
63	0x3d7e266e	0.06204837
64	0xbd131ee2	-0.035918124
65	0xbccaab8f	-0.024740009
66	0xbca47fe7	-0.02008052
67	0x3db28edf	0.08718657
68	0x3d904b6c	0.070456356
69	0x3b618ec0	0.003441736
70	0x3c77d384	0.015126113
71	0x3c8ae488	0.016954675
72	0xbc8e06db	-0.017337253
73	0x3afca302	0.0019274654
74	0xbd107deb	-0.035276335
75	0x3d97cb40	0.07411814
76	0xbd5b56bb	-0.05354951
77	0x3d26d65f	0.040731784
78	0xbc0b15ab	-0.008489053
79	0xba876c95	-0.0010332043
80	0xbdbbab5a	-0.09163542
81	0x3c66c0e2	0.014084073
82	0x3c6bd5d4	0.014394242
83	0xbd4d4c74	-0.05012174
84	0x3cbf977a	0.02338766
85	0xbcbb6284	-0.022874124
86	0xbcb35b9f	-0.021894274
87	0xbd7ecc94	-0.06220682
88	0xbd053ffa	-0.032531716
89	0x3d0e6765	0.034766573
90	0xbd512432	-0.05105991
91	0x3c5327a3	0.012887868
92	0xbb88916c	-0.0041677263
93	0xbc777505	-0.015103583
94	0xbccc6779	-0.024951683
95	0xbb008bfd	-0.001961469
96	0x3c1d3064	0.009594057
97	0xbd1a76e7	-0.03771105
98	0x3d5c2a87	0.053751495
99	0x3c1c1c24	0.009528194
100	0xbd28af31	-0.0411827
101	0xbd0b2d9c	-0.033979043
102	0xbd6c87b9	-0.057746623
103	0xbcd97f11	-0.026549848
104	0x3bff1a9c	0.0077851545
105	0x3cab4a92	0.020909581
106	0x3e241585	0.16023834
107	0xbcecc45a	-0.028902221
108	0x3d31ed3a	0.043439128
109	0x3dd37a31	0.103260405
110	0xbd9a3a6e	-0.07530676
111	0xbd801936	-0.062548086
112	0x3d7f850d	0.062382746
113	0xbdd5d703	-0.10441401
114	0xbd979a5a	-0.07402487
115	0x3e01309c	0.126162
116	0xbd044ca5	-0.032299656
117	0xbd5e9a34	-0.05434628
118	0x3d312c24	0.043254986
119	0x3d344ef2	0.0440206
120	0xbbfdaccc	-0.0077415463
121	0x3c6b98a0	0.01437965
122	0xbd06631d	-0.032809366
123	0x3dda6f91	0.10665811
124	0x3d753627	0.059866097
125	0x3d24597f	0.040124413
126	0x3e1872ea	0.14887586
127	0x3de23836	0.11045878

conv2d_9/bias f4 [32]
0	0xbd43d3f3	-0.047809552
1	0xbdae5a64	-0.085133344
2	0xbd90c24d	-0.0706831
3	0xbd945723	-0.072431825
4	0xbcfc2ce5	-0.030783126
5	0xbd9d654f	-0.07685339
6	0xbe291950	-0.16513562
7	0xbb935294	-0.004495928
8	0x3d32564c	0.04353933
9	0x3d441493	0.047871184
10	0xbe1c52c4	-0.15265948
11	0xbdd9f768	-0.10642892
12	0xbd1e1a60	-0.038599372
13	0xbdeb6629	-0.11494095
14	0xbe0cf031	-0.13763501
15	0xbdd5e8cf	-0.10444795
16	0xbdb9b70e	-0.09068118
17	0xbd4090a8	-0.047012955
18	0xbe01fbcf	-0.12693714
19	0xbd5a7700	-0.053336143
20	0xbe2f284e	-0.17105219
21	0x3d235282	0.039873607
22	0xbd95dfd0	-0.073180795
23	0x3d9e8422	0.07740046
24	0xbe0ddaba	-0.13852969
25	0xbdbbbfac	-0.09167418
26	0xbe4a6997	-0.19766842
27	0xbd2a7f46	-0.041625284
28	0xbde3c3d1	-0.111213334
29	0xbd99d23f	-0.075108044
30	0xbcd528e7	-0.02602048
31	0xbc9978d7	-0.018734379

conv2d_11/bias f4 [32]
0	0xbd9d75b6	-0.07688467
1	0xbd14f49d	-0.036366094
2	0xbe587a9d	-0.21140523
3	0xbce1581c	-0.027507834
4	0xbda87ac7	-0.08226543
5	0xbdb43d40	-0.08800745
6	0xbe3fa23a	-0.18714228
7	0xbcc55554	-0.02408854
8	0xbd92b71e	-0.07163833
9	0x3cd5f9c6	0.026120078
10	0xbd10bd28	-0.035336643
11	0xbd3a156a	-0.04543058
12	0x3ca23ae7	0.019803477
13	0xbd2920dc	-0.041291103
14	0xbcf2d674	-0.029643275
15	0xbdb2dd20	-0.087335825
16	0xbd91e663	-0.07124021
17	0x3e01fb9c	0.12693638
18	0xbdc3bc6e	-0.095574245
19	0x3d913487	0.07090097
20	0xbe565bff	-0.20933531
21	0xbd3c6db2	-0.04600305
22	0x3c7f5aa5	0.015585576
23	0x3da0993b	0.078417264
24	0xbd8e05ec	-0.06934723
25	0xbd4c0296	-0.049807154
26	0xbe0a410f	-0.1350138
27	0xbca9abae	-0.020711746
28	0x3d63b9d5	0.055597145
29	0xbc9e692b	-0.019337257
30	0xbccbc7ea	-0.0248756
31	0xbd81e32b	-0.06342157

conv2d_10/bias f4 [32]
0	0xbd6221ff	-0.055208202
1	0x3d36973b	0.04457782
2	0xbea536f0	-0.32268476
3	0xbdad4568	-0.08460504
4	0x3e41e648	0.18935502
5	0xbc3148ac	-0.010820549
6	0x3b1f01af	0.0024262478
7	0xbde7ce6a	-0.11318667
8	0x3c8fa8e9	0.017536597
9	0xbe03d9b1	-0.12876011
10	0xbd4eee26	-0.050520085
11	0xbcf0d231	-0.029397102
12	0xbe11f240	-0.14252567
13	0xbdf28ed8	-0.118436515
14	0x3e0e82a9	0.1391703
15	0xbdc140a5	-0.09436158
16	0xbdf962ae	-0.12177025
17	0xbc91d230	-0.01780042
18	0xbd1d748d	-0.03844123
19	0xbe178f66	-0.14800796
20	0xbdc63a87	-0.09679132
21	0x3c3f5adf	0.01167938
22	0xbd9bf98b	-0.07615956
23	0x3d3743d6	0.044742428
24	0xbce392c2	-0.02777994
25	0xbd8022e2	-0.06256653
26	0xbc9cc301	-0.019135954
27	0xbc491482	-0.012272956
28	0x3db6afc3	0.08920243
29	0x3e2d6a73	0.16935138
30	0x3b14ede3	0.00227248
31	0xbd0ffa12	-0.035150595

sequential_3/batch_normalization_3/FusedBatchNormV3 f4 [3]
0	0x3c466fd4	0.012111623
1	0x3c890c68	0.016729549
2	0x3c6ee022	0.014579805

sequential_3/batch_normalization_3/FusedBatchNormV31 f4 [3]
0	0xbfc32069	-1.5244266
1	0xc0000f73	-2.000943
2	0xbfe601c4	-1.7969289

sequential_3/dense_6/MatMul f4 [128, 256]
0	0xbcc03959	-0.023464845
1	0x3ca10aa6	0.019658398
2	0x3de0e47b	0.10981079
3	0x3e3f6413	0.18690519
4	0xbdda265e	-0.10651849
5	0xbdc666d1	-0.096875794
6	0x3e1301a2	0.14356092
7	0x3cb77cdb	0.022398403
8	0x3e85d524	0.26139176
9	0xbdf8aac3	-0.12141945
10	0xbdac2b9f	-0.084067576
11	0xbdacdcb7	-0.084405355
12	0x3e505671	0.20345475
13	0xbd85b916	-0.06529443
14	0xbd15d98b	-0.03658442
15	0xbc20a13f	-0.009804069
16	0xbe014e83	-0.12627606
17	0xbd9c4253	-0.07629838
18	0xbcb84835	-0.022495368
19	0x3d6cd001	0.057815555
20	0x3be6bc1e	0.0070414683
21	0xbc8427d2	-0.016132269
22	0x3cde3d43	0.027128821
23	0xbe29a638	-0.16567314
24	0x3d245c18	0.04012689
25	0x3e147e17	0.14501224
26	0xbd441c66	-0.047878645
27	0xbd32eac0	-0.043680906
28	0x3dba146a	0.09085925
29	0x3e022544	0.12709528
30	0xbe005c38	-0.12535179
31	0xbe26d250	-0.16291165
32	0xbd5bd6f0	-0.053671777
33	0xbe009e60	-0.12560415
34	0x3d58814c	0.052857682
35	0x3decc817	0.115616016
36	0xbc9ae55e	-0.018908199
37	0x3de1e8a1	0.110306986
38	0x3dbcea34	0.09224358
39	0xbdb39e1a	-0.0877039
40	0x3d039e10	0.032133162
41	0x3d1aad41	0.037762884
42	0xbd365a63	-0.044519793
43	0x3d118c32	0.03553409
44	0x3e34b7ef	0.1764829
45	0x3d844355	0.06458155
46	0x3d34fbef	0.044185575
47	0x3d833f34	0.064085394
48	0xbb65c6d9	-0.003506115
49	0xbc98b155	-0.018639246
50	0x3dc2c354	0.09509912
51	0xb4db4cc9	-4.0847797e-07
52	0x3dd1bf0b	0.10241517
53	0xbdb1ea1a	-0.086872295
54	0x3d1b00e7	0.037842657
55	0x3ddc0311	0.10742772
56	0x3d433dc1	0.047666315
57	0xbc8af66d	-0.016963208
58	0x3d882bdf	0.06648993
59	0x3dc05b80	0.09392452
60	0x3dc025cc	0.09382209
61	0xbcdb5226	-0.02677257
62	0x3e703562	0.23457864
63	0x3d039f5a	0.03213439
64	0x3e86a365	0.26296535
65	0xbd5f0724	-0.05445017
66	0x3e0bd450	0.1365521
67	0x3e241f10	0.16027474
68	0xbcf19e4c	-0.029494427
69	0x3e55e4fe	0.20888135
70	0xbd9eb00b	-0.07748421
71	0xbc6accdb	-0.014331068
72	0xbd283a37	-0.041071143
73	0x3e3140e6	0.17309913
74	0x3d2de091	0.04245049
75	0x3ca04e9b	0.019568732
76	0xbba46ad7	-0.005017619
77	0x3bef42f0	0.0073016807
78	0xbe5296f3	-0.20565395
79	0xbde245b1	-0.11048449
80	0x3d56c436	0.052433215
81	0xbc79c735	-0.015245249
82	0x3d8ada5e	0.067799315
83	0x3e5209e7	0.2051159
84	0xbd9a9d9c	-0.07549593
85	0xbe00ac0c	-0.1256563
86	0x3dfdbc6c	0.12389454
87	0x3c975266	0.018471908
88	0xbe1c30d9	-0.15253009
89	0x3dac2710	0.08405888
90	0x3db18222	0.08667399
91	0x3e60b71c	0.2194485
92	0x3dc0f65b	0.094219886
93	0x3e9b20dc	0.30298507
94	0xbe60ebb2	-0.2196491
95	0xbce0a0cc	-0.027420424
96	0xbc86e463	-0.016466325
97	0xbcecd3b2	-0.028909538
98	0x3e1d14d9	0.15339984
99	0x3ecad342	0.39614302
100	0xbe2471d2	-0.16059044
101	0x3e000228	0.12500823
102	0x3e38bcce	0.18040773
103	0x3d69b11c	0.05705367
104	0xbd2144f1	-0.03937239
105	0x3dd15e58	0.10223073
106	0xbd955388	-0.07291323
107	0xbcbe65d6	-0.023241919
108	0x3e1bae0b	0.15203111
109	0xbd288be3	-0.04114903
110	0x3d9ff467	0.07810288
111	0xbdb4218d	-0.08795462
112	0x3e17626c	0.14783639
113	0xbd3cc701	-0.046088222
114	0xbe122a5d	-0.14273973
115	0xbd870f4f	-0.06594717
116	0xbda3b939	-0.07994313
117	0x3b2a6e18	0.0026005562
118	0xbd8df008	-0.06930548
119	0x3dfecd8c	0.12441549
120	0x3d2de8f2	0.042458482
121	0xbd1fc14c	-0.0390027
122	0x3dc97f33	0.098387145
123	0xbdb5d6ea	-0.08878882
124	0xbbefa400	-0.0073132515
125	0xbccda173	-0.025101399
126	0x3e983450	0.2972741
127	0x3dcdc5a7	0.10047465
128	0xbe1611ee	-0.14655277
129	0x3d3b0d7f	0.045667168
130	0xbdb3c4c4	-0.087777644
131	0xbe422db3	-0.18962745
132	0x3e0ed909	0.1394998
133	0x3db11d19	0.08648128
134	0xbdbfd1f5	-0.09366218
135	0x3e36e4d6	0.17860731
136	0x3dcae8a9	0.09907658
137	0x3d918a4f	0.071064584
138	0x3c04735a	0.008084143
139	0x3e1145b6	0.14186749
140	0x3e2753fd	0.16340633
141	0x3c416eee	0.011806233
142	0x3e6ccba4	0.23124558
143	0x3e395775	0.18099768
144	0x3d0f9a4b	0.035059255
145	0x3e33f40a	0.17573562
146	0x3df2b72e	0.11851345
147	0x3d80a716	0.06281869
148	0x3e58b469	0.21162571
149	0x3d570c28	0.052501827
150	0x3e7bc0cf	0.2458527
151	0xbe09640f	-0.13417076
152	0x3e5149a0	0.20438242
153	0x3dadd1f1	0.08487309
154	0xbcab0967	-0.020878507
155	0xbb9f8b6c	-0.0048689153
156	0xbd244788	-0.04010728
157	0xbe38f892	-0.18063572
158	0xbbcddd09	-0.006282453
159	0x3d91b286	0.07114129
160	0xbd8f3e82	-0.06994344
161	0x3d4b207d	0.04959153
162	0x3d44bf63	0.048034083
163	0xbe0ac0f6	-0.13550171
164	0xbd0b449f	-0.03400099
165	0x3e4529bf	0.19254206
166	0x3d5b8727	0.05359569
167	0x3dca5a23	0.098804735
168	0x3a7a9a60	0.0009559747
169	0xbde038f1	-0.10948361
170	0xbbb57a36	-0.0055382503
171	0xbe27cb47	-0.16386138
172	0xbcaacd9d	-0.020849997
173	0x3e7e6e4f	0.24846767
174	0xbc6c7e25	-0.014434372
175	0xbc620ed2	-0.013797479
176	0x3d875779	0.06608481
177	0x3dd3e96b	0.10347255
178	0x3e329bfc	0.17442316
179	0x3d7cfc21	0.061763886
180	0x3d480bfc	0.048839554
181	0x3d270d6e	0.040784292
182	0xbd573bfe	-0.052547447
183	0xbe34dff7	-0.17663561
184	0x3de9f74f	0.114241235
185	0x3db72e4f	0.089443795
186	0xbcbfde69	-0.023421483
187	0xbdc3f12e	-0.09567486
188	0xbda18069	-0.078858204
189	0x3d750b78	0.05982539
190	0x3dda6888	0.10664469
191	0x3d06f6e8	0.032950312
192	0x3bbbb303	0.005728127
193	0x3dd622ce	0.10455857
194	0x3d46b78d	0.04851489
195	0xbe1e0c13	-0.15434293
196	0x3dbc4260	0.091923475
197	0x3d414d5b	0.047192913
198	0x3e0a1e95	0.13488229
199	0x3d661198	0.056169122
200	0xbd8019a5	-0.06254891
201	0xbe4e9921	-0.20175602
202	0x3dc89553	0.09794106
203	0x3e7a6225	0.24451502
204	0x3cc4acf0	0.024008244
205	0xbd21e7aa	-0.039527573
206	0xbd62b9be	-0.05535292
207	0xbdd2bcbf	-0.10289907
208	0x3df2d11d	0.118562914
209	0x3e3d0633	0.18459396
210	0xbad745a4	-0.0016423953
211	0x3d993293	0.074803494
212	0x3d39c29d	0.045351613
213	0x3da9f810	0.08299267
214	0x3e315508	0.17317593
215	0x3d31f42a	0.043445744
216	0xbdcb96ae	-0.09940849
217	0x3ca6c3fa	0.02035712
218	0xbd9b6ca9	-0.07589085
219	0xbcac4425	-0.021028588
220	0x3d2d5713	0.04231937
221	0x3d0c8367	0.034305003
222	0xbe20b6d3	-0.15694742
223	0xbdd73377	-0.10507863
224	0xbdf57c83	-0.11986639
225	0x3db62c52	0.08895172
226	0x3d7aceac	0.061232254
227	0xbdebee69	-0.115200825
228	0x3d4e6bdb	0.050395828
229	0x3dee3d14	0.116327435
230	0x3e20c314	0.15699416
231	0xbd168a62	-0.036753066
232	0xbda35564	-0.07975271
233	0x3e0ae567	0.13564073
234	0x3dd9de97	0.10638159
235	0x3ce75a69	0.028241353
236	0xbc901867	-0.017589761
237	0x3d8c5400	0.06851959
238	0x3e35ffc8	0.17773354
239	0x3e29b32a	0.16572252
240	0x3d84eda7	0.06490641
241	0x3d85ed79	0.06539435
242	0xbd55f62a	-0.052236713
243	0x3dc73a18	0.097278774
244	0xbd757c7a	-0.059933163
245	0x3d868998	0.06569213
246	0xbd789738	-0.06069109
247	0xbd1856f3	-0.037192296
248	0xbdd07dd9	-0.101802535
249	0x3d5a297e	0.053262226
250	0xbdecf0d5	-0.115693726
251	0xbddaa820	-0.106765985
252	0x3d894006	0.067016646
253	0x3cca59d8	0.024701044
254	0xbbcee99f	-0.006314471
255	0x3dae1232	0.08499564

sequential_3/dense_7/MatMul f4 [11, 128]
0	0xbbb2a6b6	-0.0054520024
1	0xbec33f0b	-0.38134035
2	0xbebbf3b3	-0.36709365
3	0xbe8bc462	-0.27298266
4	0xbeb991f0	-0.36244154
5	0xbe6ec78f	-0.23318313
6	0xbf0a9ebc	-0.5414846
7	0xbd798217	-0.06091508
8	0xbedc500c	-0.4302982
9	0xbef4676e	-0.4773516
10	0x3dc2af9a	0.095061496
11	0x3c7430e2	0.014904233
12	0xbeeba4ba	-0.46024114
13	0xbd4e48f4	-0.050362542
14	0xbedf32fc	-0.43593585
15	0x3d32bfc5	0.043639917
16	0xbebdd144	-0.3707372
17	0xbecebce4	-0.40378487
18	0xbed873f0	-0.42275953
19	0xbf0ea741	-0.5572396
20	0xbf1d6364	-0.61479783
21	0xbef81b2c	-0.4845823
22	0x3da7b730	0.08189237
23	0xbe5e64c5	-0.21718128
24	0xbe64f1c2	-0.22357848
25	0xbe9d0c73	-0.3067356
26	0xbbe6a3d6	-0.0070385737
27	0xbe2c79ea	-0.16843382
28	0xbe9f7eff	-0.31151578
29	0x3cdfa5b7	0.027300699
30	0xbe0d6c45	-0.13810833
31	0xbec4fc41	-0.38473704
32	0xbd507d47	-0.050900724
33	0x3be383b8	0.0069431923
34	0xbe3f1e88	-0.1866399
35	0xbe76e7b8	-0.24111831
36	0xbe44c664	-0.19216305
37	0xbe6f27d3	-0.23355035
38	0xbd8aea32	-0.067829505
39	0xbeeaf49f	-0.45889756
40	0xbe246c72	-0.16056994
41	0xbd6dfda7	-0.05810323
42	0xbe54facc	-0.20798796
43	0xbe8f4a24	-0.27986252
44	0x3cd093a2	0.025461022
45	0x3c90354a	0.017603535
46	0xbd07368d	-0.033011008
47	0xbe9bb9ee	-0.3041529
48	0xbf15b135	-0.5847352
49	0xbe96a912	-0.29425865
50	0xbf0b4cd1	-0.5441409
51	0x3d535d5b	0.051602703
52	0xbea52d72	-0.32261235
53	0xbdb7643e	-0.089546666
54	0xbef25eb4	-0.47337878
55	0xbdcea551	-0.10090125
56	0x3bd8931c	0.0066093337
57	0xbef0cd62	-0.47031695
58	0xbe5a73d9	-0.21333255
59	0x3e63602d	0.22204657
60	0xbcb682f1	-0.022279235
61	0xbee7c8df	-0.4527044
62	0xbef281a3	-0.4736453
63	0xbea2d6a7	-0.31804392
64	0x3e1b2110	0.15149331
65	0x3d1e92e9	0.038714323
66	0xbd98624a	-0.07440622
67	0xbf0f86c1	-0.56064993
68	0xbea4b73e	-0.32171053
69	0xbebcfd19	-0.36911848
70	0xbe744426	-0.23854122
71	0xbf1888a0	-0.59583473
72	0xbc7b0719	-0.015321516
73	0xbe5b3fb7	-0.21411024
74	0xbdf1a5f5	-0.11799232
75	0xbd74037a	-0.059573628
76	0xbe7e4ffb	-0.24835198
77	0xbe907310	-0.28212786
78	0xbcbedc73	-0.023298478
79	0xbda90441	-0.082527645
80	0xbdd1239c	-0.1021187
81	0xbe09fcf5	-0.13475402
82	0xbcbf7d85	-0.023375282
83	0xbd8c3960	-0.06846881
84	0xbef8844b	-0.48538432
85	0xbed6aa34	-0.4192673
86	0x3b98cb8f	0.004662938
87	0xbe2488a2	-0.16067746
88	0xbe30d3a9	-0.17268242
89	0xbdbacd11	-0.091211446
90	0x3d273f67	0.04083195
91	0xbe443f31	-0.1916473
92	0xbedf4fc2	-0.43615538
93	0x3dcd2788	0.100173056
94	0x3dac5599	0.08414764
95	0xbeecb877	-0.46234486
96	0xbeb4d11b	-0.35315785
97	0xbd83e6d2	-0.0644051
98	0xbed5768f	-0.41692016
99	0xbd2634ce	-0.040577702
100	0xbe85f884	-0.26166165
101	0xbdd66c53	-0.1046988
102	0x3e20d4b3	0.15706138
103	0x3e19322d	0.14960547
104	0xbdf2e027	-0.1185916
105	0xbf1669bf	-0.58755106
106	0xbe8033c5	-0.25039497
107	0xbe2993ac	-0.16560239
108	0xbd9835dc	-0.07432148
109	0xbec43c16	-0.38327092
110	0x3db32883	0.08747961
111	0x3ddb38d6	0.107042
112	0xbda391fd	-0.079868294
113	0x3dcf9a44	0.10136846
114	0xbe917cee	-0.28415626
115	0xbe84e950	-0.25959253
116	0xbe894753	-0.2681223
117	0xbe47c390	-0.19508195
118	0xbe829f88	-0.25512338
119	0xbe5be6cb	-0.2147476
120	0xbeb5dfc6	-0.35522288
121	0xbe111323	-0.14167456
122	0xbbead020	-0.0071659237
123	0xbdba97e4	-0.09111002
124	0xbed8aa6d	-0.42317525
125	0xbee5b22e	-0.44862503
126	0xbe9392b5	-0.28822866
127	0xbe958b13	-0.29207668
128	0xbdb9fe71	-0.09081734
129	0x3d523cb5	0.051327426
130	0xbdc94c99	-0.09829063
131	0xbea06fbe	-0.31335253
132	0xbc892f9e	-0.016746338
133	0x3e0b6ca2	0.13615659
134	0xbe9e0bc6	-0.30868357
135	0xbda69de8	-0.08135587
136	0xbed214ac	-0.41031396
137	0x3da14746	0.078749225
138	0xbe7b3b4a	-0.24534336
139	0xbdeccb6c	-0.11562237
140	0x3e913c82	0.28366476
141	0xbd030b66	-0.031993292
142	0xbe817aa8	-0.25288892
143	0xbec51c90	-0.38498354
144	0x3c704750	0.01466544
145	0xbf11dc41	-0.56976706
146	0xbd2c4c8d	-0.042065192
147	0xbec13c24	-0.37741196
148	0xbe3b48f7	-0.18289553
149	0x3dc2d1dd	0.095126845
150	0xbe91ff60	-0.28515148
151	0x3e23a6ee	0.15981647
152	0xbe8e298d	-0.27766076
153	0xbe424a87	-0.18973742
154	0xbec8f6e4	-0.39250863
155	0xbd78b82a	-0.060722508
156	0xbe51388e	-0.2043173
157	0xbe40d3c9	-0.1883079
158	0xbe773cf7	-0.2414435
159	0xbe276ed0	-0.16350865
160	0xbeba41c3	-0.36378297
161	0xbc4ff61c	-0.012692954
162	0xbee6c955	-0.4507548
163	0xbd8dffaa	-0.0693353
164	0xbea44afe	-0.32088464
165	0xbf054d5a	-0.52071154
166	0xbece9f78	-0.4035604
167	0xbed08e42	-0.40733534
168	0x3e0d1c76	0.13780388
169	0xbe5f9bfb	-0.21836846
170	0xbea95b93	-0.33077678
171	0xbe5415f5	-0.20711501
172	0xbee0f119	-0.43933943
173	0xbd097c6e	-0.03356593
174	0xbe98b6d1	-0.29826978
175	0x3c2f666d	0.010705573
176	0xbefceacf	-0.49397895
177	0xbe8f54f9	-0.27994516
178	0xbea18b3a	-0.31551534
179	0xbdbc9f8f	-0.09210121
180	0xbebfbd71	-0.3744922
181	0x3dfd0896	0.12355153
182	0xbeadfc81	-0.33981708
183	0xbf06b362	-0.52617466
184	0xbe048b09	-0.12943663
185	0xbdcca18c	-0.0999175
186	0xbebb4315	-0.36574617
187	0x3e053a6f	0.13010572
188	0xbddaf48f	-0.10691177
189	0xbda771ad	-0.08175979
190	0xbded005f	-0.115723364
191	0xbd27010e	-0.04077249
192	0xbe026f7d	-0.12737842
193	0x3db20668	0.08692628
194	0xbe0ff511	-0.14058329
195	0xbe5a30d3	-0.21307687
196	0xbe8793ca	-0.26479942
197	0xbf101de0	-0.56295586
198	0xbebe5ce2	-0.3718024
199	0xbc923726	-0.017848562
200	0xbe32fadb	-0.17478506
201	0xbe244a24	-0.16043907
202	0xbc4f4d62	-0.012652727
203	0xbe883ac1	-0.26607326
204	0x3d878314	0.06616798
205	0xbee3a8cb	-0.44464716
206	0xbd324061	-0.043518428
207	0xbe7ab247	-0.2448207
208	0xb95c5478	-0.00021012302
209	0xbdc321b9	-0.095279165
210	0xbf019a9b	-0.50626534
211	0x3e388f59	0.18023433
212	0x3dc2c099	0.09509391
213	0xbcb16845	-0.021656165
214	0xbd2b3304	-0.0417967
215	0xbed28e19	-0.41124037
216	0xbdc47b55	-0.09593836
217	0xbe4674e2	-0.19380525
218	0xbe14f5ca	-0.14546886
219	0xbdd0036c	-0.10156903
220	0xbea2a25b	-0.31764492
221	0xbe3ee20f	-0.18640922
222	0xbe36d1a4	-0.17853409
223	0x3d0876bc	0.03331636
224	0xbea49db5	-0.3215157
225	0x3e4af488	0.19819844
226	0x3e410ff7	0.18853746
227	0xbf02fae2	-0.51164067
228	0xbcefccb8	-0.029272422
229	0x3d0f1a47	0.03493717
230	0xbec4240e	-0.38308758
231	0xbd2ccf79	-0.04219005
232	0x3dd5946a	0.10428698
233	0xbda0dcf0	-0.078546405
234	0xbf0221d6	-0.5083288
235	0xbcbe95bc	-0.023264758
236	0xbe7669db	-0.24063818
237	0xbec1af3b	-0.37829003
238	0xbd4bf878	-0.049797505
239	0xbe9e11ee	-0.30873054
240	0xbe5b882e	-0.21438667
241	0xbd2d5167	-0.04231396
242	0xbe2cf5d9	-0.16890658
243	0xbeb22dfa	-0.34800702
244	0xbe9acf29	-0.30236176
245	0xbe48f4e2	-0.19624665
246	0xbed71a6d	-0.4201235
247	0xbef1c1a9	-0.47218063
248	0xbe9e322b	-0.3089765
249	0xbdbfb78d	-0.093611814
250	0xbe8f812e	-0.28028244
251	0xbec8b65c	-0.3920163
252	0xbeb4e1cb	-0.35328516
253	0xbe06ba32	-0.13156965
254	0xbeffb1d5	-0.49940363
255	0xbd92e200	-0.07172012

sequential_3/conv2d_9/Conv2D f4 [32, 3, 3, 3]
0	0x3d922978	0.07136816
1	0x3d5efee4	0.0544423
2	0xbcd89c59	-0.02644174
3	0x3cc0de0a	0.023543376
4	0xbdb16b63	-0.086630605
5	0x3e0cb2eb	0.13740127
6	0xbe1e58e1	-0.15463592
7	0x3d006bd7	0.031352844
8	0x3d2289ab	0.03968207
9	0x3dc9aad9	0.0984704
10	0x3e85cb06	0.26131457
11	0x3c401925	0.011724745
12	0x3df9eb66	0.12203102
13	0xbd2206a9	-0.039557133
14	0x3c93c7d0	0.018039614
15	0xbde2a81b	-0.1106722
16	0xbe0abc79	-0.13548459
17	0xbe12e7f8	-0.14346302
18	0x3d856116	0.06512658
19	0x3de56f43	0.11202862
20	0x3de18de2	0.1101339
21	0xbde1f081	-0.110322006
22	0xbe19c206	-0.1501542
23	0x3bf843fd	0.007576464
24	0xbdddb09a	-0.108247
25	0xbe0f1da6	-0.13976154
26	0xbcc397d3	-0.023876106
27	0xbd845f75	-0.064635195
28	0xbc20c55b	-0.009812678
29	0x3e2c6318	0.16834676
30	0xbb0511f1	-0.0020304883
31	0xbd4d02a5	-0.05005135
32	0xbd2009a8	-0.03907171
33	0xbe810ce1	-0.25205138
34	0xbe4dac3a	-0.2008523
35	0xbe16c9a3	-0.14725356
36	0x3e5bb927	0.21457349
37	0x3db97db9	0.09057183
38	0x3df7e036	0.12103312
39	0x3cf26011	0.029586824
40	0x3ddd619a	0.10809632
41	0xbe1aa8ce	-0.15103456
42	0xbe1675d4	-0.14693385
43	0xbe6724e3	-0.22572665
44	0x3d3f00b3	0.046631526
45	0x3e1ed47f	0.15510748
46	0x3e63a645	0.22231396
47	0x3cf2fc53	0.029661333
48	0x3e19614e	0.14978525
49	0x3dcadfb4	0.09905949
50	0x3db88a53	0.09010758
51	0xbe09ef9d	-0.13470311
52	0x3d97f9c4	0.07420686
53	0xbd758a37	-0.059946265
54	0x3d3c08c2	0.04590679
55	0x3e0e3beb	0.13890044
56	0x3e1f23a1	0.15540935
57	0x3d13f66e	0.036123686
58	0x3e6e723d	0.23285766
59	0x3da961e3	0.082706235
60	0xbd3116c9	-0.04323462
61	0xbe06a0ae	-0.13147232
62	0xbdfd1ae9	-0.12358648
63	0xbdaf3ee1	-0.08556915
64	0x3c5ee8a3	0.01360527
65	0x3d11df25	0.035613198
66	0x3dd55c33	0.10417976
67	0x3ad7cd04	0.0016464298
68	0x3b2b7420	0.0026161745
69	0xbdc940f6	-0.098268434
70	0xbd74256e	-0.05960601
71	0xbe11fb06	-0.14255914
72	0xbd9df5c2	-0.0771289
73	0x3dddb055	0.10824648
74	0x3e0e57dd	0.13900705
75	0x3db397db	0.087691985
76	0xbd222028	-0.039581448
77	0xbe3d0eab	-0.18462627
78	0x3d677c73	0.05651517
79	0xbd8e6707	-0.06953245
80	0xbdc6c54b	-0.097055994
81	0x3b665152	0.0035143686
82	0x3e8fc930	0.2808318
83	0x3e5c2cc4	0.21501452
84	0x3ddb8fcb	0.10720786
85	0xbce9f8c3	-0.028561002
86	0xbdbd31e2	-0.0923803
87	0xbda38d7e	-0.07985972
88	0xbe60e450	-0.21962094
89	0xbe6b5f9b	-0.2298569
90	0x3de96c4f	0.11397611
91	0x3c360e92	0.011111872
92	0x3e2080f8	0.15674198
93	0xbe4019c8	-0.18759835
94	0x3c791cf2	0.015204655
95	0x3c348e48	0.011020251
96	0xbd2943d4	-0.04132445
97	0xbe4cd876	-0.20004448
98	0xbd812596	-0.06305997
99	0xbd7a5055	-0.061111767
100	0x3db46a7d	0.088093735
101	0x3d5d6d0b	0.05405907
102	0xbdc73bb4	-0.09728184
103	0xbd38e983	-0.04514457
104	0xbd7c3e1c	-0.06158267
105	0x3e076d34	0.13225251
106	0x3dc6d82c	0.097092
107	0xbc79395c	-0.015211429
108	0xbdffef2c	-0.1249679
109	0x3db55ba1	0.088553675
110	0xbcca41a3	-0.024689501
111	0x3e455fb6	0.19274792
112	0x3e81e593	0.25370464
113	0x3e831e4f	0.2560906
114	0x3dbe57d9	0.09294099
115	0x3ea84957	0.32868454
116	0x3eabb752	0.335383
117	0xbe386d8e	-0.18010542
118	0xbe0834f5	-0.13301452
119	0xbe499241	-0.19684698
120	0xbe1a55d3	-0.15071802
121	0xbe03bf82	-0.12866023
122	0xbdabc639	-0.08387417
123	0x3e0152bc	0.12629217
124	0xbcb818f6	-0.02247284
125	0xbd323f12	-0.04351718
126	0xbde57db8	-0.112056196
127	0xbd9b7ca2	-0.07592131
128	0xbdfc1f48	-0.12310654
129	0xbd7f2a77	-0.062296357
130	0xbe126f8a	-0.14300361
131	0xbe0adecc	-0.13561553
132	0xbc9c5332	-0.01908264
133	0xbd00bd3b	-0.031430464
134	0xbe183578	-0.14864147
135	0x3d84429e	0.06458019
136	0xbe0d7cbb	-0.13817112
137	0x3d781cd1	0.060574356
138	0x3e1eeb76	0.15519509
139	0x3e4e89b2	0.20169714
140	0x3e525966	0.20541915
141	0x3e2a63e6	0.1663967
142	0x3e62305d	0.22088762
143	0x3e78f2f8	0.24311435
144	0x3cbebe6e	0.023284163
145	0xbe068989	-0.13138403
146	0xbd99936f	-0.07498824
147	0xbe182fbb	-0.14861958
148	0xbd84f5d9	-0.06492204
149	0xbe543787	-0.20724307
150	0xbdef250a	-0.116769865
151	0xbe167f8b	-0.14697091
152	0xbe0bfe0e	-0.13671133
153	0x3d3b95ab	0.04579703
154	0x3c4ff745	0.012693231
155	0x3c9d249d	0.019182498
156	0x3d1f8dce	0.038953595
157	0xbe080210	-0.13282037
158	0x3e2db4f2	0.16963556
159	0xbd0caaac	-0.034342453
160	0xbd64a5b2	-0.055822082
161	0xbd8c2517	-0.06843012
162	0xb9c60a0d	-0.0003777299
163	0xbd8a7d0b	-0.06762131
164	0x3d7839db	0.06060205
165	0xbe0567ea	-0.13027921
166	0x3e7b33ce	0.2453148
167	0x3e2de4f3	0.16981868
168	0x3d418860	0.047249198
169	0x3e1579f4	0.14597303
170	0x3d2b8c5f	0.041881915
171	0x3e078dfa	0.13237754
172	0x3cd1de30	0.025618643
173	0xbe25bbc8	-0.16184914
174	0x3cde9f77	0.027175648
175	0x3d8bfbc2	0.06835128
176	0xbe124fb1	-0.14288212
177	0x3deaea7d	0.11470506
178	0x3d5e28ff	0.054238316
179	0x3cf49e42	0.02986062
180	0xbde3aa1e	-0.11116432
181	0xbd437804	-0.047721878
182	0x3d87fef4	0.06640425
183	0xbde66142	-0.11249019
184	0xbe1571ba	-0.14594164
185	0xbdd50317	-0.1040098
186	0xbe10b90d	-0.14133091
187	0xbe32e4fb	-0.17470162
188	0xbcd883fc	-0.026430123
189	0x3c9a200a	0.018814106
190	0x3d2a62e9	0.041598234
191	0x3d3d1107	0.046158817
192	0xbe1b0f65	-0.15142591
193	0x3bd30d1a	0.006440771
194	0xbe8e2fc1	-0.27770808
195	0xbe164d4b	-0.14677922
196	0xbe4ccd7a	-0.20000258
197	0xbd76ccfb	-0.06025408
198	0x3e8fb167	0.28065035
199	0x3e850c5c	0.25985992
200	0x3d980cfc	0.074243516
201	0xbd8ff9be	-0.070300564
202	0x3ddcc1c3	0.107791446
203	0xbe178047	-0.14795028
204	0x3ca07125	0.019585202
205	0xbd72e54b	-0.059300702
206	0xbe1a5c1c	-0.150742
207	0x3dfae485	0.12250618
208	0x3dd17bbe	0.1022868
209	0x3e8ace95	0.27110735
210	0x3935cd69	0.00017338026
211	0x3e09b6df	0.13448666
212	0x3dca317e	0.09872721
213	0xbdadbb20	-0.08482957
214	0xbd14a956	-0.036294304
215	0x3def9741	0.11698771
216	0x3e12d995	0.14340813
217	0x3e2ad43f	0.16682528
218	0x3da234d1	0.0792023
219	0x3df55cad	0.11980567
220	0x3bf37a95	0.0074303844
221	0x3e38ad34	0.18034822
222	0xbe1d8a7a	-0.15384856
223	0xbdc2e2f8	-0.09515947
224	0x3d360cf7	0.044445958
225	0x3d99cfe1	0.07510353
226	0x3e0591bc	0.13043875
227	0x3e69edbf	0.22844599
228	0xbe89518a	-0.26820022
229	0xbe466be8	-0.193771
230	0xbcfce094	-0.030868806
231	0x3c16aef2	0.009196984
232	0xbd4212fe	-0.047381394
233	0xbe87368e	-0.2640881
234	0x3dd2cf35	0.10293428
235	0xbe193e9a	-0.14965287
236	0x3d92d809	0.07170112
237	0xbe42b2c7	-0.1901351
238	0xbe4eb962	-0.20187905
239	0xbe61911c	-0.22028011
240	0x3dfca2fd	0.12335775
241	0x3e0526af	0.13003038
242	0x3da52d06	0.08065228
243	0xbd86b9f4	-0.065784365
244	0x3e1e72bf	0.1547346
245	0x3d858eac	0.06521353
246	0x3cacec71	0.021108838
247	0xbe82fe7c	-0.2558478
248	0xbd9819d6	-0.07426803
249	0xbdb55e55	-0.08855883
250	0xbdee8668	-0.1164673
251	0xbda576ba	-0.08079286
252	0xbd272e13	-0.040815424
253	0xbe2baffd	-0.16766353
254	0xbd48ca9f	-0.04902136
255	0xbd882d06	-0.066492125

sequential_3/conv2d_10/Conv2D f4 [32, 3, 3, 32]
0	0x3deb1437	0.11478465
1	0x3e6fa683	0.23403363
2	0xbc84bd75	-0.016203621
3	0x3d9eb36e	0.07749067
4	0xbd3d2491	-0.04617745
5	0x3ba628c3	0.005070777
6	0xbd2602f0	-0.040530145
7	0x3e1aaf52	0.15105942
8	0x3dd30fc7	0.10305744
9	0xbe28280d	-0.16421528
10	0x3ddd320e	0.10800563
11	0xbd2eba42	-0.042658098
12	0x3d69509e	0.05696165
13	0x3e0c2a74	0.1368807
14	0x3c31d66f	0.010854348
15	0xbdcc4a94	-0.09975162
16	0xbc6fb5f8	-0.014630787
17	0x3badeec4	0.005308004
18	0xbcc63107	-0.0241933
19	0x3d3e6845	0.046486158
20	0x3d8b8035	0.06811563
21	0xbd5e080c	-0.054206893
22	0xbc5c33c3	-0.013440075
23	0xbd936a08	-0.07197958
24	0x3dceed02	0.101037994
25	0x3ce9a463	0.028520769
26	0x3cb75ffa	0.022384632
27	0xbd151f64	-0.03640689
28	0x3d9860d3	0.07440343
29	0xbda4365f	-0.08018183
30	0x3c6d0b51	0.01446803
31	0x3d5670ab	0.052353542
32	0x3e24834e	0.16065714
33	0x3e6bd4d4	0.23030406
34	0x3d1668bb	0.036720973
35	0x3e2bfa3e	0.16794679
36	0xbdb06da5	-0.08614663
37	0xbddf705c	-0.10910103
38	0x3c14f27f	0.009091019
39	0xbca46ddf	-0.020071922
40	0x3cbb76d7	0.022883816
41	0xbd93aa84	-0.07210258
42	0xbcf46716	-0.029834311
43	0x3d36b8cc	0.04460983
44	0x3d8ef83c	0.06980941
45	0xbd9656e2	-0.0734079
46	0x3e192bff	0.1495819
47	0x3d69b9fa	0.057062127
48	0x3dda8a9d	0.1067097
49	0x3dd0e117	0.101991825
50	0x3dda3da2	0.10656287
51	0x3d3b038f	0.04565769
52	0xbe06a265	-0.13147886
53	0x3c9838d9	0.018581795
54	0x3d539e73	0.05166478
55	0xbe7e700a	-0.24847427
56	0xbe4353bf	-0.19074915
57	0xbdd043f5	-0.10169212
58	0x3e08535b	0.13313048
59	0x3e51bf52	0.20483139
60	0x3dc0beea	0.09411414
61	0xbcefb6de	-0.029262003
62	0x3e16c886	0.14724931
63	0xbda98b1b	-0.082784854
64	0x3e61a17e	0.2203426
65	0x3da14874	0.078751475
66	0x3cdfd8f3	0.02732513
67	0x3e085f02	0.13317493
68	0x3d34e53f	0.04416394
69	0x3e259357	0.16169487
70	0x3cab2968	0.020893767
71	0xbc87a0aa	-0.016556103
72	0x3d401451	0.046894375
73	0x3dcea093	0.10089221
74	0xbe5335bf	-0.20625971
75	0xbe8fc77f	-0.2808189
76	0xbd9c96a8	-0.07645923
77	0x3caf8574	0.02142594
78	0xbd3bc65b	-0.045843463
79	0xbd94d4f9	-0.07267184
80	0xbe0bf55b	-0.13667814
81	0xbe040409	-0.12892164
82	0xbdcf9969	-0.101366825
83	0x3df413ed	0.11917863
84	0x3d44b171	0.048020784
85	0xbccabe5f	-0.02474898
86	0x3daa63da	0.083198264
87	0x3e114184	0.14185148
88	0xbd98386e	-0.07432638
89	0xbe35db39	-0.17759408
90	0x3e40298e	0.18765852
91	0xbd4b52f0	-0.049639642
92	0xbcef0523	-0.029177254
93	0xbe39bd00	-0.18138504
94	0x3dc2f372	0.0951909
95	0xbc0c8371	-0.00857626
96	0xbb0f4712	-0.002186243
97	0x3deeefe1	0.11666847
98	0xbe34e8b5	-0.17666896
99	0xbe657e3f	-0.2241144
100	0x3dd616e8	0.10453588
101	0x3ded4832	0.11586036
102	0xbd06d652	-0.032919236
103	0x3dcc2d78	0.0996961
104	0xbdab9e39	-0.08379788
105	0xbd833e0c	-0.06408319
106	0xbd27c8b6	-0.040962897
107	0xbe021255	-0.12702306
108	0xbe0b3b6c	-0.13596886
109	0x3cd11f1d	0.025527531
110	0xbe48f53d	-0.19624801
111	0xbe18d4e4	-0.14924961
112	0xbe3b9701	-0.18319322
113	0xbd95adeb	-0.07308563
114	0xbe07a44b	-0.13246267
115	0x3d224867	0.03961983
116	0xbd4bd6d4	-0.049765423
117	0x3e4284ff	0.18996046
118	0x3d9524aa	0.07282384
119	0x3e485395	0.19563134
120	0x3e4d7938	0.20065773
121	0x3d9459b9	0.07243676
122	0xbd7f836d	-0.062381197
123	0x3d9227f5	0.071365274
124	0x3e0cd7ee	0.13754246
125	0xbdd5ab26	-0.104330346
126	0x3bcb6e8f	0.006208248
127	0x3d489479	0.04896972
128	0x3c597aa2	0.013273867
129	0x3e6c78c7	0.23092948
130	0xbcefa336	-0.02925263
131	0x3df197d5	0.11796538
132	0x3c8cd102	0.017189506
133	0xbe2a6ff7	-0.16644274
134	0xbe0cf7cc	-0.13766402
135	0x3c135533	0.008992481
136	0xbda19223	-0.078892015
137	0xbe334b46	-0.17509183
138	0x3daefdda	0.08544512
139	0x3cb181e0	0.021668375
140	0x3d67f61b	0.05663119
141	0xbdd9be4e	-0.10632001
142	0x3da1af58	0.07894772
143	0xbce90431	-0.028444381
144	0x3d91546d	0.07096181
145	0x3def2097	0.11676138
146	0xbd947e42	-0.07250644
147	0x3d27720b	0.040880244
148	0xbdda2572	-0.106516734
149	0x3d412fc5	0.047164697
150	0x3d9d0f60	0.07668948
151	0xbd37c512	-0.044865675
152	0xbeb8d0a0	-0.36096668
153	0xbe152528	-0.14564955
154	0x3dc88856	0.09791629
155	0x3d95cd3d	0.07314537
156	0xbe9e2edb	-0.30895123
157	0xbdc0b610	-0.09409726
158	0xbd825710	-0.06364262
159	0x3dc52996	0.096270725
160	0x3e9b51b0	0.3033576
161	0x3dd344ce	0.10315858
162	0x3e7ef7ed	0.24899264
163	0x3e95458f	0.29154631
164	0x3d3f896a	0.046761908
165	0x3ccd469f	0.025058089
166	0xbe1b15c0	-0.15145016
167	0x3d29d0f8	0.041459054
168	0x3e39bd91	0.1813872
169	0xbcf83bc2	-0.030301932
170	0xbd7b46d1	-0.061346833
171	0xbdbb83e2	-0.09156014
172	0x3e79baf9	0.2438773
173	0x3da95d75	0.08269779
174	0x3d62af1c	0.05534278
175	0x3d394ad7	0.04523739
176	0xbe133010	-0.14373803
177	0x3cbc24d7	0.022966785
178	0x3df5b148	0.11996704
179	0x3e23e0ed	0.16003771
180	0xbcd721d8	-0.026261255
181	0xbe893260	-0.26796246
182	0x3e067d0c	0.13133639
183	0xbd806a3d	-0.06270263
184	0xbe05d5da	-0.13069859
185	0xbdf0749f	-0.11740994
186	0x3dc3643c	0.095406026
187	0x3d582db7	0.052777972
188	0x3d1919c4	0.037378088
189	0x3d4e6105	0.050385494
190	0x3d98ddb3	0.07464161
191	0xbd669247	-0.056291845
192	0x3daddab8	0.08488983
193	0xbc5e1573	-0.013554919
194	0x3a268cd5	0.0006353383
195	0xb9bbeb85	-0.00035842895
196	0x3d815cd2	0.06316532
197	0xbd510543	-0.05103041
198	0xbd596460	-0.05307424
199	0x3c496832	0.0122929085
200	0xbe0bfdb4	-0.13670999
201	0x3cebeeca	0.028800387
202	0xb943bdbf	-0.00018667335
203	0x3d00f697	0.031485166
204	0xbd7041b5	-0.058656413
205	0x3e28a1c2	0.16467956
206	0xbd9850a0	-0.07437253
207	0xbdcdcffe	-0.10049437
208	0xbe0b99d8	-0.13632905
209	0xbd867c86	-0.0656672
210	0xbdbba385	-0.09162048
211	0xbe6c9fee	-0.23107883
212	0x3e132e4b	0.14373128
213	0x3e2799ab	0.16367213
214	0xbe1c699c	-0.15274662
215	0x3d2a0d55	0.04151662
216	0xbd3a58ef	-0.04549497
217	0xbe0791fd	-0.13239284
218	0xbdddc872	-0.108292475
219	0xbe5810c1	-0.21100141
220	0xbddd25ff	-0.10798263
221	0x3e04eb21	0.1298032
222	0xbe0ff99d	-0.14060064
223	0x3e25cb16	0.16190752
224	0x3df632eb	0.120214306
225	0x3e110afb	0.14164345
226	0x3d82b103	0.063814186
227	0x3be46fc5	0.006971332
228	0xbd8f3b29	-0.06993706
229	0xbe6f5b4f	-0.23374675
230	0xbdb634b2	-0.088967696
231	0x3d7165d1	0.05893499
232	0xbe590c2a	-0.21196046
233	0xbdbadc02	-0.091239944
234	0xbd0c5b1c	-0.034266576
235	0x3d016a7f	0.031595703
236	0x3e270863	0.16311793
237	0x3c4f31fb	0.012646194
238	0xbde9afef	-0.1141051
239	0xbe595996	-0.2122558
240	0xbda803d2	-0.08203854
241	0xbdb416b1	-0.087933905
242	0x3d6f9c3c	0.058498606
243	0xbe02ede7	-0.12786065
244	0xbe550af2	-0.20804957
245	0x3e34055a	0.17580166
246	0xbe4376d2	-0.19088295
247	0xbbc57bdd	-0.0060267285
248	0xbdcd9ee8	-0.100400746
249	0xbca9da3b	-0.020733943
250	0x3d1f1192	0.038835116
251	0xbe011ba9	-0.12608208
252	0xbe14405c	-0.14477676
253	0xbb017ad1	-0.0019757042
254	0x3de7dff6	0.11322014
255	0x3d55f8f3	0.05223937

sequential_3/conv2d_11/Conv2D f4 [32, 3, 3, 32]
0	0x3d0f9c73	0.03506131
1	0x3d4d5b68	0.050136
2	0xbdaaa5a8	-0.08332378
3	0xbc4df83b	-0.01257139
4	0x3e5c9272	0.2154024
5	0xbb06abe8	-0.0020549241
6	0x3dafef4e	0.085905656
7	0xbe45250b	-0.19252412
8	0x3de76fd3	0.11300626
9	0x3b007bf6	0.0019605136
10	0x3e0a10eb	0.13483016
11	0x3dc32e2c	0.09530291
12	0xbd9b014d	-0.075686075
13	0x3de42f6d	0.11141858
14	0x3de0c3e2	0.10974862
15	0x3a30b600	0.00067409873
16	0x3e230272	0.15918902
17	0x3d8d824f	0.0690962
18	0x3d7ff4e7	0.062489416
19	0x3c51a3fb	0.012795444
20	0x3d8cdfab	0.06878599
21	0x3d7b867c	0.06140755
22	0x3dca8035	0.09887735
23	0xbd311ce2	-0.043240435
24	0x3c98eb66	0.018666934
25	0x3db56aef	0.088582866
26	0xbdaf9ad4	-0.08574453
27	0xbd6b609b	-0.057465177
28	0x3dec834e	0.11548482
29	0x3dcb947b	0.0994043
30	0xbd1d2813	-0.038368296
31	0x3d23d7d0	0.040000737
32	0x3d7e0d55	0.062024433
33	0x3de98767	0.11402779
34	0xbd101f9f	-0.035186406
35	0xbd944ec6	-0.07241587
36	0xbdd835fd	-0.105571724
37	0xbe176e4d	-0.1478817
38	0xbde64f02	-0.11245538
39	0xbdce602e	-0.100769386
40	0xbd81d51b	-0.06339475
41	0xbd80b385	-0.06284241
42	0xbe58e79b	-0.211821
43	0xbdf97657	-0.12180775
44	0x3c25aa85	0.010111456
45	0x3e1c1df5	0.15245803
46	0xbe113e2a	-0.1418387
47	0x3d917a35	0.07103387
48	0xbe69c5a4	-0.228293
49	0xbd26e484	-0.040745273
50	0x3da2f3cb	0.07956656
51	0x3d7b17b9	0.06130192
52	0xbe0edb97	-0.13950954
53	0xbdde54bf	-0.10856008
54	0xbd39bfbd	-0.04534887
55	0xbd171a04	-0.036890045
56	0x3e99e398	0.30056453
57	0xbd584fac	-0.052810356
58	0xbda06312	-0.07831396
59	0xbe838e0f	-0.2569432
60	0xbe2c3cda	-0.16820088
61	0xbdaa9932	-0.08330001
62	0xbe12bb6d	-0.1432931
63	0xbe887921	-0.26654914
64	0x3e0c1c6d	0.13682719
65	0x3e360e98	0.17779005
66	0x3d8066ca	0.062696055
67	0xbe51e7c9	-0.20498575
68	0xbd076e7c	-0.03306435
69	0xbd584a32	-0.052805133
70	0xbd6d1c39	-0.057888243
71	0x3c009309	0.007847556
72	0x3d91eb93	0.0712501
73	0xbd251894	-0.040306643
74	0xbd0e3eb5	-0.03472777
75	0xbd89233e	-0.06696175
76	0xbd9b2214	-0.07574859
77	0x3ddcec54	0.107872635
78	0x3cb61d60	0.022230804
79	0x3eb0c7b8	0.34527373
80	0xbdc7056e	-0.097178325
81	0xbcea7a34	-0.028622724
82	0x3daf76b9	0.085675664
83	0xbb5c9603	-0.003365875
84	0x3d771a30	0.06032771
85	0x3dcd6023	0.10028102
86	0x3d12fd9a	0.035886385
87	0x3ddd68b8	0.10810989
88	0x3da52982	0.080645576
89	0xbd03cbee	-0.032176904
90	0xbc48875b	-0.0122393025
91	0xbc8be7a5	-0.01707823
92	0x3e28cca2	0.16484311
93	0xbc801641	-0.015635611
94	0xbd2c2d29	-0.042035256
95	0xbe42f536	-0.19038853
96	0x3d8aece3	0.06783464
97	0x3c952c3e	0.018209573
98	0xbdaec6e3	-0.085340284
99	0xbde845f1	-0.11341465
100	0xbcac889e	-0.021061238
101	0x3c8cd260	0.017190158
102	0xbcd2cf29	-0.025733547
103	0xbd7aa3ac	-0.061191246
104	0xbe695337	-0.2278565
105	0x3d93facd	0.07225571
106	0xbdff8cdf	-0.12478041
107	0xbc0fb686	-0.008771544
108	0xbe00e194	-0.12586051
109	0xbde68429	-0.11255676
110	0x3e039d2d	0.12852927
111	0xbd189999	-0.037255857
112	0x3de17a0e	0.11009608
113	0x3c9670fe	0.018364426
114	0xbe090188	-0.1337949
115	0xbde01b1b	-0.1094267
116	0xbe071d5f	-0.13194798
117	0xbe1b8f1b	-0.15191309
118	0x3dd72f06	0.10507016
119	0x3cc7883c	0.024356954
120	0xbe89d617	-0.2692115
121	0xbe07f32f	-0.13276361
122	0xbdf1713e	-0.11789177
123	0xbe7de853	-0.24795656
124	0xbbab6412	-0.005230435
125	0x3d4f5943	0.050622236
126	0x3cb63b72	0.022245143
127	0x3d224791	0.039619032
128	0xbdf066c8	-0.11738354
129	0x3e5503a7	0.20802175
130	0xbd74d6a2	-0.059775002
131	0xbe1d328c	-0.15351313
132	0xbda266fe	-0.079298005
133	0x3dce7e28	0.10082656
134	0xbe0839fd	-0.13303371
135	0xbddb3317	-0.10703104
136	0xbd3e1344	-0.046405092
137	0xbe9951fa	-0.29945356
138	0xbcc6e511	-0.02427915
139	0xbde50749	-0.1118303
140	0x3e207af2	0.156719
141	0xbe6dbca3	-0.2321649
142	0x3d3f1bc1	0.046657328
143	0xbd5ff2ee	-0.054675035
144	0x3e5f3b99	0.21800078
145	0xbe210fd5	-0.15728696
146	0xbba6a86c	-0.0050859954
147	0xbdf5f7c5	-0.12010149
148	0xbe27493a	-0.16336527
149	0xbe6f2112	-0.23352459
150	0xbd0a0293	-0.03369386
151	0x3eab73a5	0.33486667
152	0x3c9ed063	0.019386476
153	0xbdb46d39	-0.08809895
154	0xbe52a22b	-0.20569675
155	0x3ba52dbb	0.005040852
156	0xbe6f488c	-0.23367518
157	0xbdb40593	-0.08790126
158	0xbe7942a0	-0.24341822
159	0xbe4a4473	-0.19752674
160	0xba053ce5	-0.00050826214
161	0x3d60b2b1	0.054857913
162	0xbd764ea2	-0.060133584
163	0x3dbe630f	0.09296238
164	0xbc3dca00	-0.011583805
165	0xbdd26be8	-0.10274488
166	0x3dd1aa72	0.10237588
167	0x3de0edbb	0.109828435
168	0xbda25554	-0.07926431
169	0xbe027ab5	-0.12742122
170	0xbd032ea2	-0.032026894
171	0x3cd24050	0.025665432
172	0x3e4cf790	0.20016313
173	0xbc8c6be6	-0.017141294
174	0xbcb82be2	-0.022481862
175	0x3d06bc83	0.032894623
176	0xbc369d47	-0.011145896
177	0xbe0dc0eb	-0.13843124
178	0xbd706388	-0.05868867
179	0x3e04699a	0.12930909
180	0x3daf42aa	0.08557637
181	0xbe2ba748	-0.16763031
182	0xbdc7ed48	-0.09762055
183	0x3decd064	0.11563185
184	0x3dc31e35	0.09527246
185	0x3dcdf228	0.10055953
186	0x3e784b61	0.24247505
187	0x3d847fd6	0.06469695
188	0xbe1b5c80	-0.15172005
189	0xbc872ed5	-0.016501823
190	0x3da25b04	0.07927516
191	0xbe71170f	-0.23543952
192	0xbdb85878	-0.09001249
193	0xbc60f13b	-0.013729389
194	0xbdaef5f5	-0.08543006
195	0x3d0d7984	0.034539714
196	0x3c44a522	0.012002261
197	0xbe8c6884	-0.2742349
198	0x3d62849a	0.05530224
199	0x3d727d56	0.05920156
200	0x3d88e25c	0.066837996
201	0xbdb04aa0	-0.086079836
202	0x3d794c3f	0.06086373
203	0xbaf83e36	-0.0018939439
204	0x3c98f964	0.018673606
205	0xbe6a941c	-0.22908062
206	0x3dd29b89	0.10283572
207	0x3d88b69e	0.066754565
208	0x3ddfe579	0.1093244
209	0xbe413f5a	-0.18871823
210	0xbe2bef56	-0.16790518
211	0xbdbff506	-0.093729064
212	0xbe2d4ebf	-0.1692457
213	0xbd99255b	-0.07477828
214	0x3c2dcc85	0.010607843
215	0x3e2e03e3	0.1699367
216	0xbd318121	-0.043336038
217	0x3d5bf712	0.05370242
218	0x3c2a332b	0.010388176
219	0x3cd12f5a	0.025535274
220	0x3d622cff	0.055218693
221	0xbce9c989	-0.028538482
222	0xbbb87287	-0.005628887
223	0xbdf521bc	-0.11969325
224	0x3d088b39	0.033335898
225	0xbe4e2f84	-0.20135313
226	0x3d732461	0.059360866
227	0x3dbc1af2	0.09184827
228	0xbd4e62e4	-0.05038728
229	0xbe1aff9d	-0.15136571
230	0xbd70cb90	-0.058787882
231	0x3e14671d	0.1449246
232	0xbdf7ba8b	-0.12096127
233	0xbd880ebc	-0.06643435
234	0x3ca36d49	0.019949572
235	0xbe0e2e98	-0.13884962
236	0x3dec7275	0.115452684
237	0xbce0bd6d	-0.027434075
238	0x3e346b42	0.1761904
239	0x3e4b2275	0.19837363
240	0xbdedf498	-0.11618918
241	0xbd9ca978	-0.07649511
242	0xbe123fdc	-0.14282173
243	0x3ede680c	0.43438756
244	0x3d46c596	0.048528276
245	0xbd0412f0	-0.032244623
246	0x3e472964	0.19449383
247	0x3d95f7c4	0.07322648
248	0x3dd82e10	0.10555661
249	0xbe01800b	-0.12646501
250	0x3df966fe	0.12177847
251	0xbdc005a4	-0.09376076
252	0xbdab4c66	-0.08364181
253	0xbda9ddfb	-0.082942925
254	0xbdda56a6	-0.10661058
255	0xbc988f38	-0.01862298
