a_output_actual/dig-s3.tflite (tflite, 219284 bytes, 12 tensors)

dense_7/bias f4 [11]
00000000: f5ff 70be 372c 36be 81f9 47be ad14 09be
00000010: d9f5 39be a9ea 47be 6281 8bbe 5e7b 41be
00000020: 44fb 53be 7b85 36be 4160 edbd
-0.2353514 -0.17790304 -0.19528772 -0.13386793 -0.1816019 -0.1952311 -0.2724715 -0.18894717
-0.20701319 -0.17824356 -0.115906246

dense_6/bias f4 [128]
00000000: 3cc1 e2bb cb77 43bd 4ad2 a4bb 8958 a83d
00000010: f014 bb3d 4144 92bd 4df5 913c 19be 9cbd
00000020: 45e8 743c 105e febc 8ad6 4c3c 5938 d1bc
00000030: 1a9a 1cbd 81a4 90bc 715b a33d 0359 f9bc
00000040: d724 153d 4f62 383d 5b06 5fbc 9bf2 923c
00000050: 012f 363d 7a5d 003d d41d 25bd 8480 cdbc
00000060: d536 4c3d e0cf a1bc 8ffd b93b 46dd 5fbc
00000070: 71ce debc 14d6 293d fe91 4dbb 80ed 21bd
00000080: bef4 18bc 20bf 3ebd a876 803c bdf3 1fbc
00000090: c4e3 80bd 7997 133e b6b3 113c ea51 a73d
000000a0: 67eb a5bc 7e19 e3bb 252c 6dba 7e20 ecbb
000000b0: b56f 4fbc 0e78 1abc c23e 59bc ca3e 6abb
000000c0: 00ec bc3d f98e 22bd 1732 623d 7fdf b7bd
000000d0: f289 6a3b c8ee 8dbd 506e d93d 434f 4c3c
000000e0: 7bda 13bd a042 13bc 2e76 f83c b767 57bd
000000f0: 2a25 c4bd 2d69 423d 484d 39bd b3f9 333d
00000100: a655 1fbd 8aab cabc 8602 a9bc 5c66 bc3d
00000110: 1842 8d3d a567 dbba f29c 063c 0154 843c
00000120: 5a34 6fbc 396a 2aba eb7d 10bd c659 9b3d
00000130: 9eef 49bd a411 213d 4d95 f6bb d879 d03a
00000140: 8e94 c4bd 8b4c a43c 008d 5a3c 784c 4dbd
00000150: 6ec1 ac3c 4e91 debc 9f5b b3bc a186 6dbd
00000160: fe3f 05bd c4c1 bc3c c8e7 47bd 8161 513c
00000170: 4072 9e39 f5d8 3ebc b577 d1bc 1c4e 79b6
00000180: 9eb0 663c 5de6 17bd 403f 463d 1ea0 d73b
00000190: 5bc0 36bd c97b 0abd de66 63bd 00ac a2bc
000001a0: 7641 423c 05b2 873c e22b 163e c3ad 26bd
000001b0: b9c1 1f3d 8df5 c83d a629 8ebd 8fb5 4ebd
000001c0: a555 743d 39c1 debd 34f5 89bd 701c 013e
000001d0: d89e 0bbd 1c92 52bd ced1 f93c 02d7 113d
000001e0: dc26 a8bc 4e01 603c cfe1 0ebd 11c3 d83d
000001f0: 70c6 673d 1ef7 fe3c 1fef 053e 68df c33d
-0.006920008 -0.047721665 -0.005029951 0.08220012 0.09134853 -0.07141925 0.017817164 -0.07653446
0.0149479555 -0.031050712 0.012502322 -0.025539564 -0.0382329 -0.017656567 0.079764254 -0.030437952
0.036412086 0.04501563 -0.013612355 0.017937949 0.04447842 0.031339146 -0.04031165 -0.025085695
0.04985698 -0.019752443 0.0056759785 -0.013663596 -0.027198048 0.041463926 -0.0031367536 -0.03953314
-0.009335695 -0.04656899 0.01568158 -0.009762702 -0.06293443 0.14413251 0.008892944 0.08169921
-0.02025385 -0.006930529 -0.00090474106 -0.007206022 -0.01266091 -0.009428037 -0.013259592 -0.0035742992
0.09224701 -0.03968713 0.05522355 -0.08978175 0.0035787788 -0.069303095 0.106167436 0.012470069
-0.03609703 -0.008988053 0.03032979 -0.052589145 -0.09577401 0.047463585 -0.045239717 0.043939304
-0.03890004 -0.02474 -0.020631086 0.09199211 0.06897372 -0.0016739263 0.00821613 0.016153337
-0.014599884 -0.0006500814 -0.035276335 0.07585482 -0.049300782 0.039323464 -0.0075251223 0.0015905453
-0.09598647 0.02005603 0.013339281 -0.050121754 0.021088328 -0.027168896 -0.021894274 -0.05798972
-0.03253173 0.023041613 -0.04880503 0.012779594 0.0003022123 -0.011648406 -0.025569776 -3.7149357e-06
0.014080195 -0.037084926 0.048400164 0.0065803668 -0.04461704 -0.033809457 -0.055518024 -0.019857407
0.011856427 0.016564379 0.14665177 -0.040693056 0.039003108 0.0981246 -0.069415376 -0.050466117
0.05965199 -0.10876698 -0.06736222 0.12608504 -0.034087032 -0.051408872 0.03049555 0.035605438
-0.020526342 0.013672186 -0.034883317 0.10584081 0.05658573 0.031123694 0.13079499 0.09564096

conv2d_9/bias f4 [32]
00000000: 5a53 80bd 0365 ebbd 5e1f 9abd 96ca 9ebd
00000010: 930a 9ebc 213c 9cbd 0cdc 20be ca42 0e3c
00000020: ade6 083d 99ed 683d cb41 25be 65c0 e7bd
00000030: e45e b4bc 69a9 08be 5abe f3bd e94f c0bd
00000040: 5d67 bcbd 8da5 07bd 6302 18be 3345 65bd
00000050: ed8d 27be 0af0 043d b1d9 a1bd a1ca 6a3d
00000060: 5ca7 fdbd 8ed1 adbd daa3 52be 4ca9 71bd
00000070: 7bb2 e2bd 25c2 d4bd 3e93 01bd aaa3 0bbd
-0.06265898 -0.11493876 -0.07525514 -0.07753484 -0.019292152 -0.07628656 -0.15708941 0.008682916
0.033423115 0.056867216 -0.1613838 -0.11315993 -0.022017904 -0.13345875 -0.11901541 -0.09390242
-0.091994025 -0.033116866 -0.1484466 -0.055974197 -0.16362734 0.03245548 -0.079028495 0.05732215
-0.12385437 -0.08487235 -0.20570317 -0.058999345 -0.11069199 -0.10388593 -0.03163456 -0.03409163

conv2d_11/bias f4 [32]
00000000: dd3f 9abd 6c1c 0ebd dc39 50be 61d4 44bc
00000010: 4dbb b0bd f0df a9bd 5a74 3bbe 9a75 ecbc
00000020: 024a aabd 6996 123b f231 65bd bed5 3cbd
00000030: b3ea 623c d4bb d1bc a14d 21bd 4000 b2bd
00000040: df45 85bd a495 083e 8cd4 bcbd c730 803d
00000050: 89e4 65be 835e 3cbd 4358 6a3c 7014 ad3d
00000060: 7326 8abd 6104 3ebd a290 21be 5631 61bc
00000070: d619 143d 9109 99bc 1ecd 3dbd ebbe b3bd
-0.07531712 -0.034695074 -0.20334572 -0.012013526 -0.08629475 -0.08294666 -0.18306103 -0.02886467
-0.08314897 0.0022367483 -0.055955835 -0.046102278 0.013849902 -0.025602259 -0.039380673 -0.08691454
-0.065074675 0.13338333 -0.092202276 0.062593035 -0.2245046 -0.04598857 0.01430327 0.08451164
-0.06745615 -0.046390895 -0.1577783 -0.013744673 0.03615745 -0.01868132 -0.046338193 -0.08776649

conv2d_10/bias f4 [32]
00000000: c4cd a6bd 46aa fa3c c96a a5be 134a aabd
00000010: 7723 363e bfcf b33b 7238 913b 4484 dabd
00000020: f2ab ad3c 2ce6 f9bd b420 4ebd 0e6f 67bd
00000030: b6b5 fcbd 9ab4 06be 4ff5 0c3e 01d1 b6bd
00000040: e080 eebd 809c 60bb 0919 42bd 2e74 28be
00000050: 69b1 e0bd 5a0f ae3b e4ad 84bd 1cce 7a3d
00000060: 0f35 e0bc 67c0 2ebd b743 833b f50e a6bc
00000070: 16a5 d23d 3be2 2a3e e50c 643b 6e0d 49bd
-0.081447154 0.03059877 -0.32308033 -0.0831491 0.17786966 0.0054874117 0.0044317776 -0.10669759
0.021200154 -0.12202105 -0.050324157 -0.056502394 -0.12339346 -0.13154832 0.13765453 -0.08926583
-0.11645675 -0.0034272969 -0.047387157 -0.16450569 -0.10971338 0.0053118886 -0.064784795 0.061231717
-0.02736905 -0.042663958 0.004005875 -0.020270804 0.10285394 0.16687863 0.0034797725 -0.049085073

sequential_3/batch_normalization_3/FusedBatchNormV3 f4 [3]
00000000: 09ae 4a3c e9dc 883c 980c 723c
0.012370595 0.0167069 0.01477351

sequential_3/batch_normalization_3/FusedBatchNormV31 f4 [3]
00000000: a52d c0bf 6b6f fabf 9efc e2bf
-1.501393 -1.9565252 -1.7733343

sequential_3/dense_6/MatMul f4 [128, 256]
00000000: accf 98bc 8f2f b33c c2a1 df3d aa8c 443e
00000010: 0bab cebd 5e72 cebd 53ee 073e 5076 cb3c
00000020: 927d 883e c335 05be a4f1 98bd d9be 87bd
00000030: 163c 5d3e db56 83bd 6649 0dbd 205d 943a
00000040: 5e4e 03be eea3 93bd 72df 68bc 7d72 473d
00000050: 0e08 d33b d327 84bc ac8c 283d 1fa3 27be
00000060: fc62 063d 5f45 153e 2316 84bd 1916 4fbd
00000070: bb05 b43d c043 093e e66e 00be 3fac 1dbe
00000080: 062f 70bd aa97 01be ef3f 913d 0bee f53d
00000090: a449 e5bc 945f cf3d 34db a53d 2002 b4bd
000000a0: d00d 003d 607a ae3c 5ad4 50bd 2452 143d
000000b0: fbe0 333e 2051 7f3d 1250 273d 5d74 833d
000000c0: 25d4 9a3b db59 6dbc c3ad ca3d 32e8 58ba
000000d0: 0597 c03d 1aea b1bd 4504 153d 49b8 f93d
000000e0: a0fc 233d 2bd1 3bbc 7ad3 863d ab4f c03d
000000f0: f7c3 a43d da36 e5bc cb76 783e c5ec f03c
00000100: 0fa7 773e d110 8cbd 2689 0b3e 4646 253e
00000110: 30ed 14bd 0b82 583e 7f5d 9ebd acd8 2dbc
00000120: 74b5 0fbd 0dad 333e ef71 5c3d 4a75 693c
00000130: 7fe3 18bc a960 153c 55a7 53be c063 e5bd
00000140: b236 4a3d b2cc 98bc 6e06 a63d be8d 5b3e
00000150: d517 b1bd 0cac 00be d9c7 e13d 7747 8e3c
00000160: 88fa 15be de0f ae3d c08a b53d ad88 6c3e
00000170: bbc9 c63d ae96 9d3e 36c7 6dbe e465 12bd
00000180: 4ca2 c2bc cc5e adbc 4188 153e 67f5 c93e
00000190: fd7c 0cbe 6594 e83d 798d 323e 171c 833d
000001a0: 9249 1abd ca4e cd3d ec62 afbd 4fad f4bc
000001b0: def8 1a3e df14 68bd 615f b13d 0fbc b0bd
000001c0: c1c5 113e d95e 5cbd a69a 03be c7d7 8bbd
000001d0: 4ad9 acbd 186e 2a3b 5048 95bd b1a7 003e
000001e0: 84ef 423d d35c d4bc f562 d13d 4767 8fbd
000001f0: 94e1 643b 01a4 07bd afd5 9c3e 5cf9 dc3d
00000200: 3abd 19be c7db 2e3d 056f abbd 0107 4ebe
00000210: f542 043e 81ff aa3d f357 c9bd 58b9 343e
00000220: 075b d33d b157 ab3d 309b 6d3a b654 133e
00000230: bc2a 233e d2f5 6a3c 47f2 6e3e 3af2 2e3e
00000240: f607 953c 3242 4b3e eac3 e33d 36be 423d
00000250: cd26 5d3e 280c 573d 96d7 843e b2c1 0bbe
00000260: fc06 403e 5860 b53d b2e1 43bc 1325 993b
00000270: 256f 47bd b7ba 3abe d38a 04bb 64c1 833d
00000280: 684a 8cbd 3289 4a3d 919d 7e3d dbf9 04be
00000290: a0c6 dfbc 73f7 3b3e aa87 7d3d 6678 d13d
000002a0: a4cf 66bc 3d9f f4bd d7b2 bdbc 0035 24be
000002b0: 1d98 babc 7f06 753e 4004 83bc f7bb 6bbc
000002c0: 16a3 6d3d 0671 cd3d 10f3 2d3e f789 8c3d
000002d0: 9da7 1f3d f610 273d 816f 44bd 094e 3fbe
000002e0: 50d8 f63d 3353 b93d 4ca0 acbc cefa cebd
000002f0: e62b 9fbd cd68 853d d504 d33d acb8 313d
00000300: 7eb6 92bb e9de c83d 0964 683d 6c98 14be
00000310: 7a40 a83d e7fc 413d 03f8 013e a6f6 7b3d
00000320: 0d77 85bd b89b 5bbe 8d3a f43d 2652 7f3e
00000330: 4238 a83c 9385 babc cbf7 3dbd 0d1f b7bd
00000340: b209 df3d cbcb 4e3e 4009 6c3c 95be a03d
00000350: 4f23 603d 10f8 a93d 78f4 2a3e 3cbd 4f3d
00000360: f998 bebd 4ccd b03c 7c87 66bd 1781 48bc
00000370: a8ae 273d b5d7 843c f19b 32be 1b9a ddbd
00000380: aa6a 01be 7f2f b53d bbec 763d f3f3 eabd
00000390: 83bb 2e3d 15ca fc3d 8699 193e 9e14 31bd
000003a0: 67b2 93bd beee 003e a5c2 fd3d 2323 b43c
000003b0: db49 e2bc 2e27 5d3d 451c 313e 4443 2c3e
000003c0: 2654 723d 6da8 6c3d 6908 71bd da5d dc3d
000003d0: 31c4 88bd 9889 863d 2008 7abd d636 11bd
000003e0: 19d3 c8bd 363b 5a3d f6b7 ebbd a0c2 d7bd
000003f0: b1af 9e3d 1d47 a33c 924f 94bc aee4 953d
-0.018653713 0.021873264 0.10919525 0.19194284 -0.100912176 -0.100804076 0.13274507 0.02483669
0.26658303 -0.1300879 -0.07467964 -0.06628198 0.21604952 -0.06413051 -0.034493826 0.0011319257
-0.12822863 -0.072090015 -0.01421343 0.04869317 0.006440169 -0.01613227 0.04114978 -0.1637082
0.032809243 0.14577244 -0.06449535 -0.050558183 0.087901555 0.13404751 -0.12542304 -0.15397738
-0.058638595 -0.12655511 0.070922725 0.12008294 -0.027989216 0.10125652 0.0809845 -0.08789468
0.031263173 0.021298587 -0.050983764 0.036211148 0.17566292 0.062333226 0.040847845 0.06418679
0.0047249966 -0.014486755 0.09896424 -0.0008274346 0.09403805 -0.086872295 0.036381025 0.12193353
0.040035844 -0.011463444 0.06583305 0.093901955 0.0804519 -0.027980257 0.24264066 0.029409776
0.24184822 -0.06839145 0.13626537 0.16140088 -0.036359012 0.21143357 -0.07732677 -0.010610741
-0.035085157 0.17546482 0.053819593 0.014249155 -0.009331583 0.009117284 -0.20669301 -0.112006664
0.049368568 -0.018652294 0.08106695 0.21440789 -0.08647124 -0.1256563 0.11024446 0.017368061
-0.14646351 0.0849912 0.08864355 0.23099013 0.09706446 0.30779022 -0.23220524 -0.0357417
-0.02375903 -0.021163367 0.14602758 0.3944504 -0.13719554 0.11356429 0.1743678 0.06401842
-0.03766782 0.100247934 -0.0856379 -0.029867796 0.15133998 -0.05666053 0.0866077 -0.08629619
0.14235593 -0.05380139 -0.12851962 -0.06828266 -0.08439882 0.0026005562 -0.07289183 0.12563969
0.0475917 -0.025923168 0.10223953 -0.070021205 0.0034924494 -0.03311539 0.30631778 0.10789749
-0.1501359 0.042690065 -0.08370785 -0.2011986 0.12916167 0.08349515 -0.09831228 0.17648828
0.103200965 0.08366335 0.0009063957 0.14387783 0.1593427 0.014340835 0.23334609 0.1708459
0.018192273 0.1984947 0.11121352 0.04754468 0.21596833 0.052501827 0.2594573 -0.13648108
0.18752664 0.08856267 -0.011955665 0.004673609 -0.04868998 -0.18235289 -0.0020224347 0.06433371
-0.06850129 0.049447246 0.062161986 -0.12985937 -0.027316391 0.18356113 0.061896957 0.10228042
-0.014087591 -0.11944435 -0.023156567 -0.16035843 -0.022777611 0.2392826 -0.015993237 -0.014388076
0.05801686 0.10031323 0.16987252 0.06862252 0.038978208 0.04078766 -0.0479579 -0.18682112
0.12052977 0.09049072 -0.02107253 -0.10106431 -0.07772045 0.0651413 0.10303656 0.043389007
-0.004477321 0.09808142 0.056736026 -0.1451127 0.08215423 0.047360327 0.12692265 0.06151452
-0.06516848 -0.2144612 0.1192523 0.24933681 0.020534638 -0.022768771 -0.046378892 -0.08941469
0.10890521 0.20194928 0.014406502 0.07848851 0.054721173 0.08299267 0.1669482 0.050717577
-0.09306521 0.021582268 -0.05628155 -0.012237809 0.04093805 0.016216138 -0.174423 -0.10820409
-0.12638345 0.0884695 0.060284358 -0.11472311 0.042659294 0.123432316 0.14999971 -0.043232553
-0.07211762 0.12591073 0.12390641 0.02198941 -0.027623108 0.053992443 0.1729594 0.16822535
0.05916228 0.05777781 -0.05884591 0.10760088 -0.066780455 0.06569213 -0.061042905 -0.035452686
-0.09805889 0.053279124 -0.11509697 -0.10535169 0.07748354 0.01993137 -0.018104348 0.07319008

sequential_3/dense_7/MatMul f4 [11, 128]
00000000: 4926 a6bb 9e48 c4be a1c7 bdbe 1c7b 8abe
00000010: 6106 bcbe d970 70be 86e2 0bbf 43c6 7ebd
00000020: 902f dcbe 506c f4be 3b6d c43d e230 743c
00000030: 542a eabe ebf0 4cbd 62c7 debe de36 353d
00000040: eba7 bebe 4355 cebe 6a9f dcbe e8e0 0fbf
00000050: 8752 1dbf d744 f9be 3058 963d 7461 56be
00000060: ffbf 69be bf4e 9dbe feeb e3bb 68ee 2cbe
00000070: 9a37 9ebe 3dfc ff3c 3ebd 11be 8d7a c6be
00000080: 0c11 45bd 6a97 263b 5202 42be 6bb5 76be
00000090: d2d6 3fbe 2df3 6cbe 2599 83bd 0cf9 e9be
000000a0: 726c 24be a7fd 6dbd 26ee 54be cdd9 8dbe
000000b0: 0a67 8a3c 1968 a03c a0d2 e9bc 5327 a0be
000000c0: 145b 17bf cefa 93be cf34 0bbf d0d7 3c3d
000000d0: de7b a4be da92 b7bd 419d f3be e860 c8bd
000000e0: 1c93 d83b 76be f0be 4118 5bbe 0cd4 5f3e
000000f0: 792e b0bc 3277 e7be 1d1d f4be 8dea a1be
00000100: 40f1 193e e992 1e3d b8e0 9abd 1607 0fbf
00000110: 7304 a4be cb17 bbbe 5f53 76be 71fa 19bf
00000120: 564f fabb 9da7 58be f5a5 f1bd b4aa 6ebd
00000130: c74a 82be d611 92be 819b a8bc 8174 a8bd
00000140: 338d dbbd 0bc6 06be c203 cbbc 6039 8cbd
00000150: d236 f9be 0676 d7be 8fcb 983b 4b09 22be
00000160: a9d3 30be 78d0 c4bd d2c6 4f3d be3a 44be
00000170: 776e dfbe c6d7 e03d 88f2 a93d 6c0b edbe
00000180: 83ef b7be bca3 68bd a36b d5be 9d01 29bd
00000190: 6e73 84be 866b d6bd 4526 173e 6c78 1d3e
000001a0: 1138 f9bd fd8f 18bf e326 7dbe acd9 2bbe
000001b0: 3b09 97bd dedf c3be 61f7 ac3d 4756 cd3d
000001c0: c472 9dbd ca4c c73d 2e6b 90be 14e0 83be
000001d0: 1544 89be 3e43 4cbe 9e5f 80be 8448 59be
000001e0: efd8 b5be 6a21 0cbe 8b67 10bc e8d7 b3bd
000001f0: 2890 dabe 466f e8be b5a8 93be 9aeb 93be
00000200: cf03 cebd 6f27 653d 20d7 c1bd eedb a0be
00000210: f36b cbbc 17f5 f93d d768 a1be 688f b7bd
00000220: 6946 d6be 30b4 9e3d e653 83be 6bcb ecbd
00000230: 4be2 923e e406 1cbd aa07 85be 9f4f cabe
00000240: ccdd 2b3c fc6a 11bf 760f 42bd 92b9 bebe
00000250: 140f 42be 3b0c a83d fb82 92be d7b4 253e
00000260: 326b 93be 9b11 49be a9af c8be ec3f 78bd
00000270: 7b6d 58be 94ef 4cbe 58a7 77be 51d7 32be
00000280: 817e bfbe bc1e bfbc 64c5 e8be cea2 9bbd
00000290: 97a5 a3be 7c25 07bf 06f7 cebe e6a6 d2be
000002a0: 761c 0d3e fb9b 5fbe 8d0c acbe 9a9b 5dbe
000002b0: 5e3d e3be 583b 29bd 5ce2 97be dfd1 893b
000002c0: 3a61 fdbe 91b9 92be 6100 a0be 7682 d8bd
000002d0: a1dd c1be eb2f ff3d 8167 acbe 55d1 08bf
000002e0: 098b 04be 747a dcbd dbed bdbe 0d0e fe3d
000002f0: 8296 efbd ed72 babd 6d82 f8bd f876 4cbd
00000300: 5dc6 06be 6806 b23d 5cb9 0bbe ca44 60be
00000310: 0412 84be 54fe 10bf d5d3 bebe cbee d0bc
00000320: 8f5f 33be d19f 27be 634d 4fbc d3a4 88be
00000330: ad91 733d cb25 e5be c37b 5bbd 8ba9 81be
00000340: f693 4dbc 15b2 c2bd ebc9 01bf 598f 383e
00000350: 86d8 af3d f32e 10bd 0433 2bbd ac1a d4be
00000360: 557b c4bd 7b93 3cbe c110 1bbe f3ed d2bd
00000370: c7d6 a7be b923 3ebe a4d1 36be 85f9 1f3d
00000380: 0688 a2be a013 4a3e b59f 493e 1fa8 04bf
00000390: 9dca 28bd f750 0d3d 88c9 c3be f399 16bd
000003a0: 5985 cd3d 4748 b1bd 9e8d 03bf 36f9 e9bc
000003b0: 7031 72be 62f2 c3be 873d 75bd 9c11 a3be
000003c0: 572d 66be 0385 50bd 48ce 27be 6b92 b1be
000003d0: 97e2 99be 7141 53be 7945 dcbe 5c91 f5be
000003e0: 99ad a0be 62e4 bbbd 19b7 91be 1db4 cbbe
000003f0: f858 b7be 88d8 0abe 5359 01bf 3502 a7bd
-0.005070482 -0.38336653 -0.37066367 -0.2704705 -0.36723617 -0.23480548 -0.5464252 -0.062200796
-0.43005037 -0.47738886 0.095911466 0.014904233 -0.4573542 -0.050034445 -0.43511492 0.04424178
-0.37237486 -0.40299425 -0.43090373 -0.56202555 -0.6145405 -0.48685333 0.07341039 -0.20935613
-0.22827147 -0.3072414 -0.0069556227 -0.1688782 -0.30901796 0.031248206 -0.14232346 -0.38765374
-0.04811196 0.002541984 -0.18946198 -0.24092643 -0.18734291 -0.23139639 -0.064256944 -0.4569782
-0.16056994 -0.05810323 -0.20793971 -0.2770523 0.016894836 0.019580888 -0.028542817 -0.31280002
-0.5912335 -0.28902286 -0.54377455 0.046104252 -0.32125753 -0.089635566 -0.47580913 -0.097841084
0.0066093337 -0.4702031 -0.21395971 0.21858233 -0.021506535 -0.45208126 -0.47678462 -0.3162426
0.15033436 0.038714323 -0.07562393 -0.5587019 -0.32034644 -0.3654159 -0.24055241 -0.6014777
-0.007638852 -0.2115769 -0.11799232 -0.058268264 -0.25447676 -0.28529233 -0.020581963 -0.08225346
-0.10720291 -0.13161485 -0.024782065 -0.06846881 -0.48674637 -0.42082232 0.004662938 -0.15823857
-0.17268242 -0.09610075 0.05072672 -0.19163033 -0.43638965 0.109786555 0.08298212 -0.46297777
-0.3592492 -0.056796774 -0.41683683 -0.041261304 -0.25869316 -0.10469727 0.14760692 0.15377969
-0.12168897 -0.5959471 -0.24721865 -0.16782254 -0.073748074 -0.38256735 0.08445621 0.10026222
-0.076879054 0.09731443 -0.28206772 -0.25756896 -0.26809755 -0.19947526 -0.2507295 -0.21219069
-0.3551707 -0.13684621 -0.008813749 -0.08781415 -0.42688107 -0.45397395 -0.2883965 -0.28890687
-0.1005932 0.05594581 -0.0946486 -0.31417793 -0.024831748 0.1220495 -0.315253 -0.089628994
-0.41850594 0.07749212 -0.25649947 -0.115622364 0.28688273 -0.03809251 -0.2598241 -0.3951387
0.010489892 -0.5680387 -0.047378026 -0.37250954 -0.18951064 0.08205458 -0.28615555 0.16182266
-0.2879272 -0.19635622 -0.39196518 -0.060607836 -0.21135513 -0.20013267 -0.2418493 -0.17464949
-0.37401202 -0.023330085 -0.45463097 -0.07599412 -0.31962273 -0.5279157 -0.4042284 -0.41142958
0.13780388 -0.21836846 -0.33603325 -0.21641389 -0.44382757 -0.04131636 -0.29664886 0.004205927
-0.4948824 -0.286572 -0.3125029 -0.105717584 -0.37864402 0.124603115 -0.33672717 -0.53444415
-0.12943663 -0.107655436 -0.37095532 0.12405024 -0.11698629 -0.091039516 -0.12134252 -0.049918145
-0.13161607 0.08692628 -0.13644928 -0.21901241 -0.25794995 -0.56638074 -0.3727099 -0.02550449
-0.17516921 -0.16369559 -0.012652728 -0.2668825 0.0594651 -0.44755396 -0.053584825 -0.25324664
-0.012547484 -0.09506623 -0.5069873 0.18023433 0.085862204 -0.035201024 -0.0417967 -0.414266
-0.09593836 -0.18415634 -0.1514311 -0.102992915 -0.3278105 -0.18568315 -0.17853409 0.03905632
-0.31744403 0.19734049 0.1968983 -0.5181903 -0.041208852 0.034501042 -0.38239694 -0.03676791
0.100352 -0.08656364 -0.51387966 -0.028561216 -0.23651671 -0.3827086 -0.05987313 -0.31849372
-0.22478233 -0.0509081 -0.16387284 -0.3468202 -0.30055687 -0.20630433 -0.43021753 -0.47962463
-0.31382445 -0.0917442 -0.28460005 -0.39785853 -0.35810065 -0.13559163 -0.5052692 -0.08154718

sequential_3/conv2d_9/Conv2D f4 [32, 3, 3, 3]
00000000: 83d6 bb3d b278 573d e845 d8bc 61f6 aa3c
00000010: 6690 c5bd f1a7 f63d a69c 24be 6650 753c
00000020: 8f48 843c d43e f03d d777 8b3e 3e5b f73b
00000030: 1b8c 023e 0761 1bbd 7532 67bb 5589 e0bd
00000040: b9a2 0fbe 3a34 1abe c0cb 983d 3492 053e
00000050: 5252 df3d 1b2a eabd 03dc 1abe c7de febb
00000060: 6b65 cbbd f5ab 0dbe d2e7 d7bc 9d27 85bd
00000070: 6d28 0cbc 36b1 243e 60d8 8c3c 94ed 53bd
00000080: 039a 04bd 35bf 78be afa8 5cbe dcb2 22be
00000090: 0c04 463e 7069 993d 962e c33d c5b6 483d
000000a0: e631 d03d 6682 18be 4413 0fbe d5eb 5cbe
000000b0: 87ee 663d ef81 133e f3dd 543e 070b 433c
000000c0: 09cc 253e b9d3 ac3d 9c61 af3d d713 eabd
000000d0: 6552 ba3d f969 37bd 630d 2c3d ec6a 093e
000000e0: 16f4 1d3e 0db1 eb3c f260 613e 924d 893d
000000f0: 32ff 01bd ddb7 0bbe d788 f6bd 1378 9bbd
00000100: f6ac b73c 0e07 333d 8f9a cf3d 15ae f1bb
00000110: 1120 7bbc 30bb cdbd e447 88bd 867e 18be
00000120: 9bd7 7bbd 0555 f03d 7057 1c3e d9f8 b13d
00000130: 0274 2dbd fb22 46be 51ff 493d d61d cbbd
00000140: 24b8 edbd 65cb 083d 9d98 963e d94f 6b3e
00000150: 8bfc d63d 7fc1 22bd fca5 c2bd 1cf8 89bd
00000160: 5e55 5fbe 6246 64be efb9 003e e710 e03b
00000170: 9b04 253e 8987 4bbe 499c a2ba b494 c9bb
00000180: bbaa 52bd fba3 50be 801f 92bd e828 8abd
00000190: 8310 ac3d 32e0 663d 3614 d6bd 1b71 4abd
000001a0: 2c03 8bbd 6a68 023e 768d b23d c61d 11bd
000001b0: 1a98 0fbe 43d2 bf3d 4dfc eebc d074 3b3e
000001c0: 915a 843e 53b2 7c3e 4abc 663d 0ace 9f3e
000001d0: 621c a43e 23c2 4ebe d2b6 0fbe 0740 53be
000001e0: 7696 32be e462 13be 0c42 babd 9bca e33d
000001f0: 6b5f dfbc 1ac9 48bd 4f29 eabd 46d2 91bd
00000200: 3f27 0bbe 4d2b 8bbd 94fb 13be 563c 18be
00000210: 6d3a 5dbc 111a c9bc 8f8e 22be 6cee 9a3d
00000220: c327 08be 8892 3f3d 2b76 243e b353 5e3e
00000230: ee5d 4c3e 1f0d 2f3e ee0a 723e 5400 803e
00000240: da1d c73c f302 02be 8376 acbd 5caf 23be
00000250: 3326 52bd f4b1 56be e99a 07be 6d64 07be
00000260: 54a5 0cbe 8867 863d f85d da3c 17bc a33c
00000270: 7ce8 3e3d d803 ddbd f764 253e dd37 16bd
00000280: 3f5d 74bd 2edd a8bd b0c4 93bb 5c84 82bd
00000290: aeb4 843d ca5f 04be 8740 823e 3f66 273e
000002a0: f041 443d 7a69 233e 0f81 1d3d 4d40 033e
000002b0: 9c19 2e3d 9200 1fbe 4756 aa3b 1c2f 6e3d
000002c0: 94e2 10be fb55 d13d bb07 5a3d 0aa5 d13c
000002d0: e0aa e2bd 2067 43bd a84a 843d 670a ebbd
000002e0: 2dd3 20be 6b3e f6bd 0341 16be cb5b 3fbe
000002f0: 7466 43bd fab7 023d 73ff 403d 8a85 5b3d
00000300: 0737 05be ab5f bb3c 7506 85be 2202 1abe
00000310: 4187 45be a16d 58bd 7ade 8e3e ad83 7f3e
00000320: 9b28 8b3d 68b5 8dbd d002 f53d cb9b 0bbe
00000330: 2235 ec3c 319f 0abd 6616 03be 86d9 073e
00000340: 5a02 e83d 1b36 8e3e 8634 63bb 3107 123e
00000350: fa39 f63d b4c3 9ebd 4218 e4bc 0ebb 0d3e
00000360: 96d2 093e c03b 0c3e 38ff 833d c1c0 d73d
00000370: d81d aebc be4a 233e 50eb 15be 0c20 babd
00000380: 3dc9 433d 489f a73d 835e fb3d 75f3 6d3e
00000390: f8d2 90be f82a 54be add8 30bd fea1 f4ba
000003a0: 7faa 3cbd 8313 8ebe 005e e63d 4284 0cbe
000003b0: bdfb b03d 8f45 53be 4ed8 5bbe 60bf 72be
000003c0: 987d e33d f9bd 003e 0369 853d 8a41 80bd
000003d0: d50f 2f3e f71b 9f3d 604e fe3c 7ad3 83be
000003e0: 1d3f 7abd 6cc2 bdbd b89c fabd 7321 95bd
000003f0: e890 27bd 6c31 24be a8b2 32bd ed67 00bd
0.09171774 0.05260534 -0.026400521 0.020869436 -0.096466824 0.12043751 -0.16075382 0.014972782
0.01614788 0.117307335 0.27239868 0.0075487187 0.12748758 -0.03793433 -0.0035277877 -0.10963694
-0.14026918 -0.15058985 0.07460737 0.13044053 0.10904373 -0.11433812 -0.1512299 -0.007778022
-0.09931453 -0.13835128 -0.026355658 -0.06501696 -0.00855456 0.16083226 0.01719302 -0.051740244
-0.03237344 -0.2429169 -0.21548723 -0.15888542 0.19337481 0.07490814 0.0953037 0.049002428
0.10165767 -0.14893493 -0.13972193 -0.21574338 0.05637982 0.14405034 0.20787792 0.011904485
0.16191114 0.084388204 0.085635394 -0.114295654 0.09097747 -0.044778798 0.042004954 0.13419694
0.15425143 0.028770948 0.22009638 0.067042485 -0.031737514 -0.13644357 -0.12037819 -0.07591262
0.022421341 0.0437079 0.101369016 -0.0073754885 -0.015327469 -0.10045469 -0.06654337 -0.14892015
-0.061484914 0.11734966 0.1526773 0.08690042 -0.04234696 -0.19349281 0.049315754 -0.099178
-0.11607388 0.033397097 0.2941331 0.22979678 0.104973875 -0.039735314 -0.09504315 -0.06736776
-0.21809909 -0.22292474 0.12570928 0.0068379524 0.16115038 -0.19875921 -0.0012406196 -0.00615176
-0.051432353 -0.20375054 -0.071349144 -0.067460835 0.08401587 0.056366153 -0.10453074 -0.049424272
-0.06787714 0.12735143 0.08718388 -0.035428785 -0.14022866 0.09366276 -0.02917304 0.18306279
0.25850347 0.246774 0.05633191 0.31211883 0.32052904 -0.20191245 -0.14034584 -0.20629893
-0.17440209 -0.14393193 -0.09094629 0.11122628 -0.027267179 -0.04901991 -0.1143366 -0.071201846
-0.1358919 -0.06795368 -0.14451438 -0.14866766 -0.013502699 -0.024548562 -0.15874694 0.075650066
-0.13296418 0.046770602 0.16060703 0.21711616 0.19957706 0.17094849 0.23636982 0.2500025
0.024306227 -0.12696438 -0.08421042 -0.15984863 -0.05130596 -0.20966321 -0.13242687 -0.13221903
-0.13734943 0.06562716 0.026656136 0.01998715 0.046608433 -0.10791749 0.16151796 -0.03667437
-0.05965924 -0.08245312 -0.004509531 -0.06372902 0.064797744 -0.12927166 0.25439855 0.16347598
0.047914445 0.15958205 0.038453158 0.12817498 0.04250489 -0.15527561 0.0051982733 0.058150396
-0.14148933 0.102214776 0.05323003 0.025591392 -0.11067748 -0.04770577 0.06459552 -0.114765935
-0.15705557 -0.12023624 -0.14673238 -0.1868736 -0.04770513 0.031913735 0.047118615 0.05359415
-0.13009273 0.022872766 -0.2598149 -0.15039876 -0.19289877 -0.052838925 0.2790411 0.24952574
0.06794854 -0.06919366 0.11963427 -0.13633649 0.02883393 -0.033843223 -0.12801513 0.13266572
0.113285735 0.27775654 -0.0034668758 0.14260556 0.12022777 -0.07752171 -0.027843598 0.13840887
0.13459238 0.13694668 0.064451635 0.10534812 -0.021254465 0.1594648 -0.14640546 -0.09088144
0.047799338 0.08184677 0.12273886 0.23237403 -0.28285956 -0.20719516 -0.043175388 -0.0018664
-0.046061035 -0.2774926 0.11248398 -0.13722327 0.08641765 -0.20632003 -0.21469232 -0.23705816
0.111079395 0.12572469 0.0651417 -0.062625006 0.17095883 0.07769006 0.031043231 -0.2574728
-0.061095346 -0.09265599 -0.12236923 -0.072817706 -0.040909678 -0.16034478 -0.04362741 -0.03134911

sequential_3/conv2d_10/Conv2D f4 [32, 3, 3, 32]
00000000: 241b 183e 928f 743e 1034 eb3c 6222 d43d
00000010: b9f6 cabc b28e 013c caec d2bc 349c 183e
00000020: a63e 043e 0577 2bbe 0931 023e 260c 88bd
00000030: e1db be3d 663f 143e 9b8e 963b 8030 fbbd
00000040: d4ce 67bd 9c94 72bc 567d 133b 4bb6 ce3c
00000050: 2245 a83d 67f3 84bd 5465 2abd a882 9abd
00000060: 6b78 d43d 4d83 30bb 45c6 433c fc5c 69bd
00000070: a92e a43d 5cb2 c6bd cf0b 323d 14c5 6e3d
00000080: a510 503e ca9c 6b3e 027e 883d 4477 343e
00000090: 48ad 64bd cdd6 acbd 4b2e a43c bae6 02bd
000000a0: 3e7a 003d 7aac 36bd eb75 b3bc 63f6 163d
000000b0: 3f87 d03d 281b 7ebd fd00 113e 4028 593d
000000c0: a838 c03d 6d4d a93d c93c 063e fe28 8a3c
000000d0: e84a 06be 6cca b53c 2b8c b13c a9ef 75be
000000e0: beea 1fbe 2085 07be 7ed4 0b3e 06ec 383e
000000f0: 1564 e43d 9947 13bd 5dee 313e c8cb 4fbd
00000100: cf09 713e 6854 bc3d fdf7 e33c 5ad2 1c3e
00000110: c2c2 483d 1023 2a3e bc1d c53c 3599 95bc
00000120: 2280 5d3d 9497 0b3e 193e 41be d6cd 8fbe
00000130: aa33 55bd 6866 d43c b120 19bd 30a0 89bd
00000140: 0405 24be ba71 02be 9b04 d5bd a1cb f73d
00000150: ed06 543d 57cb 093c bf12 a33d e784 213e
00000160: 91f1 98bd 800d 46be d67b 463e 9d9f 8ebd
00000170: 0910 96bc 66c0 30be fbc3 b43d f0e8 f73c
00000180: 386b 42bc 77d8 0b3e 06f4 23be 7a27 55be
00000190: dbdd e73d 23ff ca3d 6270 19bd 0f02 c03d
000001a0: 1542 8dbd 719e 35bd e813 6dbc 74bc f7bd
000001b0: 3440 f1bd f61b be3c b44e 36be 1f58 01be
000001c0: 492a 29be cc33 68bd 7e50 11be 1128 de3c
000001d0: 68ed 29bd fbda 2d3e b8b6 af3d 4f73 433e
000001e0: ba51 483e 4e46 a53d 8960 8fbd d847 b43d
000001f0: 5a01 0b3e 9655 ddbd 649b 60bc 4a1f 403d
00000200: 2fab d63c f4a2 6d3e e5a4 8fbc 3990 143e
00000210: ad2a 103d ce71 45be d2fe 0bbe d13a b33b
00000220: d469 8abd 0ae6 2bbe 98e8 ce3d c735 093d
00000230: 66f4 8f3d dc45 b9bd 36db dc3d 63fc d8bc
00000240: ce56 b83d 4afb e83d e917 91bd a7b0 2c3d
00000250: 712e dabd 9836 833d 4f81 a83d 3558 03bd
00000260: cb54 bcbe 8fd9 e5bd 6cfa db3d c2ee ac3d
00000270: e2c5 a3be 044e a3bd 2857 80bd 6de0 e03d
00000280: 8bae 9d3e 6c40 e43d 483c 833e 7179 943e
00000290: a123 5e3d c00b a53c 2f27 0bbe 5ea8 2e3d
000002a0: a960 433e 172b c2bc 6344 57bd c942 6ebd
000002b0: 5c63 823e 8418 cb3d f387 8c3d bf78 803d
000002c0: f983 06be fd9d 2a3d afcf 0c3e 343c 3a3e
000002d0: 1b8c 7fbb 1be4 73be 6145 143e 898a 17bd
000002e0: 1800 04be 1cc8 a6bd b0b3 f33d e4b8 933d
000002f0: 0977 ff3c 495b 8c3d 725f b03d 0f51 48bd
00000300: bba6 ae3d 97a8 a4bc 792e 14bc 82b5 8cbc
00000310: 497d 3a3d 78da 8bbd c44b 4fbd 2aba 1ebb
00000320: 3d2a 1fbe 1474 1c3d 9051 8d3b 96e0 053d
00000330: 9187 3bbd 3556 1e3e 8bd8 9cbd 410d c2bd
00000340: a6ee 05be 9e45 78bd 5c79 bfbd 09fd 6cbe
00000350: bccb 193e 92a3 1f3e bda5 18be 739e 2b3d
00000360: fbc7 21bd 5358 1dbe 5b71 c5bd b0eb 58be
00000370: a89d f6bd e096 fd3d 75e4 07be d89c 253e
00000380: 7ab5 ed3d da76 0d3e 63d6 883d 3bd8 e539
00000390: d335 87bd 95ef 70be 6625 cabd ae56 3a3d
000003a0: 83d3 6bbe ebd2 d0bd 6164 02bd 29e1 5d3c
000003b0: 6895 313e 2aef 90ba d719 e2bd 4f1c 72be
000003c0: 306b c9bd 6ce8 c4bd b97f 0b3d dd03 0dbe
000003d0: 7960 56be 0efb 2c3e dc06 42be 5d58 a1bb
000003e0: 56e5 b1bd a775 f4bc f0d3 1d3d 9441 08be
000003f0: dec3 10be f3a9 6abc 89a8 e53d b0ab 243d
0.14854103 0.23882893 0.028711349 0.103581205 -0.02477585 0.007907556 -0.025747675 0.14903337
0.12914523 -0.16744621 0.12714018 -0.06642942 0.09319282 0.1447731 0.0045946366 -0.1226511
-0.05659373 -0.014805939 0.0022505126 0.025233408 0.08216311 -0.06491738 -0.04160054 -0.07544452
0.103745304 -0.002693373 0.011949127 -0.056973442 0.08016712 -0.09701988 0.043468293 0.058293417
0.2031885 0.23009029 0.06664659 0.17623621 -0.055829316 -0.084394075 0.020041605 -0.03195832
0.03136658 -0.04459808 -0.021906814 0.036856066 0.10182046 -0.062037617 0.14160533 0.0530169
0.09385806 0.08266721 0.13109125 0.01686525 -0.13114512 0.022191249 0.021673283 -0.24017204
-0.15616891 -0.13234377 0.13655278 0.18058786 0.11151902 -0.035956953 0.17376085 -0.05073145
0.23538898 0.09195787 0.027828211 0.15314618 0.04901386 0.16614938 0.02406203 -0.018261531
0.054077275 0.13632041 -0.18871345 -0.28086728 -0.052051224 0.025927737 -0.037384693 -0.067200065
-0.16017538 -0.12738696 -0.10401269 0.12099386 0.051764417 0.008410296 0.0796256 0.15773354
-0.0746795 -0.19341087 0.19383177 -0.069640376 -0.018318193 -0.17260894 0.08826443 0.03026244
-0.011866383 0.13656794 -0.16011056 -0.2081584 0.113216124 0.09911945 -0.037460692 0.09375393
-0.0689737 -0.044340555 -0.014470078 -0.120964915 -0.11779824 0.023206692 -0.1780346 -0.12631272
-0.16520037 -0.056690022 -0.14190862 0.027118715 -0.041486174 0.16978066 0.08579773 0.19086955
0.19562426 0.0807005 -0.070008345 0.088027656 0.13574734 -0.1080734 -0.013708923 0.04690484
0.026204674 0.23206693 -0.017534683 0.14508142 0.03519695 -0.19281694 -0.13671425 0.005469658
-0.06758466 -0.16786972 0.101029575 0.03349855 0.07029037 -0.09046528 0.10783999 -0.026487535
0.09000932 0.113760546 -0.070846386 0.042160656 -0.10653389 0.06406897 0.08227789 -0.032066543
-0.36783442 -0.11223137 0.107411236 0.08443977 -0.3198691 -0.07973865 -0.06266624 0.10980306
0.30797228 0.111451 0.25631928 0.28998902 0.054233197 0.020147204 -0.13589166 0.042641036
0.19079842 -0.023702187 -0.052555453 -0.05816916 0.2546643 0.09916785 0.06861868 0.062730305
-0.13136281 0.041654576 0.137511 0.18187028 -0.0038993421 -0.23817484 0.14479591 -0.03699735
-0.12890661 -0.081436366 0.11899507 0.072129995 0.03118469 0.06853349 0.08611955 -0.04890543
0.08527895 -0.020099921 -0.009044283 -0.017176393 0.045529637 -0.06828779 -0.050609365 -0.002421985
-0.15543456 0.03819664 0.0043127015 0.032684885 -0.045783583 0.15462573 -0.0765849 -0.09475184
-0.13079318 -0.060613267 -0.09349319 -0.231434 0.15019125 0.15589741 -0.14906974 0.041899156
-0.039497357 -0.15365724 -0.096407615 -0.21183658 -0.12041789 0.12382293 -0.13270743 0.16173112
0.116068795 0.1381487 0.06681516 0.00043839388 -0.06602063 -0.23528893 -0.098704144 0.04549282
-0.23029904 -0.101964794 -0.03183401 0.013542452 0.1734215 -0.0011057605 -0.11040085 -0.23643611
-0.098348975 -0.096146435 0.034057353 -0.13771005 -0.20935239 0.16892645 -0.18947929 -0.004923864
-0.086863205 -0.029841257 0.038532197 -0.13306266 -0.14137217 -0.014322746 0.11213786 0.040202796

sequential_3/conv2d_11/Conv2D f4 [32, 3, 3, 32]
00000000: ed69 103d 946f 5a3d f617 91bd bb7a b6bb
00000010: d93a 4f3e d7c8 0e3d 4557 ac3d 32f6 50be
00000020: d878 053e 43ca 1f3c 7c2b 0b3e df62 dc3d
00000030: 6206 a7bd ad7d fb3d 8d05 d93d a2be 60bb
00000040: d0e3 273e 8279 9b3d 192c 863d ac88 ce3c
00000050: 567f ae3d 20b0 673d 30b6 f93d 4eee 31bd
00000060: cea1 f03c fa3a cb3d 1f30 88bd 5a1e 1bbd
00000070: d6a7 023e 5d58 d73d 0f38 1ebc 7165 913d
00000080: 5af1 a93d b931 e43d 6fde 41bd d26a 41bd
00000090: a900 c0bd ed2d 19be 11b6 cebd 0896 afbd
000000a0: 5b6a 55bd e647 47bd 55ff 55be f96a f1bd
000000b0: 5f5f a93c 257b 2f3e 21ef 1dbe bad3 943d
000000c0: 5dcf 70be 781b 0abd debc c43d 0d44 7b3d
000000d0: 1fba efbd b492 f2bd bd34 05bd 2743 1fbd
000000e0: 5c1e 953e b13a 63bd cd39 9abd 929f 78be
000000f0: 458a 33be 6332 9fbd 4a61 12be 168a 87be
00000100: c480 183e 9967 1a3e c552 8d3d ccc5 33be
00000110: 3fb8 17bd 6eb5 77bd e774 7cbd e99a a23c
00000120: cf5d 6e3d 1253 dfbc 0f28 07bd 056d 45bd
00000130: 6b10 a9bd 2c72 033e be2f 073d 2231 be3e
00000140: cc49 a9bd 738b 01bd 1fbc bf3d eae1 423c
00000150: 5619 973d 99dc e63d 1815 2e3d f1c9 e93d
00000160: 4636 933d 095b f8bc f76b 2a3c 52d9 5ebc
00000170: 15be 2b3e 12d4 1ebd aef2 dfbc a260 39be
00000180: 1025 3b3d 6145 e73c e367 8fbd 1c94 f4bd
00000190: 50b5 bebc f662 e83c c6a7 5ebc 9aca 72bd
000001a0: b34b 6cbe 9428 a63d 46b7 d3bd 2c6d c8bc
000001b0: 704e f3bd 5052 e1bd 8a10 033e 34f5 3fbd
000001c0: fb4f dd3d 6a6f 4d3d 1771 04be 637f f5bd
000001d0: 17a5 f2bd 05dc 07be c6ba fc3d 802a 233d
000001e0: 15f9 84be 16dd 08be 1be2 f9bd e75e 73be
000001f0: 813a da3c 78f0 863d d29e 313d b00e 463d
00000200: 1263 05be 0547 5d3e 85ae a4bd 3b7b 34be
00000210: 9136 d1bd f1ad d33d 5d05 08be 2913 dcbd
00000220: f83c 2fbd 817f 99be d669 aebc d3e2 bdbd
00000230: f1ed 293e 9333 74be b60c 153d ca36 6ebd
00000240: c5fc 543e f95e 2dbe 53ce 6eb8 51c8 12be
00000250: ed40 14be d89e 74be f07f 0abd f6a0 aa3e
00000260: 321f 6dbb 6300 83bd 86da 6bbe 2d0f bf3c
00000270: ee77 74be 46fd cfbd bca6 7fbe 1b3d 41be
00000280: c1ad a23c 203f 7c3d 9d7e 27bd aee6 ab3d
00000290: 48ce 56b9 3aeb e3bd b44e c13d f581 b33d
000002a0: 5ba5 87bd 6169 f5bd 73e9 dfbc 43b2 963c
000002b0: b978 3a3e 6246 d4bb b261 19bd 2785 553d
000002c0: a5f0 46bc c979 f1bd 4e03 44bd b473 f03d
000002d0: 66a6 e73d ff57 3cbe 7440 d3bd b728 ee3d
000002e0: a155 e83d e001 cc3d f69b 803e d54f 5a3d
000002f0: 6d54 2abe 0a95 b1bc a133 a93d 0d68 54be
00000300: e103 d9bd 0e23 d4bc f10d b9bd b23f 423d
00000310: af36 943a 2607 89be 766f 803d 04fb a43d
00000320: 6528 a53d 2fc8 b3bd 97d3 5b3d a6fb 67bc
00000330: a399 463d 68b5 58be d20f d03d 4ae7 893d
00000340: 26fe db3d 5ab1 39be da31 27be b85b c2bd
00000350: ceef 1fbe 8e1b 98bd 96d2 813c 1530 303e
00000360: 4b23 45bd b526 7c3d 72bb 283d f7f2 ee3c
00000370: 6743 7f3d 0057 bebc 5425 6ebc cf58 f9bd
00000380: 8a7a 83ba 0b73 5dbe 7952 8f3d 2f4f ea3d
00000390: 8b31 83bd cbb1 2ebe d0de 6dbd 37cf 2f3e
000003a0: d60f 0cbe 0f67 9ebd a51f c03c c657 0dbe
000003b0: 64a1 f63d fecf a7bc a2df 1b3e 5890 483e
000003c0: 387e 02be 37dd b1bd 1286 16be 6ba3 de3e
000003d0: d4c3 493d 9e3b c0bc 2c1f 4f3e 485a 883d
000003e0: ca6a 9e3d 8428 05be dcb0 fb3d 5a70 b3bd
000003f0: 556a 83bd 0f07 d1bd d189 d1bd b6c4 8fbc
0.03525727 0.053329065 -0.07084648 -0.00556883 0.20237292 0.034859505 0.08415083 -0.20406416
0.1303438 0.009752813 0.13590807 0.10761046 -0.08155514 0.1227983 0.10596762 -0.0034293314
0.16395497 0.07591535 0.0655138 0.025211655 0.08520381 0.05656445 0.12192953 -0.043440156
0.02937403 0.09923358 -0.06649803 -0.037870742 0.12759337 0.10514901 -0.00965692 0.070994265
0.08297987 0.11142296 -0.04733127 -0.047221012 -0.09375126 -0.14958926 -0.1009332 -0.08573538
-0.05210338 -0.048652552 -0.20898183 -0.117879815 0.02067536 0.1713682 -0.15423252 0.07266946
-0.23516603 -0.033717602 0.09606336 0.061344195 -0.11705422 -0.11844388 -0.032521 -0.0388824
0.29124725 -0.055475894 -0.07530556 -0.24279621 -0.17533214 -0.077732824 -0.14294925 -0.2647254
0.1489287 0.15078582 0.06900553 -0.17555922 -0.037040945 -0.06047576 -0.061634924 0.019849258
0.05819493 -0.02726129 -0.032997187 -0.048199672 -0.082550846 0.12836522 0.033004515 0.3714686
-0.08266029 -0.03162713 0.09362053 0.011894682 0.07377879 0.112725444 0.042500585 0.114154704
0.07188086 -0.030316846 0.010401717 -0.013601618 0.1677173 -0.038776465 -0.027337398 -0.18103269
0.045689642 0.028231325 -0.07002237 -0.11942312 -0.023279816 0.0283675 -0.013589805 -0.059275247
-0.23075752 0.081132084 -0.10337691 -0.02446612 -0.11880195 -0.11002028 0.12799278 -0.046864703
0.10806271 0.05015508 -0.12933765 -0.11987188 -0.11847895 -0.13267525 0.12340312 0.039835453
-0.25971285 -0.13365588 -0.12201329 -0.23766671 0.026639225 0.065888345 0.043364353 0.04835385
-0.13026074 0.21609123 -0.080410995 -0.17625134 -0.10215486 0.10335911 -0.13283296 -0.10745842
-0.042782754 -0.2998009 -0.0212907 -0.09271779 0.16594674 -0.23847799 0.036389075 -0.05815772
0.20799549 -0.1693076 -5.6935776e-05 -0.14334227 -0.14477892 -0.23888719 -0.033813417 0.33325928
-0.0036181924 -0.06396558 -0.23032579 0.023322666 -0.23873875 -0.1015573 -0.24965948 -0.18870966
0.019858243 0.06158364 -0.040892232 0.08393608 -0.00020485476 -0.1112885 0.094388396 0.08765022
-0.06623336 -0.1198299 -0.027332997 0.018395549 0.18210115 -0.006478117 -0.037446685 0.052128937
-0.012142335 -0.11790807 -0.047854714 0.117408186 0.11311035 -0.18392943 -0.10315028 0.116288595
0.113444574 0.09961295 0.2511899 0.05329879 -0.16633768 -0.021677513 0.082618006 -0.20742817
-0.10596443 -0.025895622 -0.09035862 0.047424026 0.0011307801 -0.26763266 0.062712595 0.0805569
0.08064345 -0.08778416 0.053668585 -0.014159119 0.048486363 -0.21162951 0.101592675 0.06733568
0.10741834 -0.1813406 -0.1632761 -0.0949015 -0.15618822 -0.07427131 0.015847486 0.17205842
-0.04812936 0.06156035 0.041194387 0.029168589 0.06232014 -0.023234844 -0.014535267 -0.12175142
-0.0010031026 -0.21625917 0.06998152 0.11440884 -0.06405934 -0.1706001 -0.05807382 0.1716889
-0.13677916 -0.077345006 0.02345259 -0.13803014 0.120425016 -0.02048492 0.15222028 0.19586313
-0.12743461 -0.086847715 -0.14699581 0.43484053 0.049259022 -0.023465928 0.20226735 0.06657845
0.07735212 -0.13003737 0.122895926 -0.08761664 -0.064167656 -0.102064244 -0.102313645 -0.017549854
