a_output_actual/dig-s3.tflite (tflite, 219428 bytes, 12 tensors)

sequential_3/conv2d_10/BiasAdd/ReadVariableOp/resource f4 [32]
0	0xbd3d0cab	-0.04615466
1	0x3c700cbd	0.014651475
2	0xbe0c8103	-0.13721089
3	0xbd98496c	-0.07435879
4	0x3da53ef1	0.08068646
5	0x3d2f5456	0.04280504
6	0xbd2239fe	-0.039606087
7	0xbd85fc86	-0.06542306
8	0xbbf214ea	-0.007387747
9	0xbd9f3394	-0.077735096
10	0x3c761483	0.015019539
11	0x3b2268d9	0.0024781732
12	0xbdd125a3	-0.10212257
13	0xbd8fb426	-0.070167825
14	0x3d9b29b1	0.075763114
15	0xbd26fdb9	-0.040769313
16	0xbbcb27a2	-0.006199793
17	0x3ba7d6f9	0.0051220623
18	0x3b46a05d	0.0030307986
19	0xbdfad31a	-0.12247296
20	0xbd99a7df	-0.07502722
21	0x3c044aa6	0.008074438
22	0xba8214a4	-0.0009924364
23	0x3dc18fec	0.09451279
24	0xbcc4dacc	-0.024030112
25	0xbc29b071	-0.010357008
26	0xbcacaa3e	-0.021077272
27	0xbc57de56	-0.013175568
28	0x3d90343d	0.07041214
29	0x3da64f68	0.08120614
30	0xbcc8f9d2	-0.024533186
31	0xbcab2901	-0.020893576

sequential_3/conv2d_11/BiasAdd/ReadVariableOp/resource f4 [32]
0	0xbd203133	-0.03910942
1	0xbd738393	-0.05945165
2	0xbde570b7	-0.11203139
3	0x3cf490d0	0.029854208
4	0xbd4fb429	-0.050708923
5	0xbd6104b0	-0.05493611
6	0xbdf167ca	-0.11787374
7	0x3ae784b4	0.001766345
8	0xbd00c7e6	-0.031440638
9	0xbc2f446e	-0.010697467
10	0x3c5590b2	0.013034986
11	0xbc4a7199	-0.012356185
12	0xbca64b35	-0.020299533
13	0x3beb45ad	0.007179937
14	0xbd27ba71	-0.04094929
15	0xbc4033f6	-0.011731138
16	0x3b40fee6	0.0029448806
17	0x3d98a26e	0.07452856
18	0xbc629d26	-0.013831412
19	0x3d848832	0.0647129
20	0xbe241af9	-0.16025914
21	0xbd1d1969	-0.03835431
22	0x3d018aae	0.031626396
23	0x3d4bfa62	0.04979933
24	0xbd2fc30f	-0.04291063
25	0x3c83fafd	0.016110891
26	0x3c97593c	0.018475167
27	0xbd4b4b4b	-0.04963235
28	0x3d29ebf7	0.0414848
29	0xbccaca24	-0.024754591
30	0x3d35c841	0.04438043
31	0x3be16fe4	0.0068797935

sequential_3/conv2d_9/BiasAdd/ReadVariableOp/resource f4 [32]
0	0xbd17cc7a	-0.03706024
1	0xbd924c5a	-0.07143469
2	0xbd19bb3c	-0.037532076
3	0xbd31447c	-0.043278202
4	0xbb1f11f0	-0.0024272166
5	0xbcd70dc3	-0.02625168
6	0xbd8e0d21	-0.06936098
7	0xbd0e84e4	-0.034794703
8	0x3d395cd0	0.04525453
9	0xbd93bd21	-0.07213808
10	0xbddaa9c5	-0.10676912
11	0xbd76f0a0	-0.06028807
12	0xbd810fce	-0.06301843
13	0xbd91dcc4	-0.07122186
14	0xbd1baf86	-0.03800919
15	0xbe14c1fe	-0.14527127
16	0xbdfe5d58	-0.12420148
17	0xbd8f5f1b	-0.07000562
18	0xbd7d38ca	-0.061821736
19	0xbcf7e404	-0.030260094
20	0xbdaf75e9	-0.085674115
21	0x3c544b5d	0.012957421
22	0xbd3de1bc	-0.046357855
23	0x3d9257e9	0.07145674
24	0xbd639dba	-0.05557034
25	0xbd7fdbed	-0.062465597
26	0xbda3363f	-0.07969331
27	0xbd2de768	-0.042457014
28	0xbda52458	-0.08063573
29	0xbd44e6fa	-0.04807184
30	0x3c952b2f	0.018209068
31	0xbc67625e	-0.014122574

sequential_3/dense_6/BiasAdd/ReadVariableOp/resource f4 [128]
0	0x3d063348	0.03276375
1	0xbaadf0d4	-0.0013270625
2	0x3d145bdb	0.036220413
3	0x3db64ed8	0.08901757
4	0x3dc2fadc	0.09520504
5	0xbd8fe212	-0.07025541
6	0x3cdc74d2	0.026911173
7	0xbd2db8c2	-0.042412527
8	0x3c35e254	0.011101324
9	0xbc85dc12	-0.01634029
10	0xbcdc995c	-0.026928596
11	0xbcc040ca	-0.023468394
12	0xbccc43a7	-0.024934603
13	0xbbdb6784	-0.0066956896
14	0x3d92207d	0.07135103
15	0xbb0a163a	-0.0021070377
16	0x3d77a1be	0.060456984
17	0x3d9e51fc	0.07730481
18	0x3cbc0a1a	0.022954036
19	0x3d971cd0	0.073785424
20	0x3d91f905	0.07127575
21	0x3d2f27ee	0.04276269
22	0xbc94d25b	-0.018166712
23	0xbcdbd8ab	-0.026836714
24	0x3d46a030	0.04849261
25	0x3c2ca2b6	0.01053684
26	0x3ab1891f	0.0013544894
27	0xbc439e29	-0.011939564
28	0xbcc69028	-0.024238661
29	0x3d5473d4	0.051868275
30	0xbc9e2928	-0.019306734
31	0x3a852e35	0.0010160865
32	0xbd0d1b33	-0.034449767
33	0xbc8b8f6d	-0.017036164
34	0x3d669060	0.05629003
35	0x3b660f42	0.003510431
36	0xbd1fe749	-0.03903893
37	0x3dc8bd74	0.0980176
38	0xbd2205f6	-0.039556466
39	0x3d98c7b0	0.07459962
40	0xbc9d85ca	-0.019228835
41	0xbbc5167b	-0.006014643
42	0xbc329256	-0.010899147
43	0x3c92e567	0.017931653
44	0x3d01b24e	0.031664185
45	0x3cc850e2	0.02445263
46	0x3cef66a4	0.029223748
47	0xbcf09cc6	-0.02937163
48	0x3d9ccfec	0.076568455
49	0xbc5eb873	-0.013593781
50	0x3d914704	0.07093623
51	0xbd75b753	-0.059989285
52	0x3ccebe59	0.02523725
53	0xbc7cb61e	-0.0154242795
54	0x3dbe6d92	0.09298243
55	0x3c7898b5	0.015173127
56	0xbd0ec122	-0.034852155
57	0xbc07ebbb	-0.008295949
58	0x3d938e81	0.07204915
59	0xbd208ad0	-0.039194882
60	0xbdb14d86	-0.086573645
61	0x3ccacf44	0.024757035
62	0xbce6a036	-0.028152566
63	0xbc3b5920	-0.011434823
64	0xbd0e2e6d	-0.034712244
65	0xbcd503ee	-0.02600285
66	0xbd07cddb	-0.033155303
67	0x3dd54f34	0.104154974
68	0x3da7cbd2	0.081931725
69	0x3a92398e	0.0011156069
70	0x3a00a844	0.0004907886
71	0x3d456929	0.04819599
72	0xbc216489	-0.00985063
73	0x3ca6aab5	0.020345071
74	0xbd02c972	-0.031930394
75	0x3d9010d1	0.070344575
76	0xbbe5181c	-0.0069913995
77	0x3d57fafc	0.05272959
78	0xbcddd2f9	-0.027078139
79	0xbc7c477b	-0.015397902
80	0xbd23761b	-0.039907556
81	0x3cc2aec8	0.023764983
82	0x3d3877c3	0.04503609
83	0xbd388311	-0.04504687
84	0xbc93f837	-0.018062694
85	0xbcf914a1	-0.030405344
86	0xbc9696fd	-0.018382544
87	0xbcda1fc0	-0.026626468
88	0xbcf7081b	-0.030155232
89	0x3d5c70fd	0.05381869
90	0xbc40cb3a	-0.011767203
91	0x3abc3bbf	0.0014361067
92	0xbb8ab693	-0.0042331903
93	0xbc593369	-0.013256886
94	0xbcbd9a2d	-0.023144806
95	0x3b0d65f0	0.0021575652
96	0x3caaa7ca	0.020831961
97	0xbc59c704	-0.013292078
98	0x3d8167e4	0.06318644
99	0x3c90f42c	0.017694555
100	0xbcb35619	-0.02189164
101	0xbcfbda21	-0.03074366
102	0xbd0f2b8a	-0.03495363
103	0xbc11a8d5	-0.00889035
104	0x3d2c6d32	0.042096324
105	0x3d302d19	0.04301176
106	0x3dec2563	0.115305685
107	0xbcf7a6a9	-0.030230837
108	0x3d177d75	0.03698488
109	0x3db236bb	0.08701845
110	0xbd1444c7	-0.036198404
111	0xbd3a258f	-0.045445975
112	0x3c8e5b26	0.017377447
113	0xbdc0b1d9	-0.09408922
114	0xbd476bbc	-0.048686728
115	0x3df0b309	0.11752898
116	0x3c20ccd0	0.009814456
117	0xbd537379	-0.051623795
118	0x3b03a339	0.0020086302
119	0x3d3df03a	0.046371676
120	0xbc78a3de	-0.015175788
121	0x3d0d6221	0.03451741
122	0xbc81b309	-0.01583244
123	0x3ddba75f	0.10725283
124	0x3d8f2f30	0.06991422
125	0x3d82b9d6	0.06383102
126	0x3df5327a	0.11972518
127	0x3cd4f121	0.025993885

sequential_3/dense_7/BiasAdd/ReadVariableOp/resource f4 [11]
0	0xbe3ecafd	-0.18632121
1	0xbe0e3097	-0.13885723
2	0xbdfc7431	-0.12326849
3	0xbdc33e8d	-0.09533415
4	0xbdf27804	-0.118392974
5	0xbe10f044	-0.14154154
6	0xbe61ec98	-0.2206291
7	0xbe15b76b	-0.1462075
8	0xbe1d2135	-0.15344699
9	0xbe13c3a5	-0.14430101
10	0xbd3315b5	-0.043721873

sequential_3/batch_normalization_3/FusedBatchNormV3 f4 [3]
0	0xbfe6b553	-1.8024086
1	0xc00fd72c	-2.247508
2	0xbfe8029e	-1.8125799

sequential_3/batch_normalization_3/FusedBatchNormV31 f4 [3]
0	0x3c6b8202	0.014374258
1	0x3c972c09	0.018453615
2	0x3c7d5e4a	0.015464375

sequential_3/dense_6/MatMul f4 [128, 256]
0	0x3c8d63c7	0.017259492
1	0x3db2af7a	0.08724876
2	0x3dd87158	0.105684936
3	0x3e4b1327	0.19831525
4	0xbe1ba758	-0.15200555
5	0xbda3b04e	-0.07992612
6	0x3d3bf251	0.045885388
7	0x3d2fc5ae	0.04291313
8	0x3e920883	0.2852212
9	0xbded2c1a	-0.11580677
10	0xbd946204	-0.072452575
11	0xbd52439f	-0.05133402
12	0x3e60ec63	0.21965174
13	0xbd338121	-0.04382432
14	0xbd04459a	-0.03229294
15	0xbc6c6be4	-0.01443002
16	0xbe10623a	-0.1409997
17	0xbdb86ea6	-0.090054795
18	0xbc08e538	-0.008355431
19	0x3d55fbe3	0.05224217
20	0x3cf5a275	0.029984692
21	0xbc03c448	-0.008042403
22	0x3d09f374	0.03367944
23	0xbdbb6b8a	-0.09151371
24	0xbd8ca85a	-0.06868048
25	0x3dbb9361	0.0915897
26	0xbc60bc05	-0.013716702
27	0x3a675b68	0.0008825571
28	0x3db02ce2	0.08602311
29	0x3dd1bcb9	0.10241074
30	0xbd9f7147	-0.07785278
31	0xbde417ae	-0.11137329
32	0x3cd59f26	0.026076864
33	0xbdc1da48	-0.09465462
34	0x3d61ad50	0.055096924
35	0x3dabe08a	0.08392437
36	0x3bf2ea6a	0.0074131982
37	0x3de5b013	0.11215224
38	0x3daf905c	0.08572456
39	0xbd616ab8	-0.055033416
40	0x3d01b59f	0.031667348
41	0xbbec9d76	-0.0072209192
42	0xbcda2b76	-0.026632052
43	0x3d822263	0.06354215
44	0x3e100d44	0.1406756
45	0x3d3ff1ab	0.046861332
46	0x3cbb19e1	0.022839488
47	0x3d57a9a5	0.05265202
48	0x3bb5239f	0.005527928
49	0xbd2bb86f	-0.041923936
50	0x3e076fa9	0.13226189
51	0x3d113c73	0.03545804
52	0x3d9b1b5c	0.07573578
53	0xbdae10e5	-0.08499316
54	0x3d78fc7d	0.060787667
55	0x3db22e0c	0.08700189
56	0x3cb100fe	0.021606918
57	0xbd2f0e3e	-0.04273819
58	0x3c796c04	0.015223507
59	0x3d992742	0.07478191
60	0x3d095d31	0.03353614
61	0xbb650e82	-0.0034951274
62	0x3e62534b	0.22102086
63	0x3da7650b	0.08173569
64	0x3e5fc01c	0.21850628
65	0xbd817c5c	-0.06322548
66	0x3dc2268f	0.09480011
67	0x3dc1c1a1	0.0946076
68	0xbc7a5ce8	-0.01528094
69	0x3e18d246	0.14923963
70	0xbdf58956	-0.119890854
71	0xbd0b72d6	-0.034045063
72	0xbda83211	-0.082126744
73	0x3deee9d9	0.11665697
74	0x3d0e0632	0.034673877
75	0x3daf9386	0.0857306
76	0x3d0e7030	0.03477496
77	0x3d7d5bd0	0.061855137
78	0xbe645edc	-0.22301811
79	0xbdcf8296	-0.10132329
80	0x3dcd6321	0.10028673
81	0x3c92a14f	0.017899184
82	0x3d183981	0.037164215
83	0x3dd59ab4	0.10429898
84	0xbda06270	-0.078312755
85	0xbe00aef7	-0.12566744
86	0x3de5db4d	0.11223469
87	0x3c027365	0.0079620825
88	0xbe22691b	-0.15860407
89	0x3db8b13f	0.09018182
90	0x3d642ba2	0.055705674
91	0x3e35d549	0.17757143
92	0x3c213763	0.009839865
93	0x3e8da2d2	0.27663285
94	0xbe289b8a	-0.16465583
95	0xbce1aec8	-0.027549163
96	0x3bf09d9f	0.0073430086
97	0xbb2dfe31	-0.0026549215
98	0x3dbc0e79	0.09182448
99	0x3eabdd70	0.3356738
100	0xbe2afa80	-0.1669712
101	0x3e067916	0.13132128
102	0x3e0e89b0	0.13919711
103	0x3c52756a	0.0128453765
104	0xbd5fe63f	-0.05466294
105	0x3da10806	0.078628585
106	0xbd1764e6	-0.03696146
107	0xbd09136e	-0.033465795
108	0x3df5109f	0.11966061
109	0xbcac4f53	-0.021033918
110	0x3db22943	0.08699276
111	0xbde1c2d8	-0.110234916
112	0x3e2c9fb3	0.16857795
113	0xbc8961f2	-0.016770337
114	0xbdbc869a	-0.09205361
115	0xbda81f8a	-0.082091406
116	0xbce330ec	-0.027733289
117	0x3c3114c4	0.010808174
118	0xbd68252d	-0.05667608
119	0x3dcccc03	0.0999985
120	0xba926a9c	-0.0011170688
121	0xbc94c081	-0.0181582
122	0x3d1e77fc	0.038688645
123	0xbd0ad1f5	-0.033891637
124	0x3ca3f8b2	0.020016048
125	0xbcb0560b	-0.021525403
126	0x3e98dcd1	0.2985597
127	0x3e47b182	0.19501308
128	0xbdf73fc4	-0.12072709
129	0x3d89dc3a	0.06731458
130	0xbe02f610	-0.12789178
131	0xbdc25174	-0.09488192
132	0x3db8851c	0.090097636
133	0x3d9ca7c1	0.07649184
134	0xbd95bf40	-0.07311869
135	0x3e4ae02e	0.1981208
136	0x3dddd4b1	0.10831583
137	0x3d804a24	0.06264141
138	0x3d55cdc7	0.052198198
139	0x3e29cf08	0.16582882
140	0x3e3c1c22	0.18370107
141	0x3c99e59f	0.01878625
142	0x3e1c2fe3	0.15252642
143	0x3dd64e54	0.10464159
144	0x3d69a7d2	0.05704481
145	0x3e1d7dd0	0.15380025
146	0x3db001ed	0.08594117
147	0x3dbe72e8	0.092992604
148	0x3de065b2	0.10956897
149	0x3d6890ee	0.05677884
150	0x3e59fc21	0.21287586
151	0xbdb4117d	-0.08792398
152	0x3e238992	0.15970448
153	0x3d4b830c	0.049685523
154	0xbad7a69f	-0.0016452855
155	0x3d471be9	0.0486106
156	0xbd765708	-0.060141593
157	0xbe2f7cc2	-0.17137435
158	0xbb0fa496	-0.002191817
159	0x3d42d3d4	0.047565296
160	0xbc8b2245	-0.016984114
161	0x3d53ae94	0.051680163
162	0xbd014fe2	-0.031570323
163	0xbe450644	-0.19240671
164	0xbd8a1228	-0.06741744
165	0x3e1f6d5b	0.1556906
166	0x3c9b89b2	0.018986557
167	0x3db3398d	0.08751211
168	0x3da14716	0.07874887
169	0xbdc15489	-0.09439952
170	0x3d1e0290	0.038576663
171	0xbe215310	-0.15754342
172	0x3b397c9a	0.0028303028
173	0x3e556018	0.20837438
174	0xbd1324f9	-0.03592393
175	0x3db77624	0.089580804
176	0x3d6af535	0.057362754
177	0x3de5ad2d	0.11214671
178	0x3e2d01a2	0.16895154
179	0x3dbf5bed	0.09343705
180	0x3cc05964	0.023480125
181	0x3d175214	0.03694351
182	0x3cf62c2f	0.030050365
183	0xbe416f57	-0.18890129
184	0x3dc172c0	0.09445715
185	0x3d82b9cd	0.06383095
186	0x3c067ba3	0.008208188
187	0xbd9548a2	-0.07289244
188	0x3baed33d	0.00533524
189	0x3d32e7a7	0.043677952
190	0x3d97f619	0.07419986
191	0x3abbfefd	0.001434296
192	0x3d5e9951	0.054345433
193	0x3deba33a	0.11505742
194	0x3d9b6dd3	0.07589307
195	0xbd5c51b9	-0.053788874
196	0x3d73e95f	0.059548732
197	0x3d6168c1	0.05503154
198	0x3e12b43a	0.14326563
199	0x3d605a5f	0.054773685
200	0xbdafc572	-0.085825816
201	0xbe278a17	-0.16361271
202	0x3de4658d	0.11152182
203	0x3e526727	0.20547162
204	0x3c9a158f	0.018809108
205	0x3c6d581e	0.014486341
206	0xbb5c38b7	-0.003360314
207	0xbdb8ea21	-0.090290315
208	0x3deab682	0.11460592
209	0x3e65d5df	0.22444867
210	0xbc781398	-0.01514139
211	0x3da332df	0.07968687
212	0x3da201b4	0.07910481
213	0x3dacd9d7	0.08439987
214	0x3d850183	0.06494429
215	0xbcf8b61b	-0.030360272
216	0xbd3ad37b	-0.04561184
217	0x3bdde026	0.0067711053
218	0xbdf9c6aa	-0.12196095
219	0xbd401eeb	-0.046904486
220	0x3d21c4f8	0.039494485
221	0x3d5a4f96	0.053298555
222	0xbdb07a10	-0.086170316
223	0xbda7ac5e	-0.08187173
224	0xbdac15fa	-0.08402629
225	0xbbc4ed7a	-0.0060097547
226	0x3d4fc366	0.050723456
227	0xbe1f9da8	-0.15587485
228	0x3da1c473	0.07898798
229	0x3de86a3d	0.11348388
230	0x3d49277b	0.049109917
231	0xbd2763c1	-0.040866617
232	0xbd2c295c	-0.04203163
233	0x3d851b69	0.06499369
234	0x3d8aea97	0.06783026
235	0x3c9bd74b	0.019023558
236	0xbbcf1c0c	-0.006320482
237	0x3b4095c8	0.0029386152
238	0x3e1061b8	0.14099777
239	0x3de28c67	0.11061936
240	0x3d973530	0.073831916
241	0x3d076014	0.03305061
242	0xbd5f7947	-0.05455902
243	0x3dd6e48a	0.10492809
244	0xbd393e4f	-0.045225438
245	0x3d83bcfd	0.06432531
246	0xbdd24ff9	-0.1026916
247	0xbbae3866	-0.005316782
248	0xbde0188c	-0.10942182
249	0x3ccc5530	0.024942964
250	0xbceddeaa	-0.029036839
251	0xbdcbb6ae	-0.09946953
252	0x3e02e284	0.12781721
253	0x3c742533	0.014901447
254	0xbcfb90aa	-0.03070863
255	0x3d7bb0ea	0.061448015

sequential_3/dense_7/MatMul f4 [11, 128]
0	0x3d116c47	0.035503652
1	0xbeb84e09	-0.35997036
2	0xbeb457cc	-0.35223234
3	0xbe83793d	-0.25678435
4	0xbe8a82f3	-0.2705303
5	0xbe399fae	-0.18127319
6	0xbee82d39	-0.45347002
7	0xbc11bd2c	-0.0088952
8	0xbebaa743	-0.36455736
9	0xbee14b6e	-0.4400286
10	0x3e1731ca	0.14765087
11	0x3c7433ef	0.01490496
12	0xbec7ed57	-0.39048263
13	0xbd4038f3	-0.04692931
14	0xbec6a78c	-0.38799703
15	0x3db0aab1	0.08626307
16	0xbe7a25e2	-0.24428514
17	0xbec149cd	-0.37751618
18	0xbea9caf3	-0.3316265
19	0xbef8c1be	-0.48585314
20	0xbf031da5	-0.5121711
21	0xbed09028	-0.40734982
22	0x3d8940c5	0.06701807
23	0xbe4e7503	-0.20161824
24	0xbe319315	-0.17341264
25	0xbe50f9fb	-0.2040786
26	0xbb7f2b71	-0.0038935805
27	0xbe2f286e	-0.17105266
28	0xbe79f63c	-0.24410337
29	0x3cc85a83	0.024457222
30	0xbde3fdc7	-0.111323886
31	0xbe9c4da7	-0.30527994
32	0x3b0cf177	0.002150623
33	0x3ce13ea6	0.027495693
34	0xbe3cb3dd	-0.18427987
35	0xbe65db69	-0.2244698
36	0xbe23b4f2	-0.15986994
37	0xbe462f74	-0.1935404
38	0xbcc965c5	-0.02458466
39	0xbecabd3b	-0.39597496
40	0xbe246c72	-0.16056994
41	0xbd5e4ada	-0.054270603
42	0xbe081941	-0.13290884
43	0xbe79ced2	-0.24395302
44	0x3d054e72	0.032545514
45	0x3c6ae7b3	0.014337468
46	0xbcc0a555	-0.023516336
47	0xbe5e88dc	-0.21731895
48	0xbefae354	-0.49001563
49	0xbe775d77	-0.24156748
50	0xbee688c5	-0.45026222
51	0x3d3d9a61	0.046289805
52	0xbea5d05c	-0.32385528
53	0xbd7e7362	-0.062121756
54	0xbedac6d6	-0.42729825
55	0xbd08cde6	-0.033399485
56	0x3bd8931d	0.006609334
57	0xbec712a7	-0.38881418
58	0xbe4d882a	-0.20071474
59	0x3e4bf870	0.1991899
60	0x3d0d2b7f	0.03446531
61	0xbeb08763	-0.34478292
62	0xbec72b90	-0.38900423
63	0xbe805470	-0.2506442
64	0x3e24cb45	0.16093166
65	0x3d1e9509	0.03871635
66	0xbd80046f	-0.06250846
67	0xbef85d8c	-0.4850887
68	0xbe8ae05b	-0.27124295
69	0xbe899074	-0.2686802
70	0xbe60aafb	-0.21940224
71	0xbefd4e09	-0.494736
72	0x3d688c98	0.056774706
73	0xbe0b9688	-0.13631642
74	0xbdf1a44c	-0.11798915
75	0xbd607eff	-0.054808613
76	0xbe4f36e0	-0.20235777
77	0xbe7aa387	-0.24476443
78	0xbb97a892	-0.0046282494
79	0xbd29526c	-0.04133837
80	0xbd8ed2db	-0.06973811
81	0xbe11aabf	-0.1422529
82	0xb9350ed5	-0.0001726703
83	0xbd8ae64b	-0.06782206
84	0xbed22d1b	-0.41050038
85	0xbeab627f	-0.33473584
86	0x3b98f929	0.004668374
87	0xbdf4a424	-0.1194537
88	0xbe30cf2c	-0.1726653
89	0xbd4b81fe	-0.049684517
90	0x3dc00816	0.09376542
91	0xbe437b98	-0.19090116
92	0xbea2fa43	-0.3183156
93	0x3db50fa1	0.088408716
94	0x3dbb65de	0.09150289
95	0xbecf3f21	-0.4047785
96	0xbec3e11e	-0.38257688
97	0xbd422b8e	-0.04740482
98	0xbec28df1	-0.37998918
99	0x3cc5b719	0.02413516
100	0xbe532a2e	-0.20621559
101	0xbdc380ce	-0.09546052
102	0x3e0b791a	0.13620415
103	0x3e131dd2	0.14366844
104	0xbdcc12e5	-0.09964541
105	0xbee61db6	-0.44944543
106	0xbe3f3eb3	-0.18676262
107	0xbe106959	-0.14102687
108	0xbc8e3796	-0.01736049
109	0xbea9dbcd	-0.33175507
110	0x3daa7a0e	0.08324061
111	0x3e173c23	0.14769034
112	0xbc0a9903	-0.008459332
113	0x3dd88151	0.1057154
114	0xbe840424	-0.2578441
115	0xbe5ef6c7	-0.21773826
116	0xbe886b3d	-0.26644316
117	0xbe10cb51	-0.14140059
118	0xbe460408	-0.19337475
119	0xbe21934c	-0.15778846
120	0xbe9dab6f	-0.30794856
121	0xbd6174a5	-0.05504288
122	0x3cef0344	0.029176362
123	0xbcc2917e	-0.023751017
124	0xbed16ea4	-0.40904725
125	0xbeb4bc18	-0.35299754
126	0xbe73d7b5	-0.23812754
127	0xbe6bb3b0	-0.23017764
128	0xbbc6e65d	-0.006069942
129	0x3df2042f	0.11817204
130	0xbdcec1da	-0.10095568
131	0xbe877158	-0.26453662
132	0x3d75df75	0.06002756
133	0x3e41451f	0.18874024
134	0xbe833c39	-0.25631884
135	0xbd8f6ea3	-0.07003524
136	0xbebd1b32	-0.3693481
137	0x3dc71ffc	0.097228974
138	0xbe1dd1ae	-0.15412018
139	0xbde773d7	-0.113013916
140	0x3e8b4cc6	0.2720701
141	0xbd2ff51a	-0.042958356
142	0xbe1191cd	-0.14215775
143	0xbe9fb632	-0.31193691
144	0x3dbf7c90	0.0934993
145	0xbef9ac19	-0.48764113
146	0xb86573f2	-5.4705837e-05
147	0xbea59859	-0.32342795
148	0xbe267514	-0.162556
149	0x3e19ea3f	0.15030764
150	0xbe7ec092	-0.24878147
151	0x3e36749e	0.17817923
152	0xbe51cf6d	-0.20489283
153	0xbe1cf17f	-0.15326498
154	0xbea0a190	-0.31373262
155	0xbd0de482	-0.03464175
156	0xbdebee74	-0.11520091
157	0xbe21a351	-0.15784957
158	0xbe571e62	-0.21007684
159	0xbd5349af	-0.051583942
160	0xbea19989	-0.3156245
161	0x3cdaaa9f	0.026692687
162	0xbec4cc19	-0.38436964
163	0x3c56769b	0.013089801
164	0xbea23a0d	-0.31684914
165	0xbecdedea	-0.40220577
166	0xbe9d8f69	-0.30773476
167	0xbea41051	-0.32043698
168	0x3e0d1c91	0.13780428
169	0xbe590089	-0.2119161
170	0xbe92be56	-0.2866084
171	0xbe09cbb6	-0.13456616
172	0xbec491ae	-0.38392395
173	0x3d13af54	0.036055878
174	0xbe64ef0a	-0.22356811
175	0x3ccaba7b	0.024747124
176	0xbee4c1cf	-0.44679114
177	0xbe75d9f8	-0.2400893
178	0xbe8aead0	-0.27132273
179	0xbd2a5f0d	-0.041594554
180	0xbea9d7b0	-0.3317237
181	0x3e1779ca	0.14792553
182	0xbe890227	-0.26759455
183	0xbed3e152	-0.41382843
184	0xbe04c3c2	-0.129653
185	0xbcc21b0c	-0.023694538
186	0xbe9358c7	-0.2877867
187	0x3e099903	0.13437276
188	0xbb88d5cc	-0.004175877
189	0xbce916a1	-0.028453173
190	0xbdb60086	-0.088868186
191	0x3d292acc	0.04130058
192	0xbdfc3a65	-0.123158254
193	0x3db20cff	0.08693885
194	0xbe003401	-0.12519838
195	0xbe2df280	-0.16987038
196	0xbe5e9acc	-0.21738738
197	0xbf02e2f9	-0.5112758
198	0xbead211f	-0.33814332
199	0x3ce6f027	0.028190685
200	0xbe1c5286	-0.15265855
201	0xbd9f970b	-0.07792481
202	0xbc5bb12e	-0.013408942
203	0xbe709b92	-0.23496845
204	0x3dee63e5	0.11640147
205	0xbed2615b	-0.410899
206	0xbbae9d06	-0.0053287772
207	0xbe27548e	-0.16340849
208	0x3d5f7364	0.054553404
209	0xbd9f4784	-0.077773124
210	0xbef71b5a	-0.48263055
211	0x3e3b380f	0.18283103
212	0x3e18f70f	0.14937995
213	0x3d8aa75a	0.06770201
214	0xbd2a07fe	-0.04151153
215	0xbe9db8fa	-0.30805188
216	0xbdc79419	-0.09745044
217	0xbdbe1cfa	-0.092828706
218	0xbd8fc132	-0.07019271
219	0xbdb0248b	-0.0860072
220	0xbe6f4074	-0.2336443
221	0xbe371d1f	-0.17882203
222	0xbe394acd	-0.1809494
223	0x3d0b13ca	0.03395442
224	0xbe5ff185	-0.21869476
225	0x3e52bf60	0.20580816
226	0x3e3cedb5	0.18450053
227	0xbecf26c2	-0.40459257
228	0x3cbca10f	0.023026017
229	0x3d56ad28	0.05241123
230	0xbea6bab4	-0.32564318
231	0xbc7aa56c	-0.015298229
232	0x3df44e8f	0.11929046
233	0xbc497ae1	-0.012297363
234	0xbecade2d	-0.39622632
235	0x3bf31a14	0.0074188802
236	0xbe2183c4	-0.15772921
237	0xbea5d9c4	-0.32392704
238	0xbd20d7b0	-0.039268196
239	0xbe78b2ff	-0.24287032
240	0xbdd5bcdc	-0.10436413
241	0x3ca0df30	0.019637674
242	0xbe0e23af	-0.138808
243	0xbe89978a	-0.26873428
244	0xbe94410b	-0.28955874
245	0xbe0ddd70	-0.13854003
246	0xbe8689b8	-0.26276946
247	0xbec9e79d	-0.3943452
248	0xbe844ca2	-0.25839716
249	0xbdabe690	-0.08393586
250	0xbe57b2ae	-0.21064255
251	0xbe9448d6	-0.2896182
252	0xbe8fb7e9	-0.2807
253	0xbd9ebb42	-0.0775056
254	0xbeca5e9c	-0.39525306
255	0xbc2ca34c	-0.01053698

sequential_3/conv2d_9/Conv2D f4 [32, 3, 3, 3]
0	0x3dcbc5ef	0.09949862
1	0x3cfbc63e	0.030734178
2	0xbd20cf38	-0.03926012
3	0x3c8649e5	0.016392658
4	0xbdd54ed7	-0.10415428
5	0x3de8f4af	0.11374795
6	0xbe17d78c	-0.14828318
7	0x3c686a57	0.01418551
8	0x3c83aa5e	0.016072448
9	0x3df94c44	0.1217275
10	0x3e670fd8	0.22564638
11	0x3be24da3	0.0069062277
12	0x3dc77c5d	0.09740517
13	0xbdbb1c00	-0.091362
14	0xbd2b92dd	-0.041888107
15	0xbd7e4e06	-0.062086128
16	0xbdfe2799	-0.124098964
17	0xbe0d6d81	-0.13811304
18	0x3dac91bc	0.08426234
19	0x3dfcce0e	0.12343989
20	0x3e058582	0.1303921
21	0xbdf59451	-0.1199118
22	0xbe33aef6	-0.17547211
23	0xbbd698e7	-0.006548989
24	0xbdd8ccbb	-0.10585924
25	0xbdcf9488	-0.10135752
26	0xbc9c6bba	-0.019094337
27	0xbda37489	-0.07981212
28	0xbc8e1a07	-0.017346395
29	0x3e14c75b	0.14529173
30	0x3c6a908a	0.014316687
31	0xbccff067	-0.025383187
32	0xbd76b658	-0.06023249
33	0xbe683ff7	-0.2268065
34	0xbe83ce94	-0.25743544
35	0xbe6131e2	-0.21991685
36	0x3e4c148d	0.19929715
37	0x3df514be	0.11966847
38	0x3e1b1969	0.15146412
39	0x3d1cca51	0.03827888
40	0x3e03a37d	0.12855335
41	0xbe0e0ff6	-0.13873276
42	0xbdb2016c	-0.086916775
43	0xbe5b7b5d	-0.21433778
44	0xbabb0361	-0.0014267975
45	0x3da41de8	0.08013517
46	0x3e4963b3	0.19666938
47	0x3d2aac20	0.041668057
48	0x3dbe4f94	0.09292522
49	0x3d9e5a6d	0.07732091
50	0x3d41875e	0.047248237
51	0xbd81f9e0	-0.06346488
52	0x3d54b4ba	0.051930167
53	0xbdc5bc98	-0.09655112
54	0x3d84ae82	0.06478597
55	0x3e2dfc47	0.16990767
56	0x3e2703d5	0.16310056
57	0xbc8fdf3c	-0.017562501
58	0x3e417572	0.18892458
59	0x3dbc4d08	0.0919438
60	0xbcea22f5	-0.028581122
61	0xbde53fcc	-0.11193809
62	0xbd8cb5b8	-0.068705976
63	0xbd70b138	-0.05876276
64	0xbb3ac509	-0.002849879
65	0x3cb2a722	0.02180821
66	0x3da6a2ff	0.08136558
67	0xbb941a1b	-0.0045197136
68	0x3cbce3f1	0.02305791
69	0xbdb10d19	-0.08645076
70	0xbd22b16a	-0.039719976
71	0xbe1cd28d	-0.15314694
72	0xbd2a603e	-0.04159569
73	0x3df8734a	0.12131365
74	0x3e36162d	0.17781897
75	0x3bb35841	0.005473167
76	0xbd9c8051	-0.07641662
77	0xbe66ea84	-0.22550398
78	0x3d1d783d	0.038444746
79	0xbe2d5b97	-0.1692947
80	0xbe2c7a41	-0.16843511
81	0x3c98676b	0.018604001
82	0x3e7b615e	0.24548861
83	0x3e47fe75	0.19530661
84	0x3de73fd1	0.11291469
85	0xbd24822f	-0.040163215
86	0xbcaf360c	-0.021388076
87	0xbb9adada	-0.004725796
88	0xbe1c0e63	-0.15239863
89	0xbe072c39	-0.13200463
90	0x3e043f5d	0.12914796
91	0xbb4b3f0f	-0.0031012928
92	0x3e0060b1	0.12536885
93	0xbe22b856	-0.15890631
94	0x3c13f364	0.009030197
95	0x3d79d76c	0.060996458
96	0x3bcd1bf8	0.0062594377
97	0xbe56c071	-0.20971848
98	0xbd74f7fd	-0.059806813
99	0xbd5f9a97	-0.054590788
100	0x3de58ca0	0.11208463
101	0x3dcb01b7	0.099124365
102	0xbe00f9f1	-0.12595345
103	0xbe009edb	-0.12560599
104	0xbdb58070	-0.08862388
105	0x3d80f708	0.062971175
106	0x3d607372	0.054797597
107	0xbd49fc4d	-0.04931288
108	0xbe078ca0	-0.13237238
109	0x3d9290fe	0.07156561
110	0xbd4a789f	-0.04943144
111	0x3e0dd863	0.13852076
112	0x3e7b3abf	0.24534129
113	0x3e8850b9	0.26624086
114	0x3db13c1b	0.08654042
115	0x3e9abf8c	0.30224264
116	0x3e8e86b0	0.27837133
117	0xbde445b9	-0.11146111
118	0xbe013083	-0.12616162
119	0xbe2b31a9	-0.16718163
120	0xbe12618b	-0.14295022
121	0xbe0b46aa	-0.13601175
122	0xbd765b78	-0.060145825
123	0x3d826087	0.063660674
124	0xbd6836c2	-0.056692846
125	0xbd3cb1a8	-0.046067864
126	0xbdd39d34	-0.103327185
127	0xbdcfe4e6	-0.10151081
128	0xbe26343b	-0.16230862
129	0xbd463e1d	-0.04839908
130	0xbde0cb31	-0.10976256
131	0xbdca072d	-0.0986465
132	0xbb2e7b0b	-0.0026623632
133	0x3d085a7d	0.03328942
134	0xbd8b2f1c	-0.06796095
135	0x3db2ff35	0.08740083
136	0xbdd62e4a	-0.10458048
137	0x3daebc6a	0.08532031
138	0x3e1ea354	0.15491992
139	0x3e369766	0.17831191
140	0x3e3ff07a	0.18744078
141	0x3e049eba	0.12951174
142	0x3e3329aa	0.17496362
143	0x3e56336e	0.20918056
144	0x3d94750b	0.07248887
145	0xbdba805a	-0.09106512
146	0xbd53602f	-0.0516054
147	0xbe1eaf46	-0.15496549
148	0xbde11c7c	-0.10991761
149	0xbe5b6106	-0.2142373
150	0xbdd226e3	-0.10261323
151	0xbe5890ae	-0.21148941
152	0xbe5dc984	-0.21658903
153	0x3d9d00cc	0.076661676
154	0x3c9aa01a	0.01887517
155	0x3d0186a2	0.031622536
156	0x3d372d08	0.04472068
157	0xbe18c4b7	-0.14918791
158	0x3e0b8af2	0.13627222
159	0x3bb72763	0.005589412
160	0xbd764352	-0.060122795
161	0xbdac06d0	-0.08399737
162	0x3d5cec8c	0.053936526
163	0xbd7aa41f	-0.061191674
164	0x3e0e7ea8	0.13915503
165	0xbe0727e6	-0.13198814
166	0x3e633561	0.22188331
167	0x3e2e0f90	0.16998124
168	0x3d9d9a6b	0.076954685
169	0x3e123d21	0.14281131
170	0x3d8850a5	0.06656007
171	0x3dd06f4e	0.1017748
172	0x3d0f1001	0.034927372
173	0xbd8e3408	-0.06943518
174	0x3c95f4d1	0.018305214
175	0x3dbbec3a	0.09175916
176	0xbdf106e1	-0.1176889
177	0x3d7d3549	0.061818395
178	0x3cc9b288	0.024621263
179	0x3c8094e7	0.015696002
180	0xbe1bd387	-0.1521741
181	0xbdb55db6	-0.088557646
182	0x3d11cd8a	0.035596408
183	0xbde3ff04	-0.11132625
184	0xbe00ed5c	-0.12590545
185	0xbd4d3be2	-0.050105937
186	0xbde14aab	-0.1100057
187	0xbe198e85	-0.14995773
188	0x3cf0da7c	0.029401056
189	0x3d09771a	0.03356085
190	0x3dc27383	0.09494688
191	0x3d9b15b9	0.07572503
192	0xbd9e8004	-0.07739261
193	0x3d91ac3f	0.071129315
194	0xbe4a251d	-0.1974072
195	0xbd99c9a2	-0.075091615
196	0xbe2dc620	-0.1697011
197	0xbccd0014	-0.025024451
198	0x3e3ef0dc	0.18646568
199	0x3e3498f0	0.17636466
200	0xbc20395d	-0.0097793015
201	0xbc75c86f	-0.0150014
202	0x3df4e15a	0.11957045
203	0xbe161c1a	-0.14659157
204	0x3db9b191	0.09067071
205	0xbbef6eb1	-0.0073068966
206	0xbddab2df	-0.10678648
207	0xbc9278af	-0.017879812
208	0xbc1d52d7	-0.00960227
209	0x3e1ed341	0.15510274
210	0xbcff0d3b	-0.031134238
211	0x3e0863d3	0.1331933
212	0x3db3e127	0.08783179
213	0xbd0fb05a	-0.03508029
214	0xbc7fbbf1	-0.015608774
215	0x3dcdb7b8	0.10044807
216	0x3def6800	0.11689758
217	0x3e1daea6	0.15398654
218	0x3dcfaec9	0.101407595
219	0x3d9806e0	0.07423186
220	0xbdbae096	-0.091248676
221	0x3e0f6ef2	0.14007166
222	0xbe086666	-0.13320312
223	0xbe00af17	-0.12566791
224	0x3d83cbaf	0.06435334
225	0x3da1b756	0.07896297
226	0x3d72648c	0.05917792
227	0x3e200771	0.15627839
228	0xbe486d6d	-0.19572993
229	0xbe3458f1	-0.17612053
230	0x3c9e316c	0.019310676
231	0x3d01ed06	0.031720184
232	0xbba32728	-0.004979033
233	0xbe35e924	-0.17764717
234	0x3dbacf26	0.09121542
235	0xbe1e58c4	-0.15463549
236	0x3d4eab4d	0.050456334
237	0xbe4c1fbf	-0.19933985
238	0xbe55de73	-0.20885639
239	0xbe501bfb	-0.20323174
240	0x3daacc7f	0.08339786
241	0x3de7f42e	0.113258705
242	0x3df19622	0.11796214
243	0xbde144b3	-0.109994315
244	0x3d57d76c	0.052695677
245	0xbd9b7f76	-0.075926706
246	0x3da3a774	0.079909235
247	0xbe4a0a0b	-0.19730394
248	0xbc74a8f0	-0.014932856
249	0xbcef8f76	-0.029243212
250	0xbdc68650	-0.09693587
251	0xbdd6019b	-0.10449525
252	0xbc971b35	-0.01844559
253	0xbdf26ca2	-0.11837126
254	0xbdc4e749	-0.09614427
255	0x3b9cb0e8	0.004781831

sequential_3/conv2d_10/Conv2D f4 [32, 3, 3, 32]
0	0x3e0d7ff9	0.13818349
1	0x3e352a7a	0.17691985
2	0xbd8facfa	-0.070154145
3	0x3d984f6f	0.07437026
4	0xbd03e177	-0.032197442
5	0x3c642c54	0.013926584
6	0xbd0fc2c7	-0.035097864
7	0x3dffc85d	0.12489388
8	0x3deeb51c	0.116556376
9	0xbd3cbf7c	-0.04608105
10	0x3d1cf2b9	0.038317416
11	0x3be1551c	0.006876601
12	0x3dfe5d7b	0.12420174
13	0x3d8d9b70	0.06914413
14	0x3c2354e8	0.009968974
15	0xbda2a03d	-0.07940719
16	0xbd21502a	-0.03938309
17	0x3c9d464c	0.01919856
18	0xbd9e68ff	-0.0773487
19	0x3dafc956	0.08583324
20	0x3d1eff01	0.03881741
21	0xbd659d48	-0.0560582
22	0xbc2d5c04	-0.01058102
23	0xbd0ad151	-0.033891026
24	0x3db0305e	0.08602975
25	0x3d7ac7aa	0.06122557
26	0x3c9ff6e4	0.019526906
27	0xbd296461	-0.041355494
28	0x3da53b3d	0.080679394
29	0xbc9ff00b	-0.019523641
30	0x3d0cf63d	0.03441452
31	0x3dd01729	0.101606674
32	0x3d9743c6	0.07385974
33	0x3e2adff8	0.16687
34	0x3b6b8e44	0.0035942951
35	0x3da86843	0.08223011
36	0xbd8cc6b8	-0.0687384
37	0xbddbddf3	-0.10735693
38	0x3c074e95	0.0082584815
39	0xbe091174	-0.13385564
40	0xbb59786e	-0.0033183354
41	0xbd97c6a6	-0.07410936
42	0x3d130b69	0.035899553
43	0x3d275eeb	0.040862005
44	0x3d1f0507	0.038823154
45	0xbd863059	-0.0655219
46	0x3dc4416e	0.09582792
47	0xbbea0ba9	-0.0071425033
48	0x3c808a46	0.015690934
49	0x3ca75b91	0.020429404
50	0x3df21134	0.118196875
51	0x3ba54236	0.0050432933
52	0xbc9f9ab9	-0.019482957
53	0x3d2e620e	0.04257398
54	0x3b265192	0.002537821
55	0xbe20b943	-0.15695672
56	0xbe1674d4	-0.14693004
57	0xbddbba48	-0.1072889
58	0x3d8c664e	0.068554506
59	0x3e03428b	0.12818353
60	0x3dabec9a	0.083947375
61	0xbcad518d	-0.02115705
62	0x3e047bde	0.12937877
63	0x3bcb2993	0.0062000244
64	0x3e31a104	0.17346579
65	0x3da2cb2e	0.0794891
66	0x3d278321	0.04089654
67	0x3dbbb649	0.091656275
68	0x3cd7b0e6	0.026329469
69	0x3dd1fc69	0.102532215
70	0x3a85ed0d	0.0010217741
71	0xbc8c5af3	-0.017133212
72	0xbb838796	-0.004013966
73	0x3dfad6b9	0.12247986
74	0xbe39cd54	-0.18144733
75	0xbe72bba0	-0.23704386
76	0xbcd31bac	-0.02577003
77	0x3d954986	0.07289414
78	0x3d895fe4	0.06707743
79	0xbcf664fc	-0.03007745
80	0xbe0b36a7	-0.13595067
81	0xbd8a7a81	-0.06761647
82	0xbdbff8f2	-0.093736544
83	0x3c8e2a99	0.017354297
84	0x3df390c4	0.11892846
85	0xbd9151f2	-0.07095708
86	0x3d31576b	0.04329626
87	0x3dad749d	0.08469508
88	0xbda173fc	-0.078834504
89	0xbe44f4f2	-0.19234064
90	0x3e4f7cde	0.20262477
91	0x3c16ce2d	0.00920443
92	0xbccc650e	-0.02495053
93	0xbdda4324	-0.10657337
94	0x3e059a79	0.13047208
95	0x3bed957a	0.007250485
96	0x3d8fdcf4	0.07024565
97	0x3e0aaff9	0.1354369
98	0xbdbd54d8	-0.09244698
99	0xbde9de0b	-0.114193045
100	0x3df30a72	0.11867227
101	0x3dd7afc4	0.105315715
102	0xbb7dffff	-0.0038757322
103	0x3d77e1c6	0.06051805
104	0xbd013424	-0.031543866
105	0x3c78777a	0.015165204
106	0xbd72c817	-0.05927285
107	0xbe21d0f6	-0.15802369
108	0xbc953491	-0.018213542
109	0x3d8d4b41	0.06899119
110	0xbe420a88	-0.1894933
111	0xbd9b306f	-0.07577597
112	0xbe4bd46d	-0.19905253
113	0xbdc456d9	-0.095868774
114	0xbcbee28b	-0.023301383
115	0x3b72b7f4	0.0037035914
116	0x3ccb7fac	0.024841152
117	0x3d882d74	0.066492945
118	0xbd01b626	-0.03166785
119	0x3dd8ca05	0.10585407
120	0x3e13cc86	0.14433488
121	0x3ba4fe7a	0.005035219
122	0xbd36771a	-0.044547178
123	0xbc943b9b	-0.018094828
124	0x3e30e72a	0.17275682
125	0xbd54783d	-0.05187248
126	0x3d9b9656	0.07597034
127	0x3d865a63	0.06560209
128	0xbc8a1d3a	-0.01685964
129	0x3e267057	0.16253792
130	0xbd39ba4e	-0.04534369
131	0x3cfba545	0.030718455
132	0xbca428f2	-0.020039055
133	0xbe2e6b23	-0.17033057
134	0xbd7b2a36	-0.061319552
135	0xbd6d227c	-0.057894215
136	0xbdcd8f15	-0.10037056
137	0xbdd7a112	-0.105287686
138	0x3ddabc12	0.10680403
139	0x3d8d71db	0.06906482
140	0x3ce9c197	0.028534694
141	0xbcdb5183	-0.026772266
142	0x3c9eb02e	0.019371118
143	0x3ba4b172	0.005026036
144	0x3d8bf82f	0.06834447
145	0x3db0d739	0.086348005
146	0x3b9d2247	0.004795346
147	0xbd959806	-0.07304387
148	0xbd43f90a	-0.047844924
149	0x3d94c95d	0.072649695
150	0x3d3d7d61	0.04626215
151	0x3d40cc88	0.047070056
152	0xbe811eb0	-0.25218725
153	0xbdb1c9fe	-0.08681105
154	0x3da98a93	0.08278384
155	0x3d25da2c	0.040491268
156	0xbe796d3e	-0.24358079
157	0xbc6e1636	-0.014531663
158	0xbcb3d671	-0.02195284
159	0x3e3792fa	0.17927161
160	0x3e4aef3e	0.19817826
161	0x3d5c2f8e	0.05375629
162	0x3e552dd3	0.20818262
163	0x3e292e0d	0.16521473
164	0xbd0cca1e	-0.03437244
165	0xbd5cb610	-0.053884566
166	0xbe1fce85	-0.15606125
167	0x3bcb98bc	0.0062132757
168	0x3b42731f	0.0029670668
169	0x3d700a2c	0.05860345
170	0xbd8a5caf	-0.06755959
171	0xbd6f57b4	-0.05843325
172	0x3e2d367a	0.16915312
173	0x3db52604	0.088451415
174	0x3df141a6	0.117800996
175	0x3d8217ed	0.0635222
176	0xbd7fb236	-0.062425815
177	0x3d8add3a	0.06780477
178	0x3d0448b8	0.032295913
179	0x3dd24051	0.10266174
180	0x3cd42477	0.025896294
181	0xbe309462	-0.17244104
182	0x3ded12d7	0.11575859
183	0xbcadd99b	-0.021221926
184	0xbddb45d2	-0.107066765
185	0xbcab29b0	-0.020893902
186	0x3da2b305	0.079443015
187	0x3d136de8	0.035993487
188	0xbd585358	-0.052813858
189	0x3d81120a	0.06302269
190	0x3cd951e0	0.026528299
191	0xbcec9b3e	-0.028882619
192	0x3d4d6eb1	0.05015439
193	0xbc9bbf13	-0.01901201
194	0x3da4412b	0.08020242
195	0x3d140776	0.036139928
196	0x3d8b62b6	0.06805937
197	0x3ca2e8ce	0.0198864
198	0xbd840cdb	-0.064477645
199	0xbd444d27	-0.04792514
200	0x3d972f3e	0.073820576
201	0x3d87435f	0.06604647
202	0x3db57aa3	0.08861282
203	0x3cc11517	0.023569627
204	0xbd6a0bfd	-0.05714034
205	0x3e0de023	0.13855033
206	0xbd17f36d	-0.037097383
207	0xbda0cced	-0.078515865
208	0xbe16c303	-0.14722829
209	0xbd470c6f	-0.048595842
210	0xbdc57645	-0.09641699
211	0xbda570d2	-0.080781594
212	0x3de1c31e	0.11023544
213	0x3dcd0fce	0.1001278
214	0xbdd262c0	-0.10272741
215	0x3cb2e12e	0.02183589
216	0xbd34f2ee	-0.04417699
217	0xbdd6f537	-0.1049599
218	0xbd170df3	-0.036878537
219	0xbe31f31d	-0.17377897
220	0xbdeb15ad	-0.11478744
221	0x3db53468	0.08847886
222	0xbe062cd7	-0.13103043
223	0x3e4937a3	0.1965013
224	0x3d6c1dc7	0.057645585
225	0x3ddbcf93	0.10732951
226	0x3d61911e	0.055070035
227	0x3b0f279c	0.0021843677
228	0xbd8b447a	-0.0680017
229	0xbe1dd38c	-0.1541273
230	0xbda5bc19	-0.080925174
231	0xbd4edc06	-0.0505028
232	0xbe48c637	-0.19606863
233	0xbc095bbd	-0.0083836885
234	0x3dbec5dc	0.093150824
235	0x3c11ad73	0.008891451
236	0x3e38b5de	0.18038127
237	0xbd1eca12	-0.038766928
238	0xbb5f6ed1	-0.0034093151
239	0xbe4b2feb	-0.19842498
240	0xbd4c1837	-0.04982778
241	0xbd37b8a2	-0.044853814
242	0x3d85dbf3	0.065360926
243	0xbe3bc433	-0.18336563
244	0xbe7b152a	-0.24519792
245	0x3e4e5d9a	0.20152894
246	0xbe1e317c	-0.15448564
247	0x3d3e7522	0.046498425
248	0xbdba1ffc	-0.09088132
249	0x3c85c461	0.016328992
250	0x3da694cc	0.081338495
251	0xbd95423a	-0.07288022
252	0xbdc0de65	-0.094174184
253	0x3d321378	0.043475598
254	0x3d177b9a	0.03698311
255	0x3dbe3476	0.0928735

sequential_3/conv2d_11/Conv2D f4 [32, 3, 3, 32]
0	0xbd4a6c39	-0.049419615
1	0x3adbc999	0.0016768455
2	0xbbae00d3	-0.005310157
3	0x3d04f1af	0.03245705
4	0x3df78bd4	0.12087217
5	0xbd466d98	-0.04844436
6	0x3db7fe86	0.08984093
7	0xbd8398b5	-0.06425611
8	0x3db0e7a9	0.08637936
9	0xbc2d3316	-0.010571262
10	0x3e15ff46	0.1464816
11	0x3db9e0d0	0.09076083
12	0xbde03286	-0.109471366
13	0x3dccf908	0.100084364
14	0x3d8f7ce5	0.070062436
15	0xbce55f32	-0.027999494
16	0x3e053e1b	0.13011973
17	0x3c8d438c	0.017244123
18	0x3d730528	0.05933109
19	0x3cffb7b3	0.031215524
20	0xbbba1a82	-0.0056794295
21	0x3da57203	0.08078387
22	0x3d2e5fb6	0.042571746
23	0xbdd1ec7e	-0.102501854
24	0x3d938e43	0.07204869
25	0x3c9b3631	0.018946739
26	0xbd69657e	-0.056981556
27	0x3c99d1c2	0.018776778
28	0x3d5be0fb	0.053681355
29	0x3d2ded18	0.04246244
30	0x3c5e74f2	0.013577687
31	0xbc0d30b6	-0.008617571
32	0xbb8c8e3c	-0.0042894166
33	0x3c996d0d	0.018728757
34	0xbc3302c3	-0.010925951
35	0xbcd08a0e	-0.025456455
36	0xbd2ac33e	-0.041690104
37	0xbdcdc662	-0.10047604
38	0xbd6bfbbb	-0.057613116
39	0x3cb79ee0	0.022414625
40	0xbbe2d634	-0.0069225077
41	0xbd913ceb	-0.07091697
42	0xbe07c4a4	-0.13258606
43	0xbd84a714	-0.0647718
44	0x3da6441c	0.081184596
45	0x3e2a6bc3	0.1664267
46	0xbd916f56	-0.07101314
47	0x3da6bef7	0.081418924
48	0xbe2a2430	-0.16615367
49	0xbd43a496	-0.047764383
50	0x3dd662e2	0.10468079
51	0x3d723c80	0.05913973
52	0xbe0aef70	-0.135679
53	0xbd98dbeb	-0.07463821
54	0x3ca3ea3b	0.02000915
55	0xbcf0ee57	-0.029410524
56	0x3e6436fd	0.22286601
57	0xbc34a01b	-0.0110245
58	0xbdc19085	-0.09451393
59	0xbe45d4e9	-0.193195
60	0xbd05a826	-0.032631062
61	0xbdc23816	-0.09483354
62	0xbd9c481b	-0.076309405
63	0xbe47a348	-0.1949588
64	0x3db0d00f	0.08633434
65	0x3dfd6419	0.12372608
66	0x3de73a8b	0.11290463
67	0xbdce953a	-0.100870565
68	0xbcf69c4b	-0.030103823
69	0xbc17bdb6	-0.009261539
70	0x3d58113f	0.052750822
71	0x3d30f52f	0.043202575
72	0x3d960c3f	0.073265545
73	0x3c1d2c2a	0.009593049
74	0xbd39047b	-0.04517029
75	0xbd07f0e5	-0.03318872
76	0xbb1064bb	-0.0022032696
77	0x3df2a639	0.11848111
78	0xbdebe595	-0.11518399
79	0x3e00f43e	0.12593171
80	0xbd728378	-0.05920741
81	0xbda2e236	-0.079533026
82	0x3dda1ee5	0.10650424
83	0x3db71dc7	0.089412265
84	0x3cff9653	0.03119961
85	0x3bc31001	0.0059528355
86	0x3dedc23f	0.11609315
87	0x3d1edc97	0.03878459
88	0x3dcbcd8e	0.09951316
89	0x3c704ab5	0.014666249
90	0xbd38391d	-0.044976342
91	0xbb44a6bf	-0.0030006615
92	0x3dff65dc	0.124706
93	0xbd0a857d	-0.03381871
94	0xbdd212b1	-0.10257471
95	0xbdd80942	-0.10548641
96	0x3d641a00	0.055688858
97	0x3d4d40ab	0.0501105
98	0xbdd6da19	-0.104908176
99	0xbdd2f55d	-0.103007056
100	0xbd2e3167	-0.042527582
101	0x3d05383d	0.032524336
102	0xbbb0ceee	-0.0053957617
103	0xbd508cff	-0.050915714
104	0xbe290a27	-0.16507779
105	0x3bd4201a	0.0064735534
106	0xbe2e8a13	-0.17044859
107	0x3d42226a	0.0473961
108	0xbda0aec0	-0.07845831
109	0xbddf360a	-0.10898979
110	0x3da45e61	0.08025814
111	0xbd98b429	-0.07456238
112	0x3cf73098	0.030174538
113	0x3d0ffc50	0.035152733
114	0xbdca5a1e	-0.0988047
115	0xbd9ff82f	-0.07811009
116	0xbe1a221e	-0.15052077
117	0xbddcf2d8	-0.10788506
118	0x3d19bce6	0.037533663
119	0x3b9b9620	0.004748121
120	0xbe200f60	-0.15630865
121	0xbdce7131	-0.10080183
122	0xbd5640fa	-0.05230806
123	0xbe1965eb	-0.14980285
124	0xbd535d81	-0.051602844
125	0x3d94354c	0.07236728
126	0x3d8efe85	0.069821395
127	0x3d4a7bfd	0.04943465
128	0xbda6f3cc	-0.08151969
129	0x3e148208	0.14502728
130	0xbdd7924b	-0.1052595
131	0xbe37b5c7	-0.17940436
132	0xbd7a0a3f	-0.061044928
133	0x3d5dc7a2	0.054145463
134	0xbcdfd317	-0.027322335
135	0xbdead7f7	-0.11466973
136	0xbbbc57d7	-0.005747776
137	0xbe668ade	-0.22513911
138	0xbc9348c0	-0.017979026
139	0xbe19e739	-0.1502961
140	0x3db78802	0.08961488
141	0xbe1913da	-0.14948979
142	0x3d8da031	0.0691532
143	0xbbf26950	-0.007397808
144	0x3e03a70f	0.12856697
145	0xbd95d80a	-0.07316597
146	0x3d45da64	0.048303977
147	0xbc3b6db7	-0.011439732
148	0xbdd76eef	-0.10519206
149	0xbe3faa75	-0.18717368
150	0xbcefe467	-0.029283715
151	0x3e40188b	0.18759362
152	0x3cd64d02	0.026159767
153	0xbd26d9f6	-0.040735207
154	0xbe4ed941	-0.20200063
155	0xbdcd9177	-0.10037511
156	0xbe1ddbef	-0.1541593
157	0xbdc19e38	-0.09454006
158	0xbe1a589f	-0.15072869
159	0xbe18528d	-0.1487524
160	0xbb185543	-0.002324418
161	0x3d261fb5	0.040557582
162	0xbd310566	-0.04321804
163	0x3d898149	0.06714112
164	0x3d62807e	0.05529832
165	0xbdf14b4b	-0.11781939
166	0x3db848f0	0.08998287
167	0x3d9793a6	0.074012086
168	0xbd845be0	-0.06462836
169	0xbd561a91	-0.05227143
170	0x3c64eb35	0.013972093
171	0x3cab8a6d	0.02094003
172	0x3dcb377d	0.09922693
173	0x3d50b0d3	0.050949883
174	0xbd2a0802	-0.041511543
175	0xbd7212a3	-0.059099805
176	0xbcd2c007	-0.025726331
177	0xbde0bda2	-0.109736696
178	0xbd8ae187	-0.06781297
179	0x3ddbf770	0.10740554
180	0x3d045263	0.032305133
181	0xbe36d3f0	-0.17854285
182	0xbda86e19	-0.082241245
183	0x3d0c9b45	0.034327764
184	0x3d9ecca4	0.07753876
185	0x3d1f9b81	0.03896666
186	0x3ddf894c	0.10914859
187	0x3d095f26	0.033538006
188	0xbd56e009	-0.05245975
189	0x3ae93e85	0.0017795122
190	0xbc379057	-0.011203847
191	0xbe01f6cd	-0.12691803
192	0xbdafe447	-0.08588462
193	0xbd4c5115	-0.049882013
194	0xbd45f062	-0.04832495
195	0xbd03941c	-0.03212367
196	0xbc843f09	-0.016143339
197	0xbe39817b	-0.18115799
198	0x3d8adc85	0.06780342
199	0xba86abd7	-0.0010274601
200	0xbd0632bc	-0.032763228
201	0xbddaf5dd	-0.10691426
202	0x3d074b10	0.03303057
203	0x3cb703bc	0.022340648
204	0x3cce1853	0.025158083
205	0xbdffacbc	-0.12484118
206	0x3dc7e532	0.097605124
207	0x3d1e1d45	0.038602132
208	0x3d7dad95	0.06193312
209	0xbe0cbb28	-0.1374327
210	0xbdf38566	-0.11890678
211	0xbcf67c78	-0.030088648
212	0xbdad9de9	-0.084773846
213	0xbc5f8323	-0.013642105
214	0x3d0d290f	0.034462985
215	0x3de1fa25	0.110340394
216	0xbc28b253	-0.010296422
217	0xbcd72771	-0.026263924
218	0x3ccbc46c	0.024873935
219	0x3c95601d	0.018234307
220	0xbda8e52d	-0.08246837
221	0x3b39697c	0.0028291633
222	0x3d499128	0.049210697
223	0xbdbabb75	-0.09117786
224	0x3e14d92d	0.14535971
225	0xbe10296f	-0.14078306
226	0xbc41cd43	-0.011828723
227	0x3b7d92a8	0.003869215
228	0x3d413eff	0.04717922
229	0xbcd245e9	-0.025668101
230	0xbce11084	-0.027473696
231	0x3d62e022	0.05538953
232	0xbde122a7	-0.109929375
233	0xbbaa5456	-0.005198042
234	0x3cd95c14	0.026533164
235	0xbe387dbd	-0.18016715
236	0x3d134d90	0.03596264
237	0x3d838c7a	0.06423278
238	0x3dfe7fe3	0.12426736
239	0x3db40258	0.087895095
240	0xbdeef6d0	-0.116681695
241	0x3ce26636	0.027636629
242	0xbe1abbcc	-0.15110701
243	0x3e719b0e	0.23594305
244	0x3d831185	0.06399826
245	0x3d2dfa1a	0.042474844
246	0x3e454e7a	0.19268218
247	0x3d00a0ff	0.031403538
248	0x3da9a215	0.08282868
249	0xbe1443c4	-0.14478976
250	0x3d72e930	0.059304416
251	0xbded04d7	-0.11573189
252	0xbdca5b4f	-0.09880697
253	0xbc25957e	-0.0101064425
254	0xbdaeb7c9	-0.08531148
255	0x3d23373e	0.039847605
