a_output_actual/dig-s3-q.tflite (tflite, 62224 bytes, 5 tensors)

sequential_3/conv2d_9/Conv2D i1 [32, 3, 3, 3]
000000 1f 1b fd 1e d2 4b ba 01 07 2b 7f 00 46 e5 0b ca
       31 27 -3 30 -46 75 -70 1 7 43 127 0 70 -27 11 -54
000010 ac ad 26 41 42 d3 b7 0b d8 b5 f5 e4 fa 61 07 e9
       -84 -83 38 65 66 -45 -73 11 -40 -75 -11 -28 -6 97 7 -23
000020 ed 92 96 b2 6a 2c 3c 13 3c ae b8 81 23 48 6a 03
       -19 -110 -106 -78 106 44 60 19 60 -82 -72 -127 35 72 106 3
000030 4a 2d 25 af 1b cf 10 48 51 1c 7f 25 eb bc b9 bb
       74 45 37 -81 27 -49 16 72 81 28 127 37 -21 -68 -71 -69
000040 00 0b 38 f8 fe d5 e3 ad c7 39 4e 3a e8 9b 2b d8
       0 11 56 -8 -2 -43 -29 -83 -57 57 78 58 -24 -101 43 -40
000050 c3 03 7f 63 2f f7 db f1 a3 a0 2e 05 40 b7 04 ff
       -61 3 127 99 47 -9 -37 -15 -93 -96 46 5 64 -73 4 -1
000060 01 b5 f4 e3 22 0c d9 ea dd 3a 27 fb bc 0f e1 3f
       1 -75 -12 -29 34 12 -39 -22 -35 58 39 -5 -68 15 -31 63
000070 55 59 22 73 7f b2 c6 b0 c6 d0 dc 38 fc f3 d2 dd
       85 89 34 115 127 -78 -58 -80 -58 -48 -36 56 -4 -13 -46 -35
000080 d1 f0 c9 ca 03 f1 c3 1b be 1e 53 70 69 4b 6b 7f
       -47 -16 -55 -54 3 -15 -61 27 -66 30 83 112 105 75 107 127
000090 17 ca de b6 df 93 b6 9b a0 25 14 0b 1b bb 4c df
       23 -54 -34 -74 -33 -109 -74 -101 -96 37 20 11 27 -69 76 -33
0000a0 d7 cb 06 e0 18 c3 7f 56 21 5a 21 4e 0e aa 18 2b
       -41 -53 6 -32 24 -61 127 86 33 90 33 78 14 -86 24 43
0000b0 a4 42 1b 14 d3 eb 1f ce af be c1 9f eb fa 0b 13
       -92 66 27 20 -45 -21 31 -50 -81 -66 -63 -97 -21 -6 11 19
0000c0 af 01 82 b7 a1 ec 7e 7c 20 d7 3e c0 07 f9 c7 44
       -81 1 -126 -73 -95 -20 126 124 32 -41 62 -64 7 -7 -57 68
0000d0 38 7f f2 4a 2c d2 f8 43 42 51 2c 32 11 5c bf e9
       56 127 -14 74 44 -46 -8 67 66 81 44 50 17 92 -65 -23
0000e0 1a 1c 38 6a 81 aa f8 f6 e2 81 23 af 18 ac 99 95
       26 28 56 106 -127 -86 -8 -10 -30 -127 35 -81 24 -84 -103 -107
0000f0 33 34 1c d8 38 14 08 81 d4 d4 c5 d1 f0 a5 e6 ea
       51 52 28 -40 56 20 8 -127 -44 -44 -59 -47 -16 -91 -26 -22

sequential_3/conv2d_10/Conv2D i1 [32, 3, 3, 32]
000000 37 62 0a 2c f1 05 01 3f 28 cf 28 ec 13 3c 04 d9
       55 98 10 44 -15 5 1 63 40 -49 40 -20 19 60 4 -39
000010 f6 ff 06 12 1e e2 02 d9 32 0d ff ed 2d e5 0a 29
       -10 -1 6 18 30 -30 2 -39 50 13 -1 -19 45 -27 10 41
000020 36 5a 08 42 e2 d1 02 f2 0e fb f3 0f 1e d9 38 1f
       54 90 8 66 -30 -47 2 -14 14 -5 -13 15 30 -39 56 31
000030 2d 2c 23 1a ba 08 1a 92 b7 cf 33 4f 37 f0 36 e9
       45 44 35 26 -70 8 26 -110 -73 -49 51 79 55 -16 54 -23
000040 58 19 f7 27 24 52 17 f4 13 28 af a0 e6 f5 e8 e2
       88 25 -9 39 36 82 23 -12 19 40 -81 -96 -26 -11 -24 -30
000050 d0 d3 d5 33 12 05 29 4c f1 c3 47 ec 05 be 31 0c
       -48 -45 -43 51 18 5 41 76 -15 -61 71 -20 5 -66 49 12
000060 05 34 c7 b0 38 43 f8 22 f5 f4 f7 d2 cb 09 ae c1
       5 52 -57 -80 56 67 -8 34 -11 -12 -9 -46 -53 9 -82 -63
000070 ab d7 e3 17 f7 51 18 57 56 19 dc 16 38 e1 06 25
       -85 -41 -29 23 -9 81 24 87 86 25 -36 22 56 -31 6 37
000080 01 60 f1 25 23 c5 d3 06 e4 c8 24 15 14 d6 1b f2
       1 96 -15 37 35 -59 -45 6 -28 -56 36 21 20 -42 27 -14
000090 1f 2e e4 05 e3 1f 19 02 82 b9 20 1d 8d e2 f0 35
       31 46 -28 5 -29 31 25 2 -126 -71 32 29 -115 -30 -16 53
0000a0 7f 28 66 7a 19 15 c0 11 5c f4 e9 d6 59 22 14 12
       127 40 102 122 25 21 -64 17 92 -12 -23 -42 89 34 20 18
0000b0 c5 03 32 36 f7 9b 2f e7 c7 da 21 14 0b 00 28 ef
       -59 3 50 54 -9 -101 47 -25 -57 -38 33 20 11 0 40 -17
0000c0 19 05 ee fe 1a e4 d9 11 c4 15 fe 1f f0 2d ea e2
       25 5 -18 -2 26 -28 -39 17 -60 21 -2 31 -16 45 -22 -30
0000d0 d2 dd bd a7 36 47 c9 13 de d0 df ae bc 47 c5 42
       -46 -35 -67 -89 54 71 -55 19 -34 -48 -33 -82 -68 71 -59 66
0000e0 37 3d 1c 07 e4 a6 dc 0f ae dd e6 14 50 05 e3 a5
       55 61 28 7 -28 -90 -36 15 -82 -35 -26 20 80 5 -29 -91
0000f0 e2 e5 1a dc b0 49 bb 0d d9 f2 1e ce b2 07 3c 13
       -30 -27 26 -36 -80 73 -69 13 -39 -14 30 -50 -78 7 60 19

sequential_3/conv2d_11/Conv2D i1 [32, 3, 3, 32]
000000 06 0a e6 fd 3c f9 1b c1 22 0d 30 19 dd 20 26 f7
       6 10 -26 -3 60 -7 27 -63 34 13 48 25 -35 32 38 -9
000010 2d 12 0f 06 15 13 17 e2 0c 18 ee f3 22 25 f3 0b
       45 18 15 6 21 19 23 -30 12 24 -18 -13 34 37 -13 11
000020 12 1c f3 ed d6 d2 eb e3 e3 f6 c7 d7 fe 35 d7 23
       18 28 -13 -19 -42 -46 -21 -29 -29 -10 -57 -41 -2 53 -41 35
000030 b6 f7 1c 12 dc e2 f7 e5 66 ee ed ac d2 e2 d4 a1
       -74 -9 28 18 -36 -30 -9 -27 102 -18 -19 -84 -46 -30 -44 -95
000040 1f 30 1d cc ec f4 f1 00 16 00 f8 e7 f1 25 08 69
       31 48 29 -52 -20 -12 -15 0 22 0 -8 -25 -15 37 8 105
000050 e7 f5 0f fd 1a 2c 05 24 1e fa fe 02 3c fb f3 c8
       -25 -11 15 -3 26 44 5 36 30 -6 -2 2 60 -5 -13 -56
000060 0c 02 f1 d5 f8 00 04 f0 c0 12 d9 f2 d9 d5 27 f0
       12 2 -15 -43 -8 0 4 -16 -64 18 -39 -14 -39 -43 39 -16
000070 16 06 d5 da e0 d4 1e 04 b3 dc e5 ad fc 12 0b 0f
       22 6 -43 -38 -32 -44 30 4 -77 -36 -27 -83 -4 18 11 15
000080 d7 44 e4 d6 e2 21 d6 d8 f2 8f f9 e1 33 b7 0f ea
       -41 68 -28 -42 -30 33 -42 -40 -14 -113 -7 -31 51 -73 15 -22
000090 3d c9 f9 d7 d7 b7 f6 5f 19 e9 c3 f6 bd d4 ac ad
       61 -55 -7 -41 -41 -73 -10 95 25 -23 -61 -10 -67 -44 -84 -83
0000a0 05 02 f0 18 f2 e4 19 18 e9 d3 e8 01 48 fb f5 10
       5 2 -16 24 -14 -28 25 24 -23 -45 -24 1 72 -5 -11 16
0000b0 01 d8 ec 25 1b d2 da 21 1b 1b 49 1f d3 fe 18 b7
       1 -40 -20 37 27 -46 -38 33 27 27 73 31 -45 -2 24 -73
0000c0 de fe e2 0c 00 ae 05 0e 1d e3 1e f1 04 b8 1b 14
       -34 -2 -30 12 0 -82 5 14 29 -29 30 -15 4 -72 27 20
0000d0 22 cc cd e4 dc ea fa 33 f2 1c 0d 02 11 f0 f6 e1
       34 -52 -51 -28 -36 -22 -6 51 -14 28 13 2 17 -16 -10 -31
0000e0 06 b9 ff 18 ec c4 ee 2d d8 eb 08 d8 20 ff 2f 43
       6 -71 -1 24 -20 -60 -18 45 -40 -21 8 -40 32 -1 47 67
0000f0 d4 ea e0 7f 0a f0 37 17 24 d3 30 ea e3 de da e9
       -44 -22 -32 127 10 -16 55 23 36 -45 48 -22 -29 -34 -38 -23

sequential_3/dense_6/MatMul i1 [128, 256] scale=0.004170795 zero_point=0
000000 f1 01 13 2d e3 ea 1d 0e 36 e0 e8 ec 32 eb f7 fd
       -0.06256192 0.004170795 0.079245105 0.18768577 -0.12095305 -0.09175749 0.12095305 0.05839113 0.22522293 -0.13346544 -0.10009908 -0.083415896 0.20853975 -0.08758669 -0.037537154 -0.012512385
000010 ea ea f7 0c fd fc 03 d4 0b 27 f3 f3 13 1c dc d8
       -0.09175749 -0.09175749 -0.037537154 0.05004954 -0.012512385 -0.01668318 0.012512385 -0.18351498 0.045878746 0.162661 -0.054220334 -0.054220334 0.079245105 0.11678226 -0.15014862 -0.16683179
000020 f6 d7 00 12 fc 16 0e ed 05 0b ec 0a 26 0c 08 0e
       -0.041707948 -0.1710026 0.0 0.07507431 -0.01668318 0.09175749 0.05839113 -0.079245105 0.020853974 0.045878746 -0.083415896 0.041707948 0.15849021 0.05004954 0.03336636 0.05839113
000030 fa ef 10 01 18 eb 0b 15 06 06 0c 1c 1b f3 38 04
       -0.02502477 -0.07090352 0.06673272 0.004170795 0.10009908 -0.08758669 0.045878746 0.08758669 0.02502477 0.02502477 0.05004954 0.11678226 0.112611465 -0.054220334 0.23356453 0.01668318
000040 3d f4 1d 29 f4 39 ee f6 f6 2c 09 03 fd ff c9 e3
       0.2544185 -0.05004954 0.12095305 0.1710026 -0.05004954 0.23773532 -0.07507431 -0.041707948 -0.041707948 0.18351498 0.037537154 0.012512385 -0.012512385 -0.004170795 -0.22939372 -0.12095305
000050 0d fc 14 2f e4 e2 19 06 d6 16 15 36 11 4c c9 f9
       0.054220334 -0.01668318 0.083415896 0.19602737 -0.11678226 -0.12512384 0.10426988 0.02502477 -0.17517339 0.09175749 0.08758669 0.22522293 0.07090352 0.31698042 -0.22939372 -0.029195566
000060 f6 f9 21 5c d3 1c 2c 0f f8 15 ea f6 22 ef 11 e7
       -0.041707948 -0.029195566 0.13763623 0.38371313 -0.18768577 0.11678226 0.18351498 0.06256192 -0.03336636 0.08758669 -0.09175749 -0.041707948 0.14180703 -0.07090352 0.07090352 -0.10426988
000070 21 f1 df ed eb 01 e7 18 08 fc 16 e9 fc f5 45 0c
       0.13763623 -0.06256192 -0.13763623 -0.079245105 -0.08758669 0.004170795 -0.10426988 0.10009908 0.03336636 -0.01668318 0.09175749 -0.09592828 -0.01668318 -0.045878746 0.28778484 0.05004954
000080 db 08 e8 d2 1c 10 ec 2a 12 13 fb 24 21 05 37 26
       -0.15431942 0.03336636 -0.10009908 -0.19185656 0.11678226 0.06673272 -0.083415896 0.17517339 0.07507431 0.079245105 -0.020853974 0.15014862 0.13763623 0.020853974 0.22939372 0.15849021
000090 0c 2c 20 10 3b 0d 38 e0 2d 11 fb 01 f8 cf ff 18
       0.05004954 0.18351498 0.13346544 0.06673272 0.2460769 0.054220334 0.23356453 -0.13346544 0.18768577 0.07090352 -0.020853974 0.004170795 -0.03336636 -0.20436895 -0.004170795 0.10009908
0000a0 ed 07 10 dc f8 31 0d 17 fe e2 00 d2 f8 41 f7 fa
       -0.079245105 0.029195566 0.06673272 -0.15014862 -0.03336636 0.20436895 0.054220334 0.09592828 -0.00834159 -0.12512384 0.0 -0.19185656 -0.03336636 0.27110168 -0.037537154 -0.02502477
0000b0 09 18 27 12 06 0a e6 d2 1e 13 00 e4 eb 14 13 00
       0.037537154 0.10009908 0.162661 0.07507431 0.02502477 0.041707948 -0.10844067 -0.19185656 0.12512384 0.079245105 0.0 -0.11678226 -0.08758669 0.083415896 0.079245105 0.0
0000c0 f6 17 09 d9 11 06 1d 10 f0 d4 12 33 04 f5 ec ee
       -0.041707948 0.09592828 0.037537154 -0.162661 0.07090352 0.02502477 0.12095305 0.06673272 -0.06673272 -0.18351498 0.07507431 0.21271054 0.01668318 -0.045878746 -0.083415896 -0.07507431
0000d0 1b 2c fe 0d 0a 14 26 08 e4 02 eb fd 09 07 d9 e7
       0.112611465 0.18351498 -0.00834159 0.054220334 0.041707948 0.083415896 0.15849021 0.03336636 -0.11678226 0.00834159 -0.08758669 -0.012512385 0.037537154 0.029195566 -0.162661 -0.10426988
0000e0 e6 1c 09 e2 12 19 2a f8 ed 21 1d 05 f9 09 26 2e
       -0.10844067 0.11678226 0.037537154 -0.12512384 0.07507431 0.10426988 0.17517339 -0.03336636 -0.079245105 0.13763623 0.12095305 0.020853974 -0.029195566 0.037537154 0.15849021 0.19185656
0000f0 0c 0f f0 16 ef 10 f0 f1 eb 0e e8 e9 04 01 0a 18
       0.05004954 0.06256192 -0.06673272 0.09175749 -0.07090352 0.06673272 -0.06673272 -0.06256192 -0.08758669 0.05839113 -0.10009908 -0.09592828 0.01668318 0.004170795 0.041707948 0.10009908

sequential_3/dense_7/MatMul i1 [11, 128] scale=0.0061556646 zero_point=0
000000 fb c2 c5 d3 c1 d9 a5 f5 b8 b2 0b 02 b4 f9 b4 03
       -0.030778322 -0.3816512 -0.3631842 -0.2770049 -0.38780686 -0.24007092 -0.56016546 -0.06771231 -0.44320786 -0.48014185 0.06771231 0.012311329 -0.4678305 -0.04308965 -0.4678305 0.018466994
000010 c2 bf b9 a6 9c b0 0d dd d9 cc fc e3 ca 05 e6 bd
       -0.3816512 -0.4001182 -0.4370522 -0.5540098 -0.61556643 -0.49245316 0.08002364 -0.21544826 -0.24007092 -0.32009456 -0.024622658 -0.17851427 -0.3324059 0.030778322 -0.16004728 -0.4124295
000020 f4 00 e1 d5 e2 d6 f1 b2 e6 f7 dc d0 02 ff f6 cb
       -0.07386798 0.0 -0.1908256 -0.2646936 -0.18466994 -0.25853792 -0.09233497 -0.48014185 -0.16004728 -0.055400982 -0.22160393 -0.2954719 0.012311329 -0.0061556646 -0.061556645 -0.32625023
000030 9d cc a5 09 cb ee b4 ec 01 af dd 25 f8 b3 b0 c8
       -0.60941076 -0.32009456 -0.56016546 0.055400982 -0.32625023 -0.110801965 -0.4678305 -0.12311329 0.0061556646 -0.49860883 -0.21544826 0.22775958 -0.049245317 -0.47398618 -0.49245316 -0.3447172
000040 18 06 f1 a6 c8 c5 d6 9c fd d8 ed f6 d4 d1 f8 ef
       0.14773595 0.03693399 -0.09233497 -0.5540098 -0.3447172 -0.3631842 -0.25853792 -0.61556643 -0.018466994 -0.24622658 -0.11695763 -0.061556645 -0.27084923 -0.28931624 -0.049245317 -0.104646295
000050 ed e9 fc f5 af b7 01 e2 e4 ea 06 e0 b8 0e 0e b3
       -0.11695763 -0.14158028 -0.024622658 -0.06771231 -0.49860883 -0.4493635 0.0061556646 -0.18466994 -0.1723586 -0.13542461 0.03693399 -0.19698127 -0.44320786 0.0861793 0.0861793 -0.47398618
000060 c6 f5 b8 f4 d3 ef 1c 18 ed 9c d3 e2 f0 c0 0d 0f
       -0.35702854 -0.06771231 -0.44320786 -0.07386798 -0.2770049 -0.104646295 0.1723586 0.14773595 -0.11695763 -0.61556643 -0.2770049 -0.18466994 -0.09849063 -0.39396253 0.08002364 0.09233497
000070 ef 10 d3 d4 d5 de d3 da c6 e8 fd ed bb b2 cd cc
       -0.104646295 0.09849063 -0.2770049 -0.27084923 -0.2646936 -0.20929259 -0.2770049 -0.23391525 -0.35702854 -0.14773595 -0.018466994 -0.11695763 -0.42474085 -0.48014185 -0.3139389 -0.32009456
000080 f1 0d ef cf fe 16 cc f1 c1 0d d7 ed 2e fa d6 c2
       -0.09233497 0.08002364 -0.104646295 -0.30162758 -0.012311329 0.13542461 -0.32009456 -0.09233497 -0.38780686 0.08002364 -0.25238225 -0.11695763 0.28316057 -0.03693399 -0.25853792 -0.3816512
000090 ff a3 f7 c5 e5 10 d1 19 d4 df c0 f8 de e0 d7 e5
       -0.0061556646 -0.5724768 -0.055400982 -0.3631842 -0.16620295 0.09849063 -0.28931624 0.15389161 -0.27084923 -0.20313694 -0.39396253 -0.049245317 -0.20929259 -0.19698127 -0.25238225 -0.16620295
0000a0 c4 fd b6 f9 cc ab bf be 16 dd c9 dc b9 fa d0 04
       -0.36933988 -0.018466994 -0.45551917 -0.04308965 -0.32009456 -0.5232315 -0.4001182 -0.40627387 0.13542461 -0.21544826 -0.33856156 -0.22160393 -0.4370522 -0.03693399 -0.2954719 0.024622658
0000b0 b1 d4 cb ef c3 14 cb ac eb f0 c0 12 eb f2 ed f9
       -0.4862975 -0.27084923 -0.32625023 -0.104646295 -0.37549555 0.12311329 -0.32625023 -0.51707584 -0.12926896 -0.09849063 -0.39396253 0.110801965 -0.12926896 -0.0861793 -0.11695763 -0.04308965
0000c0 eb 0e ec e0 da a3 c3 fc df e8 fe d3 0e b7 f9 d8
       -0.12926896 0.0861793 -0.12311329 -0.19698127 -0.23391525 -0.5724768 -0.37549555 -0.024622658 -0.20313694 -0.14773595 -0.012311329 -0.2770049 0.0861793 -0.4493635 -0.04308965 -0.24622658
0000d0 04 f0 ad 1d 0f fd f9 bf f0 e0 e7 f0 cc e1 e3 04
       0.024622658 -0.09849063 -0.51092017 0.17851427 0.09233497 -0.018466994 -0.04308965 -0.4001182 -0.09849063 -0.19698127 -0.15389161 -0.09849063 -0.32009456 -0.1908256 -0.17851427 0.024622658
0000e0 cc 23 21 ab fd 06 bf fe 13 f3 ad fd d9 c1 f7 d1
       -0.32009456 0.21544826 0.20313694 -0.5232315 -0.018466994 0.03693399 -0.4001182 -0.012311329 0.11695763 -0.08002364 -0.51092017 -0.018466994 -0.24007092 -0.38780686 -0.055400982 -0.28931624
0000f0 dc fb e7 c9 cf df ba b3 cd ee d5 bf c5 eb af f3
       -0.22160393 -0.030778322 -0.15389161 -0.33856156 -0.30162758 -0.20313694 -0.43089652 -0.47398618 -0.3139389 -0.110801965 -0.2646936 -0.4001182 -0.3631842 -0.12926896 -0.49860883 -0.08002364
